Code/Models_Reg/run_20251103_203959/model_overfitting_l1_1.0e-01_l2_1.3e-05.npz (npz, 54886 bytes, 6 tensors)

w0 f8 [2, 40]
0	0xbfed83833dbccbf1	-0.9223037916002551
1	0x3fee62131b7b4869	0.9494720017194257
2	0xbfc6b0200280fdc5	-0.17724990961322198
3	0x3fe3ced46e3a8baa	0.6189977791694805
4	0xbfbf0ab3aede2a42	-0.12125704783662974
5	0xbfda485eeab858aa	-0.4106671611965661
6	0xbfd75b5c389ddd3b	-0.36495118645639807
7	0xbfc66cdecb7d157f	-0.175197457656548
8	0xbfd3dbdbe9523f19	-0.31029413018494406
9	0xbfe0a904b1423caa	-0.5206321203312616
10	0x3fcd03e9eb2f76ea	0.2266819380155803
11	0xbff0e7b80c2f83a9	-1.0565720058441264
12	0xbfd6b137d1ca1932	-0.35456653105974845
13	0xbfcea2eaa8b9e5da	-0.23934682119924738
14	0xbfde7ed0e2950f48	-0.476490231773131
15	0xbfe5c933c114b685	-0.6808108111487888
16	0x3fe31da67fa0dfdb	0.5973694317572112
17	0x3fe7196fea32c5c2	0.721855122965444
18	0xbfa37fc58b0123c8	-0.03808419534522717
19	0x3fee14e765613fd1	0.9400517444682867
20	0xbfc3a92279a06c82	-0.1535990804557948
21	0x3fd4e15a4d29d5c4	0.3262544396924023
22	0xbfd4f98be1137524	-0.32773110370711067
23	0x3feb0ecc2394c202	0.8455563254302094
24	0x3fd5059c774a7787	0.32846748017788524
25	0xbfb6b033decba82d	-0.08862613858551134
26	0x3fcd1c9b595033fc	0.22743551121712346
27	0xbf7ea80a4c15c5c8	-0.00748447439524242
28	0xbff38242e3c7b4f0	-1.2193020723018968
29	0xbfef0827113b95f5	-0.969745191247681
30	0xbfde3712b6b023aa	-0.4721113952696735
31	0x3fe037ef69ba38be	0.506828028200992
32	0xbfe99ecc5687b8f3	-0.8006345453302671
33	0x3fd88c5d374d4dfa	0.38356714630683053
34	0xbfe9ea6095a94b5d	-0.8098605082580935
35	0xbfb30a26bd6c2741	-0.074373646970483
36	0xbfdfa0949d994b23	-0.49417605772502976
37	0xbfd0c87346ab4a14	-0.262234515202324
38	0xbfe4ed60619bded5	-0.6539766222403737
39	0x3fe73010777aa7d3	0.7246172269417407
40	0xbf23056b45c938e8	-0.00014511999588013376
41	0xbf3abf0fb51d11b4	-0.0004081166599585698
42	0xbf3b9db868282932	-0.00042138816948579787
43	0x3f3bb38e8b317868	0.00042268972464921126
44	0xbf2bf7d8718f740c	-0.00021338002332430028
45	0x3f3aae1dc35ba989	0.0004071066535817005
46	0xbf3acaf98715a33d	-0.00040882675155855583
47	0xbf3b947c0c81271c	-0.00042083767448685013
48	0xbf3ab26c9d668bfa	-0.0004073634312595217
49	0x3f3cafc2751431fc	0.00043772218221319026
50	0xbf2b5de9990b766c	-0.00020879246269249767
51	0x3f2b48fcf534b394	0.00020816886772348205
52	0x3f2b442d7110ba96	0.00020802550037176255
53	0xbf3ba8e116d8d2d9	-0.00042205329268378344
54	0xbf3ab11fb511e974	-0.0004072859201823744
55	0x3f2caa6fae2985c5	0.0002187024429814289
56	0xbf2b5c7181ddfc41	-0.0002087486799915179
57	0x3f2b0fb10753251b	0.00020646129602245534
58	0xbf3ac9214416e6ce	-0.0004087167945630966
59	0xbf3abd36201724f9	-0.0004080063955283621
60	0xbf2af7eeab15c0c9	-0.00020575321608929376
61	0x3f3b83229daa1190	0.00041980357278983364
62	0x3f2ce6b2b7b26608	0.00022049838648711983
63	0x3f2aefb7ed44fbfc	0.00020550842476471643
64	0xbf3ba7d15b19e566	-0.00042199002482553314
65	0x3f3b9f697bce69cd	0.0004214890030255464
66	0x3f2b0d006b05ac9c	0.00020638113120283609
67	0xbf2cbe77aed08cde	-0.00021929942104845825
68	0xbf2d0f7db0e497e6	-0.00022171410859889092
69	0x3f3acc2a26d36f43	0.00040889767735817847
70	0x3f3aa8699f0f1cd4	0.00040676668782819764
71	0x3f2d038478e90a06	0.00022135727017953704
72	0xbf3ba5f8f0b33968	-0.00042188003199052646
73	0xbf3b7c3c251a1c90	-0.0004193922842223386
74	0xbf3b8a3bcb33d08a	-0.0004202266674859864
75	0xbf2af1cce2896a62	-0.00020557046925058763
76	0xbf3ab1f3a5ca19b2	-0.0004073352663812826
77	0xbf3ab7da1df368d3	-0.00040768694993932353
78	0xbf2cc378b9883104	-0.00021944855394940438
79	0x3f3bb364aea61399	0.00042267997800876086

w1 f8 [41, 40]
0	0x3fe12eff33aef7f3	0.5369869241183082
1	0x3fb3909b9c2fba94	0.0764252907099297
2	0x3fcb77f14bc085fc	0.21459785651045127
3	0xbfd92e54242ce071	-0.3934526780390178
4	0xbfd8168f309ac9f9	-0.37637691256091405
5	0xbfd112d797abc129	-0.26677503406155495
6	0x3fdc111c271949ed	0.4385443097900453
7	0xbfe225e2a3aef996	-0.5671246716445235
8	0xbfdb8e76509d1015	-0.43057020065703117
9	0x3fc0f4494acf0cee	0.13245502617619515
10	0xbfe742e8aad288e0	-0.7269175850272198
11	0xbfd9738f35d527cc	-0.397678186961113
12	0xbfd39fdb7c19fb83	-0.30663191909109616
13	0xbfc2bb4d0a7e8db2	-0.14634097111148275
14	0xbfbc5f2a3352a1ee	-0.11082710030553475
15	0xbfbb5841f728b1d8	-0.106815455285591
16	0xbfdcc226cbdaacb6	-0.44935007007252226
17	0xbff587f5c6e66a62	-1.3456933755429863
18	0x3fdf4c4fee81663a	0.4890327290682738
19	0xbfd227571394400d	-0.28365113174459183
20	0xbfea67b513fa9afb	-0.8251595869267868
21	0xbfeb566b4e190f91	-0.8542992139195907
22	0xbfe025c2c4bb2150	-0.5046094744111915
23	0xbf9ead47f3f4c4f5	-0.0299578898095136
24	0xbfc05a9feb571c9c	-0.12776564589714645
25	0x3fd09e4ca483a10b	0.25966182771527774
26	0xbfe03b1575a098e0	-0.5072123811158029
27	0xbfdc4e2f4bf88b0c	-0.4422720186141056
28	0x3fef9093ae2e9f5f	0.9863985445017355
29	0xbfc0f2af635f4cd6	-0.13240616180573878
30	0x3ff025753bbfba06	1.0091450056021372
31	0x3fc5979b547ddcc9	0.16868917108124595
32	0xbfc701281c884d68	-0.17972279923615564
33	0x3ff22382bcfdc804	1.133669603583713
34	0xbf9fd9aa16a78396	-0.031103761322700395
35	0xbfd8f44503798aac	-0.3899090322430918
36	0xbfe4cec5cd6a335f	-0.6502408039101332
37	0xbfeb49b9f97b30a0	-0.8527498123817345
38	0x3fdbe04869673bf7	0.4355641393021296
39	0x3fe278a3164af916	0.5772262034804807
40	0xbf3cc3648f067f51	-0.00043889241262639206
41	0xbf2cea2f766dba1b	-0.00022060231568894824
42	0x3f2c00be1ad56370	0.00021364517798863223
43	0x3f3ac99f5983aa09	0.00040874615070998814
44	0xbf3bac1536813270	-0.00042224424260409784
45	0x3f2cbcb26f338d0d	0.0002192466559797008
46	0xbf2b0cd7bc6adcaf	-0.00020637639518892223
47	0xbf3ad42bad4c402a	-0.00040937486964854003
48	0xbf19d9fc82b0fb8f	-9.861568166601011e-05
49	0x3f2cd0da9f57d720	0.00021984738093266346
50	0xbf2cceb7487f14a0	-0.00021978366225830926
51	0xbf034fed8cffa289	-3.683513352809471e-05
52	0x3f3ac67db0b8ee93	0.0004085594998490618
53	0x3f3acbed65cd062d	0.00040888353196430715
54	0x3f3aa9a542cd1266	0.00040684017840345585
55	0x3f2b3e9290d8a3e8	0.00020785845883722277
56	0xbf2b122962942d16	-0.00020653491200337747
57	0xbf2ca4a862b464c1	-0.0002185302304063327
58	0x3f3ab2ebe7b2b8de	0.0004073930683245029
59	0xbf2ee355f0918d72	-0.00023565696781977955
60	0x3f2d0228448d68fb	0.0002213167338379131
61	0x3f2ed6fbb99937ae	0.00023528883757467422
62	0x3f3cc0eeecd09632	0.00043874581462186306
63	0xbf3b8691d3933001	-0.00042000827995702933
64	0x3f2cf7b6283a8d5f	0.00022100542638723694
65	0xbf3cc45b9803506a	-0.00043894992996951784
66	0xbf2b5aceea53dbbc	-0.00020869994947478137
67	0x3f2ccb5ba156e003	0.00021968358548263297
68	0x3f3ad31522b92937	0.000409310016696768
69	0x3f2cf86469433f24	0.000221025712227257
70	0xbf2cd26debfa3d78	-0.00021989433115663834
71	0x3f336bd220cc14a1	0.00029634361344250444
72	0xbf2b4cb5539d2875	-0.0002082797380416644
73	0xbf2cacf0b4dd81a4	-0.00021877706825091964
74	0xbf2b38210badaa78	-0.00020766642941379468
75	0x3f404eb158202a7e	0.000497662156932435
76	0xbf2b235a75563187	-0.00020704726436483417
77	0xbf3aadf5e0f4a099	-0.00040709736727474185
78	0xbf2b4ffb3a09b020	-0.00020837728245071217
79	0x3f405646530c8b36	0.0004985659962567282
80	0x3f3ac407b0a10930	0.00040841281645866406
81	0x3f2ca6aca842b7e8	0.00021859033234278226
82	0xbf3ad947439ef298	-0.00040967931601779963
83	0xbf3abf16afa9edbf	-0.0004081182848165408
84	0x3f2b6de13e2fa25e	0.00020926832721037102
85	0x3f3ba60b7613488e	0.0004218843442461783
86	0xbf3ab634839aff24	-0.0004075887878620557
87	0xbf2b564df9fffa1e	-0.00020856572973566937
88	0xbf40587c71d45dc2	-0.0004988296165348504
89	0x3f2af5814904159c	0.000205680877577813
90	0xbf18cec6b7f02b78	-9.463394052048972e-05
91	0xbf0235333c8b9145	-3.472864734080592e-05
92	0x3f3ad18fedde1614	0.0004092193975043523
93	0x3f3b851368d80ecf	0.000419919241579897
94	0x3f3b2f461947fb7a	0.0004148050441300993
95	0xbf2b455a36c38e6d	-0.0002080605148712002
96	0x3f3b8dc75cc4e117	0.0004204379772718854
97	0x3f3ca4c079190dee	0.0004370660691146157
98	0x3f3ba82ee03e4091	0.0004220117991673512
99	0x3f2cccbe8df63ee2	0.00021972490411003356
100	0xbf2cec6d18e05060	-0.0002206690955409733
101	0x3f3ac3d2cc8d77fa	0.0004084005018308853
102	0x3f40633ff28d76a2	0.0005001127475272214
103	0xbf36af47c21ed764	-0.0003461408797379355
104	0x3f3b972ea9bff8ee	0.00042099847064481957
105	0xbf3b7cbb6cc416a2	-0.0004194219188920855
106	0x3f2f2b5d4a8821cc	0.0002378035908494738
107	0xbf2b2fed7ba71fe6	-0.00020742200815804175
108	0x3f3ab58bc7113c6d	0.00040754950083949395
109	0xbf2d096b0b2150df	-0.00022153312380857653
110	0x3f4064c944dc7574	0.0005002959021315604
111	0xbf3b29ac5b4e598e	-0.00041447122503637183
112	0x3f027a13daae9c62	3.524182405750181e-05
113	0xbf3b8ae40a351b7d	-0.0004202658403368793
114	0x3f2b2a43aee71d45	0.0002072532292471762
115	0x3f2b183995f3f0d4	0.0002067156119450799
116	0xbf3b2332703a06cb	-0.00041408521085637963
117	0xbf2af1b598dd427e	-0.00020556775819581882
118	0x3f2f250b4792c0d2	0.0002376152295133828
119	0xbf2b0cbcfe30588a	-0.00020637328188461242
120	0xbf3bab09f5794d1c	-0.0004221820176770351
121	0x3f2af8e0b8ce838c	0.00020578139483709253
122	0x3f3b9360ef4479cb	0.00042077175682378166
123	0x3f2cfd3bb730a682	0.00022116998624826042
124	0x3f3b98d4f1ce667e	0.0004210967907113185
125	0xbf2b55c6b08be512	-0.00020854998026446269
126	0x3f3b99090d4e9bac	0.0004211089229166308
127	0x3f3aca8f09e486c6	0.0004088019576490128
128	0x3f2b1093ccd3308f	0.0002064876956978695
129	0xbf22fb2c8167cdae	-0.00014481466560277212
130	0x3f3b880e49e51e77	0.0004200968632130717
131	0xbf3bac8722d355f7	-0.0004222707673993959
132	0xbf3b7efe78563b3c	-0.00041955673835840693
133	0x3f3aacefb4e83f66	0.0004070363255843562
134	0x3f2ce54ceb612805	0.00022045673330445284
135	0xbf3b9c6f8eeb6e65	-0.0004213116034585739
136	0x3f3abe0641183ead	0.0004080548543194767
137	0xbf3b9073fbea4a46	-0.00042059737817471234
138	0xbf3baa09e93f4986	-0.0004221224019122161
139	0x3f2ccf4b54a49376	0.00021980089724951316
140	0x3f3b9df8c0172d74	0.00042140315062218843
141	0x3f2cf17ae9cc0639	0.0002208197155582502
142	0x3f3ba33f1a0da651	0.0004217175538117945
143	0x3f2b2530514d04fc	0.0002071019631788919
144	0x3f3acccf6e8ec3ab	0.000408936159654034
145	0xbf2c130c97c740cd	-0.00021419075700502277
146	0xbf3ba4572facedfb	-0.00042178276605728233
147	0xbf3bac5ac5cc4221	-0.0004222604382429236
148	0xbf3ab88df53d01cb	-0.0004077288224273694
149	0x3f2f27bba89e93fa	0.00023769536738629788
150	0x3f3aa995594482c9	0.00040683647354637344
151	0xbf338e2660258e92	-0.00029838978675498465
152	0x3f2b09909cbb5f7a	0.0002062787083250103
153	0xbf2f1aaa7cff9fe2	-0.00023730593829829257
154	0xbf3acff25a062e3b	-0.0004091231039857511
155	0x3f3b9283622e83f4	0.0004207201729347625
156	0x3f3ad55fea3ebf6f	0.00040944663691799046
157	0xbf3ab357098f5c52	-0.0004074180120005644
158	0x3f3abfc1bc450629	0.00040815811032155147
159	0xbf2cab26a2cacb04	-0.00021872374181482895
160	0xbf2b54a407d4df2c	-0.0002085161430984637
161	0xbf3b2e441c66f0c2	-0.00041474497666250606
162	0xbf3b8e7a1118cece	-0.0004204795851336763
163	0xbf3b9f510ec6a52e	-0.00042148331592757853
164	0x3f3b907311a8c995	0.0004205971651202398
165	0x3f338521c2e6b6e6	0.00029785227061550205
166	0x3f3bac0800e68b53	0.0004222411670530741
167	0xbf2b1e018f5e5df5	-0.00020688790362720336
168	0x3f2b215f7f39df67	0.00020698824629383357
169	0xbf0273f8b17a8ad3	-3.519633008621449e-05
170	0x3f339586f69e360d	0.0002988295078630583
171	0x3f2cd0fce495ca61	0.00021985137054121847
172	0x3f2cd084c431922b	0.00021983738597265828
173	0x3f2d00c46c2b47dd	0.00022127530799892397
174	0x3f2d0c583e59a360	0.00022162034217678827
175	0x3f2d0d53b5304b4a	0.00022164961646405974
176	0x3f2c014bbce43c1d	0.00021366166624445316
177	0x3f3b98aeca6046b7	0.0004210879072853268
178	0x3f2cbd5272645a32	0.00021926528388212376
179	0x3f3b7e598e444139	0.00041951834124722174
180	0x3f3ba7b27f659ebd	0.00042198284008641477
181	0x3f4056ef0586d686	0.0004986445520020622
182	0xbf3abd51499f14bf	-0.0004080127197279674
183	0x3f3b8a8ca656f813	0.00042024549324171204
184	0xbf2b5cb59c508954	-0.00020875660826031683
185	0x3f3bb37bd14083ee	0.0004226853645850616
186	0xbf3ac562c868255a	-0.00040849363031777097
187	0x3f2b18e89739f0b2	0.00020673598520549102
188	0x3f3b2d5eb0c852c0	0.0004146915605656547
189	0x3f3b8b1034ba7e8b	0.00042027612355786313
190	0xbf3ba88522589039	-0.00042203188272283175
191	0xbf2b71edc98ca411	-0.00020938899685887848
192	0xbf406a6be962f1cf	-0.0005009676849776992
193	0x3f4067e12c678b9e	0.0005006646613846426
194	0xbf3bad13e6f6e646	-0.00042230354207681666
195	0x3f2bf912037dc126	0.0002134165276817059
196	0xbf2b365644259f70	-0.00020761302046001405
197	0xbf3acbf6763f58d2	-0.00040888564239817155
198	0xbf2b525d34caac19	-0.00020844829341135142
199	0x3f2b0605c0d1d347	0.0002061731360389013
200	0xbf3b827bd4f44b07	-0.00041976474035825033
201	0x3f2b5390ec36808a	0.0002084841163254618
202	0xbf404c8331d46736	-0.0004974022482741927
203	0xbf2cecb0be2e30be	-0.00022067697053918493
204	0xbf405cd72944987d	-0.00049934869688141
205	0xbf2b48359664f7c6	-0.00020814565795917848
206	0x3f3aade0977e56ef	0.0004070924110178694
207	0xbf2ca4f62afe9c2d	-0.00021853928546741852
208	0x3f2f2df85172cabc	0.00023788124301445622
209	0xbf3b85f531b06f41	-0.0004199718111423841
210	0x3f2b3dde04bc6d63	0.0002078374403645485
211	0xbf2c92a57e5773cb	-0.0002179934519252177
212	0xbf3b2dc8664c2b01	-0.00041471617287018597
213	0xbf03813b08c26450	-3.7202467042259644e-05
214	0xbf2c929b496bb458	-0.00021799226370636487
215	0x3f2f172631d70a2e	0.00023720113033050397
216	0xbf2b37a1bd6244ac	-0.00020765160906369617
217	0xbf2cc292a6017b30	-0.000219421769545891
218	0x3f3ac707170aa5a0	0.0004085914907060121
219	0x3f3b96ed7a61bfce	0.00042098329357198323
220	0xbf3ac68c4b48b894	-0.00040856290005109844
221	0x3f3b91cec359f997	0.00042067811896364646
222	0xbf2b3cf93cb14133	-0.00020781080670185525
223	0x3f2cf58a2ed5343f	0.00022094070247150215
224	0x3f3b2a47e34d1957	0.00041450743747297375
225	0x3f3b2b330e88af12	0.0004145621919941926
226	0xbf2ccb8ef45f7784	-0.0002196895604233384
227	0x3f18e697b284e64d	9.498883139693569e-05
228	0x3f3aa80bd11c7698	0.0004067448472698603
229	0xbf2ce67a21ed5e56	-0.00022049179912174655
230	0x3f2cd12389f44ffb	0.00021985586952466538
231	0xbf3ab01696997a99	-0.000407224192349101
232	0xbf3b7f6af56958f7	-0.0004195819978226734
233	0x3f3ad88ae008c60d	0.000409635453283292
234	0xbf3ad0850b800ab7	-0.000409157258673225
235	0x3f3ba4828e62bf4c	0.00042179286391340744
236	0x3f2cf80d3b4bb071	0.00022101556319087696
237	0x3f3aa3c0f7a94db7	0.0004064890014536487
238	0xbf3ba793de5751c5	-0.000421975708687652
239	0xbf3aa4ed67224cb1	-0.0004065589520305209
240	0xbf02e3edf46e1132	-3.6030482582413e-05
241	0xbf2b536190d867a4	-0.00020847860325617668
242	0x3f2cc4cb2ca51d04	0.0002194879546755028
243	0xbf2af3c6e347ddbc	-0.00020562937574174027
244	0xbf3bb1ddf6559974	-0.00042258900642479853
245	0x3f3aa41d500ecc78	0.00040651050226898173
246	0x3f3ab44726543eb2	0.0004074739175203664
247	0x3f023605b607661a	3.473477295630138e-05
248	0x3f3ad17475a28ad3	0.0004092130017260668
249	0xbf4063bb1976f596	-0.0005001700946462458
250	0xbf3ab02f20ac4796	-0.00040722990586161115
251	0x3f2b1b686b19b40c	0.00020681047094531257
252	0xbf3bac7e3e732933	-0.0004222686970477729
253	0x3f3b9fd660461652	0.0004215143565250201
254	0x3f3aa6a5503af748	0.000406661376682983
255	0xbf3ba0cf6738d98d	-0.0004215723376747242

w2 f8 [41, 40]
0	0xbfa6f13b0df254eb	-0.04480919404265101
1	0x3fdb69e07e00ced7	0.4283372145175525
2	0xbfd42719e3c3a392	-0.3148865436801823
3	0xbfc799083a72e64d	-0.18435767034479725
4	0xbfd9ae8c6aa69c93	-0.40127859511489666
5	0x3fe79ee1f3951606	0.7381448514431106
6	0xbfc6840fa91926de	-0.17590518719435172
7	0x3ff086119cf57877	1.0327316409307323
8	0xbff4bbe52a7c26ac	-1.2958728465622853
9	0xbfbea6937fc20abe	-0.11972925061312886
10	0xbfc0bdf0d135228a	-0.1307965299149781
11	0x3fd9371c9ea44d68	0.39398875706066017
12	0xbfccb014a546fc0a	-0.22412355489902352
13	0xbfca1b1977c7778b	-0.20395201061813525
14	0xbf95dd2c6591a266	-0.02135152215888283
15	0x3fbfb6ad609a8747	0.12388118370520572
16	0xbfe682106ffb2e58	-0.7033769786007253
17	0xbfc0037a3f018882	-0.12510612560715023
18	0xbfe194474774912a	-0.5493503947841749
19	0xbf9b1010dd14d8b4	-0.026428473943462108
20	0xbf9fdafce2911566	-0.031108809784446655
21	0xbfbebe2cb6f31721	-0.12008933512251165
22	0xbfcde67f31ad2168	-0.23359670568084856
23	0xbfe66a1c561fb5e0	-0.7004529649836364
24	0x3fde7a51c826d0cf	0.4762157873731327
25	0xbfe5274fdaf89923	-0.6610488201884305
26	0xbfda75ed4cb6a34f	-0.41344768992944564
27	0x3fd4a29cc43b6042	0.3224250713660731
28	0xbfcd15f648361062	-0.227232728251809
29	0x3ff543e5f6f57dd0	1.3290767332872413
30	0xbfdb8d09c1128232	-0.4304832826110526
31	0xbfc81854aac23284	-0.188242514970984
32	0xbf838f115b06da2f	-0.00955022391358992
33	0x3fd9b6e3ca9aefb8	0.40178770814577147
34	0xbfe72d720cc7210e	-0.724297547299132
35	0xbfedd1d87926fe6e	-0.9318659178024526
36	0x3fd19cfba14b46a1	0.2752064776551411
37	0xbf8f3a82ee2c2c9e	-0.015248320477914409
38	0xbfdda316ae5a8ff3	-0.46307913805708195
39	0xbfcf38218464560d	-0.24390047993135547
40	0xbf3cbc7b9bb427e1	-0.00043848054674866353
41	0xbf2caaf07eee302e	-0.00021871743907942012
42	0xbf2b4ddee483db1f	-0.00020831437928566732
43	0xbf2af2d43dfb44c0	-0.0002056011280644806
44	0xbf3c96fa540e2f16	-0.00043624507457516845
45	0xbf3b84b1819136f5	-0.000419896446662501
46	0xbf2b5c64900b6096	-0.00020874717303942931
47	0x3f339c2c3c8bc277	0.00029922561638698976
48	0xbf3ba17d5b56aef0	-0.0004216128393987736
49	0x3f2bfa64e2ab99e4	0.00021345597755058267
50	0xbf2b1817d23df0c9	-0.00020671168124042894
51	0xbf3ba5b28bbdfe8c	-0.0004218636420247688
52	0x3f2ced1236b6326f	0.00022068831763668052
53	0xbf41e98fab9c39c2	-0.0005466414943116548
54	0xbf2b5e6a9dc086c2	-0.0002088074824096367
55	0x3f2b578bb623a674	0.0002086027189485588
56	0x3f2cae6a83b506bb	0.0002188210508880429
57	0xbf2b435e08055994	-0.00020800135463145948
58	0x3f404bb2b181316e	0.0004973051573045459
59	0xbf2ce033262caeaa	-0.00022030472163102793
60	0xbf3ba0eaf9dbc97c	-0.0004215787574671987
61	0x3f2c07226f513c88	0.00021383567187391686
62	0x3f3b9b9653f6a915	0.0004212610255886079
63	0xbf2b4b036e328b51	-0.00020822922588078577
64	0x3f3ab4ac7ee1d1ab	0.0004074975139538815
65	0x3f3ba2fd359f8778	0.0004217022120639384
66	0xbf2af352af016623	-0.00020561584779237125
67	0xbf2cf02c81b01860	-0.00022078078549742346
68	0xbf2cb00fa340237e	-0.0002188700760828131
69	0xbf2b45df4f7cb695	-0.00020807600935184427
70	0x3f2b5c9800a44af6	0.00020875316142417833
71	0x3f3b8f65cbe4a149	0.00042053447022507136
72	0xbf36ba1b8c257312	-0.0003467862371929069
73	0xbf2b23fcc86d5fd8	-0.00020706616143217785
74	0x3f2b342a39179ef6	0.0002075482885139851
75	0xbf2d031629493bb1	-0.0002213444282852229
76	0xbf3aaa1f85a73f5f	-0.00040686864454374765
77	0xbf2cec8002ae3b09	-0.00022067129733868037
78	0x3f3b29b488d708e9	0.00041447312909438525
79	0x3f3aa9a5fe5bf0b5	0.0004068403489865356
80	0x3f3ba32c775b11cf	0.00042171321488762304
81	0xbf3b7d4ecee2235c	-0.0004194562342339414
82	0xbf2b10fb3d38333a	-0.00020649973758715153
83	0xbf2ced8a5dc31804	-0.00022070230523335576
84	0x3f3ad88d45633fcf	0.00040963601112497817
85	0xbf3ba9708a0141d9	-0.00042208669220136563
86	0xbf2c0d13e5426c5e	-0.0002140127932122896
87	0xbf2efc997400020e	-0.0002364098854741457
88	0x3f2b032860ec3db8	0.00020608775999918032
89	0x3f2cbdd1b1762a55	0.0002192800973087212
90	0xbf3c9d67f8a8562e	-0.0004366282306887706
91	0xbf3ba8270769179c	-0.0004220099721446936
92	0xbf2cb19a249a0a9a	-0.00021891600254172057
93	0x3f2b59e418157fdc	0.00020867261268175854
94	0x3f3cc788e3172570	0.00043913928956536893
95	0x3f2cb92ac6e16cc9	0.00021914145640065098
96	0x3f19fa57f718a017	9.909784218875593e-05
97	0xbf2b15b35aab6087	-0.00020664038068818702
98	0xbf3b8a4ad658fcb3	-0.0004202301700821462
99	0xbf3abcb826fe4c09	-0.0004079770651454489
100	0xbf3acd8b40d941b6	-0.00040897989024293467
101	0xbf3b2ab8f768fdfd	-0.0004145337656246971
102	0xbf3b9acc180c0656	-0.0004212139393048089
103	0x3f2cfe6f4260a1e1	0.00022120578904717607
104	0x3f2cbeda4129e77e	0.00021931089630183512
105	0x3f2b39e0c6d18910	0.00020771855216412298
106	0xbf2bf652b78fb651	-0.00021333465318156217
107	0x3f2cc144bdc73ee2	0.0002193828976388901
108	0xbf3ac8d0f3f9d694	-0.00040869809524877424
109	0xbf3ad3f20be6298a	-0.000409361451510514
110	0x3f036a9964affcc4	3.703384989960917e-05
111	0xbf36a555ef6c6e42	-0.00034554813412210697
112	0x3f3b7d4a92ed3add	0.0004194552483810907
113	0xbf2c02ee4983fcaa	-0.00021371039179738277
114	0x3f2b188b9cffb12b	0.0002067251612055757
115	0x3f3b8b4138c26a1a	0.000420287535925519
116	0x3f3bb0a6e7c338d3	0.00042251658284165916
117	0x3f3b86999afdb1da	0.0004200100911393702
118	0x3f2b031dc230626e	0.00020608652366218026
119	0xbf3b8140c478ec35	-0.00041969138371528446
120	0x3f3cc0bb112a3b62	0.0004387337404886863
121	0xbf2af11f2ee990f6	-0.00020555024771618636
122	0x3f3ab5cdf34dcf85	0.00040756490789494614
123	0x3f0230cf655516b0	3.469593927233944e-05
124	0x3f2c0cfc104566c6	0.0002140100188039921
125	0x3f3b2d6c0692cd1a	0.00041469466539041796
126	0xbf3aac3bb27ad69c	-0.00040699441386080905
127	0xbf2c040209aaf3c8	-0.00021374249339159283
128	0x3f3cac8f5a083519	0.00043753146931709144
129	0xbf3b8415f059f802	-0.00041986022583973004
130	0xbf2b4e3bae4a6bb8	-0.00020832518125221493
131	0x3f3aa64a57c69989	0.0004066401959569523
132	0xbf2cd96f09e7bcca	-0.00022010307743822725
133	0x3f3ad3217f57c45f	0.0004093128949014864
134	0x3f2cba9d3352fd5c	0.00021918457938417235
135	0x3f3ba85848e04b6d	0.0004220214403868803
136	0xbf3ba3c86ca31478	-0.00042174952671942363
137	0xbf2cd5a80e895006	-0.0002199905059280251
138	0x3f2b0e4124f17fee	0.0002064184686529908
139	0xbf3acb469a34e894	-0.0004088446969096129
140	0xbf2cf632bb7a574c	-0.0002209603242035403
141	0xbf3b97380b5b0704	-0.0004210006548924646
142	0xbf2b5c7b4873b8a5	-0.0002087498180353742
143	0xbf2b41fbbcdee06a	-0.00020796010943313913
144	0xbf3acf27bcfe4e05	-0.0004090759293770843
145	0x3f3b816f3a6bf5e0	0.00041970220119921624
146	0xbf2b4d5c8c25d03a	-0.0002082992051090098
147	0xbf3aaefd3c017f2c	-0.0004071586845437621
148	0xbf2eda2603cac2ec	-0.00023538316772466568
149	0xbf2cb8b6111464c1	-0.00021912786954983966
150	0x3f197522acb6c037	9.711288583136376e-05
151	0xbf2b4599b7dd4a39	-0.0002080679077445956
152	0xbf3aabf362eb4d57	-0.0004069775776944415
153	0x3f3b2f757e9eed37	0.00041481607933820406
154	0xbf3aaaf04dd2a5dc	-0.000406917255370757
155	0x3f3b81dc35de083d	0.0004197275755971652
156	0xbf3ab587d9f06628	-0.00040754858668065825
157	0x3f2b2949479816f7	0.00020722407843736638
158	0x3f41e9bd19d7eb6e	0.0005466626495825697
159	0x3f2afcb75ed667d0	0.00020589579018520524
160	0x3f2b06bcb465e33c	0.0002061944343940916
161	0x3f1976863955eeaf	9.71335815246842e-05
162	0x3f2c0248b2c4cd86	0.00021369111471756743
163	0x3f2cba69950387cd	0.00021917857021152982
164	0xbf3ad5b0c166eef2	-0.00040946545905361155
165	0xbf2b51070d4262c7	-0.00020840846139404663
166	0xbf2ce3dadc36edc5	-0.00022041365273915543
167	0x3f2b51ae9c01f67c	0.00020842796766722463
168	0xbf2b2d3d09766750	-0.00020734186248888087
169	0xbf2b201e5cec1ec0	-0.00020695086137600092
170	0xbf2ce043eafd8a77	-0.00022030667377766534
171	0x3f2b476690c54073	0.00020812155743011075
172	0xbf3ad22f0f14a83e	-0.0004092564477838934
173	0xbf2b47cfba13f042	-0.0002081337998233197
174	0x3f2cb4169f02b937	0.00021899009835153204
175	0x3f3ac0ef60d9438a	0.0004082283420290758
176	0xbf2b3dbe62d887f0	-0.00020783375787042325
177	0x3f3abe4dd4185dfa	0.00040807151899133166
178	0x3f2cd7c3f7be6829	0.00022005335983693697
179	0xbf3ac33e65407a6e	-0.0004083659489441453
180	0xbf4048d5af4be227	-0.0004969638235641825
181	0x3f36afbd872072db	0.00034616830009940946
182	0xbf3b834eb118b41c	-0.00041981383501160804
183	0xbf3abd65b8033993	-0.00040801747674104014
184	0xbf36b79830108fb3	-0.0003466364433413152
185	0xbf3b8523e4414ca9	-0.0004199230791119371
186	0xbf3ad160b3a6dcae	-0.00040920840151721205
187	0xbf3b7e01a295764b	-0.00041949787062898054
188	0x3f3b88ce4cdc1446	0.0004201415693930215
189	0x3f2cbaabf29c3010	0.00021918629618544782
190	0xbf3ab18befb11509	-0.000407311119208068
191	0x3f3ad5f0212c6241	0.00040948021448764324
192	0x3f3abf364358d1e8	0.0004081256368835538
193	0xbf2afab1e03a490a	-0.0002058355458883293
194	0x3f33a236b7de0a12	0.0002995856847222432
195	0xbf1a14ee921eeb88	-9.949403877744349e-05
196	0xbf2b11b2ff645523	-0.00020652112989042693
197	0xbf3cc73bf7222097	-0.0004391213798347142
198	0xbf2cf805afbbeb34	-0.00022101468481835476
199	0xbf3b9c6d1ccfe654	-0.00042131103401707904
200	0x3f2d030a7bb2ba6a	0.00022134306877804054
201	0xbf2cb7bf25f08c2f	-0.00021909912445136753
202	0x3f2c08b8d8808a3c	0.00021388298432707838
203	0x3f3c9b34f2e4ad6c	0.0004364971417937988
204	0x3f2b188996a38cfd	0.00020672492548277208
205	0xbf3ab514987fbccc	-0.00040752175163922817
206	0x3f2b483ed3119068	0.00020814673328850846
207	0x3f2cfc98abcd7fec	0.0002211510053724547
208	0x3f2cb6c19d4114c3	0.0002190696092176145
209	0x3f3ac1fd8d1c4421	0.00040829124655866923
210	0xbf3c97bb426fe703	-0.0004362899948656547
211	0x3f3ad4614b2a3de7	0.0004093873532519929
212	0x3f3aae1e3c9a767f	0.00040710676385367206
213	0xbf2d1caaa532aa1e	-0.0002221067721611272
214	0xbf3aa3c056e88f6b	-0.00040648885524973446
215	0x3f2d068186305942	0.00022144633393912134
216	0x3f3b8a13b6f06d46	0.0004202173358309368
217	0xbf2b51187e43b48c	-0.00020841049184331208
218	0x3f2cf9b4adf7132b	0.00022106485901764983
219	0xbf2afa7d8e8c17b4	-0.00020582945514763045
220	0xbf2cff3a14211ac2	-0.00022122940032628073
221	0x3f2b4c95faeaedba	0.00020827608883232184
222	0x3f3b2ade78cb8aed	0.00041454249803345064
223	0x3f3ad8a3f18db061	0.00040964128998300346
224	0x3f2b34ef33e153d9	0.0002075712199622038
225	0x3f2b071c64e3b894	0.00020620557410872388
226	0x3f337d5985d0054b	0.00029738841641354226
227	0xbf2b4244410144fd	-0.000207968551424055
228	0xbf3ad038c6e689b2	-0.00040913950115331187
229	0xbf2b26b63859341f	-0.000207147353807364
230	0x3f2b26ee944ca6e8	0.00020715391487984643
231	0x3f3b31b357236934	0.0004149496882185522
232	0xbf3b889b7fef7be4	-0.0004201297414833645
233	0x3f3b837fb42d57d9	0.0004198252465149578
234	0xbf3aa22fe8bacf85	-0.0004063956227853205
235	0xbf3ba732d9c939ef	-0.00042195311997242265
236	0xbf2ce41a2c96301e	-0.00022042102345343288
237	0x3f2b1f05cbef8af4	0.00020691819915360338
238	0xbf3aa77d76efd759	-0.0004067117033054089
239	0x3f2f0101b0542e68	0.00023654122939152926
240	0xbf2cb5e63e443a65	-0.00021904407106672626
241	0xbf2b3d2863c7049e	-0.00020781629599578728
242	0xbf41f1e41e17a818	-0.0005476344924180169
243	0xbf2cb9003671249e	-0.00021913650127406299
244	0x3f2bfed35a1ae888	0.00021358804683819046
245	0x3f032a192500dee8	3.6553280211069396e-05
246	0x3f3aac2005906a0d	0.00040698797016750014
247	0x3f2cc60b30a61f5c	0.00021952520939926945
248	0xbf2cee6c81ee3820	-0.00022072863154359943
249	0x3f2b321f987fbeaf	0.0002074874466866292
250	0xbf3b7f365197864a	-0.00041956974163612616
251	0x3f3b863b81b0923f	0.00041998818204750163
252	0x3f3aca2835284c05	0.0004087780154417578
253	0xbf3bae836d262893	-0.0004223891129632253
254	0xbf3ad468e6ceb580	-0.00040938912462248206
255	0x3f2b208bafaca58a	0.00020696358827735863

w3 f8 [41, 40]
0	0xbfe71f36142756f0	-0.7225599664331792
1	0x3fc8e6345a8a44cc	0.19452528401283187
2	0x3fdd39e78d618561	0.45665921026928485
3	0x3fd07fe8b157203d	0.25780694311515956
4	0x3fdccd94f7503173	0.450047723309374
5	0xbfee54fbab58526d	-0.9478739115316565
6	0x3fce59e84205921a	0.2371187517520788
7	0xbff07773a8fcfdd6	-1.0291630364516684
8	0x3fe0d93528e064f6	0.5265146063203747
9	0x3fd5bb1e730985b3	0.3395458339128609
10	0xbfc4e861ec2a2a6a	-0.16334175139884916
11	0x3fd91f950d051a7f	0.39255262633779603
12	0x3fd1646d03ceedec	0.2717545067968945
13	0xbfb87f35482b3aa8	-0.0956910420602336
14	0x3f918d8304a60484	0.017141387137148204
15	0x3fd0bbf4de385c6c	0.26147195531070255
16	0xbfc05de64800601c	-0.12786558643051726
17	0x3fd98a6c1b308193	0.3990736260912168
18	0xbfb9c57a8f0f84ce	-0.10066953652087138
19	0xbfcd38895749c999	-0.22828785669441912
20	0x3fd859501d45dab0	0.38045122965506106
21	0xbfaadfc7157450bf	-0.052488538140239786
22	0xbfe380e5884d7a28	-0.6094844495926894
23	0xbfbad1312ebca4c7	-0.10475451842343651
24	0xbfe52838c7051548	-0.6611598860842287
25	0xbfb1c1d30ec7843d	-0.06936377631019837
26	0xbfe593cd5397274b	-0.6742922432542654
27	0x3fc62a6eac16d67f	0.17316993143838386
28	0xbfc88ad8f1df2ba2	-0.19173728761810788
29	0xbfe962204c642956	-0.7932282917038644
30	0xbfde5f22f6dc0b5c	-0.4745566759813096
31	0xbfd22fc0df43d8c0	-0.2841646366426964
32	0xbfa6e0b4df5d9ec6	-0.044683124796220094
33	0x3fca4bca21786e8a	0.2054379142217509
34	0x3fc74a6e5ee7f40c	0.1819589579971822
35	0xbfb3ca208d894274	-0.07730296569321543
36	0xbfc84bf0c39405a7	-0.1898175196620688
37	0xbf7234393f04e57f	-0.004444335573049129
38	0x3fc8531fc9ff6295	0.1900367485348126
39	0x3ff44fc814315610	1.2694779194620232
40	0xbf3b28325c2f7be1	-0.0004143832158529076
41	0xbf404aa4d235bf5c	-0.00049717948824755
42	0xbf2cf7d5d5be1274	-0.00022100911416713146
43	0xbf2caaa501fd5f09	-0.00021870865111383472
44	0xbf3baa9b734367d8	-0.0004221562878804464
45	0xbf2b36390dbd2886	-0.00020760961967375787
46	0xbf2cec0ba769d5d9	-0.00022065775165784512
47	0x3f2ce4d6a6589639	0.00022044296490368752
48	0xbf3b82cb9c6268c7	-0.000419783315359756
49	0xbf2b23205858e48a	-0.00020704049909328989
50	0x3f2cba5a9b60bed0	0.00021917682687576942
51	0xbf2cb63958722134	-0.00021905374544340663
52	0xbf2afbe1e9af12fe	-0.00020587094044634957
53	0xbf33805fc3917eed	-0.0002975686834982689
54	0x3f2ade84ea15a6bb	0.00020499584665439004
55	0x3f0292466368b89e	3.542210872741032e-05
56	0xbf022be4cd0efed7	-3.465930934209792e-05
57	0xbf2b3cd8ca4b7f05	-0.00020780702938959935
58	0xbf3aaa12c9dad53f	-0.0004068656797742882
59	0x3f2b177fb82496a0	0.0002066939742430456
60	0x3f2b5b1b86437e44	0.00020870886795075667
61	0xbf2cf57c4e5383a3	-0.0002209390869785363
62	0xbf2b5469aca6162a	-0.00020850934954468162
63	0x3f3b9a8a4fb60f63	0.00042119862310862325
64	0x3f2cbf060ded8401	0.00021931599527660886
65	0x3f3ba3f424738567	0.0004217597056151629
66	0x3f2b04c2f74e1bc7	0.00020613555866707945
67	0x3f3acf76a1b7783f	0.00040909429818991935
68	0x3f2b50f6dbcb8078	0.00020840657625509676
69	0x3f2b03e4305a1fa0	0.00020610962399225403
70	0xbf2af5c0c1d1103a	-0.00020568826667688602
71	0xbf2ced46be713223	-0.00022069443295648456
72	0x3f3b845b9df6b68e	0.00041987644905359326
73	0x3f2c006782d59320	0.00021363509714968868
74	0xbf3ba1023a5e72ab	-0.0004215841712438643
75	0xbf2b59282b443564	-0.00020865073532442679
76	0x3f3b92b5ed710c73	0.0004207319411230821
77	0x3f3b9d186fa476c7	0.00042135092339088933
78	0xbf3b90a1e602a65e	-0.00042060806846198017
79	0xbf3ad65c01e488d4	-0.00040950533174756204
80	0xbf2bfd963b129f6f	-0.00021355112906928537
81	0xbf2b522b1097076a	-0.00020844245618261852
82	0x3f2caf0869bad4ae	0.00021883943269577127
83	0x3f2b14368e259728	0.00020659604985978045
84	0x3f2c9f7961aa5f9d	0.00021837574680172176
85	0xbf3b80e5c6bc9498	-0.00041967019818607
86	0x3f2af14ddacc1327	0.00020555568098514743
87	0x3f3b9368dda7a781	0.0004207736034503793
88	0xbf3adaac68509dc0	-0.0004097624699305989
89	0x3f3aa1acf896fb55	0.0004063651363956274
90	0xbf2bfe996d07313c	-0.0002135813033547015
91	0x3f2cb035d6942b5c	0.00021887452320642597
92	0x3f2cdfd3a5b0ff92	0.0002202936037480866
93	0x3f3ba570533e3b0a	0.0004218482238166765
94	0xbf038da108cd4198	-3.729484260495407e-05
95	0x3f3b99ff67bb4abd	0.00042116628149561544
96	0xbf2d0414ac080b51	-0.00022137405723307105
97	0xbf2cf9fb4827058c	-0.00022107307820644036
98	0xbf2b45a6127baf5e	-0.0002080693459370853
99	0x3f2b4c67b129ef3a	0.00020827070018813472
100	0xbf2b1d0a550b2426	-0.00020685912251952701
101	0x3f19afc13022141c	9.79863798723089e-05
102	0xbf3ca24d92fd465d	-0.00043692010784921414
103	0x3f2d02738669bac1	0.00022132549493699384
104	0x3f3bb1d22e57cb39	0.0004225862633965741
105	0x3f2afddbcc5b18a3	0.00020592983326234602
106	0xbf3ace155f330f61	-0.0004090120484756457
107	0xbf2b55cbfe9718e9	-0.00020855059783126483
108	0xbf2b559fc01e9bb8	-0.00020854544714873718
109	0xbf2b4b7d7ab32da3	-0.00020824343423551687
110	0xbf406126f256e52f	-0.000499862687028207
111	0x3f02c75997b7529a	3.58175484184476e-05
112	0x3f3abd3a5b7b33cd	0.0004080073808666013
113	0x3f41ea88e4787d66	0.0005467575474006725
114	0xbf3ace54970213ee	-0.00040902676756387937
115	0x3f0302844a792177	3.6258375356870475e-05
116	0x3f2cbc7a48dd482a	0.00021924011928803447
117	0x3f3ace38e92fc0cd	0.0004090203230466938
118	0xbf2d0215a312de7e	-0.00022131456493012022
119	0x3f3cc11b614d125f	0.000438756165113829
120	0x3f2cc90b702919a1	0.00021961464524817862
121	0x3f2b1d6bf56ad3f0	0.00020687048773529405
122	0x3f2b48c324336596	0.00020816213700562404
123	0xbf3b8c4a9e79510d	-0.0004203493285548511
124	0x3f2b2b2df4e9368e	0.00020728050226852642
125	0x3f2cf5e57e91fa4a	0.0002209513325261584
126	0xbf3b97256363b63d	-0.00042099631117662237
127	0x3f2b02dee46ccdf3	0.00020607920506564257
128	0x3f2cad27933b0a18	0.0002187834557983582
129	0x3f033879caa22924	3.666040113710554e-05
130	0xbf3ad4848c645b10	-0.0004093955616481385
131	0x3f3b82639f97c06f	0.0004197591038908104
132	0xbf3bac87f252ff29	-0.00042227095611834187
133	0xbf2b03f38da70bb0	-0.0002061114126502262
134	0x3f3b2ee4886e0cbc	0.0004147823278161757
135	0x3f3aa3e5626d445b	0.0004064974804594606
136	0xbf2afcf694b73414	-0.00020590314885141124
137	0xbf2f2abfe33b6d06	-0.00023778526666871235
138	0x3f3b8d5c42a8062c	0.0004204130406436381
139	0xbf2d043307ca2324	-0.00022137759141951333
140	0xbf3b2af9793c067d	-0.000414548784860448
141	0xbf2cc4f13a11ffa2	-0.0002194923845628668
142	0x3f3aac2757b22874	0.0004069896746804532
143	0xbf335fb44c90d8d0	-0.0002956214125932168
144	0xbf2ce890ce0ee4ef	-0.00022055404317970022
145	0xbf2cb571230b0cb7	-0.00021903043809432473
146	0xbf2f042afba28af2	-0.00023663544363213652
147	0xbf2cb9e40fa08a17	-0.00021916302631648572
148	0xbf3ac3632827a3c5	-0.00040837450811053957
149	0x3f3b7d7d30ae8ddf	0.0004194670333907673
150	0x3f2c028ae0fd66b4	0.00021369881914772503
151	0xbf2ce4cbdde2a9f6	-0.00022044170959152593
152	0xbf3ba99c49c2cb67	-0.0004220968783201135
153	0x3f3b2998cc34ce38	0.00041446667110564854
154	0x3f2b43f3aa944473	0.00020801877443735496
155	0xbf3aabe330a77b07	-0.00040697380668845744
156	0x3f2c00a35d3dbe2a	0.00021364206497363872
157	0x3f3ba902677121f4	0.00042206104939571045
158	0x3f2c03a2a840214e	0.00021373138963577193
159	0x3f3ba6391d34c966	0.00042189497362978554
160	0x3f3c9d572af3e27f	0.0004366243183109644
161	0xbf2cf7866004bd54	-0.0002209998638220504
162	0xbf3b8c0927579c23	-0.00042033408621339386
163	0xbf231bf6ade684e2	-0.00014579187604816304
164	0xbf3ca9a9e71f4bbd	-0.00043735883730027983
165	0x3f2cb2ebe73e5a2e	0.00021895532301803702
166	0xbf2ed6b845792094	-0.0002352809849404154
167	0x3f3ab4a3c1e24e32	0.0004074954794159618
168	0x3f2cf0eefe65c783	0.00022080342678126524
169	0xbf3b9522e79b5cfb	-0.00042087652364615453
170	0x3f2c09082b36ea68	0.00021389221875074975
171	0x3f3ad4cd0ba2b40d	0.0004094124411818119
172	0xbf40579726d14848	-0.0004987228436539393
173	0x3f3b99abebcd16d1	0.00042114684383807744
174	0x3f3ba71e717e9f5e	0.00042194836850705474
175	0x3f2cfe5e3e3f566d	0.00022120380810857228
176	0x3f2ccc9552e90013	0.0002197201042282165
177	0x3f406c33471cffb6	0.0005011797313514341
178	0xbf3ab15fdb7e0af0	-0.00040730085628852466
179	0x3f2b58ba075114a1	0.0002086379132909865
180	0x3f2cf770f2271a94	0.0002209973691391266
181	0x3f3ba40656d6db9a	0.00042176394239439865
182	0x3f3aa4d10a65630d	0.0004065523484278334
183	0xbf2ce2fb498c0e08	-0.00022038762542574163
184	0x3f3ab04367c441ef	0.00040723462713379474
185	0xbf2afbee568bb45e	-0.00020587238693484366
186	0x3f2b232f07fa90a2	0.00020704220877576946
187	0xbf3b2c491663e0ad	-0.000414626926058324
188	0x3f2ed607c4d0f0b2	0.00023526043733735274
189	0x3f199011e2b57484	9.751423993038978e-05
190	0xbf2af9e1b6881caa	-0.00020581131254024848
191	0x3f2f1fb2b2191b74	0.00023745590537968162
192	0xbf2b1f949231b998	-0.00020693482028684147
193	0xbf2cfe2ccf187790	-0.00022119805321179882
194	0xbf1998ba96743fbf	-9.764326897632093e-05
195	0x3f3c9e0a2c83eb25	0.0004366659964173839
196	0xbf3ad8c63c5af0e1	-0.00040964927425669705
197	0x3f2ce27f2580c933	0.00022037317353491292
198	0x3f3b9f91baf41108	0.00042149837368322994
199	0xbf2b4a196306bbfc	-0.0002082019796154354
200	0xbf41f0e42f378f26	-0.0005475153142779673
201	0x3f3b9d39f5831234	0.00042135872855578464
202	0xbf2ce51e66633ea7	-0.0002204513177219609
203	0xbf2b1271d19a2289	-0.00020654334439408988
204	0xbf2bff06eb7930a0	-0.0002135940501254473
205	0x3f3b9b6b37d343e7	0.00042125098827933003
206	0xbf2af83892ff7484	-0.00020576181986956346
207	0x3f2cbf79827efa9d	0.00021932943604770642
208	0xbf2b071fb83026f3	-0.00020620596123448846
209	0xbf2b27001f680650	-0.0002071559571988229
210	0x3f2b5c6ab260d6e0	0.00020874788714458133
211	0x3f2f1efe37ea1944	0.00023743489505907202
212	0x3f2aff9136498d49	0.00020598075493003857
213	0x3f3b8520c28a0563	0.00041992234995554526
214	0xbf2cec43c9fd36f9	-0.00022066428663907576
215	0x3f2afa94542b6c3e	0.00020583210615296611
216	0x3f2caaca274ab80f	0.0002187129754437915
217	0xbf3b8b7f0e67d2f0	-0.000420301932904806
218	0xbf3b9bc901cd9b6c	-0.0004212728252270179
219	0xbf2cbe2f13068d36	-0.00021929096830062563
220	0x3f4051277c8a45c2	0.0004979555897809895
221	0x3f3baa16be1298a3	0.00042212538944353723
222	0xbf3ab2b81a89b482	-0.0004073810073695409
223	0xbf3aad9404a1e1c9	-0.00040707458231950246
224	0x3f1951ec6ade4971	9.658818700434225e-05
225	0xbf2b368ec484cc09	-0.00020761959809476063
226	0xbf3b7f7a892c4307	-0.0004195856246705241
227	0x3f03253e37cd88a6	3.651710628706341e-05
228	0x3f2b2c5876f0beb5	0.0002073152531649657
229	0x3f2b07419ee43feb	0.00020620990785191694
230	0x3f3b9c29b1401215	0.0004212953365370376
231	0x3f3b856f1708dbde	0.00041994058759392365
232	0xbf1a1a58687daf12	-9.957470512994237e-05
233	0xbf2cb808c5bfc55c	-0.0002191076954427923
234	0x3f2f347fef5e73a6	0.00023807584483117905
235	0x3f3aa8d637ceea46	0.00040679197246232637
236	0x3f2b255be94c332d	0.00020710703815787196
237	0xbf2b413c59c8aa1a	-0.00020793782904722572
238	0xbf2b0b5ddbeabb37	-0.00020633240452158096
239	0x3f2cc1c96eeed8ee	0.0002193983450219992
240	0xbf3b7c62bf83a097	-0.0004194012722238487
241	0x3f3ab1b2d4913406	0.00040732017493355676
242	0x3f2b38ffab522306	0.0002076923462122281
243	0x3f2b3df90f8407b4	0.00020784058848027714
244	0xbf2b659d7441b02a	-0.00020902201697781234
245	0x3f3abef0f0661fd2	0.00040810949612834796
246	0x3f2af2f4dc97c951	0.00020560492548289203
247	0xbf2b2ed86649dcb3	-0.00020738975139853385
248	0xbf3aea294361d034	-0.00041068560984247886
249	0xbf3ab492d5e4241b	-0.00040749153949143504
250	0x3f2f2587cdebd742	0.0002376297261076858
251	0x3f2ada762d14d916	0.00020487492160165742
252	0x3f3a9c9a3264958d	0.0004060627419611655
253	0xbf3ad0c9c8ad3e53	-0.0004091732632120804
254	0x3f2bfebab46f5fec	0.00021358517753244878
255	0xbf3b89c8b0de79c2	-0.00042019986801191897

w4 f8 [41, 40]
0	0xbfd48f02b3857d68	-0.32122867137328237
1	0xbfc8a833791488cb	-0.19263308918113461
2	0x40313e5414fe208b	17.243470489542727
3	0xbfd5e8a9055bc699	-0.34232545398035935
4	0xbfd22e80099c3c8d	-0.28408814371591334
5	0xbfe6b5b9f4ab716b	-0.7096833971695963
6	0x40338ea5597c0737	19.55721053388626
7	0x4032fc60e44d69c7	18.985853451633172
8	0xbfbb374b5825bda2	-0.10631247427021731
9	0x4033a240a0c74e98	19.633798645647943
10	0xbfcd9988f3b8e88b	-0.2312480154085431
11	0xbfdca2a0ef99678c	-0.44742606542933383
12	0x40333488e30e77d7	19.205213728935487
13	0x4032be14becb1a80	18.74250404795248
14	0xbfb0f08ca9db35ef	-0.06617049357301828
15	0xbfe21aa014512438	-0.5657501599135975
16	0x40334dcf8eb979fc	19.30394832638011
17	0xbfd32323a9cf90ba	-0.29901973326765197
18	0x403286319b0e67b6	18.524194422737956
19	0x4032425cd0ed8bb2	18.259228761667778
20	0xbfa915296ae38ec2	-0.0489895766238795
21	0xbfc89321964a38d3	-0.19199008787513225
22	0xbfbf28c5f3766204	-0.12171590036303576
23	0xbfca6b0f54f6d145	-0.20639220856322474
24	0xbfdec83debe37b85	-0.48097179447170674
25	0xbfc327f8055aa31b	-0.149657251943858
26	0xbfcc4562a3239631	-0.2208674713685226
27	0x4033b1c85db70c90	19.694463593663897
28	0xbfded9c1f87d6d55	-0.48204087511631616
29	0xbfc90917b702bb85	-0.19558998523777063
30	0xbfdd77c67b2e0552	-0.4604355051925114
31	0xbfcbbcb768ace411	-0.21669666873074836
32	0xbfd240e6f56b519b	-0.28521131483764756
33	0xbfc418c62f7f554d	-0.1570060474320293
34	0x40334b4af953c658	19.29411276145251
35	0xbfee9bcdedd47019	-0.956519093047521
36	0xbfaeea1b0f1f29af	-0.06037983474341801
37	0xbfca347e76ac4fbd	-0.20472698969444805
38	0x4033c83382f3f7fa	19.782036003649388
39	0xbfcdabc3f5260fec	-0.23180436582708752
40	0x3f2ca5040e0331cc	0.00021854090210239455
41	0x3f3aba7c5048c30d	0.00040784392357111414
42	0xbf2af65e6d72cb16	-0.0002057066219314999
43	0xbf3acc56b3bf1251	-0.00040890805007290804
44	0xbf3aa857dd2215e0	-0.00040676255333268845
45	0x3f2cbba0ae781a10	0.00021921478695237405
46	0xbf2b3138c2f5b1b8	-0.00020746057405619605
47	0xbf02db396d87f236	-3.5965623911924876e-05
48	0xbf405549c7a13236	-0.0004984483960100486
49	0x3f3ab2b6ecbc2efd	0.0004073807328814764
50	0xbf2caa9ad4d51b41	-0.00021870746642546106
51	0x3f3aad2c6f4445e6	0.0004070504649159298
52	0xbf2f1413d0c880e8	-0.00023710958375123344
53	0xbf3ba73c05e1079f	-0.0004219552555505493
54	0x3f3b9a3e4916d8d3	0.00042118092195709867
55	0x3f3abd71c87be644	0.00040802028568940143
56	0x3f2b4d81f8a833b0	0.00020830356182024784
57	0x3f1a2c3142cea344	9.984064736435783e-05
58	0x3f2f0bf55eed03f6	0.00023686762093613729
59	0x3f2cc4f32b1e975c	0.00021949261059466929
60	0x3f3ad61eccb6ac98	0.0004094910807121515
61	0x3f2cf6c6725afda0	0.00022097752041892477
62	0x3f3b8af562da4d18	0.00042026987908024135
63	0xbf2cc86a97e1672c	-0.0002195959204438989
64	0xbf2d0ea1909277dc	-0.0002216884825302902
65	0xbf3ba271fd7e9ae5	-0.00042166979755579723
66	0xbf3ac1e38e1d2291	-0.00040828519387451587
67	0xbf3b92c070a80232	-0.00042073438876858154
68	0xbf3b2665fd2ecd33	-0.000414276027352406
69	0x3f2bfc809dbcb8fb	0.0002135188104772158
70	0x3f36a1eab576c5fe	0.0003453443545949618
71	0xbf3b7c799c68376f	-0.00041940659539895555
72	0x3f3aac62c16e1389	0.0004070035078529923
73	0x3f2b286ee915cc62	0.00020719865691951322
74	0x3f3cb4f0396da0a1	0.0004380308613947202
75	0xbf2ce0d759a21e68	-0.00022032383714453156
76	0x3f2caa11b1dc372e	0.00021869150162284176
77	0x3f3b2bfd5380bd72	0.0004146092865111229
78	0x3f404cd9f270c471	0.000497442645501901
79	0xbf3acc069cc5d7c6	-0.00040888940272709414
80	0xbf2afc799cf29024	-0.00020588860067960555
81	0xbf2b56183dd227df	-0.00020855947414971564
82	0xbf2b9e3c540f312c	-0.0002107094424260795
83	0x3f2afc3799c4403a	0.000205880915821856
84	0x3f3aa39306543863	0.0004064783045841845
85	0x3f3baec2faf8b226	0.00042240391028050756
86	0xbf2b1c7e4e5f4de5	-0.00020684282134074343
87	0xbf3bad7b2bd23561	-0.00042232758625789483
88	0x3f2b0283538a0cda	0.00020606854538494126
89	0xbf2d61e9bffe63a4	-0.00022417047875647217
90	0x3f2d09cb3d2d753a	0.000221544322438408
91	0xbf2b430d886d6d09	-0.00020799198338292854
92	0xbf2c776b7a921352	-0.0002171820354172302
93	0xbf3b750e70177dad	-0.00041896440970209497
94	0x3f3b29d07b9532ef	0.0004144796362950805
95	0x3f2b234bf8a1438b	0.0002070455778402615
96	0x3f3b368d82ace737	0.000415238903474713
97	0xbf2ced3bd0d31a14	-0.0002206931607473128
98	0x3f3b1e412fd2181f	0.0004137906215152548
99	0x3f2c1190a3df5e52	0.00021414652468253415
100	0x3f2bfff875ca5c36	0.00021362216911732936
101	0xbf0230f8340ed61a	-3.469712692753483e-05
102	0xbf3b8f08876a7aaf	-0.00042051275469560506
103	0x3f2b3a8efc0f48dd	0.00020773883264141912
104	0xbf3b823a1d17baf5	-0.000419749439145286
105	0x3f33af73a7dbe62f	0.0003003747332140675
106	0x3f2d0a304f9d8d27	0.00022155608877048283
107	0xbf2c409117072fd0	-0.00021554728620143274
108	0xbf4045fa5cf01720	-0.0004966232753538004
109	0xbf2afe53e39fc3c4	-0.00020594381368213403
110	0xbf2d018554029f7a	-0.00022129776516987746
111	0x3f3b8f49101dd049	0.00042052778018520205
112	0xbf3ac6dfaab4bfbf	-0.00040858231178031093
113	0x3f3ab08cc7e55b5e	0.00040725171119986535
114	0x3f3ad8de0615f73b	0.00040965481283438174
115	0x3f3acb0d452c4141	0.0004088313482251312
116	0x3f2d0d9a5f7e3307	0.00022165784298202476
117	0xbf2cce17bf5e96d3	-0.00021976508986403537
118	0xbf3a789c9b4912a8	-0.00040391753580974266
119	0xbf3ab4286bc2808c	-0.00040746676291725996
120	0x3f2b128576e147cc	0.00020654563144489738
121	0x3f2b13ac762a3200	0.00020657997363961178
122	0x3f2b7bb25a66f2db	0.00020968010103485684
123	0x3f2cf54b42c25688	0.0002209333773676612
124	0x3f2adeab81e0ef7e	0.00020500033946457477
125	0x3f3b8ebf6738aa8f	0.0004204957287778166
126	0x3f2c2cb459f78a12	0.00021495534473021987
127	0x3f3ac60c80278834	0.00040853314581401905
128	0xbf19568ca379e3d5	-9.665711774599292e-05
129	0x3f3bb6dc4e519d5b	0.00042288664400876524
130	0x3f2cc4d43672243c	0.00021948900687032865
131	0xbf3ac4c41e0b952c	-0.0004084566881331238
132	0x3f3b54fd925620d3	0.0004170531340936926
133	0xbf2c5a87d1064b82	-0.00021632106701171763
134	0x3f3acbca4a8cfda8	0.0004088753581079304
135	0xbf2b25376a1c02b6	-0.0002071027893677712
136	0xbf3aa5eac6e30e19	-0.00040661794527016706
137	0x3f2ccfc8cc2f72ec	0.0002198155035263641
138	0xbf3d4649cc570974	-0.0004466943904299005
139	0x3f3b27479d05a443	0.000414328559620151
140	0x3f2b4cc46b5777dc	0.0002082814950616342
141	0xbf3aabe636059530	-0.00040697451006218004
142	0xbf2afba9bff33f7c	-0.00020586440221003952
143	0x3f3ab3986fcc6f70	0.0004074332389778423
144	0xbf3ba7357e68b159	-0.00042195373535737973
145	0x3f2cfe9ea79b5077	0.0002212113066010245
146	0x3f337bcd6e717bd0	0.0002972961942244142
147	0xbf3ab5b9f6c3583a	-0.00040756025442812186
148	0x3f3abd280480d44d	0.0004080031108089674
149	0x3f2cbb67d30d8257	0.0002192081679153353
150	0x3f3adf48fa57b2aa	0.0004100373429014962
151	0x3f2cc04dc92307a1	0.00021935414821966113
152	0xbf3ac84a81c86ea1	-0.00040866679208460306
153	0xbf36b96e83cb546b	-0.00034674594989542753
154	0x3f3b8db92f04d763	0.000420434676033357
155	0x3f2af33481874fda	0.00020561233465221548
156	0xbf3ba46b955ae324	-0.00042178751514714203
157	0x3f3b84fe9f4eba7e	0.000419914401670697
158	0xbf3b2fcf9d0b195f	-0.00041483706176527983
159	0x3f3b93825832e41a	0.0004207795356694924
160	0x3f3b8300523f5c0f	0.00041979558795674025
161	0x3f3b8c25bd108faf	0.00042034074164320595
162	0xbf3a9ce3d72b0ace	-0.0004060798884603479
163	0x3f2bff5816ceec47	0.0002136034994729438
164	0xbf2c07d41ad1feeb	-0.00021385635537639973
165	0xbf36b26457fd5212	-0.0003463263492353995
166	0x3f2c72f0f8c3de08	0.00021704856442970898
167	0xbf3bc874fffa9f32	-0.0004239354748087786
168	0x3f3ac960402d6d5b	0.00040873145933569493
169	0xbf302e23f16438f0	-0.0002468908072764805
170	0x3f2cd27ca8e328ae	0.00021989604687739278
171	0xbf2cf62bbb57bcd9	-0.00022095950923481966
172	0xbf2cde7120e725ad	-0.0002202523323389499
173	0x3f3addecbf5ee5c0	0.0004099562642028952
174	0x3f3ab0e449b89fda	0.00040727208554125276
175	0x3f2afdbbb025f2fe	0.0002059260951447136
176	0x3f3ac22626307679	0.0004083006990088577
177	0xbf3b84e0e40c0c43	-0.00041990747926962476
178	0xbf2c4d3a71c24ec8	-0.00021592462951912903
179	0xbf2bce41de92b754	-0.00021214059896606607
180	0xbf2bff6daaea74c9	-0.00021360601154621895
181	0xbf3b807f7d3099bc	-0.0004196463825699955
182	0xbf3b9b84d6bf52a5	-0.0004212569535842293
183	0x3f3b94617f9474e6	0.0004208314927199433
184	0xbf3b95fdf3fd81dd	-0.00042092752481972894
185	0xbf3ac8b22b2665fb	-0.0004086909276793391
186	0xbf2b4d9c31208b36	-0.00020830661429823712
187	0x3f2b6b019e986c1f	0.00020918268937539315
188	0xbf41ece07b8b5b6e	-0.00054703675331323
189	0xbf3bafe942e0bd29	-0.000422472427888248
190	0x3f2ccd78affa8076	0.00021974657282886376
191	0xbf3bb1296807c435	-0.00042254696748417485
192	0x3f3b8b6d45803f76	0.00042029779206220004
193	0xbf2b288e5d33456d	-0.0002072023185975368
194	0xbf3b82b61130eaec	-0.00041977829932064617
195	0x3f3b2a54ef69cc97	0.00041451047528724125
196	0x3f2ccbc0bf0c613e	0.00021969535694022797
197	0x3f2cb67dd6338ae6	0.00021906171887228
198	0x3f2d0b5e09615b34	0.000221591214258432
199	0x3f3accc87634642c	0.00040893453679441655
200	0xbf3b98dea7c139e3	-0.0004210990516683428
201	0xbf3baceebcd523f2	-0.0004222948890242876
202	0x3f2d2ef63d0385ea	0.0002226520141511001
203	0x3f3b8669926741b6	0.0004199989074580539
204	0xbf339ccebc12b48b	-0.00029926345093651195
205	0x3f3b8c9d17b236b7	0.00042036853091862884
206	0xbf3b4fc6461c09bd	-0.0004167422358564396
207	0xbf3ba11a79b18eb3	-0.0004215898167727425
208	0x3f19cc890e082e37	9.841524616421229e-05
209	0x3f2d08eacfa5f9e7	0.00022151819559819362
210	0x3f2b12ecc6a2252e	0.00020655765849068294
211	0xbf3bb2209eefc9a7	-0.0004226045265901764
212	0xbf3b62848722153e	-0.0004178594164233224
213	0x3f2aec77d529a8a9	0.00020541155625448018
214	0x3f2cd176c8ff264e	0.00021986556066471086
215	0xbf3b8c22985e1fc4	-0.0004203400097755295
216	0xbf3b86e1ba2c4fe3	-0.00042002688330566705
217	0xbf2b03ec5c5e02ef	-0.00020611057533061842
218	0xbf3574ea8b6928c5	-0.0003274033182704246
219	0x3f3bd3fe2190f01c	0.0004246230542468436
220	0xbf3ac20dc3edf615	-0.00040829502170666834
221	0x3f2b41dc65e5caf2	0.0002079564610074285
222	0x3f3aa58d83158b67	0.00040659623035404216
223	0xbf3aafa615a8ab3d	-0.00040719799804616095
224	0x3f2ee16ff9d85802	0.00023560039419184836
225	0x3f2b069cebfdc982	0.00020619073438472515
226	0xbf2cbc99a1bb5599	-0.00021924376857522241
227	0x3f4182088c292a9c	0.0005343000160079217
228	0xbf3acf275069ca45	-0.0004090758306240265
229	0xbf3ba703cc0481bf	-0.0004219421644098518
230	0x3f336ea415458645	0.00029651170668474155
231	0xbf3bace46691577c	-0.0004222924822604374
232	0x3f2b526da3ab2704	0.0002084502064774661
233	0xbf3c9d6db635a430	-0.0004366295672385027
234	0x3f2cf52b3cf62d15	0.00022092964944096156
235	0xbf3b8adbbdf5728f	-0.0004202639083439674
236	0x3f3ba3c2e1bf8a3d	0.0004217482362475522
237	0x3f2b0d5d7a236c6f	0.00020639196470182165
238	0xbf3b562e0f3c7e07	-0.000417124028205124
239	0x3f3b8d66bb4b8cc0	0.00042041547867039883
240	0x3f2bf34498f09b34	0.0002132436024748441
241	0xbf2305185532610c	-0.0001451103404164284
242	0xbf3ab7731619bc20	-0.0004076629612432287
243	0x3f3ad788099af272	0.00040957518795518074
244	0x3f2f1fdfdb27ad84	0.00023746116273968773
245	0xbf2cbbca6d27a95a	-0.00021921964669442234
246	0x3f2cf850c64b863f	0.00022102342622702835
247	0x3f3cc0d25240d1aa	0.0004387391547908912
248	0xbf3aad9945e0aab6	-0.000407075805812933
249	0x3f3b2a05f7d39dc9	0.0004144920893182883
250	0x3f2cf24a440863dc	0.0002208438545643611
251	0x3f3b8a908861c1f6	0.0004202463973177745
252	0x3f2d114033fedb2d	0.00022176655511226811
253	0x3f2af6c659067b71	0.0002057187198376237
254	0xbf2ced083bcea3b5	-0.00022068715580061756
255	0xbf2ca6825fdd217b	-0.00021858540997700044
