Code/Models/run_20251105_110618/model_hidden_5_width_32_act_LRELU.npz (npz, 36006 bytes, 6 tensors)

w0 f8 [2, 32]
-3.4952129845992825 -1.0319331730847072 -4.004685072836764 -1.3731740369395697 -1.1367763342618253 -4.612438986055758 -2.4449838124742658 -5.338565049993286
-3.440185326501639 -2.4838992739489596 -0.8565562250912679 -1.9432401035229037 -1.124838186116052 -0.9104511846482005 -0.6477376257783973 -2.88926460595933
-4.502275550449426 -2.141753649174305 -1.203812394813328 -1.1860280658511162 -4.410160382747226 -3.504009069837917 -4.549606084568642 -3.2959329108197246
-0.27472927664317137 -1.3447689575063118 -0.7852906924779851 -0.5204707738958423 -1.0781481002097937 -0.8456098847564029 0.029743987661416157 -1.6845034044760194
-0.02572218153666954 -0.08702086866635794 -0.1087568487936195 0.007731351665540352 -0.009161244698019945 -0.03866080469319648 -0.019835616480860206 -0.03622186077548181
-0.030425057121426364 -0.019949526020232245 -0.1344175332927033 0.011596399350133589 0.029123558024928334 0.09260570812500593 -0.004248588540585144 0.017894689674622394
-0.004706217859523158 -0.14987110438518073 0.003838174103103509 -0.011872688190025718 0.002403617615074338 -0.09916586623645052 -0.004803578027604903 -0.22783718380667112
-0.00239489237954395 -0.2222085401869606 -0.007423178795632688 -0.1412852663746853 -0.01075623999532837 0.001987672462078472 -0.26858419187863175 0.2642751191561983
00000000: 8c44 ab39 32f6 0bc0 b5e6 e05b cc82 f0bf
00000010: ff73 ea29 cc04 10c0 aef2 c556 85f8 f5bf
00000020: 4357 a861 3c30 f2bf 999e 9f34 2373 12c0
00000030: 679c 4eac 538f 03c0 b928 e5cb b05a 15c0
00000040: 6b07 6ce2 7f85 0bc0 f659 2195 06df 03c0
00000050: 8278 be99 e868 ebbf 2181 4eef 8217 ffbf
00000060: 0491 6a53 56ff f1bf 2d64 d585 6a22 edbf
00000070: c06b e341 44ba e4bf 69af 00c3 361d 07c0
00000080: f00a 9b85 5402 12c0 a056 babc 4f22 01c0
00000090: 08e2 23c9 d042 f3bf b57f af90 f8f9 f2bf
000000a0: 850e 5815 01a4 11c0 d9ba 3ee8 3508 0cc0
000000b0: a59e fbef cb32 12c0 153f ee12 125e 0ac0
000000c0: 02ea 9b1a 2a95 d1bf 64a6 5274 2c84 f5bf
000000d0: f979 41f2 1921 e9bf aa01 0d53 b2a7 e0bf
000000e0: 5b54 ea38 1840 f1bf a07f 0676 3c0f ebbf
000000f0: 9c9c 0839 3575 9e3f 459a 83d7 b9f3 fabf
00000100: 4c55 ed61 ea56 9abf 28d4 fde8 ff46 b6bf
00000110: 63dc c824 7dd7 bbbf cbfd eae8 e8aa 7f3f
00000120: 47fe f272 21c3 82bf 66b1 9657 59cb a3bf
00000130: 863e 53b0 c94f 94bf bca6 dcf6 ab8b a2bf
00000140: 7507 4305 bf27 9fbf fd75 4f07 a66d 94bf
00000150: bf25 c0fe 9734 c1bf 8c72 ae5f dabf 873f
00000160: 9178 0ae5 90d2 9d3f dadf d1f7 01b5 b73f
00000170: d025 60cd f766 71bf 05c3 b24b fc52 923f
00000180: de48 b6bc d346 73bf 8591 f9f1 f92e c3bf
00000190: 1a50 f907 3c71 6f3f f522 ef3b b550 88bf
000001a0: e60b 9061 c0b0 633f f074 5d28 ef62 b9bf
000001b0: 8b7e 84a8 eaac 73bf 1a96 a1d2 c429 cdbf
000001c0: 2695 520e 749e 63bf cd58 7f56 5471 ccbf
000001d0: f1bb 8d62 c467 7ebf b032 3eb7 a215 c2bf
000001e0: 3d1a 1018 5e07 86bf 687e 0887 7348 603f
000001f0: 0fd8 15c0 7b30 d1bf 3008 7b30 e2e9 d03f

w1 f8 [33, 32]
0.33334208044638514 0.12173429142291142 4.855012643030594 -0.5442734712135144 0.2606759565131169 -1.6131721476629708 -1.8981619932144616 -1.3645034782726253
-2.41715600396 -4.686978692718333 1.775118878288927 -0.04382961978394169 -2.7262339691928688 -2.473409706494105 -3.068193425524044 -3.8144736605514584
-0.5639581123201072 -4.617255477103731 -1.4288191734832179 -5.002375980961025 -0.7022822305755135 -2.484465059787046 -1.0060776260565332 -2.759285878761891
-3.4638646492302176 0.77801578245883 -2.04181702521498 -3.756215860297464 -0.9738657859869795 -0.8776089441696825 0.06585397323467143 -1.0388770247382408
0.039576952500055725 -0.6371405059795063 0.9565615025940244 -0.4955710616773756 0.049825152927860966 0.5600099615264411 0.7710048132031516 1.4200955382987317
-1.6261799437681896 -0.6800805936573285 -0.38826910452103197 -0.6796593613107834 -0.20397713319322983 -0.6060210391764033 -0.7464102778044243 -1.2619944341680205
-1.1964606724386362 -3.0322231840434033 1.0026307393109053 0.3847384464643385 0.6104240702575546 -0.4652957816160773 1.8082637664275298 -1.9325049866431603
-0.8196299274380471 -0.7715621460093424 -0.6041891692638804 -0.9414813058694187 -0.9387820127800249 0.5237996399936089 -0.9501004332489033 -0.08002089219344076
-0.49859447391554174 -0.23595831835290415 1.9635277185226172 -0.3520892260435176 1.4789702167836374 0.7597194577878943 -0.5467180068542749 -0.9455062029965325
-1.547813236503634 -0.09938265590052583 1.0848804531260285 0.04310530439379237 -0.7470864262342544 -0.21611866649157255 2.147176632757239 -0.10794940468346877
-0.6056606759198554 0.18712580301474338 -0.9566301680029424 1.0495799958230814 -0.8527948801863791 1.330514705755488 -0.14235549523678354 0.06559474784032539
-2.061944766546238 1.0135437036788033 1.5599629544766334 1.3055013611435904 0.9419173375568718 -3.739627496597555 0.2898183915592979 -1.3875886313993464
-1.3132109377776027 -0.5546218374222845 1.1311031929683688 -0.44229447318641746 1.0003227980653049 -1.7035923198296603 0.19931085564720363 -7.687030946663281e-05
0.5216622317966831 0.2310937767753693 -0.9684620247547641 0.15041648500456659 -0.3405718849546087 -1.592137608302924 0.4563080999642772 -0.8432119863671982
0.14481092800614867 -0.6412181099427368 0.12791183857604357 -1.0427245815078956 -0.8268135164767982 0.9070576003511317 -0.6260432964895852 0.9688837454247069
0.2964007064863489 0.2745048845700599 0.5288700642091808 0.7702799108547679 -0.8292341804553881 -0.6703083283656901 -1.1707836326697643 0.5400593101416324
-0.3397539486963999 0.4777003717616061 -1.101906645210999 -2.3805239171600703 0.23264826901078625 0.5853911321388973 -0.33394691785576897 0.2774668855397208
-1.098127644841468 -1.4877452682195975 -0.7653421337941515 -1.4905321413306563 0.513815547606306 -1.5815327335385172 -1.7425539251701878 -0.26880940613142495
0.912921580397741 -1.1299126386209868 -0.14277308282668816 -3.641798016890894 -0.9453892691618103 -1.2228793650351237 -2.6146123520484488 2.195088194118846
-1.6103611776827305 0.5596243910788392 -1.0673838633634887 -0.9645361267421177 2.8543124570422425 -0.6191837323409725 -0.34133349509647876 -0.2991667042419385
0.34423199348107325 0.9788978109873602 0.6014258246575835 -0.40451436724163564 0.019521741030704236 -0.5609325663608431 -2.3122763990110973 1.2287406959316975
-0.7337726128856543 -0.008735166985052363 0.10521230193356484 0.31568894200872594 -0.8020284726527291 0.1496231813860182 1.547317647531839 1.0631799295457727
-0.0006514815080525106 -1.677473943879413 0.8851050233132384 0.19160500224825713 -0.083992657918073 1.0118333243832092 -1.506825727646395 -1.773059591745866
-0.3930831243097644 -0.09567729311771934 -1.2215525471479292 -1.2679323414709434 -0.7619603121277612 1.369560089207465 -0.7041923481171276 0.9559302643433187
0.7612851615672612 1.8751134574264743 -0.07614631389267673 -1.7891088022720874 -0.3907497370076059 0.34599764617863604 -0.11287704928070276 0.20105955080731383
-1.9685399355624875 -0.06171155354300892 -0.6499287224777418 -1.4443673226482017 0.028659302753591524 -0.5847812957094701 0.5233948007587571 -1.3886554132116995
-0.8692758479024795 -1.4990642111754513 0.8969193804600631 -0.2809932253639298 -1.5516399646843426 0.47266883328501397 2.816095416269993 1.3436539099808864
0.7706938013357343 -0.6826793730098117 0.16485802999424468 0.25802680314678794 0.07358383533806385 1.1937135552075793 -1.834845834422366 -0.21020386457967014
0.5868279584868692 0.13121910597435527 1.5511756671845953 -0.6337025762961457 -0.4061373537506767 0.2513099530944931 2.0637535700944434 -0.1619882070090077
1.6371651201845017 -0.03279710850140037 -1.057552523194089 0.3390070565343939 -1.1507290863892217 0.2466590001574412 -2.2695487178268317 -1.4263374781272407
-0.3206747343953141 1.5995796698754547 0.11767339645343404 -1.4809835289938449 -1.4138470707461228 -2.851218410588886 -1.735489302142161 -0.32443617989040474
-2.5302626975852993 0.6191965040840488 0.9169683640060603 0.20847296076711408 -0.6616941368807582 0.020415531320197806 -0.26224335004342697 -1.1988822883934536
00000000: f875 7905 7a55 d53f 3490 7680 fa29 bf3f
00000010: 84ee 2d6f 886b 1340 7c28 de32 b06a e1bf
00000020: 64f3 0435 eaae d03f 1a7d 1099 8dcf f9bf
00000030: 4fdc 351c df5e febf c558 6799 01d5 f5bf
00000040: bbb4 12e3 5556 03c0 a718 a957 77bf 12c0
00000050: d835 8c0d e366 fc3f cae3 22ff d570 a6bf
00000060: d06b 57c1 53cf 05c0 5602 3807 8bc9 03c0
00000070: 816c a3fe a88b 08c0 e42c 3cc4 0a84 0ec0
00000080: f651 17e2 f10b e2bf e6bf ddd1 1178 12c0
00000090: 7821 607e 71dc f6bf 1618 62d9 6e02 14c0
000000a0: c747 9c95 1879 e6bf 6bb8 9e37 2fe0 03c0
000000b0: ec66 52da e418 f0bf 8ac6 8c79 0413 06c0
000000c0: e1b6 51ab feb5 0bc0 3fd7 ad5a 81e5 e83f
000000d0: fbb6 1d2a a455 00c0 8b8d a5e6 ba0c 0ec0
000000e0: b83c b094 e829 efbf 1959 3c5a 5f15 ecbf
000000f0: 4ec5 5a55 cedb b03f 7f10 dd83 3d9f f0bf
00000100: d97f 5329 6e43 a43f a471 847c 7463 e4bf
00000110: 6420 48de 269c ee3f 97e4 afaf 6fb7 dfbf
00000120: 14cd afb4 ae82 a93f cc16 c602 9aeb e13f
00000130: 1984 3849 12ac e83f 6004 6319 b6b8 f63f
00000140: f153 be42 d504 fabf 35e1 8c60 38c3 e5bf
00000150: 2fc3 7da8 66d9 d8bf 8300 28fd c4bf e5bf
00000160: 5f2f 1936 ec1b cabf 356b fe3b 8664 e3bf
00000170: 532f 92ce 97e2 e7bf 51c5 6713 2131 f4bf
00000180: 8f2f 31f2 b324 f3bf 811d 8d3a fe41 08c0
00000190: cedf b487 c60a f03f ea00 4501 8e9f d83f
000001a0: 2151 4e0f 9888 e33f f67f 40f5 67c7 ddbf
000001b0: 8191 b5fc a5ee fc3f 22d4 4f59 8aeb febf
000001c0: 9f6a a58a 683a eabf 6d22 fe18 a3b0 e8bf
000001d0: abbe 5286 8455 e3bf 1425 5067 9d20 eebf
000001e0: 09d3 5e93 800a eebf 62bb 6d76 f7c2 e03f
000001f0: e705 1706 3967 eebf a7b2 f7ca 3f7c b4bf
00000200: b9bf dbcb f8e8 dfbf a0be 45d6 e133 cebf
00000210: 9381 7d0a 9c6a ff3f 0160 c83f a188 d6bf
00000220: 0380 8dac dca9 f73f f8ae 2a2e 9f4f e83f
00000230: 6959 f2c2 b67e e1bf b920 8139 9641 eebf
00000240: 9795 f1cf d7c3 f8bf a6e3 e148 2471 b9bf
00000250: 6def 239b ab5b f13f e498 4f01 e611 a63f
00000260: bfc5 feca 21e8 e7bf b576 51c6 c6a9 cbbf
00000270: 056c 43f1 6a2d 0140 8df8 bc7a 92a2 bbbf
00000280: af91 717f 9261 e3bf d9d0 1702 bdf3 c73f
00000290: 6511 bede b69c eebf 0489 c964 14cb f03f
000002a0: 7718 137d 184a ebbf f511 c1c9 c949 f53f
000002b0: c653 3972 b438 c2bf f178 c340 d1ca b03f
000002c0: abcb d3e5 dc7e 00c0 f3df 459a 7937 f03f
000002d0: c82d 07b7 9bf5 f83f 5dec 2f65 55e3 f43f
000002e0: f3f2 0ad4 2f24 ee3f edde 28d2 c1ea 0dc0
000002f0: 4ab2 6170 628c d23f e195 0223 9033 f6bf
00000300: 9711 e878 e902 f5bf 5909 ac4b 76bf e1bf
00000310: 8434 63a9 ff18 f23f ae61 627a 8d4e dcbf
00000320: 9f23 727a 5201 f03f a129 3605 ea41 fbbf
00000330: c80a 5fa3 0483 c93f 1072 5bdc ad26 14bf
00000340: 0701 24fe 74b1 e03f 4e98 c71a 7b94 cd3f
00000350: 3fab 7712 a4fd eebf 8fdb efed d840 c33f
00000360: ad4b f404 eecb d5bf 9148 e648 6579 f9bf
00000370: 27c6 8fe3 2634 dd3f a35a 21b4 97fb eabf
00000380: 97e5 f11b 2a89 c23f d6d2 79d7 db84 e4bf
00000390: 8748 ba45 6a5f c03f b7fc 84f8 ffae f0bf
000003a0: 4c13 a59e 4175 eabf 4a15 23a9 9d06 ed3f
000003b0: 8ab0 89f3 8b08 e4bf 1134 077c 1801 ef3f
000003c0: c3b0 37ab 3af8 d23f bb85 74ef 7c91 d13f
000003d0: 4a94 b3e9 80ec e03f 7f62 3c0e 22a6 e83f
000003e0: 0900 b91e 1689 eabf 6c25 9273 2a73 e5bf
000003f0: b223 509e 87bb f2bf 1ead 5e76 2a48 e13f
00000400: 25a0 9558 87be d5bf 7333 8094 a492 de3f
00000410: 30d2 c6dc 68a1 f1bf f362 9c1f 500b 03c0
00000420: bfa8 6f21 6bc7 cd3f 95f5 fc2e 86bb e23f
00000430: fb97 b2e4 625f d5bf cb6d c777 04c2 d13f
00000440: 7cd7 164b ee91 f1bf be82 7cfb cdcd f7bf
00000450: 12b2 5cc9 ae7d e8bf ab6e 0a3b 38d9 f7bf
00000460: 3ea7 a44d 2d71 e03f 649f 8144 f54d f9bf
00000470: 4df5 8139 80e1 fbbf 0744 0c5e 2c34 d1bf
00000480: adde 7351 a736 ed3f 626d 6346 1f14 f2bf
00000490: 4eaf be6c 6346 c2bf ed78 a9ff 6622 0dc0
000004a0: 1542 21ff a040 eebf 3477 fcf3 e990 f3bf
000004b0: 3520 7ee1 b9ea 04c0 f19b 2c66 8a8f 0140
000004c0: 7253 0e15 0ac4 f9bf ea47 3769 71e8 e13f
000004d0: 00ca 161a 0114 f1bf 7e5f 05de 7add eebf
000004e0: a47e fcc4 a1d5 0640 89d4 1367 5ad0 e3bf
000004f0: 0b00 9e71 68d8 d5bf d65b b11a 8c25 d3bf
00000500: f23c 8fa0 e507 d63f 6b22 8a80 2153 ef3f
00000510: 0df9 fb5e e13e e33f 4928 843a 90e3 d9bf
00000520: bbc3 26dd 81fd 933f 5aff 78da 28f3 e1bf
00000530: c185 c8c4 8a7f 02c0 9da7 0401 eca8 f33f
00000540: 586b e1b3 107b e7bf 710a 3544 bee3 81bf
00000550: ac08 f183 31ef ba3f 71b9 6864 3f34 d43f
00000560: 3e23 909d 37aa e9bf de61 6337 da26 c33f
00000570: 37c4 4a26 d0c1 f83f 549a 32f5 c802 f13f
00000580: 7240 b1e2 0559 45bf e1aa 0deb eed6 fabf
00000590: 4dfb 14c5 c752 ec3f af00 3441 8386 c83f
000005a0: b2bb dcf6 8a80 b5bf 57a9 d323 7830 f03f
000005b0: e533 504b f51b f8bf 8e85 06bc 735e fcbf
000005c0: b546 e11e 4628 d9bf a910 e99c 4e7e b8bf
000005d0: 9e88 05af 7a8b f3bf d588 426c 7349 f4bf
000005e0: b809 ae97 fa61 e8bf b3d8 10d7 b7e9 f53f
000005f0: 5535 2864 be88 e6bf dc8e d310 fb96 ee3f
00000600: 1b91 fbb2 725c e83f a8fa fef7 7600 fe3f
00000610: 7c47 e127 537e b3bf d7e8 2b8d 30a0 fcbf
00000620: b591 572f 0b02 d9bf 5822 b54f d324 d63f
00000630: 612d 21a3 82e5 bcbf cf07 a2c1 51bc c93f
00000640: f7c5 41bb 237f ffbf ac51 8120 a898 afbf
00000650: 19bc f851 37cc e4bf 32f6 e2e8 201c f7bf
00000660: 411b 3640 dd58 9d3f 4b4f 8c43 87b6 e2bf
00000670: 33f8 0474 a6bf e03f 9885 12bd ee37 f6bf
00000680: c533 3e95 1bd1 ebbf 41a4 19c1 2afc f7bf
00000690: 892f c745 90b3 ec3f 107b 5502 cbfb d1bf
000006a0: 07c6 776d 84d3 f8bf 100c 33c7 3440 de3f
000006b0: 6b5c 9a08 5d87 0640 be2a 083e 9b7f f53f
000006c0: d8f0 fe0b 86a9 e83f c063 9769 82d8 e5bf
000006d0: 5375 a763 111a c53f ca70 40da 8283 d03f
000006e0: 458e 4ae6 63d6 b23f fc88 8662 7319 f33f
000006f0: fabb 404e 875b fdbf 4566 eed1 f5e7 cabf
00000700: aa8b 426d 4bc7 e23f 6096 62a4 c9cb c03f
00000710: 848a 8e93 9dd1 f83f 0aa7 12a0 4a47 e4bf
00000720: ccc2 0287 27fe d9bf 20cf 6c57 7615 d03f
00000730: 9578 543b 9182 0040 af7e b891 07bc c4bf
00000740: 6f82 950d d431 fa3f 0e71 d558 c8ca a0bf
00000750: fbbb ce31 bceb f0bf a46b 3ba7 4ab2 d53f
00000760: 0a90 09e7 6269 f2bf ba5a 78a9 8592 cf3f
00000770: b5f5 7d28 0928 02c0 8ed9 593f 47d2 f6bf
00000780: 3568 3852 ef85 d4bf 8762 17da e097 f93f
00000790: 2372 60fd d71f be3f 7a17 efc8 1bb2 f7bf
000007a0: 6266 261b 1e9f f6bf e2db 1999 4bcf 06c0
000007b0: 9622 346e 90c4 fbbf 782e 91f7 8fc3 d4bf
000007c0: 3e57 835e fa3d 04c0 28d5 da2f 75d0 e33f
000007d0: c5ec db09 ce57 ed3f 782a 4cf2 3daf ca3f
000007e0: 2173 bb2e 992c e5bf 6221 671d cfe7 943f
000007f0: 81eb 0155 98c8 d0bf d574 c631 9f2e f3bf

w2 f8 [33, 32]
-3.4405891078092905 -2.5054611502196447 -2.2602470760316393 -2.5692381227001815 -3.59111481384372 1.7972235924663562 -2.097290369454086 -1.7312275426032773
-3.168829053984547 0.9442402078384705 1.2293862236433146 0.26616712714528695 5.0107894402044595 -2.536347602702148 -0.09356711364273754 -1.795423116459591
-3.2287379653250845 0.7843128014559836 -4.379825845757235 -0.8772032340371794 -4.1822363159524985 5.184390696654232 -0.17260352651018707 -0.9469275370752319
-7.200756623830505 1.4144316713443401 2.4560543661519696 -3.210767620908398 -0.48445720515510293 -0.6596348308492649 -0.7870669333885058 0.6264123156809113
-1.0698520098908868 0.30517564281804055 1.6322838225001217 -1.2618248894281971 0.6397720701170996 -1.3020035511374468 0.226618800405742 0.3584262819138764
-0.2588080396122639 0.6297631404194609 0.6251198656845248 -0.2379026455330802 0.7135066838810578 -1.8462755688896184 0.2736078591810772 0.7630665212355807
-0.08247056350345269 1.6661905933538832 2.0101962086026437 -0.2077371725193328 0.4326087709644635 -1.4833806531858786 -0.9339202731689555 1.1315157285603126
0.8015764505500464 0.47533421446807544 1.2522757624681857 0.2522644130229777 -0.7302560172550266 1.571170258487824 -0.11988179682035272 -0.31265719486698085
-0.580428545812933 -0.008269414193679468 -1.335832376344248 0.24423172650936514 -2.51961753749529 1.6810437324331466 -0.13296521735080918 -0.6453631371224597
-1.654338441256486 1.5673461027011528 -0.6645435050438614 -1.5887134127072193 0.06395756638335647 -1.5254170369146456 0.33150472352901605 -1.5459517767084396
0.3148637400057653 1.1903319321135883 1.0036174629064376 0.6128988625999574 -1.5762879693633753 0.49243229198946986 -0.15591403825361005 0.04898660370615387
-0.16530215723296116 0.8574155217427228 0.11558763947417486 -0.6285646067439501 -1.0691794004173931 -1.2442794619548672 0.7203769588617761 0.8227602478493192
0.8690008852701963 0.9105564848890861 -0.34497845962753493 1.1688467455986205 -1.394470002354209 0.8948438061297112 0.001688836220225529 -0.27844394165893294
-0.6814193833464416 -1.8541381363171157 -0.5529521204769654 -0.8819271183429677 -0.08146258917942051 0.20407360927073914 0.5226126249066895 -2.8094498890984143
-2.1042171871582833 -0.21165539150090393 0.34919198204682556 -0.35116331922885896 -0.9454271210359492 2.640475331044003 -0.48498569953509224 -0.60440715895878
0.5918686612736703 -0.11490442847236705 0.4380274704187752 0.4804095791878266 -0.5861605272016082 -1.9163136852913765 -0.3074508587991917 -0.5096577254567266
0.7280589751262756 0.13091020719842217 0.5503539901647644 -0.7354670028858565 0.9994708799648439 -0.4150139534875441 0.7584638537792056 0.0742385060477494
0.5013335376187898 -0.10973276352663346 0.621277214367901 -0.9011961372270068 -1.5998609662667485 -0.7346448432413356 -0.531854322857824 -0.2513617260738023
-0.3025376173992868 0.6279378487398078 2.5284051482964265 0.3860615251009109 1.608013370305359 -1.877510522175908 -0.30259641356678546 1.3363329171762213
1.1452446920150092 1.5313745874785072 -1.5456032426168098 0.3653808514716031 1.5120686168529645 -1.800903405811678 -0.20034056038569412 -1.4666639903086822
-0.4699161046653851 -1.870775237755838 0.21894694855234803 -0.020762686144977224 -1.1370801528061953 -1.799129622315131 -1.167105688282144 -0.9041006332980488
-0.9917877687348792 0.648558443453892 1.7868906632611794 0.27090059161500507 -0.39466688253279614 1.1260238890116852 -0.3235045864027299 -0.9935856699335592
-1.3850659217250245 -0.53481287338291 1.5046534479082005 2.6979568728316425 -0.00030113918030136376 -0.38687519774371915 -0.12207163646603396 0.1350565314553718
0.0938636514456268 -0.2747108086734607 0.3701561273090356 0.315846038101346 -0.6916959582087864 -0.4930472970029679 2.113448245672714 -0.8970675672071192
-1.7076548280963721 0.7670748736436044 -2.318441335777416 1.8218704720289711 0.2712837366211889 1.4647822498577294 -0.5602489102946119 -0.4584104497777905
-1.5831723205906483 1.9923356155928116 0.057614830208119444 -1.2082539313983367 0.5994100774089175 0.3043433599985011 -0.1522812632449745 1.9266238232680089
0.16613232295447963 -0.5252193311169155 -0.38795559559295634 -1.5945104194635054 0.878016774575536 0.12407515418045821 0.2112126341890534 -0.6910981187910704
-0.5299593295584641 0.07550240882671855 3.1827786096758506 -0.3407521913521304 -1.1100362761047315 -1.3503479335925366 0.1992036532582161 0.9694742097915989
-2.5322122409726315 -3.1107023991273084 -0.22920318135968237 2.0693200630976 -0.9572830776394587 -1.1973892667033852 -1.4116942464908415 -0.7452950765064417
0.5224694724628893 0.420078696952961 0.24321151716587883 -0.44385006844590136 -0.0010213782116927222 0.158000470478807 1.010323960177661 -0.9803383773197166
1.0725698063153335 -0.060674243768288776 -0.4513030099187569 0.2980808567812986 -1.1054243766191125 0.4750804026921213 0.8494543390346722 -0.08923192292629938
-0.6795472776142493 0.36957532045476904 -1.0944618223858895 -1.5956014572097281 0.6504988262447869 -1.2508845841008553 -0.6103678921938486 -0.21488123207055307
00000000: 261e 0895 5386 0bc0 3fbc 2c37 2f0b 04c0
00000010: f07b 436b fc14 02c0 d911 85b7 cc8d 04c0
00000020: 871e 4d67 9aba 0cc0 d2e1 9386 6dc1 fc3f
00000030: 202b 582c 40c7 00c0 fba5 d6a6 1bb3 fbbf
00000040: 74d3 0b0c c359 09c0 cf80 873d 3737 ee3f
00000050: 3537 8be3 90ab f33f 77fe 96d8 e108 d13f
00000060: fd47 1363 0c0b 1440 5a26 a79c 704a 04c0
00000070: daa0 13ad 03f4 b7bf 4dd2 fa96 0dba fcbf
00000080: 0866 0392 74d4 09c0 8bcd 0229 1719 e93f
00000090: bccf 0611 f184 11c0 e652 4484 0c12 ecbf
000000a0: 55a3 2428 9cba 10c0 2e44 2fea d0bc 1440
000000b0: 008c c452 df17 c6bf 3870 6dfa 3a4d eebf
000000c0: c53a f724 93cd 1cc0 e69b ad1a 83a1 f63f
000000d0: d590 ded4 ffa5 0340 bedb 36ef a6af 09c0
000000e0: 86f9 1ccb 5801 dfbf 4b9a 3981 ba1b e5bf
000000f0: 2355 55fe a62f e9bf 1328 35d7 910b e43f
00000100: dea8 2024 1d1e f1bf dc1c 5c6b ff87 d33f
00000110: a5d8 36a4 d51d fa3f 7ef7 954b 6f30 f4bf
00000120: 5982 c146 0379 e43f 4494 f6ac 01d5 f4bf
00000130: 8461 3348 d801 cd3f d834 b6c9 74f0 d63f
00000140: 21e6 8498 4f90 d0bf ab7d 8a07 0527 e43f
00000150: 013d 6660 fb00 e43f 9925 1909 9873 cebf
00000160: c4e3 17f8 0bd5 e63f 288e 3c40 588a fdbf
00000170: 8a1f c789 ca82 d13f 4c23 2c7b 0a6b e83f
00000180: 0649 2175 ca1c b5bf 66b9 b577 b7a8 fa3f
00000190: b1ee f3bf e114 0040 5d28 11b5 2197 cabf
000001a0: f853 d0b2 dcaf db3f 4e3d 0f5a edbb f7bf
000001b0: 28a0 cac4 ace2 edbf ef37 913c b01a f23f
000001c0: 1466 0ba8 83a6 e93f e0da 7332 e06b de3f
000001d0: 39fd 554f 5209 f43f 7d36 f8a2 1925 d03f
000001e0: 6129 fadd 415e e7bf fa72 ca6c 8323 f93f
000001f0: 60a8 bacc 92b0 bebf 9e04 b452 9302 d4bf
00000200: e8cd bde2 de92 e2bf 92c5 26fc 8def 80bf
00000210: 5762 15c5 915f f5bf 6e6d 0037 fc42 cf3f
00000220: 39c3 4f3d 2d28 04c0 6323 df1c 8ee5 fa3f
00000230: 2a7d 0316 0105 c1bf 8884 ff97 d0a6 e4bf
00000240: 4665 db95 2b78 fabf 07d5 c981 d913 f93f
00000250: d3d7 9dbd f043 e5bf 76b4 64c1 5e6b f9bf
00000260: 7fc1 f2e7 855f b03f 3cf4 e4b1 1b68 f8bf
00000270: 90b4 8196 5f37 d53f 557e 22ee 37bc f8bf
00000280: 3558 813e ba26 d43f 67ff fc7e 990b f33f
00000290: d30a 4e2f d10e f03f d2ea 5313 de9c e33f
000002a0: 35e7 d7bb 7938 f9bf bfb3 65bb 0284 df3f
000002b0: 9cad a4bf fdf4 c3bf 9757 b8a9 c514 a93f
000002c0: 780c a3ff 9e28 c5bf fcf7 1ead f26f eb3f
000002d0: 1209 5dcb 2697 bd3f 806d ac85 331d e4bf
000002e0: ee97 e5db 5b1b f1bf dde3 c294 91e8 f3bf
000002f0: f44d e3fa 530d e73f 16c6 9e4c 0d54 ea3f
00000300: fec6 cdf1 dace eb3f 8a4c 785a 4723 ed3f
00000310: 982e 7b88 2014 d6bf 1c1d 26a5 98b3 f23f
00000320: 76d4 f5c6 bf4f f6bf 675e 4b7a 8fa2 ec3f
00000330: f505 6315 7eab 5b3f da71 cc89 06d2 d1bf
00000340: a7ab ca05 30ce e5bf 74f9 1bc0 8caa fdbf
00000350: 367a 36a5 c8b1 e1bf 59a2 5738 bf38 ecbf
00000360: 2083 5f74 bbda b4bf 68b2 e582 151f ca3f
00000370: 276e 8e1c 3eb9 e03f 9a6d 0bdd c079 06c0
00000380: 1f35 14d2 6fd5 00c0 db5c 421c 8617 cbbf
00000390: 82a8 ba53 2959 d63f ef22 e9b6 7579 d6bf
000003a0: 0b3a b360 f040 eebf 83d4 c587 b11f 0540
000003b0: 53fa a175 010a dfbf 8c47 a6ae 4d57 e3bf
000003c0: b053 f68b 96f0 e23f c152 746a 606a bdbf
000003d0: 14b0 0c5f a408 dc3f 63ff d2d1 07bf de3f
000003e0: 502f d1b8 d3c1 e2bf 5942 f389 38a9 febf
000003f0: 6bdb ea5d 46ad d3bf 41b1 dfb7 1d4f e0bf
00000400: 9040 f755 424c e73f 849d 5069 aac1 c03f
00000410: 7562 9ff8 7f9c e13f 0ed2 9518 f288 e7bf
00000420: 691b d85a aafb ef3f f035 67af 968f dabf
00000430: 09c1 e5fc 5545 e83f 2838 9473 4b01 b33f
00000440: f5bd 8ea1 ec0a e03f 1387 a546 7217 bcbf
00000450: 45b9 aec0 80e1 e33f 1c7d 1548 99d6 ecbf
00000460: ca33 04d0 0799 f9bf cfb0 fce6 3582 e7bf
00000470: 7723 5d5b f304 e1bf 73ff 3c7e 4f16 d0bf
00000480: 678a 22bd c65c d3bf 1b42 881d 1118 e43f
00000490: fbc4 777a 2c3a 0440 cf58 2366 3bb5 d83f
000004a0: 46e0 4f3a 6cba f93f 3543 2a79 480a febf
000004b0: beff 0959 bd5d d3bf 3e71 fd9f 9e61 f53f
000004c0: f2f3 2119 ec52 f23f b454 b2a3 8280 f83f
000004d0: 8f17 3a77 caba f8bf 49ee e95d 6662 d73f
000004e0: 2010 abdc 6e31 f83f 7275 f316 80d0 fcbf
000004f0: 839d 756d c2a4 c9bf e28b 09a9 7477 f7bf
00000500: ddb2 59ff 1a13 debf 473f 0504 b2ee fdbf
00000510: aeb0 cb1f 7406 cc3f 7f10 e147 d042 95bf
00000520: 90bb 53f5 7a31 f2bf adbb 9124 3cc9 fcbf
00000530: aa5b a203 77ac f2bf 34db 8973 64ee ecbf
00000540: 7340 e9b3 b9bc efbf 72bb 05a3 fdc0 e43f
00000550: 92c0 03aa 1a97 fc3f 1f06 5d6f 6f56 d13f
00000560: 80ba 52e2 3842 d9bf 661e 1da0 3104 f23f
00000570: b32a ad94 4cb4 d4bf c471 c42c 74cb efbf
00000580: 29cf 49e2 3a29 f6bf b319 15e3 2f1d e1bf
00000590: 1045 697e 0f13 f83f 87a4 b669 6a95 0540
000005a0: 0efe 51ee 46bc 33bf f256 7c30 90c2 d8bf
000005b0: 930c 6436 1640 bfbf 6123 db4c 8849 c13f
000005c0: f0fa 3dc1 7207 b83f f50d c7a4 dc94 d1bf
000005d0: 5a34 4d53 a3b0 d73f 55da 0d4d d236 d43f
000005e0: 2107 e98f 5f22 e6bf 9292 0040 168e dfbf
000005f0: 809f c78d 57e8 0040 979e ee0a c7b4 ecbf
00000600: 9a7c 78de 8d52 fbbf 5e3e fc9a e08b e83f
00000610: 53de 96f8 2a8c 02c0 a899 eea6 6126 fd3f
00000620: 3861 2e76 b65c d13f 6b67 2e83 bf6f f73f
00000630: 49b8 6a1f 8fed e1bf 3b2d 7cc8 9856 ddbf
00000640: 7fe8 cd7f ac54 f9bf d208 7a4f 9be0 ff3f
00000650: a455 04e7 b07f ad3f 96e8 0913 0255 f3bf
00000660: f2a6 eb0a 5e2e e33f 39b1 7c92 5c7a d33f
00000670: 3d22 b7d2 f37d c3bf dd16 8a80 73d3 fe3f
00000680: abf1 f2ee d243 c53f 04f9 4bc5 98ce e0bf
00000690: 04ce d7b4 43d4 d8bf c8a1 8b5b 1d83 f9bf
000006a0: c985 84a2 b618 ec3f 8783 73a9 63c3 bf3f
000006b0: 0e08 2cfe 0309 cb3f d71c 51cd 791d e6bf
000006c0: f23c 9544 6df5 e0bf 0813 ae38 2054 b33f
000006d0: a1ba b7a1 5476 0940 7a74 7947 e2ce d5bf
000006e0: 2ae5 f365 b5c2 f1bf 9b04 506f 069b f5bf
000006f0: fc6e fe5b 817f c93f fed9 2bc7 ee05 ef3f
00000700: 0c11 cc7d f841 04c0 67b9 7ef0 b7e2 08c0
00000710: 6e1c 0aa4 8756 cdbf d1af 5fad f78d 0040
00000720: f838 ef1e 10a2 eebf cd28 d1a5 8128 f3bf
00000730: 8b12 cab4 4c96 f6bf 28e1 6e0f 75d9 e7bf
00000740: 105e 2ce6 11b8 e03f 5b31 4ac2 91e2 da3f
00000750: 8776 1e14 8e21 cf3f 4a5c 131e 0a68 dcbf
00000760: c03e 0781 f8bb 50bf 72c3 ba02 5c39 c43f
00000770: 8e40 f574 492a f03f b142 b396 ee5e efbf
00000780: 95d2 0cf5 3e29 f13f 7f7f 63c9 b110 afbf
00000790: c3fe 0b05 26e2 dcbf 1a1e dcba c113 d33f
000007a0: 027c 9c78 d1af f1bf 7b1f 22a2 b767 de3f
000007b0: c12c b3dd ba2e eb3f 2b47 ba3e e7d7 b6bf
000007c0: 900c aeee d9be e5bf d6c3 b03e 1fa7 d73f
000007d0: 26e3 5d66 ea82 f1bf d0a6 c264 9587 f9bf
000007e0: 0fd9 19ea e2d0 e43f 2e8a bc8d 9f03 f4bf
000007f0: 7708 f03e 2288 e3bf ff33 226c 3a81 cbbf

w3 f8 [33, 32]
-0.06386532416510668 0.040344037881918364 1.301795299682774 1.0419441468092638 -6.895546670710569 2.092694951866992 -1.1338011005546167 -0.7464482113692708
1.247859287099933 0.7729628211110418 -5.25834527103095 2.7826422781175095 1.0785234138056161 3.468192173626776 -4.394132229447307 -0.6317455827818818
-5.157544756455133 1.840662490693269 1.8612254909352117 1.149479287298939 4.561707596434542 -3.426403751959157 -2.230616940123149 0.5094955324694562
-0.5389568534025603 -1.3616045245618995 1.0787677003552958 0.5569437579256681 -6.521675373733685 1.9475558386665477 3.3136771192290055 0.37327256731374164
0.47779113291341546 -1.3939240768380559 -0.16025928035939213 0.08811572259569395 0.3558890138116923 -1.2591253017386224 -0.9611459216319218 1.8029699930087857
-0.40970723551685234 2.525077234111242 1.1368921496525475 0.3835652731916696 0.2952701119650094 -0.14644406793748171 0.4107099615767107 2.055124488196702
0.674726933311247 0.3862267514694317 1.166008741448111 -1.0489039585953446 -0.022265274139306995 2.727494504887666 -0.3368837482126682 2.018779504407169
0.872536230347457 0.8755205108980532 -0.17934172847311192 1.4773882942330858 1.3500290271352977 1.8390877612985639 1.3805140489466545 -0.31815716439579084
2.3374804615909484 1.5631374560239228 0.08120945639019463 1.0757947265920664 1.1762091470094904 -0.11915201193670887 -0.0893039313799488 -0.09606384863295334
1.077312160400256 -0.15646547519492887 2.392653038310017 0.43883344322403306 -0.18700486334769462 -1.8188722840164693 0.3590849310991334 -0.15529296439702728
1.767803781590269 -0.289709186129786 -1.4794210764177707 -1.392679801143681 -1.4027259481063903 -0.11702109639788862 -1.6009052711415555 0.5311899926074356
0.8757091773638018 0.12646539614703586 -0.11913837044307925 2.338367154819625 0.8234100308493829 0.8156197771630259 2.2314113196940353 1.6157279222781729
1.8971636249906374 0.9334761256897514 0.12137812751103058 0.17183502858259017 1.5766557146825435 -0.6750915351445224 0.4554063028548873 0.20768288649865596
1.0776737646674788 0.7877154326458918 -1.1832434202242577 0.9351334626898152 0.6654484969568885 -0.022377852554993707 0.9327183431218866 1.0614422342428158
0.6681205873946663 1.0349830810512595 -1.215401979713532 2.3342172415617894 -0.20591194190245668 -0.3036582092297367 0.7285539216134527 1.3615421030497403
0.38524978142585276 1.3997865814964414 0.5813676911204493 0.16345498463349845 1.8703065910201393 0.45982132666291575 -0.26806654507888195 1.5652867566120072
1.4645891497033272 0.22219018324401119 -0.3580380513521603 1.3545362251942348 0.6944617148805187 1.0610400967819595 -0.15987159489407907 1.205124897639245
-1.1655193523261576 -1.264727761411872 1.0633347836291973 -0.6348170956554698 -1.7179411232549557 -1.7832387930754567 1.2119112776324796 -0.49623797637949124
2.347392071467271 -0.3597977930860305 0.24713864516152223 1.5445234353324047 -0.5495064897060977 3.374040942495749 -0.3981802438071562 -2.6056224435853927
0.5049634241762536 -0.979969440702013 -2.728386642461359 -0.4399295397666728 -0.9774525011370581 1.0975131366385409 -0.8885920038701567 -1.0238970314408913
1.3423139193964306 -1.0246520924591953 0.5659441620818972 0.7646337095175079 0.31847756897010016 0.29991110437687996 -0.17147872668583203 2.07274934162254
1.3411830822930995 2.301642776021131 0.3258229917681846 1.71308988029756 1.0136410461765528 0.5357129883614484 0.8024382659572407 3.1389091874255732
1.1898344228985025 -0.9006257864367717 0.14268099561316078 -1.9272543824184205 0.06625990042480644 -0.8877814954528164 -0.24573431938775056 1.21217027758002
2.27223560318836 0.8499855239762475 -0.2825039601873961 0.7974197529699755 0.43060782067947195 -0.30569714844037593 1.3510195621208956 2.0284811957803583
1.0615605097093284 0.3852886562691735 -1.3416881474163729 1.4437767155165406 -1.213164107758275 0.6467162558297971 0.6966051636113131 1.1560380313547045
0.09421047305562556 -0.3531837824980885 0.9909163168504586 -0.5855223283744376 1.1726664351047467 -0.10230404142452391 1.6833781181212275 0.15231569260232014
-0.4477435152879472 1.386527242837829 2.1533722643997093 0.44926131800923225 -1.5507889934119459 0.07929721443282586 -1.3106929180063511 -1.678452463309766
0.8580597959694496 -1.2575384717102678 -0.21624078834768354 1.1591388319544338 1.6577948497567982 1.336563231896913 -1.572084812130289 0.936124445308613
0.21757138430331602 -2.1011926735485758 -1.4639865949412743 -1.0871432312804972 -0.0037711066191441593 0.39653707473067784 -0.5781262690177519 -0.8606120652077109
0.03189142851060272 -0.4140897973335533 -0.17653500341600945 -1.145780770135755 0.18391210794303006 -0.9840325581101936 1.6931123972676294 1.8114616683679807
-0.795788646537455 -0.1749453033261526 0.03324828152549812 -0.30595023624100914 -1.8858258722578884 1.4589286260133427 -1.4340548460359952 0.1543527372609604
-0.9990449670797911 -0.3654137191759362 0.3953715847050561 -0.28878174115019833 0.5502151194031428 -2.484008232196436 -1.6696102041715557 -0.9852510067132266
00000000: e637 a356 7a59 b0bf 9735 9546 f9a7 a43f
00000010: a495 e34e 27d4 f43f dede 2ca0 cdab f03f
00000020: 6cf9 ba2f 0a95 1bc0 282f d6d9 d6bd 0040
00000030: 6ed0 709f 0c24 f2bf 8aa3 ff5b e7e2 e7bf
00000040: 57aa c14c 3bf7 f33f 2e44 b686 1cbc e83f
00000050: e39d a8a9 8b08 15c0 66da 67f4 d942 0640
00000060: 103f 64c4 a141 f13f e1c2 cf89 dbbe 0b40
00000070: 5f1a 2f66 9793 11c0 bf19 2e83 4237 e4bf
00000080: 3a86 a269 53a1 14c0 1f06 0883 5a73 fd3f
00000090: c0c5 6061 94c7 fd3f a50d a664 4464 f23f
000000a0: 8d67 b246 303f 1240 4073 cc5e 4669 0bc0
000000b0: 31dc bdb1 4dd8 01c0 ef42 2d93 c94d e03f
000000c0: c335 6a71 223f e1bf 8843 71d3 21c9 f5bf
000000d0: 2d1d 90eb a142 f13f 1511 40b7 7bd2 e13f
000000e0: 4f42 b511 3216 1ac0 8a4e a34f 3029 ff3f
000000f0: 90bc 4426 6982 0a40 8dd0 469f b2e3 d73f
00000100: 64a4 8b42 2194 de3f e705 3255 834d f6bf
00000110: 3215 0348 6083 c4bf 94d9 cf82 c08e b63f
00000120: 1bec d4b6 e2c6 d63f 4789 8892 6025 f4bf
00000130: e6f8 8217 b5c1 eebf f945 3a10 f7d8 fc3f
00000140: 51af 5eb2 a438 dabf 2c0e 63b1 5b33 0440
00000150: a763 9dd2 b530 f23f 6754 0f5c 558c d83f
00000160: f40f 989c b4e5 d23f 320a 3ee1 adbe c2bf
00000170: c441 476f 1249 da3f cc1b 901b e570 0040
00000180: 73ab 09f0 5c97 e53f a7b2 9968 f0b7 d83f
00000190: 86ea 35c8 f8a7 f23f b8fd 6c84 4fc8 f0bf
000001a0: 3b27 0f41 b5cc 96bf 1019 94a3 e8d1 0540
000001b0: d225 48da 808f d5bf 6c1c 6ade 7526 0040
000001c0: c15b bd19 d1eb eb3f 6519 2997 4304 ec3f
000001d0: fcd0 4c75 abf4 c6bf da96 73e8 61a3 f73f
000001e0: 1826 8309 b899 f53f dc04 d449 e76c fd3f
000001f0: 904f 3ee6 9516 f63f 655a 04de af5c d4bf
00000200: ad93 ccf4 28b3 0240 fc67 cc6b 9c02 f93f
00000210: 1163 5297 24ca b43f 47c1 fe87 7436 f13f
00000220: ce96 baae c0d1 f23f ef50 850a bf80 bebf
00000230: 1c5d ae58 9fdc b6bf 86d8 34f0 a397 b8bf
00000240: 0909 08ad ab3c f13f 2a29 7589 0f07 c4bf
00000250: 83bb b146 2724 0340 6c73 c2dd d815 dc3f
00000260: e0b9 227e c6ef c7bf 9639 f7d2 191a fdbf
00000270: 06a9 e35c 3ffb d63f fe2a b1cd a3e0 c3bf
00000280: 29ce 3a9e ec48 fc3f 28ce f165 988a d2bf
00000290: 9aa3 436f b5ab f7bf ea63 7b9d 6a48 f6bf
000002a0: 71e1 85c3 9071 f6bf 2193 f835 18f5 bdbf
000002b0: 7cc0 78d8 4e9d f9bf efc3 c627 82ff e03f
000002c0: fbb4 b240 cf05 ec3f 677b 43a2 0430 c03f
000002d0: 3d73 c02c da7f bebf 47ed bfd6 f9b4 0240
000002e0: 5349 36fe 5f59 ea3f 255a 9ca5 8e19 ea3f
000002f0: a614 902d eed9 0140 55b3 9685 05da f93f
00000300: f6ed c73e c85a fe3f 85e5 ed52 09df ed3f
00000310: 5e0e 1c10 a312 bf3f bde3 08b2 b0fe c53f
00000320: face b957 fb39 f93f ae11 2890 599a e5bf
00000330: 57db 497a 6025 dd3f 80ad b952 5a95 ca3f
00000340: 7910 70d8 263e f13f 5798 b8fe f634 e93f
00000350: 3e20 11a7 90ee f2bf 5bbc f402 9dec ed3f
00000360: 2745 73a5 5a4b e53f 647d 8343 38ea 96bf
00000370: 56cf 8223 d4d8 ed3f 34a8 2ada aafb f03f
00000380: f09e 146d 3e61 e53f a474 506b 4a8f f03f
00000390: facf a558 4972 f3bf 4323 d216 7aac 0240
000003a0: f9d7 2990 525b cabf e96e 73d7 226f d3bf
000003b0: 7679 5650 5050 e73f 749c 4b5f e0c8 f53f
000003c0: cef8 00b3 eea7 d83f 7a82 4e9d 8665 f63f
000003d0: 0a07 8a6a 909a e23f 4e3d afca 17ec c43f
000003e0: c2cb 9e9a c6ec fd3f ca50 016e b66d dd3f
000003f0: 14fe 1095 0028 d1bf f02a 4820 6a0b f93f
00000400: f8d5 4008 f56e f73f 383c 4359 ba70 cc3f
00000410: 7ffd 516e 18ea d6bf f24d 472d 2eac f53f
00000420: 878c 37c6 0739 e63f 64c5 362e 05fa f03f
00000430: 2b91 d023 ac76 c4bf 634b 6f0b 3148 f33f
00000440: 0189 d19e f7a5 f2bf 6cb7 592d 533c f4bf
00000450: ac2f 8655 6b03 f13f b505 19f1 6b50 e4bf
00000460: 2e56 cdd4 af7c fbbf 487b 9366 2588 fcbf
00000470: 795c 7114 fd63 f33f 1752 e5ed 5cc2 dfbf
00000480: a5bb 8e7e 75c7 0240 f78e 9e52 ed06 d7bf
00000490: 46f3 4537 3da2 cf3f 3088 aa34 5eb6 f83f
000004a0: 4647 47a2 8e95 e1bf f612 7b2d 09fe 0a40
000004b0: a829 44fd c87b d9bf 0862 6794 50d8 04c0
000004c0: 036c 100e a928 e03f 36a0 5cdf e85b efbf
000004d0: e0b7 4160 bcd3 05c0 76e6 753a ce27 dcbf
000004e0: bcdd b877 4a47 efbf c5af 4cef 698f f13f
000004f0: 7080 837f 586f ecbf 6b29 88da e161 f0bf
00000500: 3b5f 0c29 1e7a f53f 4f3e ae97 f964 f0bf
00000510: b81f 70ee 361c e23f e17f f91c e177 e83f
00000520: 521d cfbd ef61 d43f 5a61 4058 be31 d33f
00000530: c2a5 89d1 03f3 c5bf 4098 589b fd94 0040
00000540: 805b 4664 7c75 f53f ecae 10b0 c369 0240
00000550: 8178 7bad 48da d43f 03c9 2fef d068 fb3f
00000560: 6362 73ac df37 f03f 54c1 a190 8f24 e13f
00000570: b00c ab03 93ad e93f abda 886b 7c1c 0940
00000580: cd10 e0d1 8f09 f33f 52c4 552b edd1 ecbf
00000590: d2a9 f5f0 5e43 c23f eaf4 f8b0 08d6 febf
000005a0: c75a 5ca9 68f6 b03f 9bd7 1ebd b468 ecbf
000005b0: ff39 a3e0 3874 cfbf 193b 36a9 0c65 f33f
000005c0: b801 24dc 892d 0240 20a5 71d7 1433 eb3f
000005d0: dab3 7f7d 8b14 d2bf 1d18 066e 7684 e93f
000005e0: 2d17 ce1a 148f db3f 310a c2c5 8a90 d3bf
000005f0: 3c0c 39b0 c69d f53f c06b 6359 543a 0040
00000600: 95d3 7edf 26fc f03f 6489 8cc0 91a8 d83f
00000610: ac58 a9fd 8d77 f5bf dbea fd9c b519 f73f
00000620: 840b 78c4 1e69 f3bf d993 124a e6b1 e43f
00000630: 22ee 7de9 964a e63f 619c 19bc 217f f23f
00000640: 17f0 b674 2d1e b83f b7a3 d326 909a d6bf
00000650: 7b41 be22 96b5 ef3f 7d45 6e52 99bc e2bf
00000660: c944 3ee1 3dc3 f23f dbbd 2a00 9930 babf
00000670: 871f c2e4 1def fa3f c080 32a3 147f c33f
00000680: 8c19 ca6a d4a7 dcbf 4006 b030 372f f63f
00000690: 86ae dd3c 1b3a 0140 d147 0d8b b2c0 dc3f
000006a0: 9237 9b1e 08d0 f8bf 8e23 a77e d24c b43f
000006b0: 37fa 1e23 99f8 f4bf b9e5 5cf8 f0da fabf
000006c0: 6270 36d1 3975 eb3f 9951 17a9 e01e f4bf
000006d0: 0fdd 0135 c7ad cbbf 7449 ec28 d58b f23f
000006e0: 44ec 72e4 5386 fa3f 6b88 a020 9062 f53f
000006f0: d234 6a67 4227 f9bf b4c5 b240 bbf4 ed3f
00000700: 8868 100e 61d9 cb3f 33e3 bb1a 3ecf 00c0
00000710: fce1 3035 7d6c f7bf 14ae 064d f064 f1bf
00000720: 18a0 2a73 95e4 6ebf 4daa e709 dd60 d93f
00000730: c578 4ca9 0280 e2bf 4086 5350 228a ebbf
00000740: e796 f3c4 1254 a03f 8be9 497e 7280 dabf
00000750: 6bb0 22f1 b298 c6bf 72e6 8137 1e55 f2bf
00000760: 0514 7a94 6e8a c73f 400a e9d8 317d efbf
00000770: 4f77 6b06 fd16 fb3f b791 f93a bffb fc3f
00000780: d301 6dc0 1977 e9bf baf3 2f92 9b64 c6bf
00000790: d6b5 9933 eb05 a13f 70f3 b64c b094 d3bf
000007a0: dbc5 f4bf 572c febf f0ce fe8a c557 f73f
000007b0: 9251 867e e3f1 f6bf 6bbd 4a9b d4c1 c33f
000007c0: 49ea 9a26 2df8 efbf 35b4 5739 f062 d7bf
000007d0: b5db 849e c44d d93f b102 7b69 667b d2bf
000007e0: 4e3d f3bc 5c9b e13f 4d3a 42b5 3fdf 03c0
000007f0: 64c1 7f30 b9b6 fabf 7be6 851e 2d87 efbf

w4 f8 [33, 32]
3.267395687947363 6.4639743063265005 -2.858849092880518 4.2908586481793005 -0.9147804047501028 2.2499293665412234 5.134423202626011 -0.16428175580497953
-1.1848322654936025 0.32137880741884467 6.833260928280152 -1.9445606761099856 -3.84106896434184 -0.668228659970507 -1.0222681116563561 -1.149336941813611
-0.3459700251431919 3.4169050827081064 -1.4339048651759816 -0.7881962565732525 15.089498169665022 6.999130712891901 5.497424368949203 -2.6234846576197577
-1.0757689843490286 3.305221550852146 -3.2906559651574634 -1.1664759093928174 -2.34875110456332 2.1030781308877424 -0.8221858487684367 5.802044962871165
-1.2657455690856037 0.017668466332292566 0.04667513574778932 1.1042284445789958 1.1351956964624088 -0.032446679959276 0.09053583685589454 -1.2790412759995677
-0.7454991930478169 -1.4255235565971034 0.3987811515076233 -1.2197091693154842 -1.1933785714331344 0.771575257544118 -0.02939433540655795 -0.7073402318247514
0.938322974420103 -1.1095560024237212 0.110383413806271 -0.44731214538546415 0.3490562358301121 0.13892166520203283 1.2839935742878545 0.15343696577969318
-0.6998179173583279 0.4715233489875533 -0.4258997848833445 0.8032620878405657 -0.4338211925698077 -1.4439820855526437 -0.1676715001379561 0.5304314406883335
0.6299450649385165 0.03734414271859084 0.9448816453921658 -0.4317513678913189 1.3813932461446936 0.799397582731586 0.8005605089299224 -1.8914881968361683
-0.11945528200857748 -3.111187623941347 0.014323860809622353 0.018209930741034518 -0.7951601142368476 0.3266907634347963 -1.5128723757690972 -0.34709151831226953
0.9452172148387546 0.10300939786529535 0.1832185127839709 0.009291756339011924 -0.7972386578441046 1.8724861686178689 1.4227468625233308 0.6479201621508492
-0.44914469627005466 1.2600129366248316 -1.5640466154701465 0.38662979059433483 -1.1246951897114472 -0.5543079196550177 -0.11485109848338894 0.9722032965387475
-1.3407698094287666 -0.23836401352444528 1.6182680557278721 1.2360639206198756 -0.6423885458473457 0.39332409234223853 1.015112995472656 -0.11744169122862495
1.8051000329628655 0.9401737798490256 0.4250197012059459 -1.714450262641496 0.5634084566751145 1.3232542881959193 -0.667039702317983 0.8843472683829435
0.6568590709598326 0.5301579119416182 0.6878233095554575 0.9577136304767283 1.7498296469768928 2.6778811228982207 0.7659297343226965 0.31849059315418987
0.7182052655105856 0.8203344169402785 -0.5796459578272557 -0.501163767840092 1.5158585183443618 0.7671259209261798 2.1846634221607477 2.9107419812421154
1.0750556037781125 -0.8684888442631189 -1.134795268400419 -0.2304778309020615 -0.6513716307670906 1.0243389948742412 0.7115892094958431 -1.3958919776093088
-0.41124735356942593 -1.7753131861781088 0.41828916021731316 -0.0037775244016254174 2.4763781045897555 1.1119416276651872 -1.5551834798769348 -1.8428427488286472
0.2696045990072588 0.9048075088208141 -0.8263818559887739 -0.5925694950454102 2.328425897914573 1.086693082249747 -1.255447518427178 -0.641241549059288
0.2869558640197417 -0.960056644466093 0.35452370450424275 0.6048845421606334 -0.9030861012634187 -0.5266441687064277 1.208045768163911 0.14188724500172864
-0.3965433274525654 -0.5383996167471147 -0.770297525025889 -2.4992297359726403 0.7970821129143506 0.19862858824289412 -0.38830324091104645 -0.30741671678607235
-1.1329785293455072 0.6003298128387239 0.9401282302011535 -0.4227671366059033 -0.5533164790950407 -0.7255070742591148 0.13284247309756392 -1.367174331394848
0.311213689952828 -0.8008087292694868 1.2677774657138001 -1.1434171624933487 -0.6375396009225626 0.2515003775909291 1.4991876291252235 -0.4613366230949753
0.9351845667735997 -1.1501938774149807 -0.9291772940132256 -0.4605313614944082 -0.638828828138505 0.7757097924321895 -0.7602247588710582 -1.0811975268953302
1.2318429548671954 0.6569025860375665 -2.5111629627057006 1.1034680881674206 -0.1959183174220681 0.4923618683712122 1.4671582111935833 0.8960943053158242
0.06564621174311143 1.0928559496336006 0.8084546411402616 0.6540475376868505 -0.9842926711076477 -0.019577039141759473 0.937670597985079 -0.17578219484429014
1.9109243280155999 -0.10730367807757783 -0.3545645881458556 0.35557923913731865 0.951630815116842 1.0071982356105007 -0.2178402092189418 0.6802266684553636
0.721243368777467 0.23682327508027642 0.4993029256864913 -1.0505945276728574 0.2271214832304637 1.3211911032121295 -1.141837800904405 0.24262158407368453
-0.4562972631902285 0.21267798788774722 -0.03246651503041239 -0.9591153724911338 -1.8766310040735854 0.8829531275130033 -1.4794918784449176 1.5990375011854812
0.8675984348229704 0.2904661143163399 0.012272034543000462 0.419516946686492 0.24300120094386618 -1.3365936098073674 -0.05374515685241562 0.12188986294364948
0.07290932943683387 0.7973854224493712 0.6595846131747304 -1.5011628556678867 2.5167811524915424 1.6360317537268518 0.8660100110702962 -0.9114070283724997
0.019618415423694392 -1.3469881698331543 -0.35425373903713886 -0.7203169173691909 -1.1235156968415694 1.026939010555945 -0.6159986405708966 0.4610760852101921
00000000: 4f9a b659 a023 0a40 2a6d 9f14 1cdb 1940
00000010: fff7 f045 ecde 06c0 66c1 76d9 d629 1140
00000020: f58b 2d8e e145 edbf 1fd6 bcf7 daff 0140
00000030: c168 6c3c a689 1440 2584 4140 2f07 c5bf
00000040: 59a6 78ad 12f5 f2bf 6d73 df6a 7891 d43f
00000050: cefd 4f5a 4255 1b40 3bae cfa7 eb1c ffbf
00000060: f83a 7c5d 82ba 0ec0 ea57 1a12 2162 e5bf
00000070: 72ec b4ce 355b f0bf 2cc9 1222 af63 f2bf
00000080: 41b9 d875 5f24 d6bf d323 fe54 d255 0b40
00000090: 1c19 583a 46f1 f6bf d0f9 195b e738 e9bf
000000a0: b986 3fb4 d22d 2e40 1433 211f 1cff 1b40
000000b0: 277b 53d0 5cfd 1540 e546 3086 e5fc 04c0
000000c0: 8e48 dd89 5936 f1bf 118e 17ff 1771 0a40
000000d0: b2e8 456f 4353 0ac0 c99f a6a4 e2a9 f2bf
000000e0: c058 e404 3eca 02c0 eac3 88a0 1ad3 0040
000000f0: d538 76b2 584f eabf 10d0 5546 4b35 1740
00000100: 2579 046d 7e40 f4bf 3d4c 45b4 ae17 923f
00000110: 6a6f 25ab cde5 a73f cc79 0c72 ebaa f13f
00000120: 17db 6df6 c229 f23f a4e6 93ea d99c a0bf
00000130: ab7c 694a 5b2d b73f a16f 2afc f376 f4bf
00000140: 63b6 aa1f 21db e7bf d331 f4c9 f1ce f6bf
00000150: 3622 ff60 a185 d93f 1876 0dc3 ed83 f3bf
00000160: 17d7 0021 1418 f3bf a1c0 3198 beb0 e83f
00000170: 7108 0975 8c19 9ebf bda2 5afb 87a2 e6bf
00000180: 7f08 07e7 bd06 ee3f 98d8 77cb bdc0 f1bf
00000190: d59a 5160 1642 bc3f c62f e21e c3a0 dcbf
000001a0: 83bb 56f7 ef56 d63f dfd1 5f64 2fc8 c13f
000001b0: 9d72 9dd8 3c8b f43f 6eb8 028f d2a3 c33f
000001c0: e4ae 868b e864 e6bf 86ec cc44 702d de3f
000001d0: 33a2 dc2b f141 dbbf 858a acb1 52b4 e93f
000001e0: e989 99f6 b9c3 dbbf ee55 97f5 8c1a f7bf
000001f0: f929 c87c 4276 c5bf 8cd9 505b 4bf9 e03f
00000200: 3400 868d 8228 e43f 8bd5 587f c51e a33f
00000210: c699 b16e 783c ee3f b72c 467d d0a1 dbbf
00000220: 32b5 f1cd 2f1a f63f fcac 4a3d aa94 e93f
00000230: 1a57 8a12 319e e93f d3e6 a220 8943 febf
00000240: 31b1 8f11 9f94 bebf 5f62 4456 b6e3 08c0
00000250: 0a99 d60d d455 8d3f 660d fbc3 9fa5 923f
00000260: 6863 b79f f371 e9bf eee4 3660 80e8 d43f
00000270: 9733 0faa b934 f8bf 13b1 f757 bf36 d6bf
00000280: 3328 2b2c 383f ee3f b518 03eb d25e ba3f
00000290: 9ee6 3648 b473 c73f c6a3 c96c 8e07 833f
000002a0: 0084 51a5 fa82 e9bf 42d1 860e b4f5 fd3f
000002b0: 9763 d036 92c3 f63f d86b 5b10 c3bb e43f
000002c0: 13b6 6965 c9be dcbf fc72 3553 0329 f43f
000002d0: fdd1 6dbe 5506 f9bf 8dc4 90e0 8abe d83f
000002e0: 8777 1c62 c0fe f1bf 89a0 5af6 e3bc e1bf
000002f0: 2955 e5af e166 bdbf 5e50 7616 4a1c ef3f
00000300: 0c5f 2f0b cb73 f5bf ddbd 5045 b682 cebf
00000310: 1634 780b 6de4 f93f 1a3f 2df6 eac6 f33f
00000320: baa8 776c 728e e4bf e0ae 55d0 382c d93f
00000330: 62cb d41f e73d f03f 438d 039f a810 bebf
00000340: 2f58 7992 b0e1 fc3f bd43 a052 e715 ee3f
00000350: 6674 35d5 8533 db3f 129f 0a66 636e fbbf
00000360: d0b3 f62b 7107 e23f e17d 41b0 0c2c f53f
00000370: a6db 52a5 6358 e5bf a95f 80a4 924c ec3f
00000380: 414f 7b50 fd04 e53f 2028 b0b9 0df7 e03f
00000390: 17f3 7e07 a602 e63f 5d97 3a0e 97a5 ee3f
000003a0: 4564 355f 4dff fb3f 9063 2bf0 4c6c 0540
000003b0: fe65 fe12 7f82 e83f a793 6b5e 2662 d43f
000003c0: d3da e59b 89fb e63f cf55 91f6 2d40 ea3f
000003d0: 960d 04ae 758c e2bf d006 1a99 8809 e0bf
000003e0: cc6e 9adc f440 f83f a056 c9a8 4b8c e83f
000003f0: 3495 f7d0 307a 0140 a93b 8417 3349 0740
00000400: 87bc 3981 6d33 f13f 3ea1 e11d a9ca ebbf
00000410: 29f7 5615 1f28 f2bf 23b4 162d 4c80 cdbf
00000420: 9bfa 7551 09d8 e4bf bd09 3049 b163 f03f
00000430: 9213 dfbb 56c5 e63f bc4a 89d3 9255 f6bf
00000440: 456c 896b e051 dabf 3bae accc ae67 fcbf
00000450: 05e6 d9e5 3fc5 da3f 5f6e 79f8 0af2 6ebf
00000460: 9ff2 dd52 9fcf 0340 b820 de4d 83ca f13f
00000470: 539d 9512 08e2 f8bf 8c3c 9ead 487c fdbf
00000480: 7b97 e5a5 3341 d13f aaf0 71e0 2ef4 ec3f
00000490: 9a58 af5c b871 eabf 0179 3a4d 54f6 e2bf
000004a0: c69e d5c1 9da0 0240 68d5 1049 1863 f13f
000004b0: 4dd3 1723 5016 f4bf 0279 41ff 0c85 e4bf
000004c0: be0d d720 7c5d d23f 8242 49b6 c8b8 eebf
000004d0: ce28 2031 84b0 d63f 83f2 cdd3 365b e33f
000004e0: bdc0 ccd2 14e6 ecbf 9124 27df 44da e0bf
000004f0: f65c a5cc 2754 f33f 5b40 807a 5c29 c23f
00000500: 38c5 b643 f760 d9bf 0773 43d5 913a e1bf
00000510: 42a1 c5fe 46a6 e8bf af8b e928 6cfe 03c0
00000520: ea32 e658 b281 e93f 8de5 465d a96c c93f
00000530: 4333 29d6 f5d9 d8bf 83c0 352a b7ac d3bf
00000540: ffbe 2918 ae20 f2bf 8998 1ede e635 e33f
00000550: 7e54 58cc 8715 ee3f 57f0 62e4 9d0e dbbf
00000560: 58a2 c1c2 c4b4 e1bf 90b4 9e9c 5a37 e7bf
00000570: 60a5 bc6e fb00 c13f 3858 1431 f2df f5bf
00000580: 658d 1ad3 ecea d33f 5a0a d2a0 39a0 e9bf
00000590: 668b 1d06 d148 f43f 3b81 69cb 6f4b f2bf
000005a0: e7c0 fb72 b966 e4bf fdd1 2b0a 9518 d03f
000005b0: de91 da2a acfc f73f b7f5 280b 8a86 ddbf
000005c0: 7d87 402f 08ed ed3f 8de8 f8b1 3167 f2bf
000005d0: 611f 3f05 d2bb edbf 50a7 1988 5879 ddbf
000005e0: ab19 9327 4971 e4bf cbdc b557 9dd2 e83f
000005f0: e6bd 9edf c253 e8bf 1f81 28c7 954c f1bf
00000600: d866 4ff5 a0b5 f33f b70d 7692 5805 e53f
00000610: c8fa 7d9b dc16 04c0 4dbd 6d27 cea7 f13f
00000620: c4ef 01f7 d913 c9bf 82ea 9c5a db82 df3f
00000630: 1926 72e3 7a79 f73f 63d3 eef6 cdac ec3f
00000640: 15ff 8aac 30ce b03f 39a5 2e85 567c f13f
00000650: 1ce6 7f44 dcde e93f 859e 0c1a f5ed e43f
00000660: d131 0358 537f efbf 6529 77db 000c 94bf
00000670: a088 18c5 6501 ee3f 48a4 09ed 0780 c6bf
00000680: 0f53 5f63 2593 fe3f f36d 15fc 4078 bbbf
00000690: 83fe 99ab 2fb1 d6bf 63ce ce6c cfc1 d63f
000006a0: 765d 9977 c273 ee3f 7893 a8e5 7b1d f03f
000006b0: 09b1 2c1f 30e2 cbbf 1340 dcb7 6ac4 e53f
000006c0: 1365 2bf9 6c14 e73f 0b61 b39e 3950 ce3f
000006d0: e3b7 2742 94f4 df3f 4362 1b35 3ccf f0bf
000006e0: 35d0 5817 5112 cd3f 01ff 4048 9923 f53f
000006f0: 2189 c3b6 f744 f2bf 6939 735c 390e cf3f
00000700: 6901 aa6f f933 ddbf 6a4a 4745 0839 cb3f
00000710: fb9a 8a78 739f a0bf c116 beb8 12b1 eebf
00000720: b77d 523b ae06 febf 6f37 d2ea 2641 ec3f
00000730: 7ee5 09ad ffab f7bf 0eb5 ca58 a895 f93f
00000740: a603 f4ca 5dc3 eb3f a16e 652f ff96 d23f
00000750: 5efb 2398 1422 893f 76b8 889b 5dd9 da3f
00000760: 16a8 78d1 a91a cf3f c6a4 22fb af62 f5bf
00000770: 7bc0 ff35 7c84 abbf ca90 0e8f 2c34 bf3f
00000780: 5c26 8191 2faa b23f 2b45 f76e 2e84 e93f
00000790: 09f8 d030 511b e53f 4404 b157 c304 f8bf
000007a0: 771f 2928 5e22 0440 f596 d7a1 2f2d fa3f
000007b0: d2c6 71a0 5ab6 eb3f b18a 8612 3f2a edbf
000007c0: 6a91 9392 d916 943f 4484 9877 438d f5bf
000007d0: 5e9d e9df 17ac d6bf 1166 5b10 d60c e7bf
000007e0: 93a2 6798 ebf9 f1bf ac30 9599 576e f03f
000007f0: 1c3d f4c7 42b6 e3bf d182 bc44 4582 dd3f
