Code/Models/run_20251105_110618/model_hidden_2_width_40_act_tanh.npz (npz, 14818 bytes, 3 tensors)

w0 f8 [2, 40]
00000000: c281 63ab ee84 fcbf 14a0 7a50 c62e 0140
00000010: 0d4b da71 0f6a 0f40 4513 7980 ebdb fdbf
00000020: f70f 7abc cd78 f23f dc5b efac 168f f0bf
00000030: 6f26 6313 1015 fabf cef1 477f cefd 0dc0
00000040: 3699 3621 a454 d3bf 64c7 a01d 6bd7 f33f
00000050: 9e7c fa7e 59a5 04c0 9f53 2233 32a6 efbf
00000060: 3309 fa0f 0177 02c0 adb1 8458 e113 03c0
00000070: 3cad a11e bbc2 b5bf f09a 89a1 3f57 f33f
00000080: f9a8 7e78 a1ac febf 5080 b225 14d7 f83f
00000090: 05a9 7e81 dd43 f83f 40b3 292f 2715 1240
000000a0: ef98 5d4b 2de4 bb3f 84bc 3740 7658 d03f
000000b0: 7e49 97e6 3c63 fcbf fefc 5b8b dbb8 cbbf
000000c0: ccc0 14b4 ed85 d6bf 423f 17ce a285 0640
000000d0: 71ac 3754 a1c8 12c0 cdfc 268e 8abe efbf
000000e0: e711 7090 4815 e5bf d563 f31b d862 14c0
000000f0: 6829 ecad 6b0d 12c0 f4a9 17d8 f20e 1340
00000100: aebc eb03 27f2 06c0 0aab d53d 42f4 0740
00000110: ee85 e0d3 fce2 e13f 21ce 325e 36e0 efbf
00000120: c6e7 3850 be21 f6bf 8ff2 fe7f ade4 0cc0
00000130: 4fc8 8f42 1452 f9bf 0cb3 da3d 98e5 0fc0
00000140: f2cb b416 11a3 e2bf 4c22 fa4c f3f6 0740
00000150: f006 05bf 8845 01c0 0323 de88 6bc1 10c0
00000160: 3716 55be feb1 f63f 89a6 33fe 7faf fe3f
00000170: a5c6 df16 b076 eb3f ac36 6d2d 0200 07c0
00000180: e5d6 bc0e f325 e03f f77b 5063 b1c4 ecbf
00000190: 38ce 9663 02cf 1440 1b93 02df cf89 cd3f
000001a0: bb08 7548 efaa 13c0 b027 0aa2 5e0b ed3f
000001b0: d351 ddc2 c279 f13f 6f9f e365 aba9 f4bf
000001c0: fb7d 4391 9966 f53f 57c0 4ab1 4cbd f9bf
000001d0: a2e4 2467 33c3 f8bf 42b0 ca7d 6082 0fc0
000001e0: 5324 bf7c 7ee2 e7bf ebf1 489a 7b53 f53f
000001f0: 55d0 b2c5 4fbe f6bf a4ef b955 c239 e23f
00000200: 7b7a a5d1 7aa9 02c0 7408 f54b 92fe f2bf
00000210: 7656 499b 2f46 dcbf f8a0 0e41 31a8 f83f
00000220: b5c8 1b5d 25f7 f0bf 7544 764b 1335 e93f
00000230: eddf f69a a011 f93f 16f6 7489 7f3e b93f
00000240: 7d3b 0e9a 6297 13c0 1891 6289 7838 e7bf
00000250: 8496 ff12 2d7a f43f 9fc0 a3e6 428e d4bf
00000260: 2139 1b23 15ef f43f 3a55 588c 80cb 0740
00000270: 9512 d8d2 c28d f9bf 2f47 714f fbbf 0b40
-1.7824541754599612 2.1478391921446107 3.926787270998267 -1.8661913889383908 1.1544930803656805 -1.0349337344430216 -1.6301422841374025 -3.748929018385957
-0.30204108470424573 1.2400923878999146 -2.5807371063416005 -0.989037608977572 -2.308107495134345 -2.3847071567053804 -0.0850026082786614 1.2088009176310912
-1.9171461779429235 1.5525094482946038 1.5165686663045232 4.520657288475206 0.1089504536626895 0.25539928694974656 -1.7742280013522698 -0.2165789061036562
-0.3519243486980599 2.8152519322246983 -4.695927921197936 -0.9920094276821146 -0.6588480778742082 -5.096527516107888 -4.513106076754731 4.764598251766518
-2.868238478309272 2.994266970713743 0.5589584482406147 -0.9961196746648434 -1.3832381375964231 -3.611659049957161 -1.582538852697798 -3.9871067840925942
-0.5824056094628516 2.9955812467417555 -2.1589522288712644 -4.188886774595406 1.4184558329446995 1.9178466729885335 0.8582382628212214 -2.8750041531519255
0.5046325004429632 -0.8990103664144716 5.202157550887527 0.2307681883732123 -4.916928417342372 0.9076378979527728 1.0922267543693251 -1.2914232234997731
1.337548797069643 -1.6087157178372047 -1.5476564435069027 -3.9386606051903366 -0.7463982044656724 1.3328815485721133 -1.421462795505268 0.5695506738988922
-2.3327537897706043 -1.1871512381626674 -0.441783811232518 1.5410625973982501 -1.0603383671810154 0.7877289270274007 1.5668035558028308 0.09860989671593531
-4.897837073439288 -0.7256434138585375 1.2798281423687579 -0.3211829426136407 1.308369767316954 2.97436628002711 -1.5971096263976154 3.4687410551495286

w1 f8 [41, 40]
00000000: 37bc c176 b894 e43f 3f41 5b21 3c29 29c0
00000010: b2ad 6e70 7562 1a40 d03d cae0 cafd 19c0
00000020: 681a 4743 cf88 1bc0 b42e 2c73 3b2e 0f40
00000030: 00c6 9a5d d61c 2fc0 6ab8 6bf7 4877 1340
00000040: 38da a73b a291 0ac0 75b4 a05a 132a 2640
00000050: f66d 7eb9 7759 34c0 4460 c4b5 a25c 2e40
00000060: 63c5 1c6d 0d19 2140 9b54 be5a ebe4 25c0
00000070: a7f0 b2f9 da46 21c0 d0bb 8d88 f91d 06c0
00000080: fa4e 1041 b902 2640 a995 392f c5f7 2140
00000090: 890c e62e 83c1 2840 d497 2f7b fe9c 2a40
000000a0: 76a4 3ab9 b8b6 1b40 b4f8 9c53 1e56 2d40
000000b0: 90ee a900 9c01 2b40 dda1 7700 9b23 12c0
000000c0: 7f0d b588 f4dc 05c0 2674 1689 a22e 1140
000000d0: 54ee b654 3efd 2440 d9f0 f55b c4d7 1dc0
000000e0: fc05 1aa6 938e 31c0 6e5c f0cc 2338 3240
000000f0: 7c6a 25f0 14c9 16c0 6407 c130 ba9b 2fc0
00000100: fca6 cac3 4183 18c0 c701 388f 2413 2840
00000110: 6481 03c8 7450 14c0 d83d 4abb 897a 0a40
00000120: 5a39 c92a 60f8 2340 8ea8 9b64 155f 1e40
00000130: 3e80 2e9b 07e1 23c0 c3f8 eb27 b473 ffbf
00000140: 606a e2ec 69bb 0040 879e fc89 b974 06c0
00000150: 9890 dd0e e4b1 0840 a45e 4f08 a1c6 f4bf
00000160: 5192 ee73 2146 e83f 2287 3ad7 cb6c e33f
00000170: ca29 abe4 837f 03c0 fd6c d31f e2d4 0ac0
00000180: 2260 b9f7 06b7 f43f 2871 b5c1 6860 0140
00000190: d05d b991 ce79 1140 b32d 4736 a202 cb3f
000001a0: c429 f01b 0213 f13f d550 4804 b397 04c0
000001b0: 9ef9 6ebb e0ca d1bf 5151 cf85 ed7d e9bf
000001c0: 894d 3ee6 7869 0940 7de9 962e 52ea 0840
000001d0: 771e fb01 af96 f73f 9e05 287b 305c 0240
000001e0: 27f2 b286 f309 d13f c186 c1a9 4971 0e40
000001f0: a192 bfbb 8fc2 0340 bfa0 eb80 e42a f2bf
00000200: fe71 cd4a e2f1 f4bf eb14 0f15 5214 0b40
00000210: 17a5 d30d 002d 0840 ce4f 0dfa 4390 d83f
00000220: da0d e1bf 8846 0f40 96e8 ac15 dda8 07c0
00000230: 2fe0 cf8a 2f52 e1bf ab3a 48f5 c4b9 f7bf
00000240: 224a f36a ee66 08c0 c8cc 31fc fb3f e43f
00000250: 5f70 9d18 37ef debf a094 ae1d 76e2 ff3f
00000260: 9f34 521b 2960 0a40 4567 d60d 6b0a dfbf
00000270: 31bb 9da1 14fd e2bf 92a2 37b9 c72d cb3f
00000280: 8d7d bd6e e588 a63f 9cde 6671 9f57 0040
00000290: 03f4 a153 6e7f f2bf 3f86 4147 8d4b d13f
000002a0: 35e8 e622 648e c43f c1a5 8c96 e598 f2bf
000002b0: f87d 3fc1 9bad 0240 7179 bc9b ab19 d5bf
000002c0: 50de 892e 0775 c23f dfd4 f2ad 1809 abbf
000002d0: 84e4 23f2 d9e6 c8bf 09e1 ce54 3243 e2bf
000002e0: 0e3b e352 7421 f2bf 2194 ed96 6c4d f73f
000002f0: e85d 2b57 073b e03f 26d7 4da9 9299 d93f
00000300: 5e1c 3653 5930 e9bf 4a5d e839 f3bd e13f
00000310: f862 9492 f4e6 efbf 310d 487d 4ee3 e83f
00000320: f28c b627 c497 f4bf 09dd 7ec6 ba09 ffbf
00000330: ef68 8a0d dcfd f6bf 248c 42b2 2fa9 8d3f
00000340: 4ffd 0a4e 45cf f03f edae 2ac7 8fd1 e83f
00000350: db80 33f5 578f f2bf d1a6 1338 5021 03c0
00000360: 8598 171c 7e2d dfbf f7a2 de15 8373 fa3f
00000370: bbd7 6478 0074 ea3f 6f7d 2a42 4a31 d1bf
00000380: c9b2 2e71 d751 f1bf eae2 8cc6 0f6d cebf
00000390: 5f3e daa4 a6fb e3bf 0bfd 3b24 e81e bb3f
000003a0: c2f2 f6b8 f16d dabf d03d ceb7 d990 04c0
000003b0: ac2f 83da a960 d9bf d49b a689 0ab3 ec3f
000003c0: ca91 8ce0 4f18 f3bf 630f 3937 363f f0bf
000003d0: 9250 3599 ec38 d3bf f251 ec26 9df8 00c0
000003e0: b7d0 6094 f0e1 e5bf 18d6 6044 1da2 e5bf
000003f0: da63 e9d5 0382 02c0 9bf9 0d38 2765 1140
00000400: c3fd 4d3c 5f37 08c0 064b 4817 2e1d e93f
00000410: 5d7a 10d6 adf9 06c0 207c 988f 58f8 e43f
00000420: a00d ab91 b70f 0040 3016 0f0e 8892 dcbf
00000430: adf3 fe96 50dd fb3f 0423 351d eb85 f93f
00000440: 5022 a609 3d93 0040 3c9e 6b39 8d8f fc3f
00000450: 7cef 74f7 ad09 c8bf a4c5 38a1 3a85 e13f
00000460: b6ba 4e96 3bd0 df3f 4c9b d030 2f87 c83f
00000470: 53b5 46f7 84a9 f2bf 08d7 6e6a caa4 fb3f
00000480: fd36 fb9d 8585 ddbf e918 747f d900 e4bf
00000490: 1204 0f2a bace f3bf 3331 3686 8227 f73f
000004a0: a40f 9ca4 1303 b5bf f35f e85a a673 0140
000004b0: 5a8c 41d5 f992 0340 64a4 bb72 8b51 d0bf
000004c0: 2b22 714e 8eb8 e63f 2260 e4c5 9d5f cc3f
000004d0: 310b 32a3 6d15 0340 9cd3 4873 d6dc e6bf
000004e0: da50 b105 8156 c2bf b777 bd0a 3799 f03f
000004f0: 837c 23f9 2a2f e7bf d3ed 844d d098 f5bf
00000500: ce95 646d 16ce fe3f d395 7fb5 59c1 dcbf
00000510: 1116 a74a b0f1 fcbf a306 b1ba a723 01c0
00000520: 625f 3910 efcb dc3f d0e1 75c3 5a82 f93f
00000530: 7f92 8df1 8636 f03f 8f89 0f51 92f8 f23f
00000540: e077 a2b1 f35f fe3f cbc8 05c5 e055 d0bf
00000550: 52ef dbd4 dddf de3f e9bf e3ef 00a2 10c0
00000560: 6031 06e3 d4e0 00c0 c06a c1b2 15c9 0a40
00000570: ade2 b22b 2eeb f83f 7bbb 965e cbe7 d0bf
00000580: 7395 5c85 3311 fabf 1c9d 36d0 adbe 02c0
00000590: 4f59 6181 e9e7 e3bf 3eea b13c df85 10c0
000005a0: 8d0a fb8e df60 f3bf 9ab2 34bd 6bd7 d8bf
000005b0: f1ca 61ea af32 793f 623f 2c21 cac8 c23f
000005c0: ec88 1218 d1da e8bf 1184 ef32 5d85 02c0
000005d0: 7153 d4dd 023c fb3f c702 1602 1e3f fabf
000005e0: 8ab2 ee03 4b29 04c0 80eb 3983 8fad c0bf
000005f0: 0170 a599 f990 1140 efe0 301c a0ee 0c40
00000600: f853 0b43 99aa 0340 b5be 9937 00c4 00c0
00000610: 49e2 e93c a680 e23f fbad 4506 6d8f f4bf
00000620: 430d df38 bc45 e33f 02a8 0b80 3201 fa3f
00000630: 3ae9 2bec 0005 c8bf afbe b620 1077 d4bf
00000640: 0dda d6a5 39fd d3bf a9d1 fa04 eefb 0440
00000650: 3361 600c 61c0 d43f d855 b60c 3574 ee3f
00000660: 7f2f 7925 4e35 ff3f 506a 56b3 3fdb de3f
00000670: 36b1 72f3 5e13 1540 c56a ab00 4ffc f83f
00000680: b8c1 ca3a b9ad e23f 22b2 cf01 baf9 f2bf
00000690: 3024 61dc 02ee 09c0 d296 b749 527d ebbf
000006a0: e411 0ace af85 ffbf aea4 2fc0 88e8 0340
000006b0: 867e d757 7971 f63f 9c8c 3b62 8f94 e6bf
000006c0: 76a7 b7e9 1e10 fcbf d88d b9a6 df86 f43f
000006d0: 137b 575d a91f edbf f9fc c6ef 6a34 fcbf
000006e0: 2493 c0b2 514a 06c0 5fb6 214c 481f 13c0
000006f0: eb66 fecc 64df 04c0 46ac 234f b294 f23f
00000700: c8c8 f70e 78eb f5bf bc08 b05c f313 ebbf
00000710: 759d dc7b 448d d23f bfde 2982 4053 f43f
00000720: 968a f0c9 8d6b d2bf 107a e9f4 da2c b2bf
00000730: 56c9 2540 da55 0a40 22c8 704d 56e3 e9bf
00000740: 123e 5148 481a f33f 1241 a251 fc54 ecbf
00000750: a265 34b0 23bc f73f 578f fbf9 5656 fcbf
00000760: febe 74fd da60 fcbf 6b01 e0da d801 03c0
00000770: ea95 6dc2 fab4 fe3f ac4b 3fe4 6b6e 0240
00000780: 8c29 9642 5c78 d8bf 608e 627b d9de fb3f
00000790: ade5 0dea 96ca d9bf 68be bb45 581c e6bf
000007a0: b601 d6f1 4d87 d5bf bed3 8d04 fc84 e4bf
000007b0: c102 f556 2f2b f63f d29f 1784 7811 ff3f
000007c0: c023 714e d27f d0bf b965 8d2b 9c07 eebf
000007d0: 1784 5a8e c924 f2bf dda2 b021 337e fc3f
000007e0: 5dca a910 c262 efbf 561b 4d99 09dc e0bf
000007f0: 9a8d 244f 3a32 fa3f 8ddc 1340 c335 ef3f
0.6431543654888462 -12.580536882771979 6.596151119952468 -6.497844230979766 -6.883603144850532 3.8975743291719827 -15.556322980063669 4.8664892825600905
-3.321110216197919 11.082178909413622 -20.34948310219439 15.180928878995594 8.548930558931437 -10.947108112081244 -8.63838939961745 -2.7646361034635234
11.005319627037796 8.98392627313554 12.377953973371648 13.306629037437155 6.928439039425134 14.668200123702583 13.50314333032955 -4.534770972539687
-2.732888286614695 4.2955418987230924 10.494616172151986 -7.4607099884853705 -17.55694044242226 18.21929627292814 -5.696368934901894 -15.804154895365805
-6.128180560344614 12.037388301455293 -5.078570485319094 3.309833014681981 9.9851086969981 7.59285504531921 -9.939511155535111 -1.9657479819721153
2.0915106302830253 -2.8069945125788 3.0868607674947945 -1.2984934162722448 0.7585608734412493 0.6070307925876686 -2.4372632851347804 -3.353946922912313
1.294684379265171 2.1720748075005254 4.36895206159484 0.2110178723363397 1.0671406833013046 -2.574071916062261 -0.27800768188526515 -0.7966220487092334
3.176500128532727 3.114414562206717 1.4742879941349238 2.2950143453205802 0.2662323775691981 3.805316282480675 2.470000712188565 -1.1354718242601363
-1.3090536996816122 3.3849221844890187 3.0219727592672245 0.3838052694238713 3.909440516524893 -2.957452935542345 -0.541282435528961 -1.4828538495382115
-3.0502594333168114 0.6328105855631287 -0.48335053829010194 1.9927884253932362 3.296953404852118 -0.48501087523765235 -0.5933936268391787 0.2123345999127833
0.044013185279932455 2.042784582092123 -1.1561110751056283 0.2702363201006825 0.16059543327520634 -1.162328327258692 2.3347697350980035 -0.32969179352394123
0.14419641277685225 -0.052803775056796225 -0.19454502413990238 -0.5707027107628458 -1.1331675756261492 1.4564023872019407 0.5072056486632706 0.39999834569549575
-0.7871519685003354 0.5544372683533905 -0.9969427931674479 0.7777473875907274 -1.2870523024837977 -1.9398753885014364 -1.4369774369175123 0.014482853534280755
1.0506032036353934 0.7755812540030697 -1.1599959924861227 -2.391266286945076 -0.48715164893508983 1.6532011846813341 0.8266603805011451 -0.26863342725297107
-1.082480852240382 -0.237703296612174 -0.6244691104674976 0.10594035038592524 -0.4129604631705598 -2.570727764111986 -0.3965248712454421 0.8968556107037053
-1.1934355517815782 -1.0154325635093862 -0.30034937822097973 -2.1213934937352343 -0.6838305376063748 -0.6760393462670349 -2.31348387831211 4.3487824209718395
-3.0270371161747973 0.784812016938617 -2.8719135974672967 0.6553156666376516 2.0076743488622952 -0.44644357083265884 1.741531934573895 1.595194925396016
2.0718937639069637 1.7850467913612098 -0.18779539664125966 0.5475133084166157 0.49708451918096885 0.19162549861467892 -1.1663865718104105 1.7277321012056195
-0.46127453258382883 -0.6251037110639831 -1.2379705088535542 1.4471459620136329 -0.08207819718160053 2.1814696409382974 2.4467655811909426 -0.2549770946921568
0.7100287944859408 0.22166797793102072 2.3854630231520777 -0.7144577266359309 -0.1432648923679441 1.0374060077224223 -0.724507795904984 -1.349808028039537
1.9253143571053104 -0.4493011734433285 -1.8090060154075938 -2.142409761931803 0.44994713386903673 1.5943248400854948 1.0133122859635078 1.1856864134248075
1.898425763974494 -0.2552415775345593 0.48241372859023557 -4.1582066996343 -2.109781049372188 3.3481859174038107 1.5574170786841635 -0.2641476081579907
-1.6291995248260178 -2.343104960123709 -0.6220595862348918 -4.1307343944159225 -1.2111507020169114 -0.38814824559339345 0.0061518546773295804 0.14675261134879763
-0.7767110319294068 -2.315119169172711 1.702151171227538 -1.6404094773753728 -2.520162611696212 -0.13029664905101512 4.391577149126534 3.6165163233200626
2.4583001363594086 -2.0957035392564998 0.5782042684287002 -1.2850160832412019 0.602262602879286 1.6252923013475997 -0.18765269786656252 -0.31976702875815993
-0.31233063884010975 2.623012579826725 0.324241888128671 0.9516854522977907 1.9505139793209023 0.4821318866103512 5.268916896701105 1.5615987802654427
0.5837064884454355 -1.185968405795514 -3.2412163941521825 -0.8590480270183554 -1.9701383636867087 2.488542081312139 1.402703612453395 -0.7056347769361255
-1.7539357308946513 1.2829281342209153 -0.9101149390297415 -1.7627972952175794 -2.7862886395472675 -4.780549230153695 -2.6090789809357964 1.1613028613453635
-1.369987543552769 -0.8461853800111139 0.2898722848498985 1.270325191928279 -0.28781456680932516 -0.070996937554334 3.2919201861888423 -0.8090011131773773
1.1939165902039162 -0.8853742212686788 1.4834324725146435 -1.771079040999174 -1.7736463451983009 -2.375901899300677 1.9191844553800999 2.3039167243782313
-0.3823462152728545 1.7419066257215476 -0.4029900823294053 -0.6909600603084529 -0.3363833295516331 -0.6412334526963759 1.3855431935082125 1.941765323625067
-0.2578016058001218 -0.9384289599067223 -1.1339812813460008 1.7808104816451114 -0.9808054280714021 -0.5268600458301573 1.6372626391902032 0.9753128291621508

w2 f8 [41, 1]
00000000: 9d51 61a9 21af 0f40 da38 1350 e751 d9bf
00000010: f635 4455 a2b2 f63f 2e1a 4a16 f6ef cabf
00000020: f003 e4a9 0672 cc3f cfe5 9512 12e4 c33f
00000030: bdde 6d1f a9a2 54bf 733e 9bf6 e55e f13f
00000040: 94ea 6bcf 699f d43f 6a7e fb1a d34f eebf
00000050: f69f 06c9 92f3 e0bf b27b 604b 9642 c2bf
00000060: 7c42 b4ab 1918 f5bf c8d2 0428 4bd9 c9bf
00000070: 6fb2 0dcd 6d63 e43f fc2c 8db9 e1ae e73f
00000080: bd23 7d4c 3100 b83f 670b 7023 414a efbf
00000090: 808d 0d0d 52cf ddbf 1547 ff15 813d eabf
000000a0: a4b2 b9f1 d9de edbf e451 80e3 c4c4 cabf
000000b0: c567 58e5 6889 ebbf 0dc8 72a8 0ed3 fabf
000000c0: 7f64 505c 09b5 c83f c61d 1e14 f340 ab3f
000000d0: 492b 3eca 6254 d1bf 2d84 ac0e 38f4 d6bf
000000e0: 206f 85f7 5b29 c73f 39be 8bb3 ce3d a4bf
000000f0: b66b bce3 543f efbf 042b 868c 3cb4 da3f
00000100: 5695 d5ab 8db8 f63f f724 2dab d306 d13f
00000110: a16d e309 5f26 e5bf 8dda 8387 deda f23f
00000120: 250f 421f b1b6 e1bf 1c25 2a53 b5eb e9bf
00000130: 34ce 5f02 5dd8 edbf b89d 4ab1 7c82 0140
00000140: 0a02 5828 e602 793f
3.9605134232353536 -0.39562399692375794 1.4186118441315307 -0.21044803703644405 0.22222979827350242 0.1553976622342774 -0.0012594844426682538 1.0856685288489671
0.3222298169709259 -0.947244217586513 -0.5297330786024748 -0.14265707664978106 -1.3183838565056751 -0.20194377378506645 0.6371373181296586 0.7400978683521369
0.09375293843653672 -0.9778142635480948 -0.46577883982373436 -0.8200078420288458 -0.9334535332869405 -0.20912991627177668 -0.8605236510659259 -1.6765276508344897
0.1930247975113026 0.053229900556341955 -0.27077550649908183 -0.3586559432315564 0.18094968400952727 -0.03953405324670851 -0.9764809082001793 0.417250764113007
1.420056983211301 0.26604167667808504 -0.6609339898235939 1.1784348767811565 -0.5535512552746452 -0.8100229858693271 -0.9326615377780798 2.1887143946548484
0.0061062803774807415
