Code/Models/run_20251105_110618/model_hidden_4_width_22_act_LRELU.npz (npz, 13882 bytes, 5 tensors)

w0 f8 [2, 22]
0	0xc006cd52248116d9	-2.8502543308157837
1	0x3fca97a2575e2df2	0.2077525068856257
2	0x3ff6c2b2260b6b1f	1.4225331770055119
3	0xbfe31d0f3f995dac	-0.5972973100824013
4	0x3fdb0d7754f5496b	0.4226969079656075
5	0x3ff274970b459d1c	1.1534643593129834
6	0x4000a54b78f7357e	2.08071035866186
7	0x3f8bc0be3ed56193	0.013551222126509532
8	0xbff4d955ab93f7e9	-1.3030602171197592
9	0xc01174f73695b4c7	-4.364224293601359
10	0xc00a7010fe41785a	-3.304719911931028
11	0xc00c98dd76fbeaf0	-3.5746411605481327
12	0xc00a0e756a1af420	-3.2570598878360357
13	0x3fd103590ff74990	0.2658293395917548
14	0xc00a72c57758564a	-3.306040699370702
15	0xc004348474c0579a	-2.525643264884775
16	0xc0060af3cf3d8545	-2.7553478422784417
17	0x4011c26cf5270d4a	4.4398687653623
18	0x40042eac83419d6c	2.5227899794005477
19	0xbff05e912c522843	-1.0230876666341977
20	0x4026d6b9d4a25e6b	11.419386524982846
21	0xc00f4e5af9b63f6f	-3.9132594593756305
22	0xbfea20629d53b41c	-0.8164532730858158
23	0x3fcd3dcf04f0a800	0.22844875088895833
24	0xbfd48062f8390b53	-0.3203360961962762
25	0xbf69d4e2bfbbbc62	-0.0031532696428864674
26	0xbfc6726b9a96f35e	-0.17536683128664782
27	0xbff04d2dd9505a74	-1.018842553026528
28	0xbfe692207e45a816	-0.7053377596141697
29	0xbfd723e699e891e9	-0.36156621008038187
30	0xbfee7faa9310b1b1	-0.9530842659346971
31	0xbfc2870070ef2138	-0.14474492563591368
32	0x3f8e3d4e53484641	0.014765369335722702
33	0xbfe39f9a38b885cb	-0.6132327182605705
34	0x3f980299557f9264	0.023447414248851564
35	0xbfe51f35614dbfdb	-0.6600596332991658
36	0xbfddb42cf03ad9fe	-0.464122042273999
37	0x3f7d5bb91167593d	0.00716755191975543
38	0x3f9a6bad96f7f375	0.02580138429583508
39	0xbfeca8028ebf93bf	-0.8955090320638347
40	0xbfe5e20914976452	-0.6838422205138477
41	0xbfee873aef867cfa	-0.9540075948933968
42	0xbff21505a1f06a71	-1.1301323247668302
43	0x3f92fecc10555713	0.01855009889307897

w1 f8 [23, 22]
0	0x3fac62e8a3794938	0.055442113833708395
1	0xbfec3d067759c1c2	-0.8824493723932891
2	0xc014f05fdab42e0d	-5.234740655181224
3	0xbfca6c409defaf14	-0.20642860137683583
4	0x3fc684323af622e6	0.17590930823305156
5	0xc018f108e7e2e654	-6.235385535453663
6	0xc013d8568e12b966	-4.961267681019626
7	0xc017b395141db809	-5.925373377145669
8	0xbfd258ddc6923a30	-0.286673969189823
9	0xbfe2470abab6df8a	-0.5711721083416574
10	0x3febd6f6953a3714	0.8699906267736162
11	0xbff4783ec979afca	-1.2793567533617414
12	0xc01dee8516c9a13a	-7.482929569298273
13	0xbffada93977e76c9	-1.6783634107336403
14	0x3ff10c67a00f0f15	1.0655285122201736
15	0xbffc7912cfcc3d7f	-1.7795589558698734
16	0x40002fa13fee7bc3	2.023256778207242
17	0xbffc6c3e50efbfc5	-1.7764266168196496
18	0x4005a6a6fc9ed3d4	2.7063731895418446
19	0x3fb73ede0b578a47	0.09080302979376952
20	0x3fd16cfe7499b685	0.27227746378671497
21	0x3fe21d360e9f7591	0.5660658155062938
22	0xbfe003332a559306	-0.5003906084862997
23	0xbff768c3eeb3391b	-1.4630774807188291
24	0x3ff36e2c35ebd78b	1.21439763129226
25	0xbff5abf8b49a9e17	-1.3544852309077038
26	0xbfd61f24b9e076a9	-0.3456508460238675
27	0xbfdf492d66d21feb	-0.4888413910016413
28	0x3fecb2520694e723	0.8967676285312546
29	0x3fe1c102ceff2b05	0.554810909548309
30	0x3fd905aa7c9a9e8d	0.3909708229861984
31	0x3fd900da36d36e00	0.3906770263108399
32	0xbfff34981ff0db53	-1.9503403899850198
33	0xbfe0b06b34bf9f14	-0.5215354948277047
34	0x3fe403a468b3d4e4	0.625444607254988
35	0xc00353ecd71caf78	-2.415979080737028
36	0xbffbc3047814ad37	-1.7351116839079859
37	0xbfe76193822fd0c5	-0.7306611578665289
38	0xbfeead579cc5d646	-0.9586599409073606
39	0xbfd4434cfdabcc51	-0.316607711530371
40	0xc000568b6af1af78	-2.042258105755476
41	0x3ff90710231785ce	1.564224373891523
42	0xbfdff1291a9bac0e	-0.49909427259871186
43	0x3fd23ba0c580544f	0.28488940512881283
44	0xbfea3b30868654c2	-0.819725287192931
45	0xbff18a0091e428ca	-1.0961919497372485
46	0x40051a78045020e7	2.637924226470307
47	0xbfeb7fee232053cc	-0.8593664823589449
48	0xbfb9d563d74b3c25	-0.10091232305715943
49	0x3ff95b6d91cd9b2a	1.5848212905345442
50	0x4006d8bec1718060	2.855832587505617
51	0x3ffb88efa4d4e66d	1.7209316672073343
52	0xbfbbea76cfa76bee	-0.10904638833692079
53	0xbfc8b58facb06463	-0.1930408089836276
54	0xbfb63913818a647b	-0.08680841362583351
55	0xbff423c40defe53f	-1.2587318939607284
56	0x40027747a76cfbeb	2.308242137921743
57	0xbfc235e184c066ac	-0.14226931554803934
58	0x3ff91cf27055a4c5	1.5695671451633626
59	0x400ce44db2e8bb52	3.6114763238214573
60	0x3ff0534eb1f378cc	1.0203387213910444
61	0xbf865decb2971ea8	-0.010921334457534584
62	0x4007d805a5d996c0	2.980479522421632
63	0xbfd9b8695437f924	-0.40188058113553127
64	0x3fe2ce05d8615907	0.5876492716004414
65	0xbfce07b8e75a9040	-0.23461066528864372
66	0x3fd51decae91477c	0.32995144889456873
67	0x3fcff15f8dacc6ef	0.24955362718315352
68	0x3feb697ec29b910d	0.8566278267794886
69	0x3ff39edfcd4f8295	1.2262876529640938
70	0xbfe8bba9456ae47b	-0.7729078632174969
71	0xbfca84cb014fa489	-0.20717752040880935
72	0xbfc14678f9039251	-0.13496315153965324
73	0x3fa4d205015d56e9	0.04066482202203565
74	0x3fccab6dc6071b90	0.2239815918857997
75	0xbfe6d9a4dc0949e5	-0.714067868955962
76	0xbfecd809fdd310af	-0.9013719518193478
77	0xbfdfb66820bdbefb	-0.49550822446234094
78	0xbfd89840f61b40d0	-0.3842928317435623
79	0xc0019a2fee462307	-2.2002867331651745
80	0xbfd3a94e9f371525	-0.3072086863360986
81	0x3fe33abb74ec6479	0.6009194644604029
82	0xbfe2cf2159cb1838	-0.5877844575668467
83	0xbfe5272242cca645	-0.6610270790744798
84	0x3f8502b8d3033d01	0.010259097995371837
85	0xc0003b40c80f0da6	-2.0289321546167285
86	0xbfe56f1c7ec52fd3	-0.6698133922559414
87	0xbff1d5f82aac50e5	-1.114738623325189
88	0xbfd08857b0726fc6	-0.25832168799547295
89	0xbffaf6e0b9312be8	-1.6852729066911198
90	0xbff6cf22d5cf4002	-1.4255703308044763
91	0xbf9aed4bbf30206d	-0.026295836967648634
92	0xbfdfc59a0fe6e50f	-0.4964356570522605
93	0x3f988faa707ecded	0.023985541454477333
94	0x3fe806ceb5a93795	0.7508309886995784
95	0xbfcf7dfd58870850	-0.24603239843969726
96	0x3ffbdb038a6f97e7	1.7409701736119076
97	0xbfe96513bb607cad	-0.7935885104851842
98	0x3fe6b3f75e2f8cc7	0.7094685401501913
99	0x3fe2ec3631be4232	0.5913344356104686
100	0xbfa7c0cb1deeaecb	-0.0463927721060294
101	0xbfee391de2b4128a	-0.9444722583580909
102	0xbfe110a6b01f3390	-0.5332826080208282
103	0xbfc73444744dd7e7	-0.18128257445249504
104	0xbfd651ac1235cf14	-0.34873487261141745
105	0xbffc72819aa90a35	-1.7779556313913762
106	0xbfd02e93aa23f2c8	-0.252842823174245
107	0x3fb89ee6e0087630	0.09617464990193336
108	0x3fdcf73a9b33fbd3	0.4525896564154525
109	0x3fd38e2c0b925f90	0.3055524933820317
110	0x3fd6ee6b2ff03254	0.358301922621455
111	0x3ff22e1205c4f68c	1.1362476563803368
112	0xbffaa79adecee89c	-1.6659191802450897
113	0x3ff80cf8add6a945	1.503166846329422
114	0xbfeebd63ec4c03ae	-0.9606189360784947
115	0x3fee2d5655aa2648	0.943034331620944
116	0x3ffa09c4dc6ad579	1.6273850069095188
117	0x3fe1025b0676bcc7	0.5315375448461958
118	0xbfef4feadac91259	-0.978505542102151
119	0x3face0c4003b3ab7	0.05640232565712238
120	0x3fee95f3c544f1a5	0.9558047154346708
121	0x3fe6388754beb620	0.6944004683661582
122	0x3fead7a61421879a	0.8388243096526253
123	0xc0081af2be1d161d	-3.013158307325979
124	0x3ff4be465a0fb221	1.2964538114566795
125	0xbffdc405c4dffda7	-1.860357064287976
126	0xbff25cf2605833b2	-1.147692085595946
127	0xbffd5db76a4f94b2	-1.8353799965637276
128	0x3ffa200ca525156f	1.6328245593043353
129	0xbfd3bccecfc15645	-0.30839891708942374
130	0x3ff2c13e85531312	1.1721787651051199
131	0xbffee87a24309e0c	-1.9317571080845282
132	0xbfd3632c42b4cabe	-0.3029280330112377
133	0xbfe1ba6cf3755bd1	-0.5540070300147538
134	0x3ff732c340c0d39d	1.4498932389662749
135	0x3fd25f343038811b	0.2870607825189084
136	0xbffeb1485b8e042e	-1.918281896243808
137	0x3fda6247b882218c	0.4122485448683839
138	0x3fe84d6fa5d85d3a	0.7594526518977667
139	0xc00080b440d00b5c	-2.0628438056459526
140	0xbfe276297cd27c7e	-0.5769240796979742
141	0xbff10f69649ac235	-1.0662626199592868
142	0xbfed4affc489c825	-0.9154051626812857
143	0xbffa0081dcf9c372	-1.6251238471852187
144	0xbfce846ec399f0b4	-0.2384165244183173
145	0xbff973487bc062cc	-1.5906452974360716
146	0xbfffd32279681b91	-1.98904654907685
147	0xbfbf8c6a8a2a4f60	-0.12323633073020579
148	0xc001f548546b881d	-2.244766864329917
149	0xbfd84060dce259d8	-0.37892934389802013
150	0xbff12a21884120bb	-1.072785885089657
151	0xbfbc813462ebce1d	-0.11134650626245741
152	0xbff5521ef1bf5e37	-1.3325490420592254
153	0x3fda96d2b1ada5e9	0.4154555068149351
154	0xbffebdc55838bff1	-1.9213307806166962
155	0xbff66febd11999ad	-1.4023245017975612
156	0x3fbf467764ebd512	0.12216898168465587
157	0xbf74260b5161239c	-0.004919094286443573
158	0xbfdba8d2e95b3f6c	-0.43217919148172856
159	0x3feb647575544b93	0.8560130397403206
160	0x3feed5c1199332c9	0.9635930537711711
161	0xc0057d8f0f9321ef	-2.686308023145322
162	0x3fdfe7bbb007dba7	0.4985188693094024
163	0x3fe9508675058d50	0.7910797391490778
164	0xbffa3e5d55a60088	-1.6402257295267493
165	0xbff157cf7c6f59e9	-1.0839381085148665
166	0xbff17c8b2db24b4a	-1.0929061684625645
167	0xbfecb73eb1e1b213	-0.8973687624216516
168	0xbff278ff15254dd2	-1.1545401407246243
169	0xbff4970879b0859a	-1.2868733170983888
170	0xc0002cc663c761b2	-2.021862773439545
171	0xc003d36b65d510d6	-2.478232188763381
172	0xbffd188d01ad9470	-1.8184938493298226
173	0x3fe0f70d20513e0b	0.5301576262663173
174	0xbff3ffdc60199a33	-1.2499660257250411
175	0xbfca46c34d3e56fa	-0.20528451224952687
176	0xbff709137f8d1a6f	-1.4397158606022022
177	0xc005a01c248a3b0e	-2.7031786780056626
178	0xbff30c6ff01a177d	-1.1905364397984777
179	0xbfe5c7b889962ec8	-0.6806299864997181
180	0xc0028e688ee384c1	-2.319535366361919
181	0x4002f9d5f0c1d00b	2.3719900902888233
182	0xbfe3e0bea5a547ad	-0.6211846575990784
183	0x3fd2ee157d519190	0.2957814906897278
184	0xbff0879e8ef3805b	-1.0331101974516261
185	0xbfec757f307d2617	-0.8893428751991362
186	0x3ffbc45fb9e66467	1.7354428540914115
187	0xc002eef3ecc9d21d	-2.3666761874285513
188	0x3fb2d41b870e498c	0.07354900405179005
189	0xbff826d62e13b88f	-1.509481601704042
190	0x3ff308ef048cf2b2	1.189681070113846
191	0xbf61cc95b7d42421	-0.00217274896443033
192	0xbffe4d945b26202c	-1.8939403114800468
193	0xbfdda4e5853c523c	-0.46318948756496403
194	0xbfd73059bea25b38	-0.3623260842954781
195	0xbff6a29343ea908a	-1.414691224382326
196	0xc000be8d56c03ab0	-2.0930430200017653
197	0x3feb7c2ac09c8547	0.8589071046773505
198	0xbfe592cf4c436f0b	-0.6741711129684246
199	0x3fd86af35e3f9159	0.3815277500528019
200	0xbfe3358c211c9df1	-0.6002865454401541
201	0x3fbd1bc37463426d	0.11370488730904933
202	0xbfec67b89da19052	-0.8876612738354288
203	0x3fd46ed4b04238ad	0.3192645760799547
204	0x400134dd7e1d2b71	2.1508130886699566
205	0x3ff0c666cc371a14	1.048437879291332
206	0x3fa6afa546bb43c9	0.04430881966039341
207	0xbfe047420b30f3b0	-0.50869848428521
208	0xbfab2da4cdfbf956	-0.0530826093145033
209	0x3fd7fc6e9bbfa57c	0.37478223047090586
210	0x3fb8827ce2eb636d	0.0957410863878871
211	0x3fe45d7eecfdcead	0.6364130619753802
212	0xbff9c9d788231afd	-1.611777812753359
213	0xbffe0e655f5e3646	-1.8785146451295005
214	0xbfebbaf923918134	-0.8665738768286588
215	0xbff63c09493e3307	-1.3896572934201588
216	0xbff813c17ed540b1	-1.5048232035078792
217	0xc0011f25d5aa59e2	-2.140208882580951
218	0xbff5945db259c2b2	-1.3487221686192865
219	0x3ff8eeaf2dbb2c73	1.5582725321171693
220	0xbff1361b6e72d6fa	-1.0757097544096141
221	0x3fe52dd9fbe4e7c2	0.6618471069152678
222	0x3ff6af3a72477e0b	1.4177803482087963
223	0x40015e1cc1c401c0	2.1709532869283237
224	0xbff5471f48330af5	-1.3298638172424806
225	0xbff1f071109051e3	-1.1212015769025292
226	0x3fbe21bb29ad7049	0.11770219581143339
227	0x3fd3ce8ec36bc514	0.30948227962569885
228	0xbff0756aaaf01e02	-1.0286661793960552
229	0x3fe140e523414c16	0.5391717613769085
230	0xc00710bb84c4539b	-2.8831701633848303
231	0xbffaaa178347a226	-1.6665263298147095
232	0xbfe51e1f182c4331	-0.6599269363524397
233	0xc007e559d22b70e0	-2.9869877261645428
234	0xbfe7e677c4270869	-0.7468832808592768
235	0xbfff9457d2e9e6aa	-1.973716567880198
236	0xbfd69638c28b109f	-0.3529188060604244
237	0xbffe4891eeaaee99	-1.8927172968823582
238	0xbffc765354310f24	-1.7788880623565513
239	0xc0022f21eea9993b	-2.2730139394290325
240	0x3ff0f713c51390f9	1.0603215883539276
241	0xbff2b4b8389a76ff	-1.1691209994382346
242	0xbff54c49594e433b	-1.3311246384148052
243	0x3fdead050808513e	0.47931028160498446
244	0x40086eabd26d2932	3.054038661915137
245	0x3ff92bede25b54cf	1.5732249109326408
246	0x3fee1ebb2af5a530	0.9412513579419848
247	0x3ff988aac6965a17	1.5958659894291765
248	0x3ffb4085ca732332	1.7032525928681932
249	0x3ff372f590cbf0fc	1.2155662208670597
250	0x3fe3816b6e8d7d76	0.60954829780887
251	0x3fe109a116efd3ac	0.5324254463181339
252	0xbffac5b343204d84	-1.6732666608921543
253	0xbfde418ef43483f0	-0.47275136802824047
254	0x4004d4909ce8470d	2.6037914522538643
255	0x3fd67f1815cb737a	0.3515072071875732

w2 f8 [23, 22]
0	0x3fe5013c8e554ccf	0.6564009456582428
1	0xc0107a437df6d668	-4.119398086729781
2	0xc00415b1403885f5	-2.5105919854402097
3	0xc0171575b1f35063	-5.770956783748349
4	0xc00fdec8d3fecc7d	-3.983781486714689
5	0xbfeaffa7b85f1bd1	-0.8437079049116339
6	0xc008934ee2eed306	-3.0719278077252765
7	0x3fdca2990f1752b4	0.44742418740978995
8	0xbff5c08ed659ee94	-1.3595112202737356
9	0xbff80b4b2b4c59da	-1.5027572337472663
10	0xc008fd6b088d2cec	-3.123739306267103
11	0xc000dbf5fde99718	-2.1074027859603
12	0xc005dce8bd121384	-2.732865788568633
13	0xbff54995acd37a15	-1.3304650069254695
14	0x4019e98522c21025	6.478046935171766
15	0x401397fc4e777a06	4.898423410455967
16	0xbfeffc822d39d4ef	-0.9995737918203796
17	0xc014ebdf0bb0942c	-5.230343039181246
18	0x400a561faf1bf4f7	3.2920526199728743
19	0xbff03c1d1e143a82	-1.0146762061082488
20	0xc00d98d843295d14	-3.6996312376974263
21	0xbfff06a39e0e9883	-1.9391208814718375
22	0x3fb63a4df204d109	0.08682715567266909
23	0x3ff55ebf71e346ed	1.3356317948095537
24	0xc0127b39e8b69cb6	-4.620338092942964
25	0xbfda8487f2fe7776	-0.414339053438986
26	0xbff077e151f315d4	-1.0292676163820618
27	0x3ff355dfccc48c7d	1.2084653853169407
28	0xbfe01854762e6116	-0.5029699619508701
29	0x3fd836e642e665e3	0.3783507970161663
30	0xbff8a5525ab96320	-1.540361742392811
31	0xbfe07e2fda3c2b70	-0.5154036772158701
32	0x4000741c27621eb6	2.056694324190029
33	0x3fb41df12c0b8a5f	0.07858187985724772
34	0x3fe3564769c432a4	0.6042820993185001
35	0xbff32f8ccee23fe3	-1.1991088944814627
36	0xbfe07836299e99f0	-0.5146742642289706
37	0x3ffb706ccd949061	1.7149475126725735
38	0xbfe5c1c6527b9257	-0.6799041377058285
39	0xbfe4db92d5d75cb5	-0.6518034149729802
40	0x3fff5276f6e31ace	1.9576329845455578
41	0xbfec4332ee8d87ed	-0.8832029971347289
42	0x3f92a339df8580ce	0.01820078303114841
43	0xbffbfe6bcc72b642	-1.7496145235303548
44	0x3fe5dde21cb6717f	0.6833353577417681
45	0x3fe158bf61186788	0.5420834442513618
46	0x3fe4163145a409d6	0.6277090416118039
47	0xc001e25688614f32	-2.235516610593458
48	0x3fa03c70e77e341c	0.031711128481312495
49	0xbfe75c86bc4ee8bf	-0.730044715680627
50	0x3ff7139e5e1462de	1.4422897028909385
51	0x3fe2ec0224f02300	0.5913096162267664
52	0x3feb64bdaad19d9d	0.8560474716477305
53	0x3fe0390de2173a22	0.5069646278223596
54	0xbfdeefebbb0fed77	-0.4833936049251046
55	0x3fc0bc333c8c76ae	0.13074341255644611
56	0xbfe3f612a01092ef	-0.623788178087663
57	0xbff7ff6d4634c716	-1.4998600714138255
58	0xbfc79ddbf5001330	-0.18450498068718835
59	0x3fe08fdcd75e6e48	0.5175613600180862
60	0x3fe447014178231e	0.6336675909707059
61	0x3fb0471783c2af0c	0.06358477560814552
62	0xbfb5f52d923a9f0c	-0.0857723695759171
63	0x3fe13335cbaeae40	0.5375012376948192
64	0x3ff373e1fb184436	1.2157916839971796
65	0xbffdd1498ac140e4	-1.863595525752367
66	0xbff58cd3db3cfdc8	-1.3468817295068778
67	0xbfca768b3a9d1a1b	-0.20674267160411905
68	0x3fe96c2cd3272a78	0.7944549678880568
69	0xbfd5c73622b2c286	-0.3402839030123136
70	0xbffec1fdd6304b74	-1.9223612181419556
71	0xbffbca68ede75dc2	-1.736916474639529
72	0x3ffa0e0a64fe6bc1	1.6284278817245055
73	0xbfe663be91228f6b	-0.699675830332564
74	0x3ff7ba8eec300df3	1.483046457870725
75	0xbfe0b354a75371cc	-0.5218909519276678
76	0x3ff95f7983a2fd0a	1.5858092443521081
77	0xc000540ba0e2dde8	-2.04103780453055
78	0xc00029cdebe889e9	-2.020412295373934
79	0x3ff0fdfc551fce91	1.062008221165261
80	0xbff1ae6e06a93609	-1.1050853977388917
81	0xc001113ebdf1620f	-2.1334204520501383
82	0x3ff2ed7754928146	1.1829751304249654
83	0xc003015cfc9c71be	-2.3756656394236577
84	0xbff48e46043f99a9	-1.2847347417788149
85	0x3fe15af853363b61	0.5423547387343711
86	0xc0009b6ecfdbd643	-2.0758949507678905
87	0x3fe1ccc4a1ca6c01	0.5562461051916899
88	0xbfaf9230708e2ad8	-0.061662210216203384
89	0x3fc4b1cffe7988a3	0.16167640615009757
90	0xbfd95a8222a30f55	-0.39614919073595917
91	0xbff47e98cfaaa705	-1.280907450864505
92	0x3fbdcb23ca272cd4	0.11638091740967421
93	0xbfb36f95a8450465	-0.07592139585632791
94	0x3ff0f03f57698efc	1.0586541571182684
95	0x3fd8b207477134e9	0.3858659932783
96	0xbfd649347dcaee16	-0.34821808132594023
97	0x3fb3bc2d321973ba	0.07709009621744559
98	0x3ff2150a777e5528	1.1301369350160915
99	0x3fe7ed11489a9982	0.7476889055295006
100	0xbff900d133b87ca0	-1.5626995106065706
101	0x3fe413b221811217	0.6274042753580628
102	0xbfcb311f025d237e	-0.21243655791684185
103	0x3fc596a32ce2da3a	0.16865958873468562
104	0xbfc3cfa3060b68df	-0.15477407260079354
105	0x3f9dce798cf8c528	0.029107951382859515
106	0xc003dbdc8da7dea0	-2.482354265866732
107	0x3fa9672153cfd8ca	0.04961494587034705
108	0x3fc47f64c0ad218a	0.16013774307272072
109	0xbfeac0cd30db8aff	-0.836035342621784
110	0xc0028279aef2fb12	-2.3137086551572645
111	0xbff382397925d12a	-1.2192930919964717
112	0xbffab80d45f33ac0	-1.6699345333505988
113	0xbfb97c7d78a77e95	-0.09955581851635949
114	0x3ff9973ef23c329a	1.5994252645788607
115	0xbff8de2330c24b5e	-1.5542327789923642
116	0x3ff80022140f9b6d	1.5000324996596774
117	0xbff11f427268275b	-1.0701317280786131
118	0xbffa75a63931a60e	-1.6537229761255534
119	0xbffb94b18ef5133e	-1.7238021454115393
120	0x3fd63b402f8f0b31	0.3473663773003635
121	0x3fe463718977aef2	0.6371390995895736
122	0x3ffc0158ed1e2154	1.7503289472970964
123	0xc0051afccbb16dd2	-2.638177481987193
124	0xbfdd1d65ece120b6	-0.45491932041887695
125	0x4002dfe8d0843630	2.3593307772014427
126	0xbff804a49c98a984	-1.5011335484547041
127	0x3fddaa16e12c1328	0.4635064314791628
128	0x3fe4669e1f4a2ec7	0.6375265704277461
129	0xbff9142ae6360fa9	-1.5674237244247513
130	0x40055e9b71846e32	2.6711949223079268
131	0xbfec862246d9fcdf	-0.8913737663096092
132	0x3ffd8cd283155644	1.8468804474299683
133	0xc0028e7b19f200a8	-2.3195707346895524
134	0x3ffd460d781034d5	1.829602688786783
135	0x3fdacfb124a281bc	0.41892651155105987
136	0xc008c318970a2e57	-3.095261745451164
137	0xbfebb27b41640e8a	-0.8655372883954027
138	0xbff520913523a8cb	-1.3204509807351765
139	0xbff19470b1675aa5	-1.0987402849038201
140	0x3ff37354539e6ea9	1.2156565920221658
141	0x3fed84326b2790fe	0.9223873226988244
142	0xc0003ff96ba21d9d	-2.0312374504898814
143	0x3fe4b3f893e2c0a5	0.646969117011413
144	0xbfb686cb029c0905	-0.08799427808483891
145	0x3fc4e7e2831a36ca	0.16332656289562514
146	0xc005c17dd013f838	-2.7194782501310577
147	0xbff7e8cc0a01fa08	-1.4943352118422144
148	0x3fdba3198e728adb	0.431829823597736
149	0xc004811a75c262c4	-2.5630387496897544
150	0xbff46ceb64235256	-1.2765916740073826
151	0x3fc5d7f7d6627d6d	0.1706533238220617
152	0xc013c172e82f6ae5	-4.938914897817743
153	0x3fd53186b665f8e7	0.33114784061753116
154	0x3fdb2420c64da4b6	0.4240800797038661
155	0xc006eda3d6ec323f	-2.8660351553756125
156	0xbffdf71f5ddbadd4	-1.8728326479275568
157	0xc01514348c670eaf	-5.269731706419107
158	0xc00fdd28c33f482c	-3.982987904900275
159	0xbfd47ce9ca51beff	-0.32012409932848124
160	0xc00be6a209add3ca	-3.4876137500927813
161	0x3fccbfca608a7835	0.2246029826537225
162	0xbfc3592aaccd902c	-0.15115865171094478
163	0x3fd620ab39830496	0.3457439481390535
164	0xbff23c0c557e9bfa	-1.1396602000838798
165	0xc0037d34b3607a1c	-2.436135674840683
166	0xbfde3dbaf23d0fb5	-0.47251771598916587
167	0x3ff7abc230694371	1.4794332400381018
168	0x3ff03daa3ff4b653	1.0150549410131091
169	0xc017354d1339ea43	-5.802051830682617
170	0xbfc11c8ea6525974	-0.13368399735618264
171	0xc00f35456ac6cd0a	-3.901011308853076
172	0xc01012885a70fbd2	-4.018098271509148
173	0xbfdd402d76065835	-0.45704208875520475
174	0xc00adc9c4fddb084	-3.3577200164346
175	0x3ff9eace00c60ac3	1.6198253660410706
176	0xbfe798c08c8a5b22	-0.7373965020113682
177	0xbfe340e7b444f840	-0.6016729851614926
178	0x3fe80b2e9ac847fb	0.7513649962513677
179	0x3ff9bcf2c738387a	1.6086299688354573
180	0xbff1275050d3e2ad	-1.0720980794268755
181	0x3fd102a3932cdfc6	0.2657860696085631
182	0xbfc05abd58f56aae	-0.1277691540115788
183	0xbfd5adcd4df949c4	-0.33873303045870906
184	0xbffe456c5eb90173	-1.8919490528206466
185	0xbfcf8ad1fe6b9545	-0.24642395899642558
186	0xbfb1703a9a6270ed	-0.06811872738984777
187	0xbfb8a65a1638a003	-0.09628832857617912
188	0xbfe9a6abcb087283	-0.8015955892074803
189	0xbfadeeca3869f209	-0.05846244753499625
190	0xc00598090f3c00f0	-2.6992360296427407
191	0xbfb380d3a11fb3be	-0.07618448909461414
192	0x3f9b5f5ee553e6f8	0.026730997798018102
193	0xbfe544e89557f69b	-0.6646616856448476
194	0xbfe50db36c4debb7	-0.6579224696464426
195	0xbff8ff0daa894ed7	-1.562268892438558
196	0xbfeeee9a8474a492	-0.9666264140152114
197	0xbfd2db39e5fac1ea	-0.29463050326287876
198	0xc000ff3a72dbb04d	-2.124623200730673
199	0x3fd8cc32c422b432	0.3874632754694317
200	0xbfee1aa2981c1dac	-0.9407513590712617
201	0x3fc58922b7c3e8f7	0.16824754689134355
202	0x3fe3598b6775fcb0	0.6046807308884095
203	0x3fe77ae476580a2b	0.7337515174297712
204	0xbfc2cf36fbf07f97	-0.1469486932919579
205	0xbfadcb665d12dd53	-0.05819244276193083
206	0xbfd16963a8f92bad	-0.272057452214251
207	0x3fd21bf5ee17c683	0.2829565835118972
208	0x3ff35cdd8a59bfd6	1.210172214920012
209	0x3fe2e2df97edac74	0.5901945083000002
210	0x3fb0cb767984bd2a	0.06560459582100422
211	0xc00cbf18484fa4c7	-3.593308033876926
212	0x3fd0f68f8b995b15	0.2650488723060545
213	0x3fff5b71e74c7d66	1.9598254237278865
214	0x3feb1e0f1e64ac25	0.8474193185442159
215	0x3ff009c95a41c3e7	1.0023892903957348
216	0x3fdd76cef54ab336	0.4603764911105829
217	0xbfe27970b5bf7bcf	-0.5773242521062175
218	0x3fecd24a880f08fa	0.9006703050038418
219	0xbff0e2614aed831a	-1.0552685667864297
220	0x3fe1d0a2ad833ef7	0.5567181958121797
221	0x40014c159800e3f2	2.162150561835454
222	0xc009e9fea69dbf13	-3.2392552391901375
223	0x3fe7287dc8ee9093	0.7236927914095922
224	0xbfed32fbcc5376ac	-0.9124735823385968
225	0xbff49ee38d8be86f	-1.2887912301216848
226	0xbfc53ab05313d6b5	-0.16585353905218417
227	0xbfd1ecbaad2c639d	-0.28007380401100496
228	0x3fdc2986813509c7	0.44003450982941356
229	0x3fe75f7c49a9cab3	0.730405944703611
230	0xbffb3a8d136e6ffd	-1.7017946967162054
231	0xbfd24e2ccf9a3510	-0.2860214259497562
232	0xbfe0a6d19c0e033e	-0.5203636215156633
233	0x3fceca3a45a645d5	0.2405464973531212
234	0xbff17a6048f5e522	-1.0923769807835204
235	0x3ff049e5ed45eea3	1.0180415409549048
236	0x3fc55c3009d8a54f	0.16687584381842632
237	0x3fc7d07209bc5003	0.1860487506424989
238	0xbffe1b017651ed90	-1.8815931913257806
239	0x3ff79ab8ebd2004d	1.4752740108233582
240	0x3f95207e7458b40a	0.02063176713106788
241	0xbff944f03bbe7df0	-1.5793306669000877
242	0xbfee4661d4792a5e	-0.9460915708417124
243	0xbfc90e7944566d79	-0.19575420223996412
244	0xbfd2afe7ad97e717	-0.29198638870694665
245	0xbfd11413ff1e95d7	-0.2668504706765282
246	0xbfd1d3b14b6fc7fd	-0.2785456883131017
247	0xbfdb8cfff8d2400e	-0.4304809503455552
248	0xbfe35b5ded743181	-0.6049031865855313
249	0x400341b2cdf8a1e1	2.4070793239118164
250	0x3ff5294525a9a78c	1.3225757094573707
251	0x3fca2b4304a28ed9	0.20444524504011133
252	0x3fa7a41c1d03682e	0.04617393354574549
253	0xbfd4d437d9f655b6	-0.3254527691400101
254	0xbff3340d252ad0ca	-1.200207848724903
255	0xbff7a7ede7cd170f	-1.4784983687145006

w3 f8 [23, 22]
0	0xbff4375fa327d7ae	-1.263518941237162
1	0xc0082a38821d5dbf	-3.020615593453584
2	0x4022736432d76cd6	9.225373829648031
3	0xbffbc39635c38bf5	-1.7352506733084259
4	0xc01751f65397aaa1	-5.830041223651876
5	0x401f5606f817aea4	7.834010960050055
6	0x4011ebe8afd072b8	4.480379817102111
7	0x4004ad23b576e410	2.584540765467416
8	0x401de261ae6a3baf	7.471075749620396
9	0x4021a9adb8b78cc7	8.831403515249248
10	0x40163ba7f2f3a5a4	5.558257862206492
11	0xc012389a1b458a1e	-4.555275369757991
12	0xc007e117f421f1ac	-2.9849089691981217
13	0xc00a2c1220ce7d5e	-3.2715189517036114
14	0xbfdcc25ce478d581	-0.4493629676029159
15	0x400926cf7e9d40a6	3.1439504520167985
16	0xc002623876bc82b7	-2.2979592586783286
17	0xbff668272e3ba317	-1.4004279905295272
18	0xbffd7510d4d39604	-1.8410805047545873
19	0x4018dfec68d7d569	6.218675268338623
20	0xbfb779bae37d690e	-0.0917012029071069
21	0xc0006e2cee73ed92	-2.053796637451975
22	0xbfde8735b8720e9d	-0.47700255405673336
23	0x40004f03f033ade0	2.0385817304393044
24	0xbfedb5d6696b24f0	-0.9284469660716734
25	0x3fd14833f82603a6	0.2700319217038277
26	0xbfcb42dfaca05584	-0.21297832421320717
27	0x3fd8fc1ce001966d	0.3903877437172472
28	0xbfe2aa32191eee9c	-0.5832758417740993
29	0xbfb3e4a9a721e93f	-0.07770786600477651
30	0xbfe5ea4570b8750f	-0.6848475648472759
31	0xbff0f16f85364a8f	-1.0589442447277724
32	0xbfe1e4d044d09c8e	-0.5591813415566251
33	0x3fe7fc5708471e37	0.7495532190013766
34	0xbfc69a363de4aa54	-0.1765811731541641
35	0x3fd2fbe3f94816d1	0.29662417739778585
36	0x3fb258a5c7019a21	0.0716651545386431
37	0x3fe25f3eb9d0d6bd	0.5741265897001636
38	0xbfe6f20b40087087	-0.7170463801044357
39	0xbff8661b594e4929	-1.5249284256465876
40	0xbfb5a1f6f9d7613f	-0.08450263595239436
41	0xbff1775757dffc9d	-1.0916360314002198
42	0x3fdaa9317ed8bf84	0.4165767420517954
43	0xbfa58f9023db2d20	-0.04211092412659867
44	0x3ff5551313e0cf1e	1.3332701469889296
45	0x3ff65255b7a1b638	1.3951012776482354
46	0x400531306ee90b6b	2.6490181603307312
47	0x3ff08f96415b8fa5	1.0350554039987199
48	0xbff00e8569fc05fb	-1.003545202256986
49	0x3ffcd8a776a4f4eb	1.8028940805955311
50	0xc0011ff53a69902e	-2.140604454371007
51	0x3ffc0a0463c1d0e6	1.7524455925713993
52	0x40087d29c1c14e2f	3.0611148011319282
53	0x3ffe8808660cdf52	1.908211134561459
54	0x3fe7910f5c69d1b9	0.736457520003163
55	0xbffb650a7c40cceb	-1.7121682027471319
56	0xbfe3e0d0d49c08b8	-0.6211933281449751
57	0xbfd68e68cf5d37ca	-0.35244198084262435
58	0x3fe9a47ff890ed78	0.801330552559576
59	0x3ff426d56f2f71c2	1.259480890577024
60	0x3fcac82658ac7633	0.20923308686990225
61	0xbfc2d3cfbe6dc442	-0.14708897398262094
62	0x3ff0638a9a25cba8	1.0243021031753674
63	0x3ff8bd0ebc29a68d	1.5461566305261016
64	0x3fe608f89b529f4a	0.6885951074263883
65	0x3fd75cf048b85ea6	0.3650475225599429
66	0x3fd33552c4ab230c	0.3001295967665534
67	0x3ffc7897b58beae2	1.7794415561353891
68	0x3fbc1a116885f932	0.10977276613082124
69	0xbff9654f7b772144	-1.5872340033402716
70	0xbffeef7eccd03939	-1.9334705353281392
71	0x3ff9e9a0716cc1a2	1.6195377760560423
72	0x3fd1709613808a2f	0.27249671844961915
73	0x3fea392df29cdee3	0.8194799173861295
74	0xbff0b71f001f164f	-1.044707298731186
75	0x3ffdc4e7367a38d3	1.8605720642113297
76	0x3ff40d924c713d86	1.2533133493451216
77	0xc00251a7389c66ba	-2.2898697302560693
78	0xbffa2710e4050151	-1.634537592603085
79	0x3fe781f10bf1ceec	0.7346120103161105
80	0x3fef5def725c320c	0.9802167161556681
81	0xbfe2be6e74cf84eb	-0.5857460290391406
82	0x3fe43632caca60ab	0.6316160164597212
83	0x3fe9ee62f183b7d7	0.8103499142723604
84	0xbfe8ce3f94f190b2	-0.7751768025450672
85	0xc00a9daca6749078	-3.3269894604036914
86	0x3fc7612eb24528cb	0.1826532717189536
87	0x3ffb3dbbb007148b	1.7025715709762916
88	0xbfdb123ad71e05e4	-0.4229876614336645
89	0x3f6c615851f4c630	0.0034643864634283025
90	0x40012361210e7b53	2.1422751028580165
91	0xbff02dcb7860edbf	-1.0111803724565644
92	0x3f9f81ca0cb4d4a5	0.03076854422143484
93	0x4008a28bcd07738b	3.079368211545846
94	0xbfe8747b7ac9439a	-0.764219035927556
95	0x3ff7096955ad9891	1.4397977206040518
96	0x400e611acc552a4f	3.7974143947115304
97	0x3fccc0e54685b6c2	0.2246367067668214
98	0x3fffdf2812d91fd0	1.9919815765624556
99	0xc004c8c505f3cb1c	-2.5980320420288887
100	0x3ff4becee0736c89	1.2965840118038463
101	0xbf9eb215a95ccead	-0.02997621389586296
102	0x3fc72d8bdb71e8c8	0.1810774632938943
103	0x3ffc0db6b73ef508	1.7533480794948577
104	0x3feeede28cffe848	0.9665386918925458
105	0xbfbf6c0cd546aa1e	-0.12274246413168341
106	0x3fdc594639878dbb	0.4429488717853151
107	0x3fe77a796854d101	0.7337004697533588
108	0xbfe6c234fdf79eb6	-0.7112069092081217
109	0x3ff4783145a997fd	1.2793438645544477
110	0xbfe1976c15ca4963	-0.5497341561879633
111	0x3ff976ff44f862cf	1.5915520376349155
112	0x400e6f8dd70ea2b7	3.804469757208007
113	0x3fe42c30dfd7af0a	0.6303943988727678
114	0x3fd17685e7be011c	0.272859073935267
115	0x3ff9d05e7445e734	1.6133713285366413
116	0xbfe550774301a1fd	-0.6660724934309311
117	0x3ffdbd98988e1eb3	1.8587881049333361
118	0x400254ca79fed7fe	2.2914018183610088
119	0x400929955ecec46f	3.145304432568586
120	0x4009bd94d46eb1cc	3.2175690265923773
121	0xbfe6e697aab5189e	-0.715648492253212
122	0xbfe643fc48aba4f2	-0.6957990092606947
123	0x3ff98bff960736e1	1.5966792927242113
124	0xbfdc9dcaea202514	-0.4471308981306532
125	0x3fe0eb69ec4fa981	0.5287370315029848
126	0x3fad017e76056a25	0.05665202322662236
127	0x3fec96deb996aba7	0.893416750409746
128	0xbff1ee8e715e0f3f	-1.12074131282948
129	0x40039ef75890ff82	2.4526202124833967
130	0xc00109999ab69683	-2.1296875082942406
131	0x3ffdb18e96c05b65	1.8558488739706374
132	0xbfd962a26f618ef1	-0.3966451728540355
133	0xbfd4adfd33060e65	-0.32311944945124643
134	0x3fdcfd4d1777de6a	0.4529602746183402
135	0x3ff02c4f89a06162	1.010818040469609
136	0xbfe1b8850e6b39c3	-0.5537743836992423
137	0xbfdaebd52d6a0bed	-0.4206440871714097
138	0xbfc638d71b257802	-0.1736096270132635
139	0x3fd1f5880af1e46b	0.28061104840123247
140	0x3febe7b13e1cc762	0.8720327580578948
141	0x3fcd7e6176fdaf91	0.23041933355432012
142	0x3ffc4002c50ef5ed	1.7656276414485277
143	0x3fe46f9e290b0937	0.6386252214072446
144	0x3fde5de9e6db6da5	0.4744820360626483
145	0x3fe96e03c147eec6	0.7946795249003678
146	0xbfd23ed55f37d9d1	-0.2850850515236774
147	0x3ffcad7a949d60d0	1.7923532300247196
148	0x3fb5e31ed4c9ecf4	0.08549683280027748
149	0xbfe29a4bd4b5a6cd	-0.581334987114326
150	0xbfdc31a068fdf314	-0.440528967410317
151	0x3ff24b0dc2234057	1.1433236678604055
152	0xbfd2df69bb461323	-0.2948860482068076
153	0xbfe99c838a0b7d5e	-0.8003556915463539
154	0xbfbb80fff6c65b79	-0.10743713164116099
155	0xbff270ed3ad5ad82	-1.1525699899892463
156	0x4006f1d7ee4b20e0	2.8680876366307615
157	0x3fef75adbe4fb76c	0.9831150738734613
158	0x3ffb7caf8fa7586b	1.7179408656570796
159	0x3feaaa98c5dad9eb	0.8333248009064936
160	0xc005b641425e957b	-2.7139916596522062
161	0x3ff61e04c03836f7	1.3823287495210346
162	0x3fd6797d33eec110	0.35116510459467154
163	0x40077ff5a1e68f44	2.9374802254186836
164	0x3fcafb12a66ffe88	0.21078713538007698
165	0xbff1fdc0018c6bbe	-1.1244506893624329
166	0xbfc332e537058b4c	-0.14999070345501264
167	0xbfe6f0268fed0015	-0.7168152628946723
168	0x3ff0c16d2be917af	1.0472232547049136
169	0xbfdb66c15dbc160c	-0.42814668802051936
170	0x3fd171284f67d607	0.2725315833516508
171	0x3ff17749bcfe2f87	1.0916230566535619
172	0x3fe941d3b1e18796	0.7892855142820163
173	0xbfd68fb51246e86e	-0.35252119812833527
174	0xc007ba94ba53a690	-2.966103988340201
175	0x3fe5a127a438ae9a	0.6759222228478905
176	0x3fbab138412515d1	0.10426665869189057
177	0xbfa3513e33ef3846	-0.03772920974698528
178	0xbfe51adcbc712787	-0.6595290833003994
179	0x4000847dbf6e4ae5	2.0646929698499314
180	0x3fe04219f2e31cca	0.5080690139665418
181	0xbfbb8abc6cc7be0b	-0.1075856938912169
182	0x3fdc18917a435067	0.438999528310211
183	0xbfd29102770116e3	-0.2901006853247578
184	0x3fe7719e3b57d8ef	0.7326193961187338
185	0x3fea69c169847302	0.825409608925469
186	0xbfc5359f3e94e3ce	-0.16569891505949247
187	0xbffbad7cb348d6fb	-1.729855251627156
188	0xbfd22ed0a4c9421f	-0.28410736172102874
189	0xbfb8228399b42a0f	-0.09427664282353752
190	0x3fb07f0e0f9a3328	0.06443870430866794
191	0xbfe4340d95e17842	-0.6313541343076923
192	0x3fe4fa76e1c8c240	0.655574265465539
193	0xbfec8d85f51cdd47	-0.8922757899626185
194	0x3fe4b73243e68bf2	0.6473628355200829
195	0xbfe59144909a4055	-0.6739828895824852
196	0x3fc23d23fcababf6	0.14249086224967272
197	0x3fe5d05c7759302c	0.6816847163222568
198	0x3fd3ee668e03887f	0.3114258181432276
199	0x3fe244c86aed1c78	0.5708963478472375
200	0xbffa1956b66b6f05	-1.631186211182411
201	0xbfe6cc766a654b08	-0.712458808712058
202	0xbfdc28a2397755f8	-0.4399800835793424
203	0xc000de82c62e546a	-2.108647869385597
204	0xbff1bee6a977e25c	-1.1091066951613788
205	0xbfe26036ca2bff77	-0.57424487578099
206	0xbff49a2ca588f2cc	-1.287640234585683
207	0xbfe112138add2fca	-0.5334565841853813
208	0x3fda7b19c07b819b	0.41376346394647506
209	0x3fc993d057e1d86d	0.19982342043994397
210	0x3ffc2e67e56924f2	1.7613295518261194
211	0xbfeb100c82a06950	-0.8457090903569142
212	0x3fb338e670f9cc96	0.07508697756002145
213	0x3feeb239e4b2baa7	0.959256121326537
214	0x3fce147d445b8411	0.2350002845551278
215	0x40012280db80ebe1	2.1418473385542574
216	0xbff332662c9b1ce3	-1.1998044722002355
217	0xbfffc93e3175d8d4	-1.9866315776867411
218	0x3ffbaf698b07075e	1.7303252630958563
219	0xbff735e9509028d8	-1.450661959361744
220	0xbfe46e91bdc7e672	-0.6384972292573379
221	0xbff6ed0070b534e8	-1.4328617479944175
222	0x3fdbb1b17e792e8b	0.43272054053225223
223	0xbff6ea0df11e3791	-1.4321422022507913
224	0xbfa4bbc5bc15ba2a	-0.04049508973081502
225	0x3fe4f104d6a8312f	0.6544212524909535
226	0xbfb9a5ed245d07e9	-0.10018808496263855
227	0xbff5d9b50b269b04	-1.3656511722162472
228	0xbfed9b362eeb2c05	-0.925196735036821
229	0xbfe53dd3b49f1e4d	-0.6637972381367462
230	0xbfd7efb03439d351	-0.37400441265281353
231	0x3fd5c080dab73c81	0.3398744712730562
232	0x40032021983237f0	2.3906890764546844
233	0x3fe3efc3b57c5ffe	0.6230181259770686
234	0x3fc2c74d59f892ad	0.14670721905817655
235	0x3ff8acbe7b8a6133	1.5421738458445133
236	0xbfdb54ea0ef33de3	-0.4270577569959341
237	0xbfe7ad282afe1e0d	-0.7398873176288717
238	0xbfef42b337b5f44c	-0.9768920982456932
239	0xbfedeefd87973eb9	-0.9354236267335728
240	0x3ff2ec22744905a6	1.1826500456230433
241	0x4001bd4a869fdd2c	2.2174273030792815
242	0x3febc675d7d22427	0.8679761138201955
243	0x3fd5d3a4bdfc0498	0.3410426955525252
244	0x3ffd4b851358b277	1.8309374576303108
245	0x3fe16b32f2a04aa4	0.5443358172218109
246	0xbfd3dd8425c522a4	-0.31039527595980076
247	0x3ff96689acc860f4	1.5875336407971732
248	0x3fd5c084dbcc896d	0.33987542595618586
249	0x3ff1e92fdb90afea	1.1194304062619218
250	0x3fd3ee77f31c310b	0.31142996541235907
251	0x3fdc3a6de078a76e	0.44106623574281556
252	0x400772e0d2bd853b	2.931092878731446
253	0xbff2d7f598bfdfdd	-1.1777244536187859
254	0xbffb0877f37b9485	-1.6895675192875228
255	0x3fee1a283c4bfdbe	0.9406930139229457

w4 f8 [23, 1]
0	0x4020263833a487f2	8.074647535166125
1	0xbfd705f0176c479b	-0.3597374180545729
2	0xbffdd43a7c71f327	-1.8643135892045366
3	0x3ff0e84628d5ddfa	1.0567075343259362
4	0x3faecc058d4e9efb	0.060150311946300015
5	0xbfaf10c19c913984	-0.060674715387551564
6	0x3ffd6b60b8855a7c	1.838715287003338
7	0xbfe1bd2ea24393fb	-0.5543435258119865
8	0x400581e279ecfb9e	2.6884202504583774
9	0x3fc4c59e59a7c3f2	0.1622808397073921
10	0x3fff2c80b173cbf7	1.9483649188739471
11	0xbfd71d9f9c7462b7	-0.36118307379505715
12	0x3fb4c8111e6a83d2	0.08117777817325525
13	0xbfd4a5d4a1c04053	-0.3226214961623601
14	0xbff1be9c6951bd2a	-1.1090358842882986
15	0x3ffd1d03e18d6ac1	1.8195837793961547
16	0xbfd6b876253fbfb9	-0.35500863683318645
17	0xbfd9c27f94ee2fe1	-0.4024962381743063
18	0xbfb851d2b09d0cba	-0.0949985200104945
19	0x3fc39eeab3ae2b74	0.15328725598768822
20	0x3ff08b1fd4acad1d	1.0339659030531216
21	0xbfb79e3957fb239a	-0.09225805662130285
22	0xbffe944e7560be00	-1.9112076363634287
