Code/Models/run_20251105_110618/model_hidden_1_width_38_act_tanh.npz (npz, 1414 bytes, 2 tensors)

w0 f8 [2, 38]
3.50269637415464 0.23095395911531397 0.581084144387031 -0.16396205247467308 -0.16396205247467308 -0.16396205247467308 -0.08819312983235487 1.8436105264982672
-16.017961200610287 0.16396205247467308 0.16396232461958743 4.080519531409416 0.16396205247467308 0.16396236775737627 -0.30084922536729075 0.16396205248805756
-0.16396205248306703 4.705926672488243 -0.16396205247467308 -0.2614854871181518 0.16396205252282492 -2.215154215897005 -0.16396205247467308 7.474361341555151
-0.16396205247467308 0.16396205247467308 -0.16396205248825427 -0.16396205247467308 -0.16396205263017746 -0.16396205270070957 -7.278920616824913 8.156931803340736
0.16396205248834567 1.7989820262858986 -8.559142410093429 0.16396205248443713 0.5363576210839549 -0.30830663516794526 -2.760610144231868 -0.7256691217847381
-0.4484100107730507 0.0015702190370914001 0.0015702190370914001 0.0015702190370914001 0.6446338455734746 0.5452072414988236 6.502283258456573 -0.0015702190370914001
-0.0015702141373154497 -2.455221020368346 -0.0015702190370914001 -0.0015702133606497997 -0.0006672771506451442 -0.0015702190368504212 0.0015702190369402738 -2.5818165606088965
0.0015702190370914001 -1.5529137606634302 -0.0015702190362244632 -2.6415703815662286 0.0015702190370914001 8.984260525573262 0.0015702190370914001 -0.0015702190370914001
0.0015702190368468804 0.0015702190370914001 0.0015702190342916566 0.0015702190330217768 -3.531369710699023 4.208911798388993 -0.0015702190368452364 2.9106814928579903
-8.22023148667843 -0.0015702190369156078 -1.6463413774643674 -2.1853974570803505
00000000: e47e 36ad 8505 0c40 6618 a43a e68f cd3f
00000010: e1b9 8bc6 3d98 e23f fbf5 9462 b5fc c4bf
00000020: fbf5 9462 b5fc c4bf fbf5 9462 b5fc c4bf
00000030: f3a1 5c30 d393 b6bf 40f1 5dc0 6d7f fd3f
00000040: d437 f11a 9904 30c0 fbf5 9462 b5fc c43f
00000050: b235 02ab b7fc c43f e95e 48b6 7352 1040
00000060: fbf5 9462 b5fc c43f c075 a507 b8fc c43f
00000070: 44af fe1b 1d41 d3bf ae51 9c62 b5fc c43f
00000080: 5393 9962 b5fc c4bf 2cd8 0e71 ded2 1240
00000090: fbf5 9462 b5fc c4bf 1445 e39f 2dbc d0bf
000000a0: c06e af62 b5fc c43f 47fe 06c6 a2b8 01c0
000000b0: fbf5 9462 b5fc c4bf 3fdd c1fa bee5 1d40
000000c0: fbf5 9462 b5fc c4bf fbf5 9462 b5fc c43f
000000d0: 5d6d 9c62 b5fc c4bf fbf5 9462 b5fc c4bf
000000e0: 4773 ea62 b5fc c4bf ca39 1163 b5fc c4bf
000000f0: c9c5 bd5d 9d1d 1dc0 fe19 865d 5950 2040
00000100: 3a7a 9c62 b5fc c43f 01d6 8f60 a1c8 fc3f
00000110: d850 fae9 471e 21c0 2654 9a62 b5fc c43f
00000120: a282 3075 d729 e13f 87e9 cbc0 4bbb d3bf
00000130: 8eda 73c5 ba15 06c0 2b0a 3973 ae38 e7bf
00000140: 5d08 dee6 bfb2 dcbf 8efb 5bda f9b9 593f
00000150: 8efb 5bda f9b9 593f 8efb 5bda f9b9 593f
00000160: cc3f 9428 d7a0 e43f 4cf4 f874 5672 e13f
00000170: e198 e18a 5602 1a40 8efb 5bda f9b9 59bf
00000180: fae6 8497 f4b9 59bf 6a78 17eb 4aa4 03c0
00000190: 8efb 5bda f9b9 59bf 73ea 07c2 f3b9 59bf
000001a0: 8bb2 0ac5 86dd 45bf 7706 4bda f9b9 59bf
000001b0: 1b59 51da f9b9 593f f9b0 e070 8fa7 04c0
000001c0: 8efb 5bda f9b9 593f c4ec 7819 bcd8 f8bf
000001d0: 35fa 1eda f9b9 59bf 0746 f7a6 ef21 05c0
000001e0: 8efb 5bda f9b9 593f 7029 e0fe f0f7 2140
000001f0: 8efb 5bda f9b9 593f 8efb 5bda f9b9 59bf
00000200: aec6 4ada f9b9 593f 8efb 5bda f9b9 593f
00000210: dcf7 96d9 f9b9 593f bd9b 3dd9 f9b9 593f
00000220: 5c4c 4cc3 3e40 0cc0 2c51 77f9 ecd5 1040
00000230: 10a9 4ada f9b9 59bf 222e e760 1349 0740
00000240: a8aa 712e c270 20c0 c39c 4fda f9b9 59bf
00000250: 422d 640e 6a57 fabf 945f 77a9 b17b 01c0

w1 f8 [39, 1]
2.6253873297681043 2.4026905081877907 0.7102088780178096 0.30753281607973554 0.000876086900176489 0.000876086900176489 0.000876086900176489 -0.26639814375036786
1.2143459106814243 -2.521902550870579 -0.000876086900176489 -0.0008760881439616377 1.2135354124569648 -0.000876086900176489 -0.0008760883411136159 0.0006540444211446577
-0.0008760869002376595 0.0008760869002148475 1.3500243364973559 0.000876086900176489 0.9918109305663392 -0.000876086900396556 -1.2850482373470558 0.000876086900176489
0.5188779810862664 0.000876086900176489 -0.000876086900176489 0.0008760869002385565 0.000876086900176489 0.0008760869008871902 0.0008760869012095464 -2.302795223107239
1.0879637446766528 -0.0008760869002389755 0.5552669492144436 -0.6318479052077773 -0.0008760869002211135 -2.022065370922436 -0.2556209389669172
00000000: 847e 8512 cb00 0540 059c 18cd b538 0340
00000010: 834a 0df8 07ba e63f 8197 e01e 9eae d33f
00000020: 12d8 d74a 26b5 4c3f 12d8 d74a 26b5 4c3f
00000030: 12d8 d74a 26b5 4c3f 32de c7cc aa0c d1bf
00000040: 6487 46fa f56d f33f 4181 9d3e db2c 04c0
00000050: 12d8 d74a 26b5 4cbf ba0a 9ff6 28b5 4cbf
00000060: 08a6 d01b a46a f33f 12d8 d74a 26b5 4cbf
00000070: 55b7 0163 29b5 4cbf a8b6 10b3 856e 453f
00000080: f873 e04a 26b5 4cbf 153e dd4a 26b5 4c3f
00000090: c1f6 601e b399 f53f 12d8 d74a 26b5 4c3f
000000a0: cc20 d346 eabc ef3f d2d0 f64a 26b5 4cbf
000000b0: 4102 93bd 8e8f f4bf 12d8 d74a 26b5 4c3f
000000c0: 2129 ecfe a59a e03f 12d8 d74a 26b5 4c3f
000000d0: 12d8 d74a 26b5 4cbf 4a94 e04a 26b5 4c3f
000000e0: 12d8 d74a 26b5 4c3f c8dd 3b4b 26b5 4c3f
000000f0: e33b 694b 26b5 4c3f 800b e5e6 1f6c 02c0
00000100: 2feb e9ab 4c68 f13f 62a3 e04a 26b5 4cbf
00000110: 919f 6d31 bfc4 e13f 7d3b 1d19 1938 e4bf
00000120: d61f de4a 26b5 4cbf 45e3 f39b 302d 00c0
00000130: 4249 42ed 175c d0bf
