Code/Models/run_20251105_110618/model_hidden_5_width_20_act_LRELU.npz (npz, 15366 bytes, 6 tensors)

w0 f8 [2, 20]
000000 ec da 8a 13 25 09 fa bf 73 2f 8b 92 ab 71 01 c0
       -1.6272326243758313 -2.180503029701805
000010 b8 c8 da 7d 53 03 11 c0 8b 86 f7 d5 b0 23 f7 bf
       -4.253248182753104 -1.446213565643492
000020 f8 28 41 95 44 75 07 c0 16 b6 cd d6 f5 9a 08 c0
       -2.932259717989947 -3.075664213326273
000030 94 0f 21 a6 92 c4 0c c0 f6 1c e4 dd 8a 54 13 c0
       -3.595982835658967 -4.832560984657212
000040 d3 33 64 b7 71 6e 10 40 48 92 bd 2a 20 70 05 40
       4.107855668536064 2.6797488535978893
000050 28 fc 87 4f a9 c4 16 40 4e 47 e7 81 3e b9 09 c0
       5.692052118944993 -3.2154512547212226
000060 1c 7b 35 f2 3a fb 12 40 22 18 6f d5 6e 87 05 c0
       4.745342049135413 -2.6911293673065453
000070 dd 2f 55 25 c7 11 e4 3f 56 24 45 af a3 6f fe bf
       0.6271701554446697 -1.902255711220524
000080 6e 8e b7 a7 13 ff fb 3f 50 dd 4f 49 a9 3b fb bf
       1.7497746039815882 -1.702065740942846
000090 aa 15 c7 9d 29 4c f7 3f d2 60 80 a3 90 7f fa 3f
       1.456094375914612 1.65614379756703
0000a0 ce 03 76 96 5a 83 d9 bf 4a 74 a5 2c 97 5f fb bf
       -0.3986422032685909 -1.7108375305172268
0000b0 86 0a 65 ef 3b 7d 9a 3f 4f 3d 99 d6 ef 79 d0 3f
       0.025868355261318608 0.25744243580716825
0000c0 31 f0 aa bd c8 1b 91 3f 4e 2c 77 72 c2 3d 4a 3f
       0.016707550598525415 0.0008008193444139029
0000d0 ff 62 98 fa 3e cb a4 3f a8 7a 30 30 ec cd 83 bf
       0.040613144006959694 -0.009670109959242737
0000e0 a0 a5 c1 62 d1 cc de bf b7 7f 29 2c 61 5e df bf
       -0.4812510933321281 -0.4901354724188382
0000f0 91 c5 28 ff d5 fd 03 c0 48 0b a1 5e bc cd e3 bf
       -2.498943322593455 -0.618864235708636
000100 47 ea 35 c5 72 c1 ec bf 57 d3 e3 e9 b1 0c cf bf
       -0.8986142970819139 -0.24257491989524269
000110 b2 ff b5 01 ea 38 ff bf bb 0f 1a 62 1e 35 8d 3f
       -1.9513950411637606 0.014261472100095198
000120 0d 45 ab 7d f8 31 00 c0 4f d6 f3 6d e8 7a 81 bf
       -2.0243997400181173 -0.008535209517940205
000130 f6 41 37 16 0c f0 0c c0 4e ff 8c 0d c9 82 f9 bf
       -3.6172105537045764 -1.594430020268152

w1 f8 [21, 20]
000000 20 55 0e 2f 71 96 e7 bf 8b 2a ee b8 d7 1f f2 bf
       -0.7371145171224818 -1.1327740882722164
000010 b8 6d 1f 3e ef 7a dd bf b7 9b 9e e9 05 9e c0 bf
       -0.46062832895924144 -0.12982248217778444
000020 72 7b ae d3 b2 b0 ec bf cd ed 92 34 65 43 e8 3f
       -0.8965696463018118 0.7582269694170748
000030 1b be b6 88 9d a3 0c c0 31 30 ee c2 d3 4f f8 bf
       -3.5798903160828224 -1.5194890608281748
000040 18 65 33 ce 1a 0a c0 bf 1d 8a db 02 94 e1 02 c0
       -0.12530837124249028 -2.360145590138258
000050 6c 9a c3 65 87 ae 04 c0 35 1f c5 26 d9 fa ce 3f
       -2.5852191877668727 0.2420302810007741
000060 0b 6f 04 3f a2 cf 02 c0 08 cf 53 d2 0c 6a f4 3f
       -2.3513836787441327 1.2758911338723369
000070 fd f7 a4 21 3e ee f3 3f cf 41 80 cc 99 62 dc bf
       1.2456647218928076 -0.44351811381150424
000080 b1 82 d9 b9 5d df 0d c0 85 58 8c 2b 4c c7 05 c0
       -3.734065486860651 -2.722313251705659
000090 0b 0a 9d fa 18 d6 e3 bf 3a 6d 95 be 5f ab 12 c0
       -0.619884957770695 -4.667357423658638
0000a0 5f 86 4a 09 37 45 fc 3f ae 6c 62 c2 c5 f5 f2 bf
       1.7668981898244949 -1.1850030511039154
0000b0 50 74 a0 c5 9b 73 ea bf 9d 7e 69 9b 7b 66 de bf
       -0.8266123638055749 -0.4750050561615156
0000c0 5e 36 51 bd 63 21 f4 bf ba a3 59 ec 60 c7 e9 bf
       -1.2581517596439862 -0.8055882087911563
0000d0 0a 12 28 04 7e 77 d1 3f fa c1 7f 2a 93 4d 08 c0
       0.2729182282057826 -3.0378783531416476
0000e0 35 ae 41 23 4e 05 ba 3f a8 fd 08 9d c2 b1 f6 bf
       0.10164345131641357 -1.4183984884437937
0000f0 4f 85 de 30 53 35 ee 3f 4e af 30 7f 50 48 f7 bf
       0.9440093950726495 -1.4551548927656373
000100 99 60 70 2a 6d 71 e3 bf fb 2c 7d e6 dd 62 e4 bf
       -0.6075959996114931 -0.6370687009561203
000110 4a 4c 7b f2 ca 37 c8 bf d6 0b f1 1f 91 61 cd 3f
       -0.18920265998767355 0.22954000529907032
000120 f7 20 5a ce 6b 19 f0 3f 68 70 de f9 32 5b b8 3f
       1.0062063274982032 0.09514158821406371
000130 e7 57 a4 2c 9d 48 fe bf 36 c2 51 33 a9 07 d7 3f
       -1.8927280181719597 0.35984258662850566
000140 fd 82 88 74 2a ae c2 bf 5f 5e 1b bb a9 3e 06 c0
       -0.14594011964893375 -2.780597173474049
000150 e8 39 f2 12 58 aa e6 bf db db 52 d1 57 a5 c4 bf
       -0.7082939500849621 -0.16129586907274426
000160 2d e2 d8 51 59 c1 ab bf c0 6f 1d 48 d1 ee af bf
       -0.05420951007949202 -0.06236890797910588
000170 c6 5d 3b e4 d1 8b d3 bf 1a ec d0 ef 5a f6 e9 3f
       -0.3054089287593026 0.8113226589115385
000180 3d 3c 12 dc f8 60 d3 bf 53 2d 94 48 a3 11 b3 bf
       -0.30279370776492326 -0.07448788186973347
000190 b5 9a 4b 7c 65 49 f4 bf 26 1d d0 36 a0 89 f5 bf
       -1.2679190497671418 -1.3461000577097564
0001a0 e1 84 fe bf 4c 09 ea 3f 4a b6 68 5a ea e2 ec bf
       0.8136352300536168 -0.9026996389199635
0001b0 55 ba 73 c7 97 6e d4 bf 41 4a 97 c6 6c 0f f8 3f
       -0.3192500541471522 1.503765846010211
0001c0 ad 25 b3 61 b7 d2 f9 3f 31 48 fe 8e 79 75 bd 3f
       1.6139444176099957 0.11507377377554985
0001d0 cf 86 43 b4 2b d4 f3 bf ea 72 fb a0 63 1e ad 3f
       -1.2392994920305005 0.05687247600665109
0001e0 dd 55 b3 21 36 e3 d8 bf 96 4b de e5 90 2a f2 bf
       -0.38886788645808484 -1.1353920916778626
0001f0 d9 66 6d cb 65 43 f8 3f 74 8b 54 44 9b ff ea bf
       1.5164545008068926 -0.8437019667220356
000200 03 3a b2 ba 5f f1 e8 3f ea b2 45 9d 9c 52 00 40
       0.7794645925912963 2.040337780656377
000210 90 fb 73 d1 05 49 e3 3f f8 b5 06 fc 15 6d e5 3f
       0.6026639071350122 0.6695661470782275
000220 25 dd 1f e7 04 1e e1 3f 80 77 3e 2f 63 d8 8b 3f
       0.5349144472265023 0.01359632003714828
000230 ea f1 ff c3 02 6d b5 bf 63 4e 7b 2c f1 33 dd bf
       -0.08369462285185816 -0.4562952932730921
000240 91 9d 5b 5f a1 02 a2 bf 58 35 ec fb 4d ff e2 3f
       -0.035176318064084396 0.5936651153912562
000250 6c a0 97 6d e0 c0 d5 3f ee aa 43 53 6a 3d f7 3f
       0.3398972578274939 1.4524939777863284
000260 4e a5 4c 77 89 fb e8 bf 55 40 63 3c 90 b7 b1 bf
       -0.7807051973406176 -0.0692072055273923
000270 a5 d8 2c 69 35 09 c2 bf aa 5b af ed b1 93 e3 3f
       -0.14090602527148124 0.6117791788373002
000280 c5 73 a8 b2 23 f1 f1 3f 99 96 16 70 e1 fd fb bf
       1.1213719347790498 -1.7494825724074075
000290 63 c3 c2 15 9b 32 f1 bf d4 be 60 1f e3 ed fc bf
       -1.0748549318343172 -1.8080779290866547
0002a0 79 78 a9 26 09 04 ed bf fd 9a d4 23 87 50 fe bf
       -0.9067426447980004 -1.8946601295116914
0002b0 c5 62 e0 f0 e8 42 f0 3f ef ff 7b 5b 44 58 c3 bf
       1.0163354310263213 -0.1511311957074208
0002c0 b7 03 d3 54 8b e8 f0 bf 87 5d 43 4e 07 73 dc bf
       -1.0567735017250308 -0.4445207847870382
0002d0 b4 0c 6c 79 ea 2f f0 3f 31 ad de ea 10 46 01 c0
       1.011698221497494 -2.1592119549947246
0002e0 fb bb e7 c2 2f 2e d4 bf b7 8d 58 3a 89 cf fa bf
       -0.3153190043803417 -1.675667980111809
0002f0 3a e4 de 1f 72 c0 f0 bf 2f b1 52 0d 7c ae fe bf
       -1.046983837599568 -1.917598773997337
000300 ea 76 be 4a d4 3f f1 3f 6c fd be 0e ff 6b d8 3f
       1.0780833167731836 0.38159157218975426
000310 c7 8b 6f 6e c6 98 fa bf 13 b2 b5 25 63 a1 83 3f
       -1.6622986139197893 0.009585165584860033
000320 5f 36 e2 45 0e 20 cd bf c5 a0 94 0f 4e a6 dc bf
       -0.22754076397216047 -0.4476504470972141
000330 e4 74 3c ae 4f 96 f9 3f 64 9b bd a2 e6 f1 c6 bf
       1.5991970831012674 -0.17925723024674334
000340 bd 2b 70 eb 4f ee 00 40 a0 e9 ae 9b c7 0e e6 3f
       2.116363372193034 0.6893041649521372
000350 ac 4e c7 cb e3 69 e7 3f 7c cc c6 2b 0f 0a e8 bf
       0.731676004414529 -0.7512279372225659
000360 70 42 ab 2e 60 29 f7 bf de 98 e8 2f b2 c4 ec 3f
       -1.4476014922148828 0.8990107475008491
000370 70 73 c5 59 73 92 cb 3f 4a ea 30 cd b6 25 c5 3f
       0.21540681727756406 0.16521344203086336
000380 37 e9 27 63 8c db e0 bf ea cc f8 28 ad 0f 56 3f
       -0.5268003403319089 0.0013465109840467512
000390 f3 0a 27 c8 5a 4e 04 40 d3 df 9d 4b 87 f0 ce 3f
       2.5382590901293667 0.2417153472158576
0003a0 06 5e 48 9e 21 fc f3 3f 1a 00 45 4b f5 64 d2 bf
       1.249055498401391 -0.28741199827709496
0003b0 c5 2b 68 35 bf b0 ed bf 0d d9 8f e3 7d 4d 00 40
       -0.9278255503753533 2.0378377702974206
0003c0 d8 6c bf 3d 5b d1 f2 bf 64 85 56 ce 3a 14 f3 3f
       -1.176112405016104 1.1924388942792001
0003d0 62 48 da 62 18 25 c8 bf 24 44 76 15 4b 62 dc 3f
       -0.18863205744543438 0.4434993466939565
0003e0 11 64 20 58 ee b3 fb bf b7 40 d4 bd 61 03 b0 bf
       -1.7314284746592004 -0.06255160221576515
0003f0 89 2a eb cc da a6 f3 3f 1b 50 e7 59 35 03 cb 3f
       1.2282360081323154 0.2110354126913315
000400 2c 85 02 13 f8 83 e7 3f 60 42 6c 4f 7f 99 0c c0
       0.7348595019613291 -3.574949856272994
000410 de f8 95 b4 6d 20 e5 3f f5 4f ea 34 7e 77 f4 bf
       0.6602085616175619 -1.279173094463656
000420 2b 72 1e 5e 7b 0b e1 bf 77 64 ce e5 3a ab f7 bf
       -0.5326515997181266 -1.4793042160802352
000430 d9 83 b5 a6 25 c4 e5 3f 58 4f db 1e a9 d6 e8 bf
       0.680193734744644 -0.7762036898297806
000440 71 3a 18 f7 7e b7 f9 3f c1 43 ed 5c 7a a0 fe bf
       1.6072988178381389 -1.9141791944459643
000450 45 f9 03 d1 7f 41 db 3f c3 ef 7b 59 0f 73 b3 bf
       0.42587275897667026 -0.07597442564650607
000460 57 53 4b bb 7d 52 e2 3f dd 00 2e b4 3b f6 ad bf
       0.5725697191324838 -0.058519235367386215
000470 7c ac bf a8 9d 8c f4 bf 1a a8 09 0c bb 33 d8 bf
       -1.2843300430056663 -0.37815738845404356
000480 06 46 ce c1 ab 86 de bf 07 96 07 ee a7 46 f4 bf
       -0.476969661010202 -1.2672499940903224
000490 ca 83 1a b1 9c cc 03 40 ea 61 c8 80 48 7e ef bf
       2.4749082409111667 -0.9841654315269441
0004a0 67 18 d5 4e 3e 36 ca 3f 14 ab 16 5b 31 59 fe 3f
       0.2047803769039007 1.8967755849977879
0004b0 2e 45 d4 45 7e fa e4 bf 29 73 02 a7 61 fb e3 bf
       -0.6555777896739181 -0.6244362127214106
0004c0 79 bb 90 c0 27 12 ec bf 13 99 cd 1c 5a 0c e6 3f
       -0.8772162209551048 0.6890078127442244
0004d0 76 14 05 db 45 b4 e9 bf 0b e4 ce e2 fd 5d ef 3f
       -0.803255965970165 0.9802236013266578
0004e0 44 58 6b 00 d5 19 ff 3f 6b 20 df 6f 60 8c e9 bf
       1.9438066498164668 -0.798385828494259
0004f0 90 8b f3 47 2b 6b cd 3f f3 bd ac ce 7c d3 08 40
       0.22983304036378316 3.1032653948275253
000500 a1 52 1f 64 2f 0e f1 bf 50 ca dd 7b 31 30 f4 bf
       -1.0659631644277072 -1.261765941479684
000510 86 2e 09 72 b6 6e e9 bf d6 fb e8 0a 3d a1 c2 bf
       -0.7947647311461459 -0.14554560692519541
000520 31 c1 1b 26 8e d5 ca 3f a2 99 d5 85 f5 f3 e6 3f
       0.20964218960535555 0.7172801603272101
000530 82 fa 57 3e fd 9f d2 3f 81 de 5a 1b 9f 52 02 c0
       0.2910149678063264 -2.290342534742934
000540 1f da 63 55 15 c6 e6 3f a8 8f a8 41 44 ab 05 40
       0.7116800945066791 2.7086262826505454
000550 2e a0 89 e3 75 a4 f9 bf c3 64 5a 5b 18 79 db 3f
       -1.6026514900386348 0.42926606103135273
000560 90 36 30 1e f0 53 e8 bf 10 31 4b 89 04 63 cf bf
       -0.76024633308562 -0.24520928100390238
000570 df e3 5d 88 1e 30 ce bf 35 b8 e7 e0 56 35 e2 bf
       -0.23584348352940673 -0.5690111534766006
000580 9c d8 d8 6e 4d c2 fa 3f 02 90 5f 8e a5 04 fe bf
       1.6724371271098226 -1.8761344491440473
000590 42 50 12 37 db 45 e4 bf f1 ad 8a 17 46 40 03 40
       -0.633527381478878 2.406383689803754
0005a0 b1 4f d7 01 9d a2 e0 3f f1 65 00 b2 38 4f bd bf
       0.5198502574880789 -0.11449007364026166
0005b0 85 95 58 08 d5 76 cf bf 70 54 6b 4b 34 11 04 c0
       -0.24581396968384808 -2.5084005252961603
0005c0 e7 f9 77 d5 26 5a ff bf 11 b0 7d 6e 29 7c ef bf
       -1.9595096911067402 -0.9839064748789516
0005d0 d3 03 37 d7 3c f0 f2 bf 40 ea 34 dc b8 e0 e5 3f
       -1.1836517721969713 0.6836818982040498
0005e0 e9 0b 60 69 c4 da f5 bf d0 6a 3e c6 08 cb b9 bf
       -1.3659099689691578 -0.10075430717408129
0005f0 be 39 5d b7 d6 50 01 c0 58 53 a4 55 77 6e d5 bf
       -2.164472038776892 -0.33486731875864484
000600 b0 39 4b c6 08 b7 fe 3f 90 e5 c9 43 b7 dc f0 bf
       1.9196861024716831 -1.0538857124323364
000610 90 0a 92 3d 4c 20 cd bf 77 7a 44 25 87 ec f0 bf
       -0.2275481510769919 -1.0577460723649474
000620 72 67 51 60 3e 35 fc 3f 33 dc 4d 90 2b 67 a2 3f
       1.7629989397450712 0.03594337593579446
000630 42 d0 55 8a f2 dc e4 bf 51 cf cb 9e 07 5a 92 bf
       -0.6519711210116912 -0.01792156130518602
000640 b2 5c f3 e0 4f 41 c4 bf e5 1f e4 3f 4c 5a f8 bf
       -0.15824316486280093 -1.5220453735109853
000650 45 85 1d 42 dc 8c 02 c0 91 93 0f 97 68 e9 f7 3f
       -2.3187794842967 1.4944845104994082
000660 15 0b f0 40 4b b0 d8 bf 03 53 5b 19 80 48 a2 bf
       -0.3857601293713498 -0.03570938405542814
000670 97 f1 90 0b 50 fa fc bf 11 20 c5 14 f0 8f eb bf
       -1.8111114932827144 -0.8613205342926468
000680 bb 03 1a 3e 52 88 e9 bf 20 9d 23 60 de 2d ab 3f
       -0.7978907788202528 0.05308432506154248
000690 14 2d d5 be 20 8a f6 3f 9f b9 19 ea 71 37 f2 3f
       1.408722634735402 1.138536371665033
0006a0 09 48 dd 26 5c 30 c8 bf 00 0c 6f 35 f8 fa ee bf
       -0.1889758291022761 -0.9681359332683996
0006b0 1e a9 76 77 6c 6c ca 3f 0d 4c 91 e0 2c 5a dc 3f
       0.20643382867030707 0.44300386362482486
0006c0 81 68 e6 6c 1e 25 d1 bf 6c 32 fa eb 2e 12 f3 3f
       -0.2678905547596813 1.1919392793526198
0006d0 d7 06 38 aa 07 de f3 bf 8e 8f a6 a6 bd ac fd bf
       -1.2417065285848616 -1.8546730527677684
0006e0 7a 13 8e d3 3f 0e 97 3f 7e 9e 9c 32 a0 6a f4 bf
       0.022515294348994776 -1.276031682684248
0006f0 46 66 ae 35 d5 7f eb bf 3c 64 00 3a e6 60 f3 bf
       -0.8593545959913136 -1.2111570611653084
000700 94 d4 9f ef 0a 0d f1 bf 08 e9 e6 fe 5d 6b f4 3f
       -1.0656842575383836 1.2762126881703484
000710 09 99 f0 67 d7 1a d3 bf 66 73 d5 67 de dc e7 bf
       -0.2985132708585217 -0.7457115200046303
000720 6c 0e b7 72 eb 25 ee 3f c0 5f 2f 76 3a 77 f8 3f
       0.9421288719681349 1.5291084877589896
000730 02 81 a4 6e ee 27 e8 bf 78 b2 14 85 85 25 f7 bf
       -0.7548744355190424 -1.4466605375738748
000740 cc db c7 df 8a 53 f2 bf e6 23 22 7d 05 bc d7 3f
       -1.1453961125787258 0.37085091800741876
000750 d5 fc 07 2c e3 8c 9a 3f 65 10 4e 10 d6 aa cb 3f
       0.02592806774373176 0.21615100666179213
000760 a7 e5 73 7a df 54 fc bf fa 94 15 6a 35 21 f1 bf
       -1.7707209380444995 -1.0706075805585997
000770 7e d7 af c2 a7 eb f0 bf 59 14 56 eb 7f db 00 c0
       -1.0575330357509922 -2.10717758041805
000780 e0 0f 49 1b 04 00 b1 bf 01 75 4e 36 55 8f fa bf
       -0.06640649477145599 -1.659993373999271
000790 6c 18 96 97 ca 1a e1 3f 82 7d 56 02 db 86 f3 bf
       0.5345204315824623 -1.2204237071344726
0007a0 4d 8e 90 42 9a c7 f3 bf 05 df 8a 53 c8 f6 ff bf
       -1.236231098192451 -1.9977496398332175
0007b0 42 49 7d a6 40 b6 ef 3f f4 7e f0 2b 21 d4 f0 bf
       0.9909976245637966 -1.0517894474396003
0007c0 59 49 ce fe bb 88 fa bf 3e 69 dd df 47 98 f3 3f
       -1.6583824113227676 1.224677919838157
0007d0 8a 5d 2d 27 39 22 04 40 d5 58 f3 49 7d 79 f3 3f
       2.51671057326502 1.2171605004019075
0007e0 6f 4c df 63 ae b1 ce bf 16 34 c3 8c 89 79 a9 3f
       -0.239797400251152 0.04975538104336168
0007f0 df 82 25 c4 bb b1 c3 bf d4 c2 68 6b 7e a4 b0 bf
       -0.1538614948031158 -0.06500997659965019

w2 f8 [21, 20]
000000 f0 b9 ca 93 f7 d9 d8 3f 6f 8a 64 5f cb ef 15 c0
       0.3883036559372206 -5.4841742425074775
000010 32 3a 7a 43 10 75 20 c0 eb 38 1d d9 26 88 0b c0
       -8.228639706297233 -3.4414803468745183
000020 ba 2a 27 57 b3 c9 f5 3f 1d 4d 38 66 18 bf 17 c0
       1.361743297997846 -5.936616513429979
000030 e7 bc 80 a2 a4 06 1d c0 63 3f 06 3f 12 a9 e0 bf
       -7.256487406833208 -0.5206385832734494
000040 68 e4 6b 12 71 69 e0 3f cc bd 5f 56 d9 a8 10 c0
       0.5128712997240088 -4.164891576379386
000050 9f bc 9c b0 ef ed 1b c0 71 52 91 d1 4c d6 17 c0
       -6.982359656874137 -5.959277414793733
000060 52 59 e0 f9 b0 2d 09 c0 0d dd ef 40 b7 eb d8 3f
       -3.147310211333356 0.3893869527959886
000070 d1 7e 24 9c 80 2e 1d c0 2c 26 46 02 fa 5a e5 bf
       -7.295412482955457 -0.667355541650243
000080 7f f2 61 a2 e3 d1 0a 40 c2 22 bb a0 d4 36 05 c0
       3.3524849592343453 -2.6517727429494196
000090 a7 0c 3b d7 e5 e1 1d c0 3f e0 80 a0 2c a4 17 c0
       -7.470603335360614 -5.910326488367047
0000a0 b7 62 21 b9 bc e0 e8 bf c8 9d 5e 89 a5 2a f1 bf
       -0.777433740218007 -1.0729117742538268
0000b0 36 3e de 94 11 68 04 c0 12 d4 ce 49 ea a7 c9 3f
       -2.550814784080809 0.20043686489012252
0000c0 2b 43 17 88 85 ff e6 bf 03 25 ae 15 cb a9 fe bf
       -0.7186916025185374 -1.9164534422764639
0000d0 cb 0b 88 c4 50 0a 11 c0 ca 55 d0 d2 53 ef e8 bf
       -4.260073729327767 -0.7792147748429497
0000e0 c4 66 e2 d0 1b 34 f7 bf 6b d4 b9 df 0c f8 06 c0
       -1.4502218398614994 -2.8711183050714246
0000f0 a2 21 49 74 c2 f0 fa bf d3 2f 1f 23 db ea fb bf
       -1.683779196015259 -1.7448378917642813
000100 dc 17 6c 1d 07 35 f8 bf c3 ec 32 77 ca 67 f3 3f
       -1.5129462384515966 1.2128395706375137
000110 bf ae af 93 dd fa 01 c0 28 e2 f6 ad 50 ca f0 bf
       -2.247492936896236 -1.0493933482631608
000120 3f 7b 2a 48 33 71 fd bf e6 0a aa 11 7a 17 d3 bf
       -1.8401367968542244 -0.29830791211149543
000130 34 cb 56 df 12 81 ed bf 32 42 95 14 4c 6e fc bf
       -0.9220060693827237 -1.776928024675851
000140 12 00 5f e2 c3 14 03 40 7b fc b9 fd a8 e2 e9 3f
       2.3851392445794852 0.808918471870029
000150 e0 a1 50 38 17 31 f0 3f 60 be 8d a4 df bf f1 bf
       1.0119850349238888 -1.1093441417578092
000160 be 56 14 8d 7c 70 f2 3f 01 c7 d1 61 7a 3d f3 3f
       1.1524625311771355 1.2025092907974229
000170 12 6a b2 c9 34 04 fd 3f e0 45 64 4a e3 9b bd bf
       1.8135269049440734 -0.11565990987971686
000180 6a 4c 2a a5 ca e1 e4 3f f7 32 4e ef 45 6d e1 bf
       0.6525624490626687 -0.5445890115675799
000190 a0 c8 c3 a7 a5 96 e8 3f 83 1a b9 64 57 f7 f1 3f
       0.7683895374923573 1.1228860792631685
0001a0 ee c3 53 f9 76 30 ee 3f 49 77 cb 03 da a3 ea 3f
       0.9434161061927833 0.8325014185063334
0001b0 bf 2d 5a e5 f4 f3 fb 3f 66 24 0b 71 1e 92 d8 3f
       1.7470597228119542 0.383918390649859
0001c0 80 c0 aa 37 f9 d2 ef 3f 10 a8 38 82 da cb df bf
       0.9945036017652598 -0.49681723324704397
0001d0 86 f2 18 e4 d5 f3 d0 bf 7d d3 60 2b 9e 46 e8 3f
       -0.2648825385584036 0.7586203429442403
0001e0 de ca 95 d5 31 e7 f3 3f 9d 07 f4 ac 50 36 e0 bf
       1.2439440100831045 -0.506630265998172
0001f0 39 d7 f7 f5 91 ba fc 3f 97 da 5b 58 93 c4 dd bf
       1.795549355328559 -0.4651230204466769
000200 7f 72 86 ff da 23 f8 bf 9a 49 e3 20 02 a9 ed 3f
       -1.5087537747814677 0.9268808977451954
000210 c3 ce f6 df b8 3d 03 40 49 2d 50 14 de fe d6 bf
       2.405137777060959 -0.3593058775301939
000220 de 79 87 75 80 1a e7 3f d7 4f 15 c6 97 a8 03 40
       0.7219850821964504 2.45732073547877
000230 41 f7 66 af c8 65 f4 3f 8d 5f fe 56 c9 cf 06 40
       1.2748495914124336 2.8514582439783625
000240 fd 11 e5 47 1f a4 e3 bf a7 fb d1 b6 b0 c6 f3 bf
       -0.6137844471164154 -1.2360083714881769
000250 b9 b1 97 16 b6 68 7b 3f 51 1d ab 06 dd 89 ee 3f
       0.006691657335505524 0.9543290262453558
000260 2f df 28 00 64 f7 e1 3f 67 92 c6 9e 7e ad f1 bf
       0.5614490512007019 -1.1048570825743356
000270 87 97 11 91 cf aa e4 3f b1 85 4b a9 5d 38 78 3f
       0.6458509286282926 0.005913129677283122
000280 23 39 06 94 f0 d3 f1 3f 53 7a ef 0e 5b 65 fb 3f
       1.114243105144461 1.7122450431267182
000290 93 18 c0 1b 18 4f e6 3f c2 46 62 42 92 60 dc bf
       0.6971550504683982 -0.4433942459373662
0002a0 b8 2a 10 bb 89 f5 e4 bf 00 d5 a0 cd 42 50 f2 3f
       -0.6549729016854462 1.144594958529808
0002b0 34 66 65 55 b3 7e f1 3f b8 c6 96 4f fd db eb bf
       1.093432744577865 -0.8706041864845337
0002c0 49 63 5f 22 90 55 c0 3f c5 9b 57 da 03 89 cc bf
       0.12761117628431354 -0.22293136750451317
0002d0 1a f6 8f 20 d3 3d bb 3f 00 9f 05 e8 17 25 e2 bf
       0.10641212029437278 -0.5670280009917121
0002e0 b2 64 41 fe ca 31 d8 bf d3 86 47 44 98 40 c2 bf
       -0.37803912000306206 -0.1425962766070855
0002f0 c4 2b af 15 f4 44 e5 3f 7e 97 dd d0 2e 6b f7 3f
       0.6646671699066862 1.4636676939785214
000300 48 20 25 95 1b 7b e8 bf a1 a6 73 2b ea cf f6 bf
       -0.7650278008450266 -1.425760431035464
000310 1b f5 89 be 30 96 ff 3f b4 7f 93 95 54 f5 e1 3f
       1.9741675799298892 0.5611975594911116
000320 bb 32 9f 42 58 9e d5 3f da ba 4f 83 48 49 e3 3f
       0.3377895975689104 0.6026957096745165
000330 4c ed cf 04 06 a4 e6 3f ac 04 8f 5a ce 18 d2 bf
       0.7075224012363974 -0.282764042316624
000340 88 4b 26 16 45 5b e9 bf f9 14 fb c0 c0 35 de 3f
       -0.7923913414582424 0.47203081937580255
000350 c8 ea 28 7f 38 c1 fe 3f b7 dd 0f dd 43 2b 02 c0
       1.922173020094009 -2.271125533148474
000360 26 8c ee 54 14 8a e5 3f f0 e2 b2 e3 40 cc fb 3f
       0.6731053980660178 1.7373665709002886
000370 63 81 e8 8b 38 5f c5 3f 9e 67 ab 9b dd c3 de 3f
       0.16696841079193367 0.4807046909532974
000380 ac c2 2d 7c 1a 0f cc 3f a6 f4 6c 51 ae b6 b8 3f
       0.2192109209386407 0.09653748977594265
000390 ad 14 5f ab c5 6a f6 3f f2 84 20 b4 95 03 cc bf
       1.4010674184985803 -0.21885939879670208
0003a0 52 a4 f7 44 8d 65 f6 3f 29 1d da ea 08 f7 d8 bf
       1.3997929281270172 -0.39007780966535904
0003b0 76 40 25 c7 ac 27 ef bf b6 7c 15 25 0c 16 e3 bf
       -0.9735931291161382 -0.5964413379951086
0003c0 a4 7e e5 60 40 67 f2 bf 01 5a 29 e0 62 ef eb 3f
       -1.150207880498706 0.8729719522623897
0003d0 f1 d3 99 37 0c d1 c5 bf b8 57 77 3e 57 e8 e0 bf
       -0.17044213023078172 -0.528361913685095
0003e0 5a ac 7e f8 b7 2a d4 3f 52 23 9e d8 51 21 d1 bf
       0.3151073385913087 -0.2676586738021359
0003f0 0c a9 de d3 59 ce f4 3f cb 14 9c 96 c1 71 de bf
       1.3003786350405475 -0.475693127708223
000400 a8 37 79 48 25 75 e5 3f 4e f4 9f dc 81 12 d7 3f
       0.670550004529777 0.3605045942820809
000410 ba e3 09 f7 2c a8 dc 3f 7d 3a f9 08 ac 19 f9 3f
       0.4477646267401344 1.5687675810364958
000420 cf bd fb 3b 4e ab d8 bf 99 da dd 88 e8 eb b0 bf
       -0.38545566423178185 -0.06609967557401787
000430 72 91 7a 79 9d 2b d2 3f 04 a7 2d d8 38 70 ba 3f
       0.2839120565716008 0.10327487256804707
000440 0b a6 87 ed 5f b0 b5 3f 53 b3 e2 ca 30 4c c0 3f
       0.0847225146204879 0.12732515245934425
000450 52 04 9f 6a 3c 86 f6 3f 40 d8 51 04 ed 58 ea 3f
       1.4077724614037561 0.8233552059525735
000460 aa 6e a3 79 d5 89 ff bf 00 36 e2 06 0a b2 10 c0
       -1.9711508513927734 -4.173866374546833
000470 10 68 1f 0e 0e 68 fa bf 20 60 48 8b 69 40 01 c0
       -1.6504040290515185 -2.1564513093435522
000480 c7 13 aa e9 8c 2c e6 bf 1b 42 d4 f7 7b fa 01 c0
       -0.6929382861859431 -2.2473067628527708
000490 7c 02 88 5a cb 97 00 c0 ae a0 a6 1a 11 5d c8 bf
       -2.074118335033118 -0.19034017373383477
0004a0 2b 2b b1 e9 54 e0 07 c0 32 a9 78 82 5e f9 fd bf
       -2.984536958426721 -1.8733811470543285
0004b0 fe b2 28 ff 6d aa 14 c0 e9 13 be 72 0f d2 ff bf
       -5.166435229167062 -1.9887842638138358
0004c0 ab 38 01 82 a2 91 01 c0 78 95 5b 4b 48 64 11 c0
       -2.1961107403395395 -4.347932031121097
0004d0 45 88 b5 a3 8c e4 e0 bf 5b be da b2 0f 4a e6 bf
       -0.5278990933841291 -0.6965406888247786
0004e0 57 4a e6 d1 1e e8 04 c0 ec 3f 40 a7 ef 91 dc bf
       -2.6133400343326616 -0.44640723546126426
0004f0 be 17 ba dc e7 31 ee bf 6e 5a 74 a7 43 d8 10 c0
       -0.9435920058319807 -4.211195579983366
000500 52 5d 08 2c 19 73 e6 bf 5c 95 37 9c a3 22 01 40
       -0.7015500888837016 2.1419136242354124
000510 57 15 8c cf d1 75 02 40 f2 cd 68 92 bf 9a cc bf
       2.3075290884614037 -0.22347254418274037
000520 43 25 cb 7b c3 bb e8 bf 5b ea 62 65 6d 74 f0 bf
       -0.7729203622667814 -1.0284246406942177
000530 7c a3 fe 7e c6 3b 03 40 bc 81 ab a5 13 a5 f5 bf
       2.404187194963411 -1.352801940105663
000540 f7 2a a3 af 39 d5 d8 3f ca 8c 63 d7 79 7e e1 bf
       0.38801424171531046 -0.5466889578641709
000550 ef 1f 32 8e d4 d8 06 40 c8 07 b3 f6 8b 2e da bf
       2.855874167351423 -0.40909098712665726
000560 d5 7e 39 69 c3 87 e6 bf e4 2e a1 d3 9d 53 e1 3f
       -0.7040726714294246 0.5414570935622263
000570 38 2c 6e 4c 1f 46 ea 3f d0 a0 5a 37 56 ad f0 bf
       0.8210598461895477 -1.0423185503259909
000580 e0 84 d9 de 2c 09 03 40 e8 25 06 8d de 2b 01 c0
       2.3794801149493736 -2.146420575857281
000590 d2 19 e8 32 83 b4 d9 3f 30 a2 e8 3c 01 b6 d5 3f
       0.40164260836936905 0.3392336935817495
0005a0 8d 89 2c f7 3f 51 e7 bf a6 d0 33 44 34 b3 a3 3f
       -0.7286681964508702 0.03847659428166254
0005b0 9d f0 73 4d 68 82 e9 3f 4b 57 7f 34 57 57 f0 bf
       0.7971688759567034 -1.0213233996086781
0005c0 30 81 a6 aa 86 91 d0 3f 56 35 9c 37 89 b7 f0 bf
       0.25888220467642764 -1.0448085949204446
0005d0 2b 04 b8 c8 65 c1 e8 3f 74 d6 46 c6 a9 20 ba bf
       0.773608104733403 -0.102060900599861
0005e0 09 37 6b 49 62 72 f0 3f 13 a8 f8 ef ab a1 d8 3f
       1.027925764839383 0.3848676532239789
0005f0 28 a5 ae 6d 61 0b d9 bf 8f f5 c7 26 5f 7c d6 3f
       -0.3913196154704388 0.35134104525771986
000600 e7 20 15 aa 71 0b f7 3f 1a 37 2d 68 ca 8e b7 bf
       1.4402939456795651 -0.09202256244062959
000610 5b a5 b2 72 01 19 fa bf 58 d7 57 d1 b1 87 d6 3f
       -1.6311048965820507 0.35203214114823345
000620 62 8a 1b fd ac 92 ec 3f 32 79 da a2 78 08 e8 bf
       0.8929047530658176 -0.7510340862971019
000630 5c 98 c4 43 0b 67 dd 3f 8b a2 b8 2c bc 97 c4 3f
       0.4594143068119416 0.16088058646825618
000640 a1 3b 3e c5 37 a8 09 c0 4c 0b e4 8a a8 4f d8 bf
       -3.207137623750399 -0.37986196101717407
000650 c1 31 74 68 4f c0 e8 3f d4 ba f5 a3 48 6b 01 c0
       0.7734753646960187 -2.177384644447878
000660 11 cd 2a 4d 49 bc 08 c0 f9 d9 82 5e 23 99 01 c0
       -3.0919366863905755 -2.199774492615003
000670 f4 f7 2b 10 16 65 ff bf 76 93 d7 68 9f 7c e2 bf
       -1.9621792442044326 -0.5777127311417718
000680 73 5e 94 ac 3b ae ea 3f 8f 2d 9b d9 a8 fa 02 c0
       0.8337686892218258 -2.372392368362575
000690 53 de 8b ae 33 c2 e5 bf d6 10 05 97 81 2e e0 bf
       -0.6799562844380013 -0.505677027664684
0006a0 c8 0d 88 b6 a1 79 e8 bf c7 b8 72 e8 11 ae b4 bf
       -0.7648476185863098 -0.08078109669688437
0006b0 11 51 46 57 6a 44 ed bf 27 56 6a a1 6a f0 aa 3f
       -0.9146014885505186 0.052615482524896166
0006c0 c5 ed 7a d2 5f 64 e0 3f fc a9 ff 11 60 80 ea bf
       0.5122527228299353 -0.8281708098923555
0006d0 80 57 7a c9 07 23 ba 3f fe 2e 07 a0 9a 3a ed bf
       0.10209702175992952 -0.9134038091228545
0006e0 2f 80 fc 33 31 9a 0a c0 fc 4d 12 a9 6d 77 e3 bf
       -3.3252891599113563 -0.608328657357958
0006f0 4f 1b cd 87 2d d4 07 c0 d2 81 aa c0 44 4e d8 bf
       -2.978602467486247 -0.3797771340851145
000700 20 40 2d bf a5 28 c4 bf 5d 4a b7 47 cd 7b 00 c0
       -0.1574904616813919 -2.060450134545404
000710 0e 6b bf 24 f5 4e d0 3f f9 bc b8 b9 bb 51 da bf
       0.25481918896336786 -0.41123860489729186
000720 cb d8 bc c9 31 a4 d2 3f 31 2d 23 ba 95 27 ee 3f
       0.2912716360182343 0.942332137632013
000730 e2 ca 99 c5 aa 4c 0a c0 e5 1f 1f c9 31 71 00 c0
       -3.287435096507907 -2.0552707398055525
000740 1c 7e c8 3a 3e c5 fe bf 6c c0 f7 67 20 72 fe bf
       -1.923155049917006 -1.9028629361382867
000750 62 b1 64 9f 9e 4b ce 3f 09 74 e5 4f 07 be fb bf
       0.23668272765042803 -1.7338936921071328
000760 f3 04 8c fc 8f ba 05 c0 42 5f 03 59 0b 4a b3 3f
       -2.7160949449759015 0.07534857676671172
000770 4b 17 19 a9 60 0e f2 bf 5f c8 4c ec ea f6 0d c0
       -1.1285101514235574 -3.7455652676517697
000780 3a f0 ba 56 6b 55 e4 bf 37 d6 d5 a6 5a 77 d2 3f
       -0.6354271596860663 0.2885347966433502
000790 17 7b 79 ce 4c 5c f6 3f e7 f4 63 68 5e 70 fa bf
       1.397534185925627 -1.652433784270494
0007a0 c7 77 71 3c 6e 91 d3 3f 3e a5 be 44 08 b0 eb 3f
       0.3057513799920994 0.8652383177442642
0007b0 58 1c 9a 93 8d af 04 c0 e9 a5 2f 5b 3d 64 95 3f
       -2.5857192546277865 0.02089019650512639
0007c0 b6 ff ed 75 55 f9 d3 3f 13 f6 87 86 ae bf e1 3f
       0.3120931293160497 0.5546486499367255
0007d0 48 84 97 f4 82 23 f8 bf 3e 36 b3 92 0b ca ff bf
       -1.5086698107118242 -1.9868274431677402
0007e0 19 fc c8 c7 2d bb dc bf ae e3 38 6e d2 3e d8 3f
       -0.4489244891191802 0.37883435024155687
0007f0 52 36 20 4d 86 71 c2 3f 6d 4e 69 34 46 35 ce bf
       0.14408949628743756 -0.23600080069683163

w3 f8 [21, 20]
000000 ad 52 57 14 7e bb f4 3f 71 4c 61 3c b8 12 0e c0
       1.2957745356153894 -3.7591404645150353
000010 26 8a ef b7 ae f3 f4 bf fc 30 f0 2b 5f 2f b8 bf
       -1.3094927964199399 -0.0944728357573616
000020 bf d5 45 d2 cc 95 ef bf df e9 6d cb f3 0f 11 c0
       -0.9870361430063709 -4.26557844026908
000030 c8 f3 3f 26 c6 78 f1 3f ee b1 ff 19 39 ba fb bf
       1.0919858450063078 -1.7329646125391451
000040 af 3a 04 08 d5 f1 09 c0 f9 b3 60 98 fe c5 f2 bf
       -3.2430821062365207 -1.1733385040527067
000050 5d 1a d6 7d 24 90 17 40 99 bb 0b be 10 a6 ec 3f
       5.8907642042091455 0.895271655257477
000060 e0 66 f2 2d 1b 94 e1 bf 6f cf 04 2c a2 a7 ec bf
       -0.5493293664360088 -0.8954630717985149
000070 1c 6e 2b 23 48 16 04 40 2e 60 d5 bc 01 7e 08 c0
       2.510879778635866 -3.0615267517678353
000080 64 c4 f0 4a d4 af eb bf 9e f4 bc 9f 8d 36 0e c0
       -0.8652135337525917 -3.7766373137988714
000090 73 3f 4f d4 09 4f 03 c0 74 84 31 81 c4 cb e6 bf
       -2.413592966717198 -0.7123739741620185
0000a0 b4 2d 3f eb d8 91 92 3f cf 61 12 8e 76 9e fa bf
       0.018134488447498945 -1.6636872815780526
0000b0 01 87 73 10 d6 87 d6 3f 69 77 9e 2f eb d0 88 3f
       0.352040782991125 0.012117230787960858
0000c0 bd 5c 2c 13 8c b1 06 c0 65 d6 98 1c e7 ae e9 3f
       -2.8366929529107368 0.8026004370246481
0000d0 63 b4 78 35 62 03 aa 3f 24 e8 84 c6 55 96 f1 bf
       0.050807065036089914 -1.099202895608422
0000e0 22 ee 54 e8 83 dc a8 3f 80 03 96 d5 a1 8f cf bf
       0.04855739794808424 -0.24657080582622015
0000f0 87 ab aa ef bb 9d 0a 40 e4 52 db d5 ed 15 ea 3f
       3.32701861610025 0.8151768853082015
000100 5a c0 f0 a0 ae 8d e3 bf 36 86 19 f7 dc 42 fc bf
       -0.611045183502948 -1.76632401011774
000110 58 27 72 55 25 af 00 40 d8 86 bf 59 62 fa e0 bf
       2.0855204272710743 -0.5305644753354626
000120 30 b2 2e 9f 5c 48 fd bf 29 10 36 44 1f 66 d0 bf
       -1.8301664560377837 -0.2562330404400677
000130 c6 c9 09 16 7e 8a df 3f 80 29 f3 df f1 f4 ef bf
       0.4928279128281726 -0.9986504911442324
000140 65 31 30 25 de ab f3 3f 53 4a 9a ef c5 ff f6 3f
       1.229459901110283 1.4374446258049332
000150 61 7b 7b 88 9a 00 fc 3f 1b 24 d5 fe ee c6 e1 bf
       1.750147374281106 -0.5555338837813254
000160 fb 95 4b 31 e9 67 0b c0 06 6d 32 eb 78 91 e3 3f
       -3.4257377482597327 0.611507853859991
000170 51 38 55 f1 d4 46 f4 3f 73 60 6d 42 61 71 f2 bf
       1.267292921740154 -1.1526806444944924
000180 22 82 ab 62 02 3b f1 bf eb 4e 0a 84 6f d5 02 c0
       -1.0769065717978568 -2.354216605724891
000190 fe c8 ba 68 c4 df ef 3f 04 36 79 e2 51 bd 0e 40
       0.996065334844644 3.842441338848177
0001a0 73 10 eb d5 9a b4 f5 bf 19 91 a3 63 d6 af fa bf
       -1.3565929752521952 -1.6679290668626605
0001b0 df c9 2a 63 a5 8d f6 3f b3 b2 30 ab 73 62 e0 bf
       1.409581553813602 -0.5120180457648388
0001c0 69 19 60 d5 1d db c4 bf 0a 55 2e 99 c6 7d f1 bf
       -0.1629369060394297 -1.0932069762832861
0001d0 e7 69 ea 16 3a 8e dd 3f fd ca 9d 34 c3 71 da bf
       0.46180584180697654 -0.413193513281996
0001e0 16 14 db e5 d7 28 e8 3f ac ab d3 b6 b3 e2 c6 3f
       0.7549857606287584 0.17879339625446045
0001f0 86 13 f8 63 f6 d0 b7 bf 1f c2 72 3a 65 ba e7 3f
       -0.09303226414347252 0.7415033475463736
000200 7d 66 bf 8d 1a 5c c1 3f 69 dd 47 31 f6 9d d0 bf
       0.13562328263542503 -0.25964121639795806
000210 0c 0c 6b 90 3e a4 fa bf 6e 82 e0 8e 73 bd 91 bf
       -1.6650987283071599 -0.017324262233275815
000220 2a f0 85 f2 42 8b d4 bf 07 db f8 fb c1 1d 01 c0
       -0.3209998482122979 -2.139530151874513
000230 c2 17 d0 2a d1 f8 06 40 1d 35 df 8c 0c 18 f7 3f
       2.8714927048449406 1.443371343880535
000240 a4 17 cb 2a 03 e0 e1 3f a1 11 57 da b7 99 04 c0
       0.5585952602202622 -2.5750577028104122
000250 29 86 5e 56 84 ab fb 3f b7 fb 4e 3d 6c c7 d7 bf
       1.7293742536352374 -0.37154680239830945
000260 9b d9 dd 86 91 a2 d2 bf 63 de 12 e3 6d bd e6 3f
       -0.2911723916107804 0.7106236872704809
000270 0a e4 30 f7 68 93 f6 bf ba 65 28 71 b4 d3 04 c0
       -1.4109887748620644 -2.603371509595232
000280 7c d5 b4 db 41 e9 f7 bf 3a 91 23 86 9e ca d5 bf
       -1.4944475729256217 -0.3404918966246161
000290 f5 5b 68 93 ab 47 e9 bf 40 f5 51 d1 15 17 f0 bf
       -0.7899988059097028 -1.005636041313963
0002a0 19 b6 6d 45 78 ac 02 c0 a6 1e 35 84 8f a6 e6 bf
       -2.3342137741190183 -0.7078321058442796
0002b0 f8 7b 5b 73 dc ee d8 bf 35 8f 93 20 ef cb b8 3f
       -0.3895789267098162 0.09686178727457391
0002c0 65 0a 08 91 65 9f f1 bf d0 6a cd 93 2e 4e 01 c0
       -1.1014152207650565 -2.1631747767508855
0002d0 c6 67 9a d5 26 0c 05 c0 e9 39 14 f7 2c d3 d5 3f
       -2.6309334457155016 0.3410141384964889
0002e0 39 66 2b a8 2c 61 f3 bf 73 04 93 6f df 7d ee bf
       -1.211224228775235 -0.9528653315720831
0002f0 0f 6b 13 2b 91 10 f6 bf d1 ae 14 d7 e5 56 d4 3f
       -1.3790446932459337 0.31780382160171167
000300 2d 62 2a 10 2f f3 a8 bf c2 87 5a d7 e0 7e eb bf
       -0.048730345462164905 -0.8592380720258392
000310 45 41 52 54 10 88 c8 bf af a6 55 a4 7c c2 d2 bf
       -0.19165233723880185 -0.29312053726480775
000320 07 31 27 31 4f 8a cd 3f 2a 61 72 14 41 86 c0 3f
       0.23078336620381654 0.12909711359385173
000330 33 2e 55 85 c3 11 c8 3f cf 0b 77 46 d5 1c e8 3f
       0.18804210672748098 0.7535196663160323
000340 da 53 09 87 37 b5 e6 bf af 17 81 9b 84 b5 f5 3f
       -0.7096212041311631 1.3568159174333052
000350 ba af fd 35 a2 f2 e0 bf 6f 22 92 69 ae be e1 bf
       -0.5296183638106335 -0.5545265256815365
000360 96 31 7f 12 ba d8 d2 bf 57 7a 8c 56 d2 5f e7 3f
       -0.2944779568322472 0.7304469767003167
000370 a6 8f 21 d1 cf ee 00 40 a3 2f 5b ae a1 6f c0 bf
       2.1166073168150943 -0.12840672505842318
000380 41 39 ca f8 4e d0 db bf e9 29 83 72 6a 75 fd bf
       -0.4345891408528538 -1.8411659691943163
000390 e4 e5 7d c6 25 06 d1 3f b4 af e1 09 61 ff e9 bf
       0.2660002172848108 -0.8124242012977363
0003a0 d4 71 0b e6 bd 41 cb bf a4 60 ab 41 f3 65 c7 bf
       -0.21294378025676386 -0.18279877382770338
0003b0 32 34 94 86 8e b5 e9 3f 5f c5 5f b5 24 95 c8 bf
       0.80341268811174 -0.19205149513394823
0003c0 c0 78 e7 99 a8 7f d8 3f 2f 06 03 f9 87 24 c7 bf
       0.38279166249948204 -0.1808023420217508
0003d0 ad 1d e2 f6 61 40 c8 3f fc ec de dd 11 e2 f1 bf
       0.18946480326506557 -1.117692820246531
0003e0 88 27 23 40 b4 6c fd bf 24 db 6a 22 d9 a4 e8 bf
       -1.8390390878070964 -0.770123069020745
0003f0 da ab f4 9e c5 4b d9 3f 38 3d 09 08 8e 8a fc bf
       0.3952497532179088 -1.7838268579396992
000400 19 a6 7a 8e 6f 44 f0 bf 28 b0 39 3f 99 ad 10 c0
       -1.0167079511251187 -4.169529903312686
000410 43 c0 4e ba bf f2 13 40 b3 62 0f 95 8c 61 f1 3f
       4.987059508377629 1.0863157103214405
000420 32 9b 30 ab 5e 0a e3 bf fb 16 fd 85 71 48 f0 bf
       -0.5950158446838485 -1.0176863893443044
000430 95 70 54 5e 48 a2 e3 3f a6 34 67 c3 22 df f1 3f
       0.6135598986034149 1.116976512235206
000440 3d e9 63 dc 67 1e e2 3f b1 29 1c 16 88 c5 e7 bf
       0.5662116341111766 -0.7428627425991207
000450 8a 65 fb c9 06 ed c4 3f d1 a6 66 6c 00 c2 01 c0
       0.16348347532656887 -2.21972737015026
000460 40 1e 3c 2b d9 8b fe 3f 64 8b 1d 94 71 05 e1 bf
       1.9091426552639774 -0.5319145100478235
000470 b8 f9 c3 84 1a e3 f8 bf 8d 19 05 88 cc c8 f3 3f
       -1.5554452119973643 1.2365231812742394
000480 b7 7f 42 e1 2b 72 ed bf 2b 6b bf 3e 13 31 f6 3f
       -0.9201869392018044 1.3869812441905178
000490 8c dc 92 57 34 2b e6 3f 24 db 9a e8 31 84 e0 3f
       0.6927739820884127 0.5161370795311524
0004a0 61 13 ac e7 af de d2 bf c8 aa 80 6a 7b 6c 03 c0
       -0.29484174370036526 -2.427969772388085
0004b0 b0 4f e9 ce fd fa 04 40 a5 be 14 47 3a 96 11 40
       2.6225544133139564 4.396706686631352
0004c0 f6 84 7e 82 8e f2 f2 bf 5d 24 ae 3d 9b b4 e3 3f
       -1.1842179391317678 0.6157966808979257
0004d0 a1 60 46 dd 50 19 06 40 fa b1 79 be 3d 4f db bf
       2.7623612677671905 -0.426711498271089
0004e0 5c a4 d7 48 0d 91 d7 bf 7e 40 6b 9d 30 f2 a0 bf
       -0.3682282649375048 -0.033097762314015164
0004f0 d4 1f da 61 45 20 c1 3f 91 81 5d 7d ca c7 fa bf
       0.13379733350688972 -1.6737770936088945
000500 25 24 8c 16 f8 12 e2 bf 2b a6 27 b3 ba 4f cd bf
       -0.564815563238089 -0.22899564502522315
000510 a4 1e 5a 95 e5 b5 d6 bf b7 47 37 76 44 7a d3 3f
       -0.3548521002307814 0.3043376116230507
000520 f1 f2 fa 72 7c 9f f2 bf e8 2d 58 96 1d 62 f7 bf
       -1.1639370433251168 -1.4614539978818986
000530 e7 f9 7b 72 52 e2 f1 3f 8d b5 b0 d6 cd f5 bb 3f
       1.1177544090311302 0.10921942225896526
000540 bb 8a ad 83 dc 3d ea 3f af e1 b1 38 d6 42 00 c0
       0.8200514385065029 -2.0326351575169705
000550 89 12 10 c2 05 3e f2 bf f0 c8 33 29 dc 5d e7 3f
       -1.1401422100617842 0.7302075199825406
000560 59 80 32 be b2 1d e0 3f 14 a5 bb e5 57 7c f3 3f
       0.5036252703466843 1.2178572629875974
000570 96 aa eb 7c 85 e0 fd bf 44 b7 8c 09 9c bf ea 3f
       -1.8673148040494758 0.8358898340718288
000580 74 1c 8d ef 30 40 d4 bf d8 59 87 b7 15 88 fa 3f
       -0.31641791719125156 1.6582238358583847
000590 0d 36 0f 77 12 5e e2 3f bb 53 90 6f 72 4c ca 3f
       0.573983414209296 0.2054579777474411
0005a0 79 65 b1 9f 51 40 d9 3f c9 58 57 45 36 30 f7 bf
       0.39455071063056085 -1.44927050672918
0005b0 a1 55 a0 42 97 c7 df bf 32 4b 34 b2 04 b3 04 c0
       -0.49655705934977773 -2.5874113008698254
0005c0 2f 44 ed 27 32 c4 f5 3f d6 80 fb 6c 21 44 e0 3f
       1.3603993949548217 0.5083167198718239
0005d0 70 2d 15 dd 36 ef e3 3f fa 28 48 81 25 ff dd bf
       0.6229509656927075 -0.46869790673430567
0005e0 3b 19 33 a6 40 6c 02 c0 3d 30 ec c0 26 5c 03 40
       -2.302857683596043 2.4199957916335095
0005f0 26 71 a5 30 66 74 07 40 1b 01 99 cf 54 03 b4 3f
       2.931835537003411 0.07817583149244849
000600 ea 51 f3 54 30 c3 f2 bf 5e 73 00 90 11 78 e7 bf
       -1.1726535147073442 -0.7334068119558699
000610 fd 93 3d b9 4e 92 a2 bf 4a be 3f 81 5e 34 12 c0
       -0.03627248774754575 -4.551141757503112
000620 ad 81 b2 a7 06 25 ef bf 66 91 a7 2c 70 a3 e1 bf
       -0.9732697749459952 -0.5512009498748227
000630 7b 30 6b 8a 0f c6 01 c0 fa 29 49 27 8c b7 f9 bf
       -2.221709329029236 -1.6073113951302944
000640 b8 38 4d 2a f7 82 ec 3f 1d b4 5b ac bf b7 f4 bf
       0.8909869981960332 -1.2948605282538275
000650 5b a9 d4 78 94 9e ef 3f 5d 25 0c 20 04 3f e7 3f
       0.9881079063391484 0.726442396729151
000660 ed 98 a9 de 27 eb 00 c0 1d 83 5f db 62 03 02 40
       -2.114822139311505 2.251653398372936
000670 96 33 f2 6b 15 6b ef 3f 7b 03 8d d0 ea 6f e5 3f
       0.9818217380831011 0.6699117730387195
000680 94 b5 a8 ed 69 9b d7 bf ef 0a ad bb 7c da e4 bf
       -0.36886070450676667 -0.6516708055063115
000690 ca 28 21 a3 62 f9 04 40 c9 a4 ad 2d c2 d0 07 40
       2.6217701668257165 2.976932865964589
0006a0 3a db f6 f6 c0 44 da bf d4 b0 f2 e4 e5 09 94 bf
       -0.41044639699559904 -0.01956900796783219
0006b0 20 9f 5a 23 b8 b2 ef 3f 0d 83 08 7c 0c 5a ad 3f
       0.9905663195140484 0.05732764257505183
0006c0 78 c7 0f 45 ae fd d9 bf 47 54 cc 0a 19 12 e1 bf
       -0.4061084436826756 -0.5334592066670972
0006d0 02 4e 4f b9 fb a4 f3 3f 09 b6 b9 08 57 91 f1 bf
       1.2277791250861587 -1.0979833927953015
0006e0 d9 cf 6a e4 ed de fb 3f d9 5c a0 7c f7 54 00 c0
       1.7419260904834941 -2.041487668651467
0006f0 bf 99 07 ea df 44 e4 bf 6e c9 80 b3 f3 ff f2 3f
       -0.6334075518505456 1.1874882709349452
000700 a9 d0 9a 30 b3 e2 f5 bf 54 5e bb d9 00 07 d1 bf
       -1.367846670019427 -0.2660524488723912
000710 f9 68 07 91 ce 3f b6 3f 1f 92 de d7 3c 36 f2 3f
       0.08691111603494396 1.1382416183852297
000720 44 c6 4e 30 8b dd f0 3f 4c ae e3 e5 7e 6e ff bf
       1.0540878188152343 -1.964476488118538
000730 84 d0 47 0b 76 1d 0d 40 30 a9 63 68 6f a1 11 40
       3.639385307435136 4.407651549418276
000740 95 d6 03 df 0c 29 07 c0 2c f4 d2 25 85 da da bf
       -2.8950440810247735 -0.4195874089599012
000750 96 cd 31 f8 ad e9 0a 40 f7 13 a3 bb 78 99 e2 3f
       3.3641013517569247 0.5812343277726758
000760 bf 0a 5c 77 b1 5d c6 bf d0 c4 55 b5 33 87 ce bf
       -0.17473429039099206 -0.23850103716134763
000770 f0 42 95 d4 a5 93 e5 3f 42 ca ce 50 c2 58 07 c0
       0.6742734100353953 -2.9183393776995965
000780 c7 31 1f c3 a6 26 f0 3f 9c 90 d7 b6 c7 ce c5 3f
       1.0094363805720705 0.17037292888483513
000790 ce 51 74 eb ce 48 e8 bf ff 6c a0 5f 72 c5 de bf
       -0.758887729522536 -0.4808011945585377
0007a0 41 96 7f dc fa 9e dc bf f1 42 3e b3 b2 1a e7 bf
       -0.44720336468740035 -0.7220090390056538
0007b0 ef be 56 59 3b 05 e4 3f 42 2a 32 be a2 88 c4 3f
       0.6256386513614113 0.16041979109680155
0007c0 53 7d dd 60 ac 0f e0 3f df 3a 61 c7 2a a6 f4 bf
       0.5019132511041938 -1.2905681408189407
0007d0 51 7e 7f 2f fc 50 e9 3f f7 c1 84 3a cb 47 ed 3f
       0.791135876435826 0.9150138991299731
0007e0 03 5c 6a a9 f2 0a fa bf 84 a2 33 3c 87 cc c1 bf
       -1.627672826556364 -0.1390542072251898
0007f0 49 38 a0 68 95 78 f8 3f dd bc b8 e4 8e 1d bb 3f
       1.5294393622348414 0.10591977199577536
