Code/Models/run_20251105_110618/model_hidden_5_width_2_act_sigmoid.npz (npz, 1686 bytes, 6 tensors)

w0 f8 [2, 2]
0	0xc02519a3d941752e	-10.550078191032835
1	0x4014b621ebdbfb2e	5.177863774587236
2	0x3fe2b7522bf2561e	0.5848780496914434
3	0xc01882586e2d08d4	-6.127290460108458

w1 f8 [3, 2]
0	0x400840a1e98f42d0	3.0315588232846054
1	0xc011627c4046fb57	-4.346177105266938
2	0x401da363e4d2fd12	7.409560752275199
3	0x40010ff2b3775590	2.1327871342461506
4	0xc0120bc03f9c999c	-4.511475557263477
5	0xc00d367f84103ee3	-3.6516104047258167

w2 f8 [3, 2]
0	0xc01e22c8d2f223b5	-7.5339692077913485
1	0xc0208221803e686b	-8.25416184198203
2	0xc0155a68420b7779	-5.338288337659713
3	0xc018740321cdcdeb	-6.113293197809507
4	0x401a3da9bd4eff1a	6.560217817255557
5	0x401c2ca070862c28	7.04358077830242

w3 f8 [3, 2]
0	0xc017e6830a08b8d5	-5.975109249861096
1	0x400ca18b280d66ed	3.578878701123236
2	0x3ff9c7c89763d287	1.611275283209723
3	0xc007690b301caf6e	-2.926290870547681
4	0x4011c3bf97452212	4.44116054877715
5	0xc01137513917f97e	-4.304020778740208

w4 f8 [3, 2]
0	0xc0004295b5ebd092	-2.032512112864489
1	0x3fef53f0c7284cdc	0.9789966478150762
2	0xc013b8f15c884e1a	-4.930608220881846
3	0xc00bd47c82eece76	-3.47875311175613
4	0x3fe17eab8bb3b8a7	0.546712658744373
5	0x40079111d7085333	2.9458348082938755

w5 f8 [3, 1]
0	0xc028b7bd597640bd	-12.358866496739546
1	0xbff32fbd9210402c	-1.1991553979496627
2	0x400f72d9989611d2	3.9310790940091715
