Code/Models/run_20251105_110618/model_hidden_4_width_12_act_RELU.npz (npz, 5242 bytes, 5 tensors)

w0 f8 [2, 12]
0	0xc0153f4d8d25f485	-5.311819272462462
1	0xc0146165243659d4	-5.095112386529269
2	0x400a16db725216b5	3.2611607486058696
3	0x3fdf68953528aea5	0.4907582301263836
4	0xc01c1fa057e38389	-7.0308850987065705
5	0xbff694e55e2d2a38	-1.4113515547529811
6	0x4009bd9d45290cb6	3.217585125270115
7	0xc01ab4abe49d31b4	-6.676436969847078
8	0x401399945414a16a	4.899979890593707
9	0xc012d34374ffb420	-4.706312015635405
10	0x4009c2f9cdb2bcdb	3.220203024880545
11	0x3fe96e38672fbef7	0.7947046294557073
12	0xbff01a0d599946c4	-1.0063603877974154
13	0x3fa865b998559312	0.047651100011341666
14	0xbfbe5adb6b6ba731	-0.1185738694436196
15	0xbfaff57facacde7d	-0.062419881657146604
16	0x3fce7758cdc6e41c	0.23801717803670008
17	0xbf5865ccbb4b62cb	-0.0014891146976678145
18	0xbfe27a2d6cf4ab4b	-0.5774142387429974
19	0x3fec5a59d86ec1cd	0.8860291697692958
20	0xbfe51d84f6f07c53	-0.6598534415278529
21	0xbfe09b79d0ea7466	-0.5189789848697159
22	0xbfe932c366b582f6	-0.7874466901813253
23	0x3fa9809a81754afc	0.04980929212856286

w1 f8 [13, 12]
0	0xc004945320e21e16	-2.5724241799359886
1	0xc00887e8aafad12a	-3.066361747531251
2	0x4011ac3eb8d91c55	4.418208015681633
3	0xc0256937d1c20c31	-10.705503992974714
4	0x3ff46a005ce71f78	1.2758792523399887
5	0x400a8b04d1a9479f	3.3178802852425657
6	0x3fdd388de77cd4ed	0.4565768013593033
7	0x4016fe4793e13eb8	5.748319922087539
8	0xbffb1287ee0794c9	-1.6920241640121267
9	0xbfd09f976a766100	-0.2597406902000472
10	0x4011dc6ccecfefbc	4.4652588190473885
11	0xbff4f7cc9cfbd089	-1.310497868745218
12	0xbfd18829a4f7aa12	-0.273935710049643
13	0xbff23a65f3650674	-1.1392573840716098
14	0xbff631e2b8b20e6f	-1.387179109064984
15	0xbfecc91d62763299	-0.8995501444893136
16	0xbfdecd769628459b	-0.4812904802684785
17	0x3f9cbce877b1cad2	0.028064377122471403
18	0x3fc0a80344715800	0.13012734262400727
19	0xbff26ac36bef8ea6	-1.1510652748337775
20	0xbfe44073a6c24dfa	-0.6328676468860401
21	0xbff032fd81a1b713	-1.0124487937677642
22	0xbfcd6b75016e879c	-0.22984182901296613
23	0xbff3f8334eb5f27c	-1.2480958056104603
24	0xbfaaa7333603da05	-0.052056885093339424
25	0x3fee5a4e8ce7dc7f	0.9485237838806738
26	0xbff36858f4e9bfb0	-1.212975460712169
27	0x3feb1f4df8149977	0.8475713582345595
28	0xc0074315952f7aa2	-2.9077560095896198
29	0xbfd0489683a0e21f	-0.2544304166254125
30	0xbff99422d81d0975	-1.5986660425120054
31	0x3fd7a0f65e5784b4	0.369199363833171
32	0xbfecd5503714cae2	-0.9010392261319249
33	0x3ff2a2a056c8b1c7	1.1647036924360792
34	0xbfdac37cb3cf9054	-0.4181815868344121
35	0x3fe631e6001848e6	0.6935911180355816
36	0xbffe17b7f5758f6c	-1.8807906711817521
37	0xbfbb76b032981b33	-0.10727978930672748
38	0x3fe9aca5be0f2663	0.8023251258939122
39	0xc00e239c3064c0b4	-3.7673877506968783
40	0x3ff477d7c0a1d5d7	1.2792584919637784
41	0x3fe27c6ffb933d45	0.5776901162698002
42	0xbfe6149ef1042f89	-0.6900171954489319
43	0x3ffc35b50e6bccd4	1.7631121218990318
44	0x4003ad8f2ab09f86	2.459745725169287
45	0x3fae08a33a5eb98e	0.05865964972996372
46	0x3fec219b453e8aca	0.8791023590495908
47	0xbfdbe8f2fd44e012	-0.43609308942132075
48	0xbfeb40cbdfea60f0	-0.8516597150183127
49	0xbfdb299e744f2587	-0.4244152198631003
50	0x3fd3bad3c60f5585	0.3082780298403452
51	0xc00146b642a8f03d	-2.1595273216062467
52	0xbfc0d793e46e1cd1	-0.13157890943350606
53	0xbffec2fe152692b0	-1.9226055933187745
54	0x3fef1efaa1282cf4	0.9725316188427358
55	0xbffd21b964352176	-1.8207334436757185
56	0x3ff4b552a89625cf	1.294268282452652
57	0xbfe31060d5c3efb4	-0.5957492995362288
58	0x3f7a999aba4e5f3a	0.006494144826227283
59	0x3fe72478ec574732	0.7232021919282714
60	0x3fda66f55ee7e369	0.4125340868773067
61	0xbff55157d9c67506	-1.3323591715664533
62	0xbff60edd191ba97c	-1.378628824308719
63	0x3fea672da53f44a7	0.8250950076564053
64	0x3f6b09ea19f00310	0.003300626019609239
65	0xbfff01fff7baafc3	-1.9379882504390344
66	0xbff3b26c9368ff63	-1.231060577221762
67	0xbfe92bbda3c13885	-0.7865894506774259
68	0x3fd6e63b6f40c3aa	0.35780225624608397
69	0x3fd8b9d8278df003	0.38634303915728213
70	0x3fe301e1a3b08e22	0.5939796635688632
71	0x3ff6f428c905c363	1.4346092083398723
72	0x3fcdc711c1fab35b	0.23263761493344756
73	0x3fd7cab6299eecb9	0.3717475325062867
74	0xbff577c1e268add1	-1.3417376369569534
75	0xbff046e1d7ec8ac9	-1.0173052248507466
76	0x3ffe1b5149ced4f0	1.8816693194506193
77	0xbfe5cc4ea39dfca1	-0.6811898418090047
78	0xbff391f088083d55	-1.2231297792203197
79	0x3ff5732ce214ab53	1.3406189757613063
80	0x3feca7a325efee89	0.8954635373078911
81	0x3fee6b8a5342387b	0.9506274820466979
82	0xbff06a9681f574e1	-1.0260224415317725
83	0xbfadbf284fa13a93	-0.058099040718493054
84	0xbfda6770fa3f3d9c	-0.4125635570353212
85	0xbfe4555932abbccb	-0.6354185094513921
86	0x3ff705326d02700a	1.4387687929329354
87	0xbff3e26fa5228403	-1.2427822542742895
88	0xbfb03a341bfdf0bd	-0.06338811572453813
89	0x3feb7a8057852025	0.858703776299994
90	0x3ff6547476a52de7	1.3956188807086336
91	0xbfec9367e2157fc2	-0.8929938712790249
92	0x3fd22b9b6aba3e31	0.2839115659962515
93	0xbfe6e6456d6789db	-0.715609277420579
94	0x3ff3c05659518b32	1.234457348728665
95	0xbfebb4d30f628bb4	-0.8658232975470725
96	0x3fb120cb096bf143	0.06690663318653826
97	0xbfebba2b81ae7184	-0.8664758236732699
98	0xbfd7d7f63bebfb6b	-0.37255626537073877
99	0x3ff93276f624f734	1.5748204817786702
100	0xc000b064887fa506	-2.08612925185719
101	0xbfe0f110bdd06588	-0.5294269282632493
102	0xbff78274cf72fee7	-1.4693496802792028
103	0x3fdb677ed76ec618	0.4281918624720631
104	0x3f937b1b80e98352	0.019024305098699408
105	0xbfe22e14e57bdbff	-0.5681251985650987
106	0xc011ca6fc1287849	-4.447691934676251
107	0xbff38c27adb6a4cd	-1.221717527931378
108	0xbfda6f1120a5a762	-0.41302898586456227
109	0xbff8db6de16d9e07	-1.553571587160947
110	0x3fe8814718524b90	0.7657809710529921
111	0x3fe643aa7fa0190b	0.6957600109751935
112	0x3fe555fee4987253	0.6667475189929725
113	0xbff4d81baefc29a8	-1.3027607760765054
114	0x3ff4348752e085a1	1.2628243672737443
115	0xc0068bbe5804bf0d	-2.818234145779462
116	0xbffb0d46b91911c4	-1.6907412748706614
117	0xbff2b6a7a1924357	-1.1695934592609853
118	0xbfd5aa097f87ada2	-0.3385032411012735
119	0xbff8f581bc634519	-1.5599381789109599
120	0xbff00a00108d860a	-1.002441467914084
121	0x3fd2e9c12db270e1	0.2955172487506968
122	0xbffcfad623e25fdd	-1.8112393762330534
123	0xbfd2be2fd68d6fcb	-0.2928580851782924
124	0xbfacad6535ab666c	-0.0560104015364232
125	0xbfceef36c02f6bfd	-0.2416752279667377
126	0x3ff6506b2766729d	1.3946334399289875
127	0xbfcf670f4a64eda9	-0.24533263332874114
128	0x3ffc1ffc5ef19603	1.7578090389955612
129	0x3fe53007fb5ca061	0.6621131810579862
130	0xbff0b570a1fac808	-1.0442968680695248
131	0xbfed36a5f598771b	-0.9129209324634958
132	0xbff001594ddb2b89	-1.0003293076758573
133	0x3fbe80b7182e2d86	0.11915153827992783
134	0x3fe32c4123697553	0.5991521541251735
135	0xbfd489693f168fcb	-0.3208869091124568
136	0xbfc9873806fcdc7b	-0.1994390520210095
137	0xbfd528faab9f8c22	-0.3306261707313657
138	0x3ff26c4482aa1dd6	1.151432524116776
139	0xbfe42d2861fde386	-0.6305124200726915
140	0x3fd084cfe0a17efd	0.25810620247464994
141	0x3ff1aa5f723dffaf	1.1040949308953534
142	0xbff31742f4380e95	-1.1931790866664518
143	0x3ff7cd52488c8788	1.487627299684819
144	0xbffc0a30685385f9	-1.752487571262803
145	0x3fe31ed465e61df0	0.5975133886540203
146	0xbfdd88e6cf0cae31	-0.46148081035309746
147	0xbfadd38c56c67d90	-0.058254609673208724
148	0xbfe974b83ac94051	-0.7954980037848235
149	0xbfb04add1073f848	-0.06364232684788462
150	0x400243ab09827397	2.2830410712180753
151	0xbfc055e03e9b1fbe	-0.1276207261746531
152	0xbfe17eba11c26c5f	-0.5467195841660092
153	0xc00b3a909e6c3f48	-3.4035961510452672
154	0x4001c2612bcfcf06	2.2199119017403772
155	0xc002c09966307ebd	-2.3440425857114335

w2 f8 [13, 12]
0	0x40165f5c59839f8f	5.593125723513267
1	0xc00f2e561b59c593	-3.8976251732608005
2	0xbffc01051d947ba2	-1.7502490191907119
3	0xbf8d457ca86af6b8	-0.014292692079261968
4	0xc0166779e1e035d4	-5.601050881681164
5	0xc002de8573b3b065	-2.358652976914572
6	0xc0054291c97d9da4	-2.6575046292743583
7	0x3febf6b4b43236f5	0.8738654632049633
8	0xc00e94d2e4d5f727	-3.8226678731724806
9	0x3fde4fe954894da2	0.47362740760328326
10	0x4019fe6fbcda405b	6.498473120518692
11	0xc02d55f884e09e67	-14.66791167489937
12	0xbfd01473c65e37b9	-0.25124830600622833
13	0x3fd891f2ee6490e2	0.3839080169730221
14	0x3fd130ddf60a821e	0.26860760714956367
15	0x3fe8ecbbb5d3c7c5	0.7788981009782608
16	0xbfeb2cfef960cdd4	-0.8492426748911677
17	0xbfe7185425cf1099	-0.7217198122457545
18	0x3fc54f16eed13d00	0.1664761224842337
19	0x3fce874ea771e96b	0.23850424934409928
20	0x3fd3eb0f3ac1f2ed	0.31122189271972794
21	0xbfd4ec10e45e474e	-0.32690832425679595
22	0xbff6ebe874c93fa9	-1.4325947343786345
23	0xbff21b3b75523842	-1.1316485007150878
24	0x3febd707d3452d6a	0.8699988485690657
25	0xbfea87399a6155db	-0.8290069594610786
26	0x3fd32c63b004ad82	0.2995843142441218
27	0x3fd391eb1c7e1286	0.3057811525580195
28	0xbfe41b01305f6caa	-0.6282964653759298
29	0x3fc94564151137ef	0.19743014362978736
30	0xbfec053232e88124	-0.8756342882443602
31	0xc001aab5afb7258f	-2.2083543517844144
32	0x3ff006720c5ab457	1.0015736086454774
33	0xbff1c9fdccd52c80	-1.1118143082883591
34	0xbfeb3b3eb089561d	-0.8509820411661085
35	0xbfd9c962211f53bf	-0.40291646227461436
36	0x3ff19ded5fffde07	1.1010564565639258
37	0xc001885ef3494718	-2.1915873533952315
38	0xbfd7cceaf96e2498	-0.37188219412252854
39	0xc00714701143ceb3	-2.8849793766802008
40	0xbff31a5bbb34e104	-1.193935138011569
41	0xbfb55d3193eeb1d2	-0.0834532724536026
42	0xbfee452ccd47609c	-0.9459442147590553
43	0x3fdf7489d1aed1ab	0.4914879367527429
44	0xbfe5da5793a059ec	-0.6829030879333096
45	0xbfe2f61b3b2ea68a	-0.5925422817137627
46	0xbfd14bd7616999f8	-0.2702539874357224
47	0xc0041ae8c939efb4	-2.513139316635682
48	0x3fe7c2a8439a2f60	0.7425118751866471
49	0xbfe43363115986a6	-0.6312728251325168
50	0xbfc427f4bf7289f7	-0.15746936176317636
51	0xbfe0bc08e4f53764	-0.5229534599145436
52	0x3fe8979e79bfa12c	0.7685081842328478
53	0x3feec8b15ddf75c1	0.9619986375288861
54	0x3fed7e06a5c6ef12	0.9216340291818332
55	0x3f80208a0eafbb69	0.007874563763804425
56	0x3fe7c3b633f2e162	0.7426405920623831
57	0xbff27eae36fb4d49	-1.1559278629036547
58	0xbfe81737dd3f4b7b	-0.7528342553363098
59	0x3fe940e0cc28b7d5	0.7891696917993111
60	0x3ff78ad17574e944	1.4713911617423756
61	0xbfe146aa32428d90	-0.5398760778083886
62	0xbfcac638d3c63cd6	-0.20917425480408863
63	0x3fc563ae7cf15be9	0.16710454083178597
64	0xbfe1b22d7534ffd9	-0.553000191612223
65	0x3fdedaa3db60d79d	0.4820947306028474
66	0x3ff6c079b4ae8c39	1.4219910676845429
67	0x3fe53d61b2cb1566	0.6637428752953098
68	0x3fe03266410f6087	0.5061522741989543
69	0x3f96ffaebb025ed1	0.022459726490153657
70	0xbfb901a228deb13d	-0.09768117425727936
71	0x3febd6a5b351d044	0.8699520590148571
72	0xbfeec738409d4ea8	-0.9618188154222098
73	0x3fec24525207023b	0.87943378468487
74	0x3fe0accb06e16ee1	0.521092904509228
75	0xbff5c83bebe08261	-1.3613852704949283
76	0x3fe1b98371ea513f	0.5538956856640097
77	0xbfedf8dc977af02d	-0.9366286238287153
78	0xbfcedb45db1c4a36	-0.24106667708163493
79	0xbff2dba23a2d4170	-1.178621508839651
80	0xbfec0603aa0ae09a	-0.8757341691152931
81	0x4002e14e28924d1c	2.360012356724509
82	0x3ff55c22fe677b46	1.3349943101563482
83	0xbff883d55ea8fe17	-1.5321859071408477
84	0x3fdbaf33af7d7646	0.43256847512916285
85	0x3ff863ec788d3a00	1.5243954381036247
86	0xbfd968fab457d303	-0.39703242885234163
87	0xbff5aef3f61b38f4	-1.3552131284264393
88	0xbfe1a29b4cda414b	-0.5510994435335673
89	0x3ff2de8cf8837339	1.1793336589391414
90	0xbfd39f5b289ff353	-0.3066013237692477
91	0xbfc7bbe804fde26b	-0.18542194598900905
92	0xbffe08ede4062440	-1.8771799952685484
93	0xbfc1a3fc1833f8a5	-0.13781691724574788
94	0xbfed65652444b042	-0.9186273296704786
95	0xc00055df530dfd25	-2.0419298638004357
96	0xc00081c66ea5c69e	-2.0633667606678747
97	0xc002dbcf42c8b6b8	-2.3573289124968504
98	0x3fb4c88123c04d1c	0.08118445513564548
99	0xbff35a51eacb0b30	-1.2095507785422335
100	0xbff76dc17be39e32	-1.4642958487910502
101	0xbffa19f66807f005	-1.631338507052534
102	0x3fec1a081640a1bc	0.878177684270717
103	0xbfe8f57c926c3faf	-0.7799666271039224
104	0xbff835d4c0f7ac27	-1.5131423509399242
105	0xbfba83e78dac03f2	-0.10357520302569848
106	0x3ff609cce19e2d9c	1.3773926556776592
107	0xbfe480f2eb84ce7b	-0.6407408332801902
108	0xbfe4b06110af6c83	-0.6465306592830448
109	0xbfeea5481ca68b42	-0.9576759872037217
110	0x3fd852e8cb15d766	0.38006038506079276
111	0xbfb3e77364496b88	-0.07775040815742618
112	0x3fce208608b394f9	0.23536754059674772
113	0x3feacfe549b760b7	0.8378778877040735
114	0xbfd4cfc067ad2725	-0.3251801502670893
115	0xbffeefbe80839643	-1.9335312862471177
116	0x3ff76d7ea60562f7	1.4642321095654418
117	0xbfeab60a4c9c2a84	-0.8347217079438711
118	0xbfc60844b18ec751	-0.17212732953845003
119	0xbff38508863a1625	-1.219978832553701
120	0x3fe4b2c17080a9d4	0.6468207547489393
121	0x3fb3a12103ce397d	0.07667738287839217
122	0x400421242d6e0bfb	2.5161822842796915
123	0x3fc8769cbd9e5f9d	0.19111975916598292
124	0x4001c9380bef076f	2.2232514316864846
125	0x3fd6566c0a6e5988	0.3490247823587187
126	0xbffe2a575c66974d	-1.8853372201351306
127	0x3fb7f06f74753c63	0.09351250260555015
128	0xbfee51ce904b836f	-0.9474861925374237
129	0x3fd82139f3f2145a	0.3770279772073245
130	0xc000e3e7985113ce	-2.111281576132092
131	0xbff3a1b3f94c5c83	-1.2269782770361253
132	0x3fb8f15596388394	0.09743246953486412
133	0x4001ab439bea0835	2.2086250477596203
134	0x3fe800e2f947f49f	0.7501082295199416
135	0xbfec5e4536543abd	-0.886507612334604
136	0xbffbd0c25953279e	-1.7384665955782803
137	0xc0074d88393bf3d9	-2.912857482092005
138	0xbfa9f171c10a94c0	-0.05067019921742988
139	0x3ff139e6109a00f7	1.076635422563468
140	0xbffc56e17930579d	-1.7712111219347897
141	0x3fa2feb41849166c	0.037099483456171395
142	0x3ffb7b5cb6285cf2	1.7176177135023036
143	0xbfd9269efc184b32	-0.39298224085466693
144	0xbfc8d97130fbdc01	-0.1941358079127156
145	0x3fe1d460c5638940	0.5571750502825026
146	0x3fed40f4e865ecca	0.9141792811418779
147	0xbff6a70947d948b1	-1.4157803351013565
148	0x3f949ac90c234958	0.020121709218821365
149	0x3fe5fe68ae6f3734	0.6873057753489094
150	0x3fc0dbdd075acc92	0.13170969828715734
151	0xbff326422c52f183	-1.1968404513746413
152	0x3fdd533e154f0db1	0.45820571976602326
153	0x3fda839ea564f7a0	0.4142834296397897
154	0x3fe56e3bf769fb0a	0.6697063286117964
155	0x400054a59bbef940	2.041331497922471

w3 f8 [13, 12]
0	0x3fa1ea7c8a9a1996	0.03499211494367953
1	0x3f8758a4aa7ae3b0	0.011399542286527481
2	0xc024a05d86eb4664	-10.313213554592217
3	0x4021969da3420ff7	8.794171430410627
4	0x40139013f5cc6566	4.8907011419299575
5	0x40047915d6f7192e	2.5591236871870455
6	0x3fd72710055b51ea	0.36175919077984864
7	0x3ff632e18ac3933a	1.387422124907245
8	0xbfd822bb98eefa66	-0.37711992201722067
9	0x401b2b291a32d952	6.792148980477878
10	0xbfe0a40b0097f6be	-0.5200247775644227
11	0x4008f55e361acad8	3.119808600132597
12	0xbff13299144540c7	-1.0748530189339804
13	0xbff2abcc509552bf	-1.1669428966317097
14	0xbfd462f54e2a17ef	-0.31853993066067593
15	0x3ff8708719fbd4dd	1.527472592829603
16	0x3ff30badcf664a18	1.1903513051553372
17	0x3fbc5f7e19fa4ede	0.11083210119459916
18	0x3fd9c6eea6a2d5d9	0.4027668597512651
19	0x3fed3458dbd01e06	0.9126400273534621
20	0xbfd2bf60a03a33b7	-0.29293075225069337
21	0x3fe1c5457de39413	0.5553309878129106
22	0xbfede7e956b0b472	-0.9345595067185413
23	0x3ff10d6dba742c8e	1.0657784732200386
24	0x3fbc89c542f7bd62	0.11147721180872375
25	0xbff6edb37f312b01	-1.433032509654993
26	0xbff5ecda339eadff	-1.370325280799875
27	0xbfeafa9a8d638cc9	-0.8430912744046505
28	0xbfe0982d3502f8ff	-0.5185762439139409
29	0x3ff61e219bba2dd0	1.382356270131698
30	0xbfdaa8866a40a604	-0.4165359532949824
31	0xbff0c69d7def161b	-1.0484900397581274
32	0xc001a733f30153e8	-2.2066420540600014
33	0xbff8dbe17b2f0f3b	-1.5536818324917039
34	0xbff71c15986bc9b6	-1.4443565324732908
35	0xbfeae317efd3c6fb	-0.8402213749052118
36	0x3fb63f0ff20c58b8	0.08689975413685402
37	0xbfd8a75487ca3581	-0.38521302471857416
38	0x3ff6f4e742359a06	1.4347908579162563
39	0xbfde55c8810f5f47	-0.4739857921936061
40	0x3fcac689a2784ce5	0.2091838877973721
41	0xbfeda6c5e63da772	-0.9266080376521428
42	0xbfb7c6277da00ce8	-0.0928673440649167
43	0xbfeedbcb741bbb6d	-0.9643304126492304
44	0xbfd0a0d86f6f91ae	-0.2598172271957776
45	0xbfda9292e6cc3c42	-0.415196156872245
46	0x3ff02b06503ada81	1.010504067800554
47	0xbfe4d969656db6dd	-0.6515395146395481
48	0x3ff50a3fe95fd1dc	1.3150023571189342
49	0xbfea6e5a58745013	-0.8259708144782983
50	0xbfa665de22430831	-0.043745938951829884
51	0x3fe52ad10ee411c1	0.6614766398275195
52	0x3fca9399fe12cde2	0.20762944131784794
53	0x3fd2a680313c0238	0.2914123993687414
54	0xbfbe8f70c7fec015	-0.1193762291211445
55	0xbffbe29f6ac876ca	-1.7428278132642157
56	0xbffd9c4410d66f1c	-1.850650850078586
57	0x3fe88c917ab0690c	0.7671592136642018
58	0xbffcc5fcab930642	-1.7983366682168627
59	0x3feda538b9d47c61	0.9264186505787501
60	0xc0028703e5bcbc12	-2.3159254024717564
61	0x3ff203bcf8f5db11	1.12591264009615
62	0x3fe94e3f47320b4e	0.7908016577278916
63	0x3ff189c7698d8276	1.096137440028682
64	0xbfe6d2dd490008a9	-0.7132402826103049
65	0x3feb494797d90f47	0.852695271089467
66	0xbfd5b00345bc545b	-0.33886796770213373
67	0xbfbc5e33d237f337	-0.11081241495408
68	0xbff7bd9ffe06cdc1	-1.4837951586640516
69	0xbff5053d387acbdb	-1.313779087661479
70	0xbfdca7e023596b46	-0.4477463097770634
71	0xbff11d8b6a9ed51c	-1.0697130360470686
72	0xbfbceb694f45466c	-0.11296709237401509
73	0x3fc5e04714ba63f6	0.17090691101182615
74	0xbfbfd70fe903be28	-0.12437533797105316
75	0xc0019e623baaa7db	-2.202335802217005
76	0x3fc2eae9b163adab	0.14779397164907712
77	0xbffe9806811933f3	-1.9121155779750978
78	0xbff039ff225005b7	-1.0141593304000318
79	0xbffdfaa944641a89	-1.8736965819859128
80	0xc00597c053a294d1	-2.6990973028174285
81	0x3ff1216152a22953	1.0706494548672552
82	0x3fecd6b3fffec844	0.9012088775546165
83	0xbfdec63500c03963	-0.48084759782149983
84	0xbfd13bb50897a55b	-0.2692692359838326
85	0xc0019e62062b7e2d	-2.2023354036353084
86	0xbfaec0b874450bbc	-0.06006409091289508
87	0xbf74314658a1167d	-0.0049298046015501225
88	0xbff8690140abfbd4	-1.5256359602205878
89	0xc0032d68923a73a1	-2.3971721099937473
90	0xbfc686f5a1e7a6e0	-0.17599363713752947
91	0xbff4fc2f8b79f919	-1.3115687797831639
92	0x3fc4064c30e1de60	0.15644218813735034
93	0x3fe7e4e1cffff3c4	0.746689707040439
94	0x3fd57194d4048a8a	0.3350574560628635
95	0xbffe52c6d27cfbc2	-1.8952091428943594
96	0xbff81ac46748d632	-1.5065349611808299
97	0xbfd2c78377e24a89	-0.2934273405782411
98	0xbff6942666bb42ee	-1.4111694348286465
99	0xbff31aa656d84a3d	-1.1940062897089228
100	0x3fa922c598606af0	0.0490934132105475
101	0x3ff140ee000164f5	1.0783519745075953
102	0xbfef39e33a6de21a	-0.9758163586803363
103	0xbfeb6110d318ea3f	-0.8555988429064384
104	0x3fd66d230bc05676	0.3504111876257875
105	0xbff2c4cd50f8004f	-1.1730473673669797
106	0xbff4fce3e3668ee0	-1.3117407687031388
107	0x3fe3aebbb7e883ed	0.615079745479418
108	0x3ffb0bbc7d53a9d5	1.6903653045252345
109	0x3ff99c1ce7a0b2bd	1.6006135032613849
110	0x3fd0d8b8b82e1b5f	0.2632276342996444
111	0x3ffb5253df8dde42	1.7075995190224522
112	0xbfe98918c2be4ea0	-0.7979854396421224
113	0x3ff0426c7514fbc1	1.0162167142404857
114	0x3feb5e49f6f80bbe	0.8552598785030268
115	0x3fce26cf498a0b86	0.2355593785360634
116	0xbffaf4e2706488d5	-1.6847862615909908
117	0xbff6bbf1b7b6b35c	-1.4208848167720225
118	0xbfe286cfbc0a59e0	-0.5789564774193501
119	0xbfdcab8b50184882	-0.447970226495393
120	0xbfec20b8fcc9ef71	-0.8789944588929598
121	0xbfff32e5b29b3e43	-1.9499260880292162
122	0x4000029e7283cf4f	2.0012787767863425
123	0xbfdb94ad757e1123	-0.43094955896255466
124	0xbfe7dd88547a2767	-0.7457925462669949
125	0x3fd58c849050acee	0.33670152753138793
126	0xbff0ce7f49babc2c	-1.050414360051728
127	0x40029eece34b7aec	2.327600265255901
128	0xbfdf25736b147184	-0.4866608186437349
129	0xbfc860803a94e206	-0.1904449735682336
130	0x3fe581c7ab38ae37	0.672092279831708
131	0xbfa3b12156128681	-0.0384607713288121
132	0xbf8d67f050bfa5e6	-0.014358403648617245
133	0x3fefc12c8e2be7e3	0.9923308159625289
134	0xc0032fcc9a03a0cc	-2.3983394653660977
135	0x3ff183f99e10abb3	1.094720475618243
136	0xbf879020109411a0	-0.011505365854198868
137	0x3ff957738a2fd1b0	1.5838504217073073
138	0xbfe00c0acff37ba2	-0.5014699994606995
139	0xbfe515dfa2d33f30	-0.6589201145343164
140	0xbff4568ea0ebee24	-1.2711321149826142
141	0x3fd6de4707a83d3b	0.3573167395379248
142	0xc0023ff6113a3045	-2.281231054867052
143	0xbfde99dcdb47517e	-0.47814103521275075
144	0x3fdbb32f83610537	0.4328116209981831
145	0x3ff031d86fa2ae89	1.0121693001518983
146	0x3fb092a9afb35535	0.06473789729655695
147	0xc002da8bfc3107a5	-2.356712312933228
148	0x3fe3a75229e90a7e	0.6141749208985201
149	0xbfdc4944e9cd9835	-0.44197199661573744
150	0xbffce78b8c59753f	-1.8065295679474074
151	0x3f6b1e2f3b974427	0.0033102915301488514
152	0x3fbf50056858dfea	0.12231477544344185
153	0xc00180cc5fb216cc	-2.187889812109324
154	0xc0021b639c64afc3	-2.2633735864855864
155	0xbff0108bc96b4817	-1.0040395610744832

w4 f8 [13, 1]
0	0x401bbc3c3aa3cabb	6.933823505637231
1	0xbf776849e398fe57	-0.005714691762079469
2	0x3fdcfe8f68989f70	0.4530371209570978
3	0xbfca2bad29e3138e	-0.2044578985716296
4	0x3fe68012a30d6f7e	0.7031338867777632
5	0x3fd09150f263be37	0.2588693968855042
6	0x3fea8a3caafc115f	0.8293746318382026
7	0x3fc34da64226be24	0.15080717306180802
8	0xbfe1de9c6995aee3	-0.5584241926385086
9	0xbfecccee38fc8fb6	-0.9000159371394065
10	0x3fcb61900c22cb74	0.21391487686704702
11	0x3fc930452e7acf8c	0.19678559083478964
12	0x3fd952980864b355	0.3956661302534504
