Code/Models/run_20251105_110618/model_hidden_3_width_18_act_RELU.npz (npz, 6878 bytes, 4 tensors)

w0 f8 [2, 18]
0	0x401014cfcb183339	4.020323918678337
1	0x3fc6eff1080fb76c	0.17919743436453517
2	0x400f562e2b0bd0ea	3.917080246255968
3	0xbfea34cb92048be0	-0.8189447261723863
4	0xc00f86944a249a73	-3.940712527505917
5	0xc01eb01d8fac52e9	-7.671987767117323
6	0x4014eb5b796fa6ce	5.229841134490654
7	0xc0167078f04e9734	-5.609836344525139
8	0xc00d5d90d4c2f879	-3.6706863996506027
9	0xc01923e306fcf384	-6.285045727909964
10	0xbfececf667d5df99	-0.9039260890995023
11	0xc01a1fc08a353477	-6.53100791883218
12	0xc00d4f27b25215f5	-3.6636499339390363
13	0x3ffd471a50a48fe9	1.8298590803251449
14	0xbff82c425e70fda5	-1.5108054818264034
15	0xbf9983ef7e1c1935	-0.02491735655987633
16	0x3fee9b8c28c51933	0.9564877315795343
17	0xc01943c70e19ce1e	-6.316189022374173
18	0x3fcb1d68c4c1cb34	0.2118349991538594
19	0x3fdcb97b29149ea6	0.44882086765071916
20	0xbfb218a975603a16	-0.0706888114511702
21	0xbf74f90c1590910a	-0.005120322422076615
22	0xbfe0f0207af9b2ca	-0.5293123628485656
23	0x3fd03209f7e834cc	0.2530541344611492
24	0x3faa4aa8cf3b781b	0.051350856110488695
25	0x3fd3ee8bab0a1001	0.3114346666627626
26	0x3fdfbf1499d36a4b	0.49603762647681
27	0x3faebf6c2841e820	0.06005418769287041
28	0x3f5bff2e5ff6a3a7	0.0017087891463722722
29	0xbfe1af368cae63ec	-0.5526383159332204
30	0xbfa2a639318b0171	-0.03642443399212681
31	0x3fb03694c77a86ea	0.06333284254153751
32	0xbf808f402ccdb606	-0.008085728995605567
33	0xbee8aa1584353c40	-1.1760898024930117e-05
34	0x3fd73e82d1aef2ea	0.3631903693856616
35	0x3fa87b3ac35cd563	0.0478151668052458

w1 f8 [19, 18]
0	0xc014fd8b48c9de46	-5.247601640053807
1	0xc002a8b084480012	-2.3323679289314976
2	0x3fd8af1cd84268b4	0.3856880294712355
3	0x3ff88834c5fac20d	1.5332534535956512
4	0xbffc72c128c2ca52	-1.7780162422392505
5	0x4002e2a718beaf49	2.3606702740852694
6	0x3fb28d568296427b	0.07246914566190725
7	0x40122627abc1f824	4.537260707582423
8	0x4019bcfe7f7c5a14	6.434564582791172
9	0xbfd8117a51c6c186	-0.37606676088309887
10	0xc00d7cac60aebd28	-3.685875659306152
11	0x400b8465c782faac	3.439647253689449
12	0xc00cc2e8c92a4f75	-3.5951705661809066
13	0xc000c827958af895	-2.0977317507777777
14	0x40193e922d73e4a9	6.311104498098907
15	0xc0107ca657572727	-4.121728291220086
16	0x4001be131fd08921	2.2178099141612084
17	0xc0010d46e1bfa236	-2.131482852612204
18	0xc0007b57bc7db678	-2.06022593744893
19	0xbfd1d04e313ef1f8	-0.27833895501296935
20	0xbff36320fac4fc24	-1.2117013736422075
21	0xbff570d484926451	-1.3400464228236795
22	0xbfe05e615fabfb9a	-0.5115210407819746
23	0x3ffbc07e2e6d44e6	1.734495335917296
24	0xbfe9349ecf474ac6	-0.7876733826072602
25	0x3fecd29388e29eec	0.9007051156558794
26	0x3ff534635d72e558	1.325290074381277
27	0xbfcd420b386c880e	-0.22857799773288473
28	0x3fade4ed43b0b26f	0.05838719798370994
29	0x3fc42e437a2e38a2	0.15766185251090287
30	0xbff177db47c4895e	-1.091761856405888
31	0xbff1306ce8f61d1b	-1.0743226146749467
32	0xbfc8721cc927ec7a	-0.19098243543689702
33	0xc00e73c987c8db85	-3.8065367324992985
34	0xbfce5326256040b1	-0.2369125063419282
35	0xc0056878a9500eac	-2.676011393314033
36	0x3fc280e17f9a020f	0.1445581315092714
37	0xbff7fe7aa5b58c1c	-1.4996286843313618
38	0xbfd74d61670e1ace	-0.36409792961096066
39	0xbfeb66d98edeb05c	-0.8563049116542163
40	0xbfc4f06cf01d6685	-0.16358720516545958
41	0x3ff486339916c036	1.2827640514406204
42	0x3fefc27cb10817f5	0.9924910981796972
43	0xbfefc3b425bf31d8	-0.9926396119349716
44	0xbff83678dad5acbb	-1.5132988498906303
45	0x3fb8173846031cc0	0.0941043063095206
46	0xbfc29bd4c9e7e67a	-0.1453805909985027
47	0xc00687ff247c9087	-2.8164046144975745
48	0xbf853b88a31a4712	-0.010367457845208903
49	0xbfe080d039eabce1	-0.5157242900076221
50	0xbfa5c8d85b96411a	-0.042547951870007775
51	0x3fbbf64f0f7cf986	0.10922712448243574
52	0xbfeb76855b1ce3a1	-0.858217885927946
53	0x3ffa3003714b4b76	1.636722033076436
54	0x3fd71c0dfb8ebf0b	0.3610873180978024
55	0x3fdd64e1378e78ce	0.4592822115463492
56	0xbffa6c8135dff448	-1.651490412186165
57	0xbff343eb30cf2a1c	-1.2040817171679299
58	0x3ff069e0f82c6ced	1.025849313190345
59	0xc00653be0a979172	-2.790889818907254
60	0xbffa16b57b60610a	-1.6305441684144761
61	0x3ff33f2ded89db0c	1.2029246596191028
62	0x3fe14fb7eea7692b	0.5409812604150707
63	0x3fee6b8a5342387b	0.9506274820466979
64	0xbfe8b06549bf1ef2	-0.7715326729166618
65	0x3fea173f3e4d9553	0.8153377739769588
66	0x3f71ad852fd4585f	0.0043158724413584195
67	0xbfe0cd8be207d736	-0.5250911154423423
68	0x3ff298afd4698e00	1.1622770593029372
69	0x3fabb5b43aca0440	0.054120666672141216
70	0x3fdae65deeddc598	0.4203104813269305
71	0x3ffde27a8f0c8221	1.8677926624151342
72	0x3fd8970afb0089de	0.38421892654346645
73	0x3fe1545e7865b180	0.5415489532002056
74	0x3fdf95d2f366db76	0.4935195328684395
75	0xbfe30b91c2a2865c	-0.5951622773611223
76	0x3fe66f4419c3de11	0.7010822776055098
77	0xbfd7d8d8a01f808f	-0.37261024128930215
78	0x3fd1cb62617354f9	0.2780385924973668
79	0x3fdb538e6a0efe64	0.42697487218172214
80	0x3fefd27981239f38	0.9944427034615506
81	0x3ff9c5cc7c0b531b	1.610790714786339
82	0xbff5127c50f33174	-1.3170130884273847
83	0x3fc089db7335091a	0.12920706868505577
84	0x3fb8f4354c8b2244	0.09747632139909351
85	0xbfb08838d813ea7a	-0.06457858348213988
86	0xbfd184e1c6b6885d	-0.2737354698712176
87	0xbfd1e77f5303d7c2	-0.27975447756704963
88	0xbfd30678f4ba973a	-0.2972700490885135
89	0xbfed6db7efc22b94	-0.9196433718474162
90	0xbfe5a5606030ba59	-0.6764375570981641
91	0xc002409b840b6821	-2.281546622846705
92	0x3fd4dc06eef3f630	0.32592938742877475
93	0x3fe1d469fcea19f9	0.5571794452415012
94	0xbfcf43dea63491b7	-0.24425871959205178
95	0xbfdf5d28cfc03279	-0.4900609997573962
96	0x3ff4d1fdcec1cc03	1.3012674404569686
97	0xc00488d4526e16d4	-2.566811222061782
98	0xbf631e62586dd9fc	-0.002333824234877156
99	0xbff2b6a7a1924357	-1.1695934592609853
100	0xbff559d07246bd8e	-1.3344273055953155
101	0xbfe106fe33f428a8	-0.5321036352845754
102	0xbff00a00108d860a	-1.002441467914084
103	0x3fd2e9c12db270e1	0.2955172487506968
104	0xbfd9b1d6f767b3ec	-0.4014794746461223
105	0xbfcc654ea1f96718	-0.2218416491403381
106	0xbf85e9b445eb25b9	-0.01069966162085022
107	0xbfb1a35419ba1d59	-0.068898445397385
108	0x3fed1fbbe9a2588c	0.9101237834136255
109	0xbfda1efae8adc5ca	-0.4081408760312938
110	0x3ffa0665d0f0b5de	1.6265619432191367
111	0x3fd704f2cad566b5	0.3596770268246517
112	0xbfba70378f728b07	-0.10327479602942101
113	0xc00b02835bf3e0d8	-3.3762271102715253
114	0xbffb2f2a77219dd1	-1.6990151074950186
115	0xbfe30caae4c52dd4	-0.5952963321846547
116	0xbff24bd106a835b1	-1.1435098896066445
117	0xbfc9986045952e4e	-0.19996264836878413
118	0xbff92fd116638b9f	-1.5741740107120916
119	0xbfa07e8336837aa3	-0.032215214161387416
120	0x3ffe87bf517c2560	1.9081414397245098
121	0xbfd9da046b685fdd	-0.403931717768044
122	0xbfd6e545dd54474e	-0.3577437077921005
123	0x3fef8e1c0183802a	0.9860973386348679
124	0xbffe5d68aec0cb24	-1.8978049112599331
125	0x3fe241b40d5dcf67	0.5705204258979223
126	0xc0001dcc5ad2f5f8	-2.0145499320631153
127	0xbfa92299e3b69bf7	-0.04909211067870694
128	0x3fd5e9887510b0b8	0.34237872535846803
129	0x3fde165586cde57e	0.47011316456299557
130	0xbff62017d49ef5f6	-1.3828352265840045
131	0x40005e9fe02fe609	2.046203376256703
132	0x3ff1d1f56fb71c81	1.1137594570043634
133	0x3fdc0c6d5860c8c1	0.4382584918086075
134	0x3ff8ca056d88bd88	1.5493215826680586
135	0xc00b318b445288f4	-3.3991914117515254
136	0x3ffc67d7fe28eee7	1.7753524711724198
137	0xbfe24e58b5008800	-0.5720637831875592
138	0xbff440ec740ea966	-1.2658504994857025
139	0xbff4d73b2d0b6d72	-1.3025466689640237
140	0x3ff05844ba91091d	1.0215499198680569
141	0xbff504e592957310	-1.3136954999856165
142	0x4000ee50228e9fd5	2.11636378286128
143	0xc00371e921421120	-2.4306204412734047
144	0x3fcfac63d3c06b17	0.24744842376170403
145	0xbfa8275aaed90dad	-0.04717524895070411
146	0x3fc7839334aa2260	0.18370285102379835
147	0x3fbde82d4e9eb325	0.11682398957664171
148	0xbff00db5bf6c1830	-1.0033471562796983
149	0xc010a235077a5f81	-4.158405415386256
150	0xbfdd4933c80910ac	-0.45759291205127783
151	0xc005825a669f089b	-2.6886489884646614
152	0xbff90f38462bf8a3	-1.5662157765469054
153	0xbfef6a7be95e500a	-0.9817485387779936
154	0x3fd599d433d04d6e	0.33751397190027077
155	0x3fb236a452198e19	0.07114626888647314
156	0x3febcc3323a35d6f	0.8686767288262852
157	0xbfef0375f72da5fc	-0.9691724612904973
158	0xbff108c4fdf9e418	-1.0646409913008537
159	0x3ff3d354d1ce620f	1.239094562106519
160	0xbfd8c35485780bfe	-0.38692200693202483
161	0xbfd291f74ae6e2ee	-0.2901590568031186
162	0x3fb15749dc1e959d	0.06773816703806408
163	0x3fca3e9494b6748f	0.2050348020683583
164	0xbfd55d92f2f8c668	-0.33383630492890015
165	0x3fdd50740bc7a899	0.4580354800260778
166	0xbfefc9396a3b65a6	-0.9933135104030739
167	0xc00a83ea5c490b0b	-3.314411850909328
168	0xbff8dc33dd160ba4	-1.5537603985000965
169	0x3f8c201a50e730eb	0.01373310622593534
170	0x3fe37f3b738dec3e	0.6092812783166506
171	0x3fb58e2b38659470	0.08420057417750271
172	0xbfef07a8473503a8	-0.9696847334636134
173	0xc006b2cd3ef25d6f	-2.8373055379594727
174	0x3fea3d2938071cab	0.8199659437458612
175	0x3fe0b20bed029637	0.5217342022994619
176	0x3fcc9fff1c4589b8	0.2236327064557153
177	0xbfc919f1654f9600	-0.19610421606846273
178	0xc008df0aef40775f	-3.108907574801307
179	0xbfe7198fbc53fb90	-0.7218702963144654
180	0x3fcb69a49fff3992	0.21416147053100737
181	0xbfe1a193428e9eeb	-0.5509735393470384
182	0x3fb29e49656081b4	0.0727277634146109
183	0xbff4ef0c9ab2ae06	-1.3083616297616358
184	0xbfe5cfb0531ee6ed	-0.6816026328517332
185	0x3ff0f200daa7bbfe	1.059082845804141
186	0x3ff11e572717b7a7	1.0699073340469825
187	0xbff9874d6cebd7e6	-1.595532823060688
188	0xbff9fc8c4c383833	-1.6241572358444614
189	0xc009195053f075c2	-3.1373602445371214
190	0xbff4ac542b602ab5	-1.2920724577294724
191	0xbfe4bec1989986fc	-0.6482856731856539
192	0x3f86dcd41ea2e2b1	0.01116338461393815
193	0x4000b175c677bc37	2.0866504197397506
194	0xc00074294545f0dc	-2.0567193424195533
195	0x3ff05d8dc4d06ba3	1.0228402793934286
196	0xbfe8ea65087409b8	-0.778612629423427
197	0xc006b2ddb4a80855	-2.8373369325427498
198	0x3fffe324c3921601	1.9929549827078292
199	0xbfa89bd02ae12e74	-0.04806376002724458
200	0x3fa30e255d7d2cfd	0.03721730009291411
201	0xbfe426a6ba45d5eb	-0.6297181738033805
202	0x3ff01120335f8f8a	1.0041810995835214
203	0x3fef9a71613dd63e	0.987602891850379
204	0xbfe8aa8b30974a69	-0.7708183239977419
205	0xbfb6f83314aae3b1	-0.08972472433641944
206	0x3fe3fbd460d3c5c1	0.624490918269821
207	0xbfe20733d8c14eab	-0.5633792146204163
208	0xbff8f078066bfcb9	-1.558708214841131
209	0x3ffad9eecb9b74f3	1.67820624860843
210	0xbfb528d58b4e5579	-0.08265432978654087
211	0x3fe1535c5475ce10	0.5414258622753909
212	0xbfec3d9d190d3efd	-0.8825211991588443
213	0x3fcc89a5e829c405	0.2229506858452909
214	0xbfe1b22d7534ffd9	-0.553000191612223
215	0x3fd947fc4186b48c	0.39501863860170583
216	0x4002cfbbbe66bbf4	2.351432311544608
217	0x3ff2edc191b1e622	1.1830459300239302
218	0xbfae05c8531c7d59	-0.05863786711256109
219	0xbfe7f8bdd95db4c0	-0.7491139645986991
220	0x3fe54a886c458e80	0.6653482546502829
221	0x3fe3a460c2696214	0.6138156697371095
222	0xbff617da78e8dc32	-1.3808235857993734
223	0x3ff05eef2abc55ce	1.0231773061144511
224	0xbfd3cb8f19eee616	-0.30929925472773456
225	0xbff5c83bebe08261	-1.3613852704949283
226	0xbfa1d0036d9df570	-0.03479014123056856
227	0xbfe20f4f02c2b916	-0.5643687299650846
228	0xbfe5689d286abc27	-0.669020251216243
229	0xbff71053c24d893d	-1.4414861288028782
230	0xbfb2294a94aba132	-0.07094255571030741
231	0x4005dbda409f68a4	2.7323498772285166
232	0xbff3a91af538a682	-1.2287854746777218
233	0x4000a68e0d22925c	2.0813256288695765
234	0x3ff58e61807e7de9	1.347260953836548
235	0x4000ddaf9317ceb7	2.108245038188979
236	0xbfd034fd975451b8	-0.253234288961973
237	0xbff5aef3f61b38f4	-1.3552131284264393
238	0xbfe0734e9ad364a4	-0.5140755676212803
239	0x3fdd3efaecada6de	0.45696900475614466
240	0xbfe467336c62f7d4	-0.637597762768332
241	0x3fe497c1086d0a04	0.6435246624535584
242	0xbffc9cf5e04d9fca	-1.7883204233021268
243	0xbfbcefe5b6bee50c	-0.11303554259838594
244	0xbfeb4f669060277c	-0.8534424609981524
245	0xbfea249add53d0a0	-0.8169683764267752
246	0x3f9dbbc31a3ca88e	0.029036568142295986
247	0xbfe5b1f8f98b3d73	-0.6779751657394811
248	0x3fe2dde6adb53464	0.5895875351649349
249	0xbfe4655ffca6250b	-0.6373748716879687
250	0xbfe5144189caad4f	-0.6587226573223378
251	0xbfea42a6737834a6	-0.8206360106720652
252	0x3ff99e9546246e83	1.6012165775236162
253	0xbff000c8a3367afd	-1.0001913428783944
254	0xbff9714e0a4e3cfd	-1.5901623156130988
255	0x3fdae040cbe8727f	0.4199373236931833

w2 f8 [19, 18]
0	0xbfeb25474caa177d	-0.8483005997993441
1	0xc0078fd4467634de	-2.9452291016410603
2	0x4008a085777241bd	3.0783795673125653
3	0xc0012f74f499baeb	-2.148172293607208
4	0x3ff3e669aef0ee57	1.2437531312597423
5	0x40122ae903589703	4.5419044993229845
6	0xbfe331701f30ccb8	-0.5997849091712828
7	0xbffcf08c0ab7b571	-1.808727304330514
8	0x3fb8626e1b5a67dc	0.09525192420770118
9	0x40152d4283081fc7	5.294199035044534
10	0xbff4069285f75aba	-1.2516045792632853
11	0x401b85e8e4714ec0	6.880771226325749
12	0xbff4c86778ddf94a	-1.2989268037195694
13	0xc0101b126425bab0	-4.026437344363032
14	0xc015577b249b1fe3	-5.3354306907349125
15	0xbffecea91327dd35	-1.9254542110700872
16	0xbfe8795b87b2d0ee	-0.7648141527520502
17	0xbfe578887bbae296	-0.6709635178186371
18	0xc0036b0435ab1d1b	-2.427254123005367
19	0x3fe7dd26746f4ad6	0.7457458757511073
20	0x3ff041b2e74f2110	1.01603975634686
21	0x3fd01fce5aa09761	0.25194128847430447
22	0xbfe088133fadc530	-0.5166107410169953
23	0x3f9606bef2d93ae5	0.02151010853986692
24	0xbfdc1a9d33c50e9c	-0.4391243939937597
25	0xbfd00fb989813a78	-0.25095976284220667
26	0xbffafeed933ee807	-1.6872382880960701
27	0xbfe06b53914bd702	-0.5131013715569852
28	0xbfda5867d1d70ade	-0.41164584629238543
29	0xbffe4747dbbe2bc0	-1.892402513857391
30	0xbfd4940f91722f06	-0.32153691486085767
31	0xbfd10aef18ec1d17	-0.26629235681362345
32	0xbfc4e558568d26f0	-0.16324905611173035
33	0xc0078ce84c0629a1	-2.9438024463062935
34	0xbff41b83a078f600	-1.2567173260171103
35	0xbff36e61675da0fd	-1.2144483602260714
36	0xbfe0b831df2eb521	-0.5224847182304623
37	0xbfe8d9ed66a9b32a	-0.7766024594435283
38	0xc005332763bdc52e	-2.6499774734771995
39	0xbfd1cd4ed639d32f	-0.2781560031938168
40	0x40005d0a85f5bb26	2.0454302278152623
41	0xbff3ae0e870403e4	-1.2299943231630488
42	0x3fb0aef1ab5b9d22	0.0651694339136282
43	0xbfea3e3b9dc66cae	-0.8200967866463509
44	0x3fed29e4ba254f46	0.9113639484080316
45	0xbfd07844721a2210	-0.2573405374792239
46	0xbff49352b739229a	-1.285967555728496
47	0xbff1078d0e79ef7c	-1.0643435063820723
48	0xbfc339ee50cb74b9	-0.15020541138702528
49	0xbffda125b468af40	-1.8518425986503217
50	0x3fb37013909218aa	0.07592890052373727
51	0xbfd904e1a6ead54e	-0.3909229402591635
52	0x3fd40a8a0f682741	0.31314326767516226
53	0xc00140901455a057	-2.156524809706791
54	0xbff81ac46748d632	-1.5065349611808299
55	0x3fc88cae7ec1e792	0.1917932623799144
56	0xbff69541e0a1338f	-1.4114397787663824
57	0x3ff0734daa67d772	1.028150239607808
58	0x3fe21f879717bae7	0.5663488341359341
59	0x3fd445afb34605f8	0.31675331599407697
60	0xbfe2e3c50f51fe32	-0.5903039263939205
61	0xbff5e64c3777e70a	-1.3687250296338243
62	0x3fec9b07a64dcca6	0.8939245460627674
63	0x3ff6343ee1e83ce8	1.3877552818774408
64	0xbff34ec877e09110	-1.2067341501907016
65	0x3ffcb00a309131c0	1.792978467669954
66	0x3ffb9a512d34ee7f	1.7251750722779489
67	0x3ffe64ce280269c9	1.8996106684559086
68	0x3fd459f2652f2bab	0.3179899204375782
69	0x3ffc3748fa9959a4	1.7634973324798944
70	0xbfe04343d1b6f419	-0.5082110496510978
71	0x3fef7d94dd74393a	0.9840797734521296
72	0x3ff00c1945e319b1	1.002953789707686
73	0x3fdc02a854f9c444	0.43766220377353116
74	0xbffcdbfd5e25559d	-1.8037084271976263
75	0xbfc5dfb79af2ec06	-0.17088980737557352
76	0xbfd98345df198166	-0.3986372641284305
77	0xbfe95e36ddebbab9	-0.792750771941278
78	0xbfe8aee6c987ec51	-0.7713502823020325
79	0x3fe3031df6a0319f	0.5941304985913581
80	0x400024a37d96518f	2.0178899585245698
81	0x3ff77078614dc6be	1.4649585534029224
82	0x3fae390b7f10a228	0.05902896810613739
83	0x3ff6cadef7578521	1.42452904336853
84	0xbff00fed929ddea1	-1.0038886763776775
85	0x3ff5d30766008205	1.364020727582216
86	0xbfcdb06b0b2a199b	-0.2319463543428356
87	0x3fe00b0ad55b9ecd	0.5013479392191243
88	0x3fe975f83b46d6f9	0.7956505925892251
89	0x3fe399c1abec046c	0.6125191076136054
90	0x3fd4fb24b3cb4074	0.32782857473376414
91	0x3fb3d2d616e63ccf	0.07743585642878091
92	0xbfe6f98bcb784811	-0.7179621671696187
93	0x3feefcc81601eebf	0.9683571271738954
94	0xbfefd2617c6a6e43	-0.9944312505717295
95	0x3fd3ef60d0312c20	0.3114854844213273
96	0xbfec601a73834dc9	-0.8867313629256667
97	0xbfd79c1e7132168c	-0.36890374235404333
98	0xbfc9a8e5ea06e4f3	-0.20046686102958908
99	0x3fd4fba4a87e3338	0.3278590817870284
100	0xc0026206a79fa8e5	-2.2978642554854667
101	0xbfc8e36582cf77e4	-0.19443959128596966
102	0x3fd775c629e57275	0.36656335917886135
103	0x3fa9e2202d0140ce	0.05055332707763825
104	0xbfe15f82683b6cd3	-0.5429088626655364
105	0xbff000c543cbc2b1	-1.0001881263998877
106	0x3fe849f8d8c2dd30	0.7590297921769089
107	0xbfdcfc430a1a71f4	-0.45289684282923237
108	0xbffc053dfffef5de	-1.7512798309174893
109	0xbfdc119f49a90948	-0.4385755748118254
110	0xbff56c8a59c7d7ae	-1.3389991290145917
111	0xbfbe2f03f94ca0c0	-0.11790489994439479
112	0xbff8c2c4cb9b860d	-1.547550959913113
113	0x3fed5983794d346c	0.9171769494220263
114	0xbfcc5ae6a059369f	-0.2215240748359308
115	0xbffe2610f654d2a3	-1.8842935201948101
116	0x40092d2bfc141ff2	3.1470565503732297
117	0x3ff687507e957bfb	1.408035749882173
118	0xbfe9dd5f967b3f9c	-0.8082731188860524
119	0x400d04d5c6113548	3.6273608659745697
120	0xc005129d436f3b04	-2.634089018661486
121	0xbff5013c1a5e7b0a	-1.3128014593164061
122	0x3fa75c96a519c21c	0.04562826886547475
123	0x3fd6d296962b017f	0.3566032854542058
124	0xbfb36b226c3c6967	-0.07585349218826352
125	0x3fe73f4a7d4f014b	0.7264759490426881
126	0x3ff1883618066a28	1.0957547129133989
127	0x3fd9d620452c3258	0.4036942172540754
128	0xbfc650be712e63a6	-0.17433910871912167
129	0xbfc65406f34d8c93	-0.17443930511499114
130	0x3fcbab9ea1038e4e	0.21617491590505938
131	0xbfca3235ffc1be09	-0.2046573160946397
132	0x3fdc07d1eaf54613	0.4379772943985653
133	0x3fd9cd56a1458a5e	0.4031578612249741
134	0xbfc0c999e7d95c70	-0.13115238018756115
135	0xbff535a891a93efb	-1.3256002130401032
136	0x3fdb0381ec838949	0.4220890817361079
137	0xbfd061a62cff4740	-0.25596002954727126
138	0x3fd500ad3a6886bd	0.32816630081115844
139	0x3fc9502354309d8a	0.19775811777911328
140	0x3ff56e1284062d90	1.3393731267159161
141	0xbfceb568b54f9ecc	-0.23991116383625977
142	0xbfd3df02e06928c4	-0.310486525679732
143	0xbfd228f780f4c108	-0.2837504157387376
144	0xbff380c76357f2b2	-1.2189401512725166
145	0x3fe1e0da572316d9	0.5586978628059242
146	0xbf93551fccb8c8c1	-0.018879410619953022
147	0xbff5800c2e7e45e8	-1.3437616172926656
148	0x3ff08fe89e03e857	1.0351339504691361
149	0xbfdf1800fcc46548	-0.48584007915777194
150	0xbff14bba4e13d68e	-1.0809882211591773
151	0x3fd94c7c3ef6c4f3	0.3952932944185498
152	0x3fe5350dd6ee5039	0.6627263257855766
153	0x3fd83365895ab1ca	0.3781370011663766
154	0x3fd80daebde3d871	0.3758351187128773
155	0x3fff0cbc4fbb22a2	1.9406092752925947
156	0x3ff48cd2d83f6bba	1.284380764692044
157	0x40062a90d7519c67	2.7707840749531445
158	0xbff6b7f8234b6866	-1.4199143770879572
159	0xbff30a675e45b5ad	-1.1900399858962871
160	0xbfdd8023e2339b33	-0.46094605531691285
161	0xbfe1b732cf959a4b	-0.553613095701459
162	0xbfdba9ab89056f3b	-0.43223083859423966
163	0xbfc9ec2b4d363396	-0.20251981039146177
164	0xbfd335fe07071f37	-0.30017042814550926
165	0xbfe185b7f3ea1560	-0.547573067088404
166	0x3fe616939a7d3e4e	0.6902559296958743
167	0x3fe833574706f001	0.7562672030685463
168	0xbff0bb704891a49c	-1.0457613787387237
169	0x3fafdc5241cf7e34	0.06222779324866359
170	0xbff2490030c99ad6	-1.1428224473726707
171	0x3ff0ddcb0d4d5b0f	1.054148723565678
172	0x3fd04e410c408e8f	0.254776250805869
173	0xbfe02ebc8122822b	-0.5057051202930486
174	0x3f92d3b878c0cb99	0.01838577496546243
175	0x3fe72badd21feed6	0.7240819076536933
176	0xbfd5f330a85567c8	-0.34296814383344243
177	0xbfefdc1e9a524a85	-0.9956200613108456
178	0xbff2206eebdd390f	-1.1329182828372415
179	0xbfe678ad325f20d4	-0.7022310241527756
180	0x3fd19024a2073034	0.2744227964692556
181	0x3fe515ba1ee51aa6	0.658902225820232
182	0xbfef08d75d501896	-0.9698292562977879
183	0xbfe5cb20dcfc74cc	-0.6810459438453562
184	0x3ff6d949415b9067	1.4280483773263997
185	0x3fc6630ab2b6295d	0.17489751554632962
186	0xbfe2047993fcaf96	-0.5630462541935113
187	0x3fcf1807d7cea544	0.24292085683308973
188	0xbfd939f991c93014	-0.3941635059061366
189	0x3fe72234f585be88	0.7229256434784057
190	0xbfe63d2292eca48e	-0.6949627751938736
191	0xbfda50a7dd0d2a32	-0.4111728342728923
192	0x3ff2f6602b84a625	1.1851503086021549
193	0xbffdd32698c71a2e	-1.864050480640468
194	0x3fc8e42a561dbda0	0.1944630547036299
195	0x3ff53781aceb3599	1.3260514025344945
196	0xbfd1ab7aeb10fdac	-0.276091317708018
197	0xbfae5e3244ee0603	-0.05931241122653932
198	0xbfd8b3f133e892dd	-0.3859828001898629
199	0xbfe2fb0dfd4e02d3	-0.5931463191373844
200	0x3fea61a0b03b3688	0.8244174425141901
201	0xbfeca66c64487205	-0.8953153570797104
202	0xbfc4b39a7e705f29	-0.161731063592691
203	0xbfe11540a395ea25	-0.5338442988425568
204	0xbffb943b54c380cc	-1.7236893950539978
205	0xbff0826d3edf214b	-1.0318424659654564
206	0xc00921131ffdd894	-3.141149759229913
207	0x3fc0fe8dd3976f0c	0.13276837188356472
208	0xbfe742896920163b	-0.726872163126877
209	0xbfe19536275fd07b	-0.5494642991093451
210	0xbfe0eb4ccec11ee3	-0.5287231481715619
211	0xbfe74880cc899ec4	-0.727600478637179
212	0x3ff906b080128ed0	1.5641331675368981
213	0xbfa9a8a6b7b420e8	-0.05011483185268323
214	0x3fb620f506854ccc	0.08644038590618947
215	0xbf7358cfca3669ff	-0.004723369292515488
216	0x3fd5128645e9b21b	0.32925564601353735
217	0x400075576f8528d6	2.057295676470953
218	0xbfcee1640ebd8b59	-0.24125338287111722
219	0xbffcf17c2214bebc	-1.8089562732019848
220	0xbfef28dc4e189c8c	-0.9737378621401986
221	0x3ff264afb9084ced	1.1495816448048644
222	0xbfef4b2bccc88a42	-0.9779261588740342
223	0x3fc89dbbac4f63ea	0.1923136321409225
224	0x3ff949725d0d6261	1.5804313311438352
225	0x3ff85612ec035c39	1.5210141391051037
226	0x3fdc60f92f06944c	0.4434187850222926
227	0xbfb2abd254d70dc1	-0.07293428965845462
228	0x3fb04f2d1b3710fa	0.06370813288146229
229	0xc00fbeaef819b709	-3.968107164654502
230	0x3feb4f8770211cdb	0.8534581365610409
231	0x3fd5cb1cee4eb95b	0.340522034380134
232	0x3fec8fb21328653b	0.8925409673858334
233	0xbf836d4075484460	-0.009485725001498746
234	0xbfea28bc5b5f6466	-0.8174726280805202
235	0xbfc1466494be112d	-0.13496072066130563
236	0xc0017eb5e2578785	-2.186870353981194
237	0xbfda8e8cc29b5c79	-0.4149505520303545
238	0xc000c4cf46da3cd1	-2.096098474059183
239	0xbfc1f0f73c7038c5	-0.14016619158832647
240	0xbfd66b5cbd731757	-0.3503028726666932
241	0x3f898051875498f6	0.012451779310663085
242	0x3fdb483c35c03b38	0.42628388642417603
243	0x3fc76711338aa53c	0.18283286110571761
244	0xbf80f70f5fcf4c3c	-0.008283729659444565
245	0xbfd54cd6c86b0f3e	-0.332814880104923
246	0xbff857d649947053	-1.521444594784971
247	0x3fe27f267a9a60bc	0.5780212778654668
248	0x3fce32b086d0350d	0.23592192251855018
249	0xbfbe72cc81958a3a	-0.118939191471818
250	0xbfd1fce4c591a143	-0.28106040281138095
251	0xbffb9fc5e9d2e932	-1.7265071042771294
252	0x40010899a807c97f	2.129199326264995
253	0xbff2c0706df4b300	-1.1719822211409223
254	0x3ff2b49e9bc607fe	1.169096573343722
255	0xbfeaadf70dfd3e92	-0.8337359688975587

w3 f8 [19, 1]
0	0x4019dca5d95e369b	6.465476414084743
1	0xbfb0b4752baf6261	-0.06525356594591748
2	0xbfa82c7b3f934a1a	-0.04721436644617345
3	0x3fd942fd462f7303	0.39471370557821234
4	0xbff9564c0345b95b	-1.5835685851885362
5	0x3febf14c33fe56ec	0.8732052817819898
6	0xbfd828ab2e337ab0	-0.3774822188551452
7	0xbfec17a3d6b96737	-0.8778857415993347
8	0xbfceb91d6c3e8dc6	-0.2400242594277257
9	0xbfb1c39442e7f7e1	-0.06939055093241066
10	0x3fe1296f257a870e	0.5363078815464364
11	0xbfab62b7630ce046	-0.05348752102003167
12	0x3fe2e02d61ab4de7	0.5898653895951015
13	0xbfb3b415ca0d3fc0	-0.07696663077263022
14	0xbfdcc297fbc4cc43	-0.44937705599585714
15	0xbfb2921a4da82c85	-0.072541851004802
16	0xbfc4ae5e434d2633	-0.16157129560660763
17	0x3f8ee345d20ed365	0.015081925843199515
18	0xbff0cbb381276f6c	-1.0497317357139435
