Code/Models/run_20251105_110618/model_hidden_4_width_38_act_LRELU.npz (npz, 37690 bytes, 5 tensors)

w0 f8 [2, 38]
0	0xbff4275e3c8c2d5c	-1.2596113553180066
1	0xbff838b355bbc632	-1.5138429020847863
2	0xbff3e7f1217aa340	-1.244126444604447
3	0xbff430dccc9f9f38	-1.2619293206316353
4	0xbfea0be2bc404e86	-0.813950889280435
5	0xbfe3fabb521ede0f	-0.6243568996350762
6	0xbfed2738b7f37f1e	-0.9110377877040923
7	0xbff80b8e38b8e0ee	-1.5028211799345246
8	0xbffadc305947b3fa	-1.6787570464614405
9	0xc000067e1968ac52	-2.003170202738638
10	0xbff7876aa715aa02	-1.470560696291273
11	0xbff644570a49178a	-1.3916845704820582
12	0x3ff7b746f0ea645c	1.482245389057673
13	0x40011cc2fbbcd6b4	2.1390437762264245
14	0x3feafdc67d51ed87	0.8434784362465714
15	0xbff6a81cf21e84b6	-1.4160432298452128
16	0xbff338806d0699b9	-1.2012943514651921
17	0xbff12cf8acbec592	-1.0734793422564946
18	0xbffba8d3f91233ab	-1.7287177781429175
19	0xbff010765f663acf	-1.0040191389595525
20	0xbfe3638335f4d0db	-0.6058975271066872
21	0xc00297a095f6064a	-2.324036761828016
22	0xbff470262e59d05b	-1.2773801622943413
23	0xbfe85523fcabfed7	-0.7603931365010465
24	0xbfebe768401e2a88	-0.8719979526807302
25	0xbff03385d53d925b	-1.0125788049419018
26	0xbffbc07b2bbdfbff	-1.734492464893037
27	0xbff37d1de4edb76a	-1.2180460875055936
28	0xbff30f4768dd6503	-1.191230210903371
29	0xbf87a64492ed13d2	-0.011547599538639295
30	0xbffd7e63f9276369	-1.843357060677784
31	0xbff147b21c594630	-1.0800038440105588
32	0xbfe5f801fea67c45	-0.686524388660367
33	0xbffac2b5804a992b	-1.672536374223976
34	0xbfef460da4e6f31f	-0.9773014279122413
35	0xbfe0c373b98a294e	-0.5238588928053021
36	0xc0042a03510122e6	-2.520514138075998
37	0xbffdd936a33001bd	-1.8655306219589953
38	0xbfdaa3441311fe9c	-0.4162149606927217
39	0xbf3faa0c71ec16be	-0.0004831581481286976
40	0xbf88b6dbde912e79	-0.012067525605878192
41	0x3fcbc5c41c251380	0.21697284101733416
42	0xbfd0486b054ddad9	-0.2544200469778111
43	0xbfe6bd50998c4cf4	-0.7106097220406853
44	0x3fc3f6f092485377	0.15597350256635042
45	0x3f710e055e5dc714	0.0041637620650918535
46	0x3f756c7da8214dbd	0.005230418059074035
47	0x3f81d3d16990f628	0.008704792055250613
48	0xbf8d3ed2fed8c83e	-0.014279983904177947
49	0xbf8418532a054069	-0.009812020988334962
50	0xbfccebe5807a1ffb	-0.22594898961347085
51	0xbfb8c23c3aeda66a	-0.09671379507713032
52	0xbfbd7be5155b8b68	-0.11517173549104387
53	0x3f727270d96d5f36	0.0045036705185664185
54	0xbf5b6d9b8cb4cad2	-0.0016740817107573813
55	0xbfc60307af08e4cf	-0.17196746870630483
56	0xbf854c1df20fd9d4	-0.010399087857860069
57	0xbf9d3cb8ff8f2979	-0.02855195102510197
58	0xbf67ef197cd18505	-0.002921628742612927
59	0x3f74af22f9900086	0.005049835796853702
60	0x3f43a9d07ab45b1c	0.000600077435055055
61	0x3f2bcff8fafdcdc7	0.00021219171821549988
62	0xbf80c59780047a49	-0.00818937644413355
63	0xbf40c6b56bb5d2cb	-0.0005119691699478566
64	0x3fd895da0a43f15b	0.38414622309189433
65	0x3f345825c283ee6c	0.00031042978163473597
66	0xbf613fef3a360385	-0.0021056816491981678
67	0xbfccd5f2376fe489	-0.22527911860359875
68	0xbfc1cffcf6cbc6d9	-0.13915979433618622
69	0xbf821a81fdb3309f	-0.00883962207299077
70	0xbf3eac129a8dcf73	-0.0004680200022939486
71	0xbf907ab86bc94642	-0.016093141154050146
72	0xbf6f31e3e24f067f	-0.0038079691753132856
73	0x3fe92f5a1cff66e3	0.7870302740440959
74	0xbf7af3081d779a87	-0.006579429340013327
75	0x3fd83aaea382104d	0.3785816761740122

w1 f8 [39, 38]
0	0xbfe965251161d79c	-0.7935967769142169
1	0xbfb7824eb4efce4e	-0.09183208386803551
2	0x3fe8638af897ea78	0.7621512275066626
3	0xc02004b46cf28ed0	-8.009189037903894
4	0xc001f8096ce00db1	-2.2461117273212143
5	0xbfe124da0b45fc84	-0.5357485027488029
6	0xbfcec30c3ab300fa	-0.24032738557981032
7	0xc00bebd8f29df283	-3.4901598886920637
8	0xc008ac7066bed3ef	-3.0841987635599177
9	0x400fcd597ffec3c2	3.975268363916684
10	0xbfffff4a148d46f5	-1.9998265078360735
11	0xbff4ec69c3f9897c	-1.3077180533660728
12	0xbff5c432649ee24d	-1.3603996210569165
13	0xc006bed7bec18e05	-2.843184938699553
14	0x401035939a2bc9ce	4.052320870325685
15	0xbfc90e090720025d	-0.19574082229520942
16	0xbff303c8cf794559	-1.1884239296380967
17	0xbff1755991a6fed2	-1.0911498727363562
18	0xc00dae5e72f11adf	-3.7101410846547505
19	0xbff5cf889a23654e	-1.3631673832918128
20	0xc006b4840fe8533c	-2.8381425135397915
21	0x3fe7f94f811be858	0.7491834184322768
22	0xbffe96f1c753ee4e	-1.9118516718143783
23	0xbfe76472b2f22816	-0.7310117239987928
24	0xc00d61c8183f5b83	-3.672744931634442
25	0xbff1861913608272	-1.0952387577928246
26	0x4007b830afd60fca	2.964936612815994
27	0xbfffbaa000e22c07	-1.9830627474318605
28	0xc0205e1087e4951e	-8.183719870236526
29	0x3fdd28cc2f4d6f98	0.45561508769400794
30	0xc004d35ee6e0d212	-2.603208354698162
31	0xc00586dfaa2f5d8a	-2.690856294222333
32	0xbfe86db3c21b5014	-0.7633913794657041
33	0x3fe5cec49552db09	0.6814902225949889
34	0xc022b7012a8f6d5b	-9.357430772789192
35	0xbfce4b2f2f6fc4f7	-0.23666944328537173
36	0xbfd22d1ba114c178	-0.2840031693513292
37	0x4000ca06363840ba	2.098644660560322
38	0x3ff186c166d6e32c	1.0953992859997
39	0xbff6fa8e733a6184	-1.4361710072608682
40	0xbfe1df114ea019cc	-0.5584799323703975
41	0xbffd51974fe529b8	-1.832419693079471
42	0xbff308a5f733c2c8	-1.1896114021621305
43	0x3f8349ef575f1d4c	0.009418363431804487
44	0xbfd8256952dd32e9	-0.3772834119052236
45	0xbfeae5d3e166b2c3	-0.8405551340452678
46	0x3ff0f32c0f77c7a8	1.0593681911673034
47	0xbf5ad44f01dfc6ae	-0.0016375323825709542
48	0x3ff6d32682b0f2d9	1.4265503983617036
49	0xbfdecbc861200c7a	-0.4811879108894527
50	0x3ffa027bdcc83385	1.6256064056680952
51	0x3fb854bb99bf20d8	0.09504292014674165
52	0x3ff1ae8aa42c0f56	1.105112687394429
53	0x3f927099a52f8572	0.018007660586481795
54	0xbfee73c00fe286ff	-0.9516296682597555
55	0xbfb4173f90935733	-0.07847974090267655
56	0x3fc5e59abc0b0206	0.1710694711855611
57	0xbfc57f44827959f1	-0.1679463994102686
58	0xbff6df9d75841bb3	-1.429593524024068
59	0x3fcc7a198a03b174	0.22247618903146427
60	0x3ffcf04d39025e40	1.8086673952983716
61	0x3fd4ab8b9aff6aaf	0.32297029625412227
62	0x3fed96a7b2e8d483	0.9246405119253186
63	0x4002fd683881e6ab	2.373733941520944
64	0xbff308ec3499b54b	-1.1896783880905157
65	0x40013ebf383be0b2	2.1556381600640515
66	0xbff6d0ee225fcb9e	-1.426008352541181
67	0x3ffeffbef908c726	1.937437985220137
68	0xbf9d40fbe5811075	-0.028568206675359826
69	0x400166a523745a6d	2.1751196641810595
70	0xbffd05f3d65ca45a	-1.813953244544129
71	0x3fcc71a3b76a0f44	0.2222180028512587
72	0x3ffad24223bf7b9b	1.6763326069264852
73	0x3ff012b3877876e0	1.004565743619814
74	0x3ff48f37ceef4fea	1.2849653323546542
75	0xc00cb367991eff78	-3.5875999415001694
76	0x3ff3824c14053d1a	1.2193108350800856
77	0xbffdc5220f02a592	-1.8606281839696277
78	0xbff18c34c256856a	-1.0967300025298194
79	0xbff58919f20fcc7a	-1.3459720092330643
80	0x3fdef3b6b15469d1	0.48362510030133615
81	0xbfe4d9a96a0a8985	-0.6515700408092903
82	0x4000a0e3ae5d7a0c	2.0785592672612037
83	0xc0043a373b2ee940	-2.5284256576243536
84	0x3fee9609c760bc2c	0.9558152097796486
85	0xbf9ab916d37b9b97	-0.026096684129608496
86	0x3fec30b8e541c90f	0.8809475400615002
87	0x3fbffcf9606fd534	0.12495382885375222
88	0xbff713d671c4dc48	-1.4423431820012116
89	0xbfd6f287ab3fe5d7	-0.35855285380929786
90	0xbf7be42d608b6037	-0.006809403662110517
91	0xbffb7756ad1a616e	-1.7166353952253206
92	0x3fdfd2ecb6d4f3ca	0.4972488198725925
93	0xbfefa0036ecda806	-0.9882828868987878
94	0xbfabb09ada6c2aa2	-0.05408176342287631
95	0xbfbff5ed78044a8f	-0.12484630756470437
96	0xbfbf4a381f450399	-0.12222624553125029
97	0xbfde3c9cec71862a	-0.47244952287846564
98	0xbff5144b059cf82f	-1.3174543589843883
99	0x3ff24d69897388ed	1.1438994759742471
100	0xbfc1383999c128cc	-0.1345283509020362
101	0x400231882926f5ca	2.2741854872717555
102	0x3fe540dac617d8ac	0.664166819477733
103	0x3fec9b462d53d6c5	0.8939543614676145
104	0xbf836b9ffeece40c	-0.009482622115330151
105	0x3fefb650f9697c93	0.9910054084138146
106	0xbff4022b34eebeaf	-1.250529486434896
107	0xbfa1d0411af96cee	-0.034791979353679156
108	0xbfee026921094e4a	-0.93779427006161
109	0x3fcc8c95eaa9ed2b	0.22304033239547869
110	0x3fa0071c1f17aaf9	0.03130424384638348
111	0x3fd84a790f3d8a2f	0.3795454644042903
112	0xbfd6b9578aa32655	-0.3550623754386824
113	0xc001bc0867e15d99	-2.2168129077578667
114	0x3fe8fdc1255fd405	0.7809758882491457
115	0x3fec96e42a48ff04	0.8934193445092835
116	0xbfd153a0ff100b5b	-0.2707293024870318
117	0x3fa161393b493650	0.03394488190370437
118	0xbff2f5dbc1adc5e3	-1.1850240293100505
119	0xbfcd64312bb9fa67	-0.2296201194294156
120	0x3fdb84ba1bad996c	0.429976012257973
121	0xbfe6ffdb62e96b50	-0.7187325412627192
122	0x3fef6120b7653abe	0.9806064207021661
123	0xbff4c7597274b5e8	-1.2986692877706165
124	0xbfe79dc33f73d348	-0.7380081404977341
125	0x3fd9ec398356a609	0.40504300905249174
126	0x3fe98e18fc0c42eb	0.7985958979425879
127	0xbfdab5c2ef6c8826	-0.41734383946652753
128	0x3fc32a531354924f	0.14972914165368187
129	0xc009322d258c8d00	-3.1495001729505248
130	0xbff0d107bc04aaee	-1.0510327667677148
131	0xbfeb6c52cbfe4cb2	-0.856973074364211
132	0xc00362b49a253829	-2.4231960337265446
133	0x4002cb40b8929c55	2.349244539236262
134	0xbff3492d506cbf7a	-1.2053654805749532
135	0x3fdc15d360bdb467	0.43883213469854926
136	0xbfe874b676947cf3	-0.7642471614853136
137	0xbfc848f9610ad7a7	-0.1897269939269652
138	0x3ffdfa4df7be9a51	1.8736095120927028
139	0x3fd83440e569290f	0.37818930056950334
140	0x3fc1a11f929b8caa	0.13772959383559186
141	0x3fc20f6a1ccea595	0.14109541327097178
142	0x3fe7a005430b6e4e	0.7382837590661866
143	0x3fee4c466cda4f61	0.9468109251051652
144	0xbfebea676f5a797b	-0.8723637747641954
145	0x3fc3e7fc3f9b12b7	0.15551713090657923
146	0x3fd6a3d484f38402	0.3537493990280042
147	0xbfe1fc53e61dd2f2	-0.5620517248595134
148	0xbffdc6146afd1121	-1.860859315799708
149	0x3ffa61f39b64f09b	1.6489139623727513
150	0x3fe2c9938c00478c	0.5871064886471102
151	0x3fe3416f27461c56	0.6017375723903438
152	0xbff5da84b4d58284	-1.3658492149189962
153	0xbfd092d6f699cfd5	-0.2589623840533453
154	0xbfe96623c012ae38	-0.7937182189393246
155	0x3fe326790d2ce080	0.5984463937120523
156	0x3ff839e159aff0ad	1.514130926457294
157	0x3ff0b04a85cabfa7	1.0430398203134048
158	0x3fe872f941f16d52	0.7640348709059401
159	0xbff586117a70949c	-1.3452315123370573
160	0x3fe67012e8e90617	0.7011808918979935
161	0x3ff66be72eb5ed0b	1.4013435196528146
162	0xbfe65dcb5c27eb22	-0.6989495086594142
163	0x3ff2a844eb55cab3	1.1660813515451707
164	0xbfda4a9483a4fa13	-0.4108020101156466
165	0xbffd590dde42a5a3	-1.8342417413754013
166	0xbfc8ef0d1bb75699	-0.1947952637989843
167	0x3fd435adcc2ed2ae	0.31577629985558076
168	0xbff03a90d51c8002	-1.014298279253126
169	0xbffacb72928898ae	-1.6746698116271932
170	0xbff3e9b5d23ac000	-1.2445581638421572
171	0x3ff97a4bb3d22387	1.5923573517086156
172	0xbfe649f90df4ac53	-0.6965298912595109
173	0x3f96751ec57c6dd6	0.02193115311011503
174	0x3fefaa78d797fe0c	0.9895595751585815
175	0x3ff9dfd74dc5f6e9	1.6171486890811428
176	0xbfe698f4c5e45d66	-0.7061714043692688
177	0x3fd4f33a5d7db1f8	0.32734545831661377
178	0xbfeaef6af2e865ba	-0.841725801877309
179	0xbfc9fa4c685eae7f	-0.2029510030382546
180	0x3fd4a15872e44da4	0.32234774799254695
181	0x3ff9b66d9b7277ae	1.6070381233362059
182	0xc0048dac3a768e3b	-2.56917615579894
183	0x3fe002fdfb68d93a	0.5003652487128314
184	0xbfed79c0ec58cd3a	-0.9211125007772474
185	0xbffcbada09314e5e	-1.7956180914960878
186	0x3fd276e4fefeb819	0.2885067453561319
187	0xbfda8313f65dfb07	-0.4142503648690056
188	0x3ffbd7b80d68588c	1.7401657603964251
189	0xbff888d5babb7915	-1.533406953261481
190	0xbfe674d32efbb71b	-0.7017608564035273
191	0xbffc6d40065f01c3	-1.7766723870155239
192	0x3ff596429ca18711	1.3491846197507054
193	0xbfb965397f51eed9	-0.09920081480407407
194	0xbff2340009c2c93b	-1.1376953488621229
195	0xbfc230e02083d7de	-0.142116561771842
196	0x4005d67592e76e7b	2.7297164418103512
197	0x3ff7f629dcedd613	1.497598517421811
198	0x3ffec660e2579896	1.9234322396746726
199	0xbfb04e54220fdcb0	-0.06369520026770448
200	0x3feec73fccd57368	0.9618224144611363
201	0xbfce001e7ab1838a	-0.23437863341225934
202	0x3fdf81336ef20a26	0.4922607978298025
203	0x3fbe676910fb3a83	0.11876541771492026
204	0xbff382ebdafe205a	-1.219463210525666
205	0x3fccd3dc1046d60c	0.22521544260750692
206	0x3ff651c16a37bc07	1.3949598454598815
207	0xbfb50c79eeadd0b9	-0.08222162320254513
208	0x3febce9f5cb7030f	0.8689724741780952
209	0xbfdb1bfa43b3f7a7	-0.42358261691685545
210	0x3fe5b9e50c97f8e1	0.6789422269792135
211	0xbfe05cd7df4cf6c6	-0.5113334046688685
212	0x400206ad3e6de51d	2.2532601239478383
213	0x3fd8ee531af74af9	0.38954618104359856
214	0x3ff5be804e59077d	1.3590090809306894
215	0x3fe395745bcd0bd1	0.6119939606654673
216	0xbffa7ef68efcd8f1	-1.6559968553024726
217	0x3ff08487b918f6da	1.032355998074698
218	0xbf72104785867cb1	-0.004410056477723121
219	0x3fd874dcbde8c185	0.3821327070791301
220	0xc001396f6f1c9d7f	-2.153044574795501
221	0xbf5d58e9d9fb25a0	-0.0017912181573812372
222	0x3fd210c3a72f1f16	0.2822732098252215
223	0x40042a487a2fc83a	2.5206460519630385
224	0x3fe8f8a7452043a5	0.7803531980626884
225	0xbfc22c8dfb9dcaec	-0.14198469911533296
226	0xbfb448603b7424ed	-0.07922936870103899
227	0xc004c050229a64e2	-2.5939028457038242
228	0xbff5fc5bae6a7d8a	-1.374110871612944
229	0xbfd2b77b1d517ff9	-0.29244878638382904
230	0xc001d8b952aac3c8	-2.230822225414588
231	0xbfd96a9dfcddd36f	-0.3971323937797057
232	0x3ff11469e31cb8d0	1.0674837943620794
233	0xbfd194e0f054b6b6	-0.27471183271232336
234	0xbff9277bdbd609b2	-1.5721396052691543
235	0xbfcfd0b85884afa2	-0.24855713197882517
236	0xbfe14c0f0a7d2746	-0.5405345158444355
237	0xbfeb1c73c02a6d9e	-0.8472231629597677
238	0xbfe3009432890a9a	-0.593820666028779
239	0xbfe15a10758399a7	-0.5422441764065312
240	0xbfe67d17bdd8d436	-0.7027701099347101
241	0xbffa9a88fb51e3cf	-1.6627282921965507
242	0x3ff68b616858cec4	1.4090284420062043
243	0x3fd6f99a8f4df23b	0.3589846038301265
244	0x3fae57d073e9a80a	0.05926371970129203
245	0x3ff0197504cb820f	1.0062151133826125
246	0xbfe48cc3042cd016	-0.6421828347724865
247	0x3fcb99957b76db39	0.21562450912980483
248	0xbfed921b7535c210	-0.9240853585488953
249	0xbff2bf75f6de5923	-1.171743358927025
250	0xbffbfb4229797cab	-1.7488423938846533
251	0xbfe0fea90f4246fa	-0.531086473276644
252	0xbffeee116a6e5083	-1.9331220776994378
253	0x3fc3bc83bdcd8397	0.15419050948824228
254	0x3fd85f985cfc9713	0.38083466606836786
255	0xbfef896c5936c412	-0.9855252973994786

w2 f8 [39, 38]
0	0xbfd6f3e5a3a348d9	-0.3586362932229697
1	0x4006223e11671e8f	2.766719947776273
2	0x4019f3ff2f80acf1	6.488278143147213
3	0x400c2f6811a8cd5c	3.523147714580473
4	0x3ffcffc2d16493c0	1.8124416522416453
5	0xc019a63411b5a3a3	-6.412308003150346
6	0xbff5d182e3f10373	-1.3636502174342382
7	0x4018a8b2caa6733c	6.164744535836515
8	0x3ff6b4cbc81d6879	1.4191396538722343
9	0x3fff676af8b088a0	1.9627485002934364
10	0xbfb532c1cf968159	-0.08280574148239363
11	0x3ffbad44e601a48d	1.7298020348191898
12	0x4005143a2072d5a2	2.634876492981406
13	0x400e9b54df38e4b2	3.8258454741704435
14	0x3fffe7aa71c69a8f	1.9940590328566576
15	0x4012c92e9190e236	4.696466707675929
16	0xbff971e3bbfd80f3	-1.5903050750130745
17	0x3ff8b203a435a7fe	1.543460504001359
18	0xc01c22818cb53b0b	-7.033697317658844
19	0x3ff176e4a5c0a83b	1.0915266489705704
20	0xc00f8f0187d9c123	-3.9448271382645017
21	0x400a81d0ccc2729b	3.313386535343239
22	0x400e75daae5e719f	3.8075460074016543
23	0x3ff6369763bfe6a4	1.388327970168043
24	0xbfdef1b24cc4835c	-0.4835019826587563
25	0x400e956147e9f225	3.8229394548673263
26	0x3ff62918ef8fbbd8	1.3850335462445766
27	0x3fe2a85f4a8e48c4	0.5830532509010244
28	0x4014a3f58cfe420b	5.160116389292408
29	0xbff16f9d989fed2b	-1.089749904814037
30	0xbfd784fab61e58e0	-0.3674914148808863
31	0xc0118bead427c4bc	-4.38663798802116
32	0x400221f99c9344a0	2.2665893776362083
33	0x400b85a36fb0e9ef	3.440253136240464
34	0x40058397ecf47e23	2.6892546188462503
35	0xc007fcbc3ee1ae6a	-2.998405925047156
36	0x400c1e22b407fe9c	3.5147146286906956
37	0x4008ddd4f51bdb53	3.10831634036314
38	0xbff3d05db34bee0a	-1.2383706096433138
39	0x4004158ba74fc64b	2.5105202742786665
40	0xbff1fe47e8c6b5e5	-1.1245802967854328
41	0xc00076d8b3753458	-2.0580305118697133
42	0xbfed608fafc656da	-0.9180372651196322
43	0xbfe8f15a4d4fcf2f	-0.7794620046611039
44	0xbfe7ec0032f7d9a2	-0.7475586886856045
45	0x3fd5294423654b52	0.33064368683442524
46	0x3fb56d135fcc6e29	0.08369561280090267
47	0xbfd4dc3f57e3f4ee	-0.32594283659984924
48	0x3fea8893c5e290d0	0.8291720261518325
49	0xbfe01a6958db2079	-0.5032240615337421
50	0xbff7db10e6be0b3a	-1.4909829152463332
51	0x3fd5120d73cecfc4	0.32922684010850056
52	0xbfd82b43d926d368	-0.37764068800179595
53	0xbff46c5955f2a312	-1.2764523846946685
54	0xc005795bd39b77c8	-2.684257176572803
55	0xc0074f989ce77ada	-2.913865304769712
56	0xbf535250c81c730a	-0.0011792935260423487
57	0x3fdf36a44b1fbb91	0.4877100690491086
58	0xc0052be776c6d218	-2.6464375762391334
59	0xbfbeab8b92e72024	-0.11980507217879272
60	0xbfc1093822de76d6	-0.13309385016048364
61	0xbffa0581d0c30e00	-1.6263445048106178
62	0x3f7199b89a660781	0.004296990495619713
63	0xbff20e41369f4bac	-1.1284801610642985
64	0xc004ad80532592a9	-2.5847174163667046
65	0x3fc98574f59b9f3e	0.19938528053830312
66	0xbff251f9b1ba71e9	-1.1450135176192993
67	0xbfe6d7fcdd6ef5e4	-0.7138656926032891
68	0x3fb8d9604d2251e7	0.0970668972316343
69	0x3fdc40a5b207f748	0.44144575486994997
70	0x3fc7a2eed84438be	0.1846598201740956
71	0xbff1472f62a6a48d	-1.079879174571292
72	0xbfe2b13c3d122bad	-0.5841351692955549
73	0xbfd26134b3e9f071	-0.2871829754801701
74	0xbff53226313c3b29	-1.3247434542897258
75	0xbfe0318a11547dd0	-0.5060472811200558
76	0xbfe1e176b8f48189	-0.5587724316028907
77	0xbfc10f7de95421e2	-0.13328527348518465
78	0x3fc055d4f69439a9	0.12761938133230658
79	0xbfd42109befec072	-0.3145164838015325
80	0x3fe428256802d0c9	0.629900649210435
81	0x3f8149256d78dcb4	0.008440296557735351
82	0xbf9fa206636a2bb0	-0.030891513650697255
83	0x3fd42ec883834204	0.31535542338409095
84	0x3ff5a56fe993e8f5	1.3528899311191342
85	0xbfd72fa40a25da48	-0.3622827624416556
86	0x3fe937eace4e3582	0.7880758313564658
87	0xbfef338c4c1fa64f	-0.9750424849309612
88	0x3ff1273cf95d24d7	1.072079633786691
89	0x3fcc0d0ff75de539	0.21914863184410097
90	0x3fe82fad3ea75552	0.7558199142173783
91	0x3fe3c42e94ac864e	0.6176979926860413
92	0x3fec54a7316bf212	0.8853336301104398
93	0x3fe7fed750fc5cf5	0.7498585302118089
94	0x3ff192094473adbc	1.0981533693219339
95	0xbfe7e37fa4514d3d	-0.7465208253219441
96	0x3fe636b891fe05b2	0.6941798068439111
97	0xbffe4050d217f7ec	-1.890702076605062
98	0xbfe3f7b9b26f5a91	-0.6239899144228095
99	0x3fe2814c854e3e77	0.5782835582376283
100	0x3fddf8fa5ebd9973	0.46832141162885604
101	0x3fd22f60f7c6bc62	0.28414177128701656
102	0x3fe85a20650e3ac5	0.7610017751447563
103	0xbfde9ed90590cce6	-0.47844529670255864
104	0x3fd1a964a572c090	0.27596393734985103
105	0xbfde6773c2f83c66	-0.4750642208100032
106	0x3fd19be4dc5284f0	0.275140013845955
107	0x3fd7fa0609ce4f32	0.37463522870642685
108	0xbfd43675277db86b	-0.3158238301902034
109	0x3fd84348581c05f0	0.37910660366477966
110	0x3fe6aaa2a713c37e	0.7083295119501682
111	0x3fdaae669f5ec64e	0.4168945843076458
112	0xbfe2fbeeb1cd4675	-0.5932534668629176
113	0x3fcfe5db91147bc6	0.24920219978318253
114	0xc0054ceec1f91351	-2.6625647691857144
115	0xbfe6ce5c2c436628	-0.7126904358403339
116	0x3fe667f39d6e7acd	0.7001894068560773
117	0xbffaf036ea13fcd6	-1.6836461204218742
118	0x3fffc287d3c9191b	1.9849928162453299
119	0x3ff8d02a2da49da9	1.5508214743548285
120	0x3fdace4c552c40ec	0.4188414413229242
121	0x3ff8286993f778c7	1.509866312022085
122	0xbfea8e9de62dc37b	-0.8299092765501962
123	0x3fd27d0ba2f1c563	0.28888216888943513
124	0x3ffa5fd435729fe6	1.6483957374384715
125	0xbfccb79a8f41bbed	-0.2243531417365995
126	0xbfd4ab80f64969a5	-0.3229677586693021
127	0xbfeb48be58f97e75	-0.8526298272881393
128	0x3fde280b468e1a37	0.47119409456391587
129	0xbfe537e700139df5	-0.6630740167137775
130	0xbfdb6efbeed0eef4	-0.42864893266572257
131	0x3fe2be2821c2f806	0.5857124957472031
132	0x3fdb867e6c5cddec	0.4300838525991526
133	0x3fe4032e605dd719	0.6253883249434892
134	0xbfe0f9991b3d324f	-0.5304685146343874
135	0xbff2fe770a15b589	-1.1871252435624646
136	0x3fb82868dee4d85b	0.09436660234209297
137	0x3fd76e5a2c14c999	0.3661103659134369
138	0x3fc8373316f73bc7	0.18918455716490554
139	0xbff80115c6d201ff	-1.5002649084491393
140	0xbfe75c1da001623e	-0.7299945950608799
141	0xbfd4980a4f62b9b1	-0.32177980186943517
142	0xbfded210fa239a4b	-0.48157143046993117
143	0xbfe8991299929c07	-0.7686856269327799
144	0xbfd56109bedbb3f2	-0.3340477336740256
145	0x3ff616a47a6ff20c	1.3805279524523284
146	0xbfdc06249ba0a4cb	-0.4378749389457652
147	0x3fec0d86ed34745a	0.8766512520702563
148	0x3fe6f80922120d0a	0.7177777924956967
149	0x3f9ea3c4efc1d5cf	0.029921605237594847
150	0x3fea89e09b60f76b	0.8293307337514596
151	0xbff35c1aa72ed6c5	-1.2099863558373027
152	0xbf14f4e2cc5ef6c1	-7.994303004373993e-05
153	0x3ff1c8e9c022f15e	1.1115510468799452
154	0xbfe24495a8f34137	-0.5708721446808686
155	0x3fe7cb1eb7fc8778	0.7435449212537
156	0x40020ba9fd24c92f	2.255695321736446
157	0x3fe93bd405096614	0.7885532472966497
158	0x3fb8eeae88f63576	0.09739199489395908
159	0x3fec76b16514f1d5	0.8894888853315545
160	0xbfd790d922c49a4c	-0.3682158317118691
161	0x3ffc4febea9aff30	1.769512096812786
162	0xbfac43423570c5e8	-0.05520064260816665
163	0xbffa6f1bfc15d6fe	-1.6521262976725093
164	0x4006ae2826a7664e	2.8350375194393456
165	0x3fd6786a851e6fb5	0.351099615096014
166	0x3ff281cbf474b3bd	1.1566886471803024
167	0xbfc106abec6de58e	-0.13301610035322792
168	0x4000b086e06cf707	2.086194756818148
169	0xbfd16020f3233920	-0.27149223083405793
170	0x3fdc720fd60441ab	0.4444617834097026
171	0x3fe197602899666b	0.5497284691766259
172	0x3fd38c238f718f14	0.3054284001175216
173	0x3ff942ea22c8cb6a	1.578836570621855
174	0x3fe03379bacaf624	0.5062836311623795
175	0x3fc0a7ed3835eed1	0.13012471432363396
176	0xbfe070f657810c0a	-0.5137893399299867
177	0xbfe9d4fd9569505e	-0.8072498243514123
178	0xbff5d2a9f5ed2f37	-1.3639316183570835
179	0xbf8ae1e030dac579	-0.013126136294291811
180	0x3febcc0607ef8f69	0.8686552195544951
181	0x3ff224265f61e89f	1.1338256574513605
182	0x3fcfdf8e51169131	0.2490098854006049
183	0xbfe69a09e9e1c21b	-0.7063035552983509
184	0xbf9b4c55e415fece	-0.026658384367236825
185	0xbfe4a13c08c05a96	-0.6446819468427119
186	0xbfe9a3bdd60bc3c2	-0.8012379818520616
187	0x3fc53bccc2e68011	0.16588744656201063
188	0xbfedb954600cc564	-0.9288732410406451
189	0xbff8a3dc47326d5a	-1.5400049954540322
190	0x3fdab8c08939c0fa	0.4175263729184874
191	0x3fb3aa5787061af7	0.07681796118241012
192	0xbfb29d78c7d856c4	-0.07271532897024274
193	0xbfc82823233eee73	-0.18872489186275096
194	0x3fdf0e75b6983a4e	0.4852575572157648
195	0x3fef336d2e9ae31b	0.9750276479963732
196	0xbfeedae30f5289c6	-0.9642195987001336
197	0x3ff0baef6c2440d8	1.0456384872705282
198	0x3fff7d71716eb4f9	1.9681257658915554
199	0x3feb5eb9d05e87be	0.8553132123672567
200	0xbfee9c1c3af9c55c	-0.9565564300411711
201	0x3ffa12fa02bab3a9	1.629632959996551
202	0xbfc91132653efb3a	-0.19583730643895497
203	0xbfdfeac0be560662	-0.49870318019393356
204	0xbfe8e41db3f2c015	-0.7778461947073106
205	0x4005654ea5fa8938	2.6744664160807154
206	0x3fc963030e10f055	0.19833410441231317
207	0xbff14d068f41fdfa	-1.0813050838477225
208	0xbfe24139c02a90be	-0.5704621079680903
209	0xbff1150b4c564ad0	-1.0676377279202605
210	0xbffcca38b94eadaf	-1.7993705023353461
211	0xbfdb79770d817bf7	-0.42928863829541747
212	0x3fea0ff473e441d2	0.8144476188190828
213	0xbfe95c6835b253cf	-0.7925301598321485
214	0xbfd05f57c03a4343	-0.2558192612860248
215	0xbfd8d8e742508cf8	-0.388238730202104
216	0x3fe75dc5b1c7b928	0.7301968071240355
217	0x3fe09624ec8dfc7d	0.5183281536300367
218	0xbf84aaeae00d45c1	-0.010091624224204733
219	0xbff851fa9407cd83	-1.5200143606606111
220	0x3fec8503b740a567	0.8912371234083992
221	0x3ffc6224a50b4e0e	1.7739607283627978
222	0x3fdb634165f099e7	0.42793307261527364
223	0xbfc326ec4aa85d1b	-0.14962533612627102
224	0xbfcd54e1313d8cd4	-0.229152821582011
225	0x4000b44b9722144a	2.088034802176968
226	0x3fecb80bd1fd4e4d	0.8974665738446191
227	0x3fd57d1232c9d1d9	0.3357587333660184
228	0xbfc3dd78ee680712	-0.1551963008969826
229	0x3f78a8c6e12756e3	0.006020333169052458
230	0xbfe2e7e7e8426365	-0.5908088241877577
231	0x3fe34b2b53427e8f	0.6029259325186603
232	0x3ff786c4f94f5b0f	1.4704026926680773
233	0xbfd5d45e9ff91eed	-0.3410870134580211
234	0x3fee502494f2a948	0.9472830685747704
235	0x3fd88485b11a6959	0.38308851523620074
236	0x3fa32195b75671fc	0.03736560690888166
237	0x3f83dc88c11ad831	0.009697979348271076
238	0x3fe3f9444a3c9b48	0.6241780710159697
239	0xbff2268d39fede8d	-1.1344120278789973
240	0xbff1eecbca51ea99	-1.1207998183369112
241	0x3fd72aeaf3773826	0.3619944932551128
242	0xbfca9a6a4de0607c	-0.2078373794800007
243	0x3ff02077e702cda7	1.007926847826505
244	0x3fe4f1bd81c4998c	0.6545093092470764
245	0x3ff2f15826a06dc0	1.18392195786042
246	0x3fd4d0b6a198343b	0.325238855178046
247	0x3ff987ffc7fa57d7	1.595702916301425
248	0x3ffe65cc9e6e6518	1.8998533428878712
249	0x3ff0729bbc6f2b91	1.0279805527413581
250	0xbfd52595a08b1eb6	-0.33041897466726355
251	0xbfe3c0921045458f	-0.6172571485314381
252	0xbff8e20ee9141edb	-1.5551900009758615
253	0x3fcbe98857cff65d	0.21806434905731722
254	0x3fe6b79e5d983b45	0.7099143817921251
255	0xbfadef0c64679925	-0.0584644196094806

w3 f8 [39, 38]
0	0xbfd04ce9e1b97941	-0.25469443362625915
1	0x3fc954ab8bf2948c	0.19789642651918304
2	0xbfea4fe2e3e347c6	-0.8222517443593851
3	0x3ff0c930312bbd11	1.0491182251678917
4	0xbff199d3f78a5995	-1.100055663065722
5	0x3fd03f889fcc0914	0.25387778859307386
6	0x3fb1253757f62736	0.06697412393091615
7	0xc01a7f0f7624311f	-6.62408241840265
8	0x402ac4b4ef3fd110	13.384192921199912
9	0xbfd17ea2a69d9670	-0.27335420867016236
10	0x3fdfe71db8f92390	0.49848120750225977
11	0xbfefc60fbf392e02	-0.9929274306136338
12	0x40123b4a497341dc	4.557900569591279
13	0xbfda8ca73d008ce2	-0.4148347945903891
14	0xbff365ebd3ab2aad	-1.2123831051164118
15	0xc0095577fea67fa5	-3.1667327780305237
16	0x400fe3fdffae3ccd	3.9863243079231325
17	0xbff52a9cf3ced5a8	-1.3229035876987414
18	0xbfe614a5f5e9a171	-0.6900205424290516
19	0x3ffd79169141cf1a	1.842062537584701
20	0x402208ffb1154c80	9.017575773096041
21	0xc00092f27747dcce	-2.071751529579706
22	0xbffac6baeeb6727b	-1.6735181164468986
23	0xc001be9b910786b9	-2.2180701570913155
24	0xc005f798eb3628b8	-2.745897138204864
25	0xbff002d3dfa2b324	-1.0006903396380915
26	0xbfddf2feeb606683	-0.4679562853430996
27	0xc002061b1b6abda2	-2.252981390185327
28	0xbfd70bd48ca9ba7f	-0.36009706246014866
29	0x4015aa70b7dd245f	5.416445610878411
30	0x3fe1d552e4c3bbed	0.5572905033167196
31	0xbff8f72659aaf477	-1.5603393080375818
32	0xbff2f09a7e3680c3	-1.1837410860244268
33	0x4010c18695935d1e	4.18898996078431
34	0x400697826952deec	2.8239792087950857
35	0xbfedf35b0acdd6f2	-0.9359564982430284
36	0xbff22ab43ceb832a	-1.135425794571527
37	0xc0023b1d9497767b	-2.278865013954428
38	0xbfd8fd005fe5fe1f	-0.390441983843603
39	0x3fe5741c265974fc	0.6704235791218305
40	0xbfe30a9325ff28ff	-0.5950408689616608
41	0xbff2d4794eb9da12	-1.1768735003694286
42	0xbfe3e96f503c2cbd	-0.6222454611865015
43	0x3fe353ca8c1851cb	0.6039784179907256
44	0xbff761702119baaa	-1.4612885754574259
45	0x3fb2d78350e80ff7	0.07360096669441406
46	0x3fe827fa05a624e5	0.7548799619991341
47	0x3fc766b9cd20381d	0.18282244220648716
48	0x3ff229a6d7373629	1.1351688773023716
49	0xbff9a59d0cef56ee	-1.6029329781790085
50	0xbfc82cd3e3fe6ea6	-0.18886803276551695
51	0x3fd3863060c30650	0.3050652451457596
52	0x3ffedc73b8aa3bc0	1.9288212979770236
53	0x3fa7f83f8bd7a08f	0.04681585866984605
54	0xbfe96f33acce41ae	-0.794824445258248
55	0xbfd4677bffd4e1c5	-0.3188161848406959
56	0xbfffca7ed4e794e6	-1.9869373623453668
57	0x3fb35695deb97946	0.0755399388085368
58	0x3ffe56b32986a748	1.8961669561490044
59	0x3fe7e5a3be90f860	0.7467821809766626
60	0xbff6349b37ad3f32	-1.387843339431083
61	0x3fb1aac6a44b159e	0.06901208411280499
62	0x3fd115c41e4f636c	0.26695349655124434
63	0x3ff24efb18c3f958	1.1442824332621822
64	0x3ff612614a55c5e5	1.3794873145783353
65	0xbfdf0926a3f94a4d	-0.4849335290247481
66	0xbfdca2bfae00151f	-0.44743339531153653
67	0x3fd2eea85713b572	0.29581650260555314
68	0xbf9aefec66c96f48	-0.026305860303508483
69	0xbfdc00c2851eccbf	-0.4375463771822971
70	0xbfebc6709e291a61	-0.8679736222337163
71	0x3fdf794981ec0b58	0.49177777946186074
72	0x3feaee4f50167e25	0.8415905536857663
73	0xbfbb58840738cdcb	-0.10681939293208768
74	0x3f9063b5f4baa517	0.016005366384580357
75	0x3fd115a6abbd923e	0.26694647571119734
76	0x3fe87909856c4c48	0.7647750478667001
77	0x3ff649f43ffefcad	1.3930552005620414
78	0xc0029599f6fdedf4	-2.3230475708239684
79	0x3ff225f56f8ea571	1.1342672689155189
80	0xbf9c63e3c225a236	-0.027724798893730994
81	0x3ffb20413cfe77bb	1.6953747160509767
82	0x40053b5862de4b13	2.6539771770561713
83	0xbfcb92c20e3c4a1e	-0.21541619963734687
84	0xbff5ff7e66d3cfbe	-1.3748764054007405
85	0x3fd82916d6cfd828	0.3775078866741546
86	0xbfb5d216b00b5766	-0.08523694799381829
87	0xbfe106e54f1d6e52	-0.5320917649473336
88	0x3fef96a0c7ecea2b	0.9871372132104786
89	0xbfee5fd6b9d48764	-0.9491990689750591
90	0x3fcdb6f662b487c0	0.2321460706671683
91	0xbfe4ffa2fdabbdd6	-0.6562056498059359
92	0xbfe5ce25035cc437	-0.6814141336127538
93	0xbfd555ce8a6f92a3	-0.3333622314369597
94	0xbfe395e1e41488bf	-0.6120461897555954
95	0x3ff3db8d81233192	1.2411017460281966
96	0x3fe7ca8e164a533e	0.7434759555204449
97	0x3ff56d6b1631269a	1.3392134539484801
98	0xbfebc6c1ef1fe7e7	-0.8680123968508696
99	0x3ff04a512debb931	1.0181438249379193
100	0xbfda1d737de5350b	-0.40804755491701944
101	0xbfcc99184b323ef1	-0.22342208549206746
102	0xbfe56b6401218b60	-0.6693592092600333
103	0x3fe5a338ac27da11	0.6761744844832852
104	0xbff08938fee32201	-1.0335016209156722
105	0x3ff3e4cc57624620	1.2433589375908767
106	0x3fd13693dfbc8922	0.26895615433945086
107	0xbff1762de0b833e1	-1.0913523462397665
108	0xbfe9c35cec0a7163	-0.8050980196162921
109	0xbfe5ea53830104f4	-0.6848542746230621
110	0xbff1bbbcdb8b327f	-1.1083344055106463
111	0xbfc18b58f0b57dba	-0.13706504586569485
112	0xbfe625ad28096a98	-0.6920991689651883
113	0xbfeac193e2e2f986	-0.8361300879840179
114	0xbfccbd28db15f836	-0.22452269265699137
115	0x3fe8430fb3d80c7f	0.7581861984803168
116	0x3fe5f098a031a877	0.6856196526325807
117	0x3fdd5ffe1a261369	0.45898392251574777
118	0xbfd3b10f994f745c	-0.30768194171634433
119	0x3ff7358271fbf211	1.4505638554102271
120	0x3fc9080476a0778e	0.1955571727020779
121	0x3fecbf4da6b4977f	0.8983524566617546
122	0x400255d8f9a9faa2	2.291917753696297
123	0x3fe5763903a54818	0.6706814833835351
124	0x3fe648c485e52582	0.696382771982073
125	0xbfc430aac131b513	-0.15773519929226917
126	0x3fe879fd0c2482c6	0.7648911702309185
127	0xbff08ea5561dd366	-1.0348256458211949
128	0x3fe6dbdf6effb8b5	0.7143399398753646
129	0xbfd6f906b932f5fb	-0.35894935689779545
130	0x3fe26e74552366b8	0.5759832060677672
131	0xbfd1be49050a6059	-0.27723908893813626
132	0x3ff4a48d201c54e9	1.290173650200183
133	0x3f7bb77eeb19b744	0.006766792082641807
134	0xbfea8962e11efe39	-0.8292707821746667
135	0x3fdfff08ded85350	0.49994107973298174
136	0xbfc1ae7e85bf1897	-0.1381376412447863
137	0x3fd5d88177d211a9	0.341339461338317
138	0xbfdc0fb7d1f26f86	-0.4384593534721194
139	0x3fe34490eaffc6b2	0.6021198835207626
140	0xbffc2cff75f333bf	-1.7609858138487053
141	0x3fd420adb339cf43	0.3144945383312356
142	0xbfffe54d29f0ac07	-1.9934817922865038
143	0x3ff0c0a71b2f9cf3	1.0470343648865394
144	0x3fe68c2b36610daf	0.7046104490367976
145	0x3fe04da418f6a31a	0.5094776618544501
146	0x3ff009a9724b2e17	1.0023588623615802
147	0xbfedf40b74901850	-0.9360406185740064
148	0xbfd15ef69fdcb298	-0.27142110454114166
149	0xbfc175d2852f1abe	-0.1364081526100644
150	0x3ff50ffdbf194679	1.3164041008753016
151	0x3fff494e2fc88d72	1.955396830228747
152	0xc003e4f4119babe5	-2.4867936492569123
153	0x3fddfb1c455de78a	0.4684515645418449
154	0xbff9fe7c8365bd53	-1.6246304638587687
155	0x3fcbdc306095dd10	0.21765713420948218
156	0xbff1795d9b98e305	-1.0921302869812177
157	0x3fa66cc49aa40de1	0.04379858386712577
158	0xbfca54b8e2ef2cc4	-0.20571051674628482
159	0x3fcae2fe611281a0	0.21005229701860362
160	0x3ff85e810901ab1a	1.523072276288707
161	0x3ff53bfb89b8b933	1.3271441821812686
162	0x3ff2ee492b00f346	1.183175247176409
163	0x3fc9a91bc44b3a9a	0.20047328076039578
164	0x3fd8ca667b0f8283	0.3873535348666694
165	0x3fd094a40c3cc2a5	0.25907231516888835
166	0xbff6d7cea0693e5d	-1.4276872888621235
167	0xbf98476459a0fee8	-0.02370983883906677
168	0x3ff17e7b990d1528	1.0933795908507111
169	0xbfd2759c6b922c50	-0.28842840676287995
170	0xbfd95fee302fa1e5	-0.3964801283423454
171	0xbfbc341b3b8fdbed	-0.11017008022450599
172	0x3feb3a3237c00eb7	0.8508540238257954
173	0xbfef0ef8206d35e7	-0.9705773003894905
174	0x400229bf455b773b	2.270384351590932
175	0xbfd03942c92e18bf	-0.2534949268960069
176	0x3fbbc6fed5607588	0.1085051794948041
177	0xbfee9154a22127c5	-0.9552405516235402
178	0xbfe4a35ea7bc1f1c	-0.6449425960608752
179	0xbf6d0f1db22aa535	-0.0035472469329148834
180	0x3fe25ff2b04e35d4	0.574212402674386
181	0x3fe60f71a69ed9a8	0.6893852476412592
182	0x3ffcd8071854e9a7	1.8027411413628245
183	0x3fe7cc60aab5c23d	0.7436984380893318
184	0xbfd85328035e01b1	-0.38007545784787583
185	0x3fd33643ffb53d1b	0.30018711062889886
186	0x3fb468eb97455fc5	0.07972595637454478
187	0x3fc33a900b65163e	0.15022469097509544
188	0xbfec015185248d04	-0.8751609421200617
189	0x3fc2965a7414e7bd	0.14521341960954529
190	0x3fe85cb76cb4718d	0.761317932428527
191	0x3fd369ef8be8a2b9	0.30334080374681666
192	0xbff53e9082d542b9	-1.327774535242652
193	0x3fef808c9c0f7486	0.9844420478872429
194	0xbfe0c0ed3c561cf2	-0.5235506227917581
195	0x400086a3b271b468	2.0657419148397373
196	0x3fc34eb303a63c57	0.15083921125594443
197	0xc00231ac43bc19d9	-2.2742543498782024
198	0x3fcaf554124b1b98	0.2106118287394707
199	0xbfc6da29c4bd1fcb	-0.1785328112257488
200	0xbfeee4380a3a7db0	-0.9653587531828887
201	0x3ff82579aff0b0cc	1.5091492531455968
202	0x3fa33d8412f41def	0.037578704179448745
203	0xbfe7c00663a48ff8	-0.7421905466221679
204	0xbfd7bd64ed8b0690	-0.37093470761838265
205	0x3fc4090f9266b192	0.15652651451581484
206	0x3fe6d41b83a9e8b2	0.7133920260960365
207	0xbfda1cd743326111	-0.40801030695139767
208	0x3fd0e10affe03431	0.2637355326449465
209	0x3fe4f342e0d98162	0.6546949760050149
210	0x3fdff347b87f6d68	0.499223642514798
211	0x3fef0e2a70696b23	0.9704792209189218
212	0xbff67e5ce99a12ed	-1.4058503270218197
213	0x40033d07a594684b	2.404799741355452
214	0x3ff646e4cf23d2e6	1.3923080531505376
215	0x400341de7533da15	2.4071625858735026
216	0xbf9d5614be9f0099	-0.028648685583676146
217	0x400a47319dc0a119	3.2847626041804117
218	0xbfc68424b47eb03f	-0.1759076958964005
219	0x40016043e3f93a10	2.1720044908936487
220	0x3fc6b67f9858fa93	0.17744440974089012
221	0x3ff910858df38e17	1.5665336174942064
222	0xbff3a271160e11b4	-1.2271586286088736
223	0x400255f0cfdbef6c	2.2919632185930165
224	0x3fe845f1bd567ead	0.7585381219868929
225	0x3ff6b6ce18612f08	1.419630141480356
226	0x3fede7cea8b2f3f7	0.9345467848685293
227	0x3fd8f7da3bbf5f9d	0.39012771448823874
228	0xbff5879129463c40	-1.34559742090984
229	0x3fd120c6b9946a3f	0.2676255047132691
230	0x3fdd7aa5b1fe46dc	0.46061079389720105
231	0xbff3fd2aa26c3921	-1.2493082375181717
232	0xbfe1be156c9f231b	-0.5544535752788734
233	0x3fe1d5ffaee5dffe	0.5573728958106583
234	0xbfd0747b1c1c8f9f	-0.25710942979116597
235	0x3fc90e637d72aa5e	0.19575160622965176
236	0x3fd9994dd4fa7fe9	0.39998193548853905
237	0xbff456e7e359a8d4	-1.2712172394627048
238	0xbfff7b7b7fc1f8c1	-1.9676470747504455
239	0x3fb6a5262f2db7dc	0.08845747615643468
240	0x3fcc5f6b161a2ecc	0.2216619356080315
241	0x3fec4dafb56d0fd5	0.8844831984974869
242	0x3fde5446d36ec3c3	0.47389383933755996
243	0xbfdad42daeaaed16	-0.41920034463301314
244	0x3fd3af152e537afd	0.3075612022784496
245	0xbff324267cd6fc76	-1.196325767188481
246	0xbfb7aa3474f10177	-0.09244087080970141
247	0xbfecb0a504ad5e8c	-0.896563061843112
248	0x3fe4ae3b6b5df4ba	0.6462685677539846
249	0xbff705f4ad2c707e	-1.4389540447801035
250	0xbff0251081c82a15	-1.0090489453892861
251	0x3ff1ffcffc3bf700	1.1249542096042546
252	0xbf8ccc3a93361063	-0.014061410539177815
253	0xbfae76ea02568d47	-0.059500992570316096
254	0x3fe9afd82ef23eca	0.802715388957915
255	0xbff4df936e4a20f4	-1.3045839603601594

w4 f8 [39, 1]
0	0x4013c562669fd503	4.942758182053924
1	0xbfc4673651c8366c	-0.15939978593125959
2	0xbfe4f3b92991a53e	-0.654751378239929
3	0x3fe251dbb0b129de	0.5724924517647272
4	0x40053a25314b1f0c	2.65339125166418
5	0xbfd0fddcc047bbdc	-0.2654945256935528
6	0x40111aae27cb2efc	4.2760549752963435
7	0x3ff52a05234bb610	1.3227588061084852
8	0xbfe2bd7cb17423fc	-0.5856307474033424
9	0x3fff370864cae5d4	1.9509357392511122
10	0xbfff5e5565fa9c7b	-1.9605306609680884
11	0x4007fba637dd2dab	2.997875629842118
12	0x3fd96ce86dcb0410	0.3972722122380796
13	0x3fffa2262d2b9ac8	1.9770871891466175
14	0xbfca91d8606d4daf	-0.20757584293697337
15	0x3fea30f5d601b1bd	0.8184765987221493
16	0x3ff7ce15329b9f1c	1.4878131844397506
17	0x3ff5e1c0783f2265	1.3676151940473116
18	0xbff5604ac5117b0d	-1.33600880603598
19	0xbff6870d97fbc789	-1.4079719483238213
20	0xbff6167be8d85d0b	-1.3804892631067698
21	0x4010b5e7e25105c0	4.177642379946917
22	0xbfef0eb0d3bf264f	-0.9705433021237669
23	0x3ff099940e0598cc	1.0374947116593374
24	0xbff844b3d1338005	-1.5167730495377338
25	0xbff0b423c3b484c9	-1.0439794201595751
26	0xbff1cc1162cd73fd	-1.112321268031564
27	0xbff668c6171ca574	-1.4005795386131838
28	0xbff3a1bf8745cf6a	-1.2269892963494962
29	0xbfeb8f51e1c0cd31	-0.8612450989952888
30	0xbff01914c0100a85	-1.006123304600494
31	0xbff724abc41ad1a7	-1.4464528713552711
32	0xbfeefceeaf9bf82c	-0.9683755330913804
33	0x3feaac665fc7fe97	0.8335449095465773
34	0xbfee01e8d0741f97	-0.9377330848083031
35	0x40207a9305863f3c	8.239402935636114
36	0x400191fb88f5d5e0	2.1962805461905504
37	0xbfefadf0cbf8b93e	-0.9899829849071364
38	0xbfe15ffa7c85fd56	-0.5429661209199519
