Code/Models/run_20251105_110618/model_hidden_3_width_20_act_tanh.npz (npz, 8174 bytes, 4 tensors)

w0 f8 [2, 20]
00000000: 3468 53ff 7c55 10c0 09e5 4628 553e 17c0
00000010: 0e1e 9214 ca06 f03f f7c9 89da 6311 1fc0
00000020: 422f 2ce5 bee6 1040 8d92 8eda 56f2 fd3f
00000030: 8237 c04a 85b0 e0bf 4e8d f209 ef05 0540
00000040: e15a 1929 85f2 f8bf 18c6 459d 5919 1f40
00000050: fbc9 fe26 c774 9d3f a3a9 108c 00b8 1840
00000060: 5a22 9ced d27f d9bf 4d60 0cbb e9d4 13c0
00000070: 3f5c a385 e926 fdbf 0653 ec06 4224 fabf
00000080: 5f90 0f2d 0c09 0040 9059 e965 5310 f5bf
00000090: 375b 8924 c009 09c0 8f51 712c 8e51 0040
000000a0: 1e4f 7cdd 8ffd d9bf 084b bd2c 3316 cabf
000000b0: e7d3 9be6 6e38 03c0 1d46 9c17 cb69 0740
000000c0: 8835 d7ff 8747 d1bf 6b21 c050 3f5b e4bf
000000d0: 3198 ea70 96b6 0340 09ab 4d59 5ec0 f0bf
000000e0: c9ec 0375 45d5 0040 d4d1 7eb8 3f24 00c0
000000f0: dc68 34a1 59c3 ea3f 2811 8a87 a64b 0fc0
00000100: 81fb 7d3a aa11 ec3f 1fed 2a83 0d79 d9bf
00000110: d279 57f0 f355 f23f f8de 3909 c509 cd3f
00000120: b1a6 d49d 7b57 c5bf 21b8 fc39 e5fc df3f
00000130: 8fba e6c6 5996 eabf e04b 6194 2b56 debf
-4.083484639611971 -5.810871724440639 1.001657562594008 -7.766982474002808 4.225337582418264 1.8716648614291984 -0.5215479335763435 2.627897336687659
-1.559209023039948 7.774755914100318 0.0287657849837135 6.179689587132461 -0.39842675403682437 -4.957922861700422 -1.8220000477065381 -1.633852030795596
2.004417755162691 -1.3164857846182692 -3.129761014405996 2.0398219558794106 -0.4061011946625842 -0.20380248722593586 -2.402555276518331 2.926656898933983
-0.2699909208721114 -0.6361385895880124 2.464154131087547 -1.0469649780667984 2.1041363851378247 -2.0176996625616344 0.8363464497117792 -3.9119387234697065
0.8771563665794561 -0.3980134755072004 1.1459845913264997 0.22686064672938477 -0.16673226553512202 0.4998105112343883 -0.8308533558645922 -0.4740094136261046

w1 f8 [21, 20]
00000000: 00e1 0f1f daf4 fb3f 93d7 5a12 9794 0bc0
00000010: b4c9 8c6f 9c03 e2bf 5180 77f5 7255 1340
00000020: 336e bdd1 987c f3bf fadd 5d9a 1935 fd3f
00000030: 0704 2ce0 74af 0040 3815 ca57 95cb ef3f
00000040: 7791 7e10 7b3d 12c0 bdf4 b6e3 329d d8bf
00000050: 7e8f bda2 a39b f9bf 7f08 1887 6533 2640
00000060: a624 6337 b39d 1bc0 8a6d 231b 5963 1140
00000070: 7490 5a0a 7d89 03c0 76e8 5a76 3eda 0140
00000080: 6bbb d3d4 fcd9 1740 d1e0 960d 13c0 fb3f
00000090: cc24 3a6a 7016 10c0 d9b1 58ee c23f 03c0
000000a0: cdcd 9fbe 47ae 0a40 90cf 9cda fa13 f83f
000000b0: ec86 9fd5 2c59 f43f acdc 635f 8386 09c0
000000c0: 5cc3 cd87 9ef5 ecbf 1d26 d505 0361 ae3f
000000d0: 3b80 0779 0a59 0340 bcc5 827f 7203 e4bf
000000e0: 9a7a 9f4f 033c ff3f d257 f389 7df7 fabf
000000f0: 34ed 8ff1 8311 0240 3cf7 bccb ce25 0ac0
00000100: 419a cea6 0625 ed3f 804c 5d17 4d65 b13f
00000110: 0a2b 3671 36cb e43f 46ab 4204 5b5f f93f
00000120: c832 d4d0 d274 f0bf 992a 9ab5 09bf e63f
00000130: 94ee a08c 2ddc d33f 41fc 7eb8 eaed e3bf
00000140: 405b 5f7e 7665 f93f b0a2 782f e17e ea3f
00000150: 92cc aad6 0a9e ff3f acc1 c457 b89a 00c0
00000160: 1d6f dc85 9cb5 dd3f b6f3 1da5 f6f8 d93f
00000170: 6156 4abb 241e d7bf 22ae 4585 7b9d 1440
00000180: 37bb 3afc c0a1 f23f c001 2423 4575 0040
00000190: d37c 7eb1 fd8f f1bf 73a0 f819 0c21 15c0
000001a0: de2b e53b de32 1040 8bc1 146c 392d f03f
000001b0: 285c 33bf 0c61 e23f 8915 23ea f055 fa3f
000001c0: 6813 214f 2748 fbbf ee91 1572 574e fd3f
000001d0: 6b7a d018 8fb5 fd3f 0292 abae a95e eabf
000001e0: d39e 4e38 a04d ed3f c8a9 114a b0fb d03f
000001f0: fcfe 8e86 7e1e 1040 2938 0b66 df25 9e3f
00000200: ba75 3d45 45a5 f33f ea71 0886 6d34 0c40
00000210: 6556 ec86 4018 f23f 9679 64f0 d60b 0540
00000220: 5552 0bcf e081 e93f 889c c528 401f f33f
00000230: d0a7 50dc 448a 0140 ce39 b5ce 9ed7 e4bf
00000240: c430 6417 8187 d4bf 3ba7 9738 e81a df3f
00000250: 0889 0fbf 1bba ed3f 9fcd c9ba 6cc7 0440
00000260: e78e fd50 9013 00c0 b25e 9467 f7c5 e53f
00000270: 117c 3486 3be3 d43f e5e4 81e6 845c e9bf
00000280: be17 2699 0106 b1bf bf0d 4ea6 e8f5 edbf
00000290: 95de c20e 0ee4 e2bf d78b 4f89 139e f43f
000002a0: 4f5b 866b 2c37 e03f 6f2c eeec 31c3 f8bf
000002b0: 2ff3 6815 05a8 ffbf 65a2 3196 2b5e fe3f
000002c0: 7b88 deac 21ef f4bf 0343 b59d 49d3 f13f
000002d0: 0cfe 7ee8 7475 ca3f 7d4e c084 bb01 04c0
000002e0: d510 fc18 acbe 04c0 05ba cfa0 2ff8 a8bf
000002f0: 93b7 31a9 ce74 bdbf 9279 57f3 6611 06c0
00000300: ac4d bc47 32d2 04c0 41a3 2863 f2a4 d63f
00000310: 1419 d3b8 2cea f4bf b25f 01b4 e648 e6bf
00000320: d203 17ae 9fb7 00c0 8309 fee3 206b f7bf
00000330: 0618 3938 46bf e03f 9463 943f 1791 ea3f
00000340: d460 0492 b192 f53f a200 46ab 57ff f0bf
00000350: 1f7e 1228 11fc e7bf faef 9ae8 35fe 03c0
00000360: 73cd a24f 591b f4bf dbc4 d5d2 65b5 e7bf
00000370: f8df e2d1 332a ca3f caf5 9e61 576e ff3f
00000380: e1ed bd7b 9943 babf 5006 0743 c55a f5bf
00000390: 4458 26c2 989a 0040 4686 789e 7f3e d83f
000003a0: c95c 85e0 f24e 0040 0933 b1ab db40 e4bf
000003b0: bee5 bff6 4cfb ecbf 9a37 6aa4 2a95 fb3f
000003c0: 97f7 da20 7097 833f 9b11 71ac b3bf 0040
000003d0: ba18 10a6 890a e73f 9377 31c6 9949 0640
000003e0: 2851 73d6 ae19 01c0 14b0 a214 3c08 0240
000003f0: a503 3b1c a802 f63f 2780 cd71 2701 0840
00000400: ea09 4e6f 3b36 d03f 6610 1948 8272 a83f
00000410: deb2 89bd b2ba 0040 feeb 422e cde8 07c0
00000420: bbc6 c907 5177 10c0 92e0 770b b8f4 e83f
00000430: 12ea 8f9b 0fc3 db3f 7bb9 df9e 699f f93f
00000440: f340 2bc3 096f e23f fc91 4164 fda2 fcbf
00000450: 29a2 9b58 1779 f23f 3d1f 412b ef5b dfbf
00000460: 89bc 9ec7 b179 a4bf c6ce 3d89 4b88 c5bf
00000470: bd08 1b12 df79 02c0 f580 a68c 9e80 f43f
00000480: d78d f010 a34c c83f 6e1b 9a08 c24d 04c0
00000490: ed4e 36ed df89 03c0 42ca 4947 7638 dbbf
000004a0: c47f 860f 4ce5 ddbf 3e38 262b 54f5 ddbf
000004b0: 5bc1 dcdb 4e14 f7bf f77b dc3a d7cd d23f
000004c0: 74be 6e06 1da6 f9bf d727 fcf5 d055 f03f
000004d0: 1993 01fc f2e4 e1bf c1dc 11ab c407 e33f
000004e0: a29e c02e 9aa1 fc3f 1775 21a2 9ba7 c0bf
000004f0: 9f2e 3a6c 38df 8ebf f247 4090 c762 f83f
00000500: 4a64 4641 fd22 febf d710 b0b5 5245 10c0
00000510: 3fd7 5207 2640 0cc0 1c94 8e5c 5dcc e1bf
00000520: 16d3 8e96 8ce1 d7bf be72 7747 69e6 db3f
00000530: 7e9f aadc caf1 f13f c60d f125 5051 14c0
00000540: 1ade 980f 3ddc d03f 2d48 5f32 3d90 f83f
00000550: 8692 c084 9f2e dabf af74 58a4 ee78 f63f
00000560: ff3b 5586 23c7 dcbf ed6b b6f6 8ab7 e5bf
00000570: 8394 9337 456e f8bf e28e 10ef 9384 fdbf
00000580: 1d6b 2391 fb50 0c40 83f9 4bb3 e2a7 06c0
00000590: 0d21 5a93 1138 02c0 ac45 9082 d0c4 fc3f
000005a0: 504a 9efb a758 d73f d6ac afd6 b56b ebbf
000005b0: 68a8 4f56 4419 fdbf 5aef 447a 12b5 0cc0
000005c0: d977 6e32 c96f e3bf 68e1 6938 d2bf f9bf
000005d0: 57b7 c2e2 805b 04c0 84ef 8f75 7dc8 e23f
000005e0: a8b5 e329 8d31 e4bf d43d fff7 06a1 fbbf
000005f0: cfe2 4723 b620 04c0 cfce f9c9 b2bc e63f
00000600: 596e 77ac 9c97 1140 fac3 eb18 a778 d3bf
00000610: 908c 4783 85b2 c6bf ed98 d22c a656 02c0
00000620: c6a6 fe90 f483 0040 efec ed36 cc38 d03f
00000630: 6fe5 d56d d3c9 fbbf b54f fa2f 48fe ec3f
00000640: 1e5e 0618 902a da3f 52cd a371 3186 dfbf
00000650: 9dde 138d 9db2 03c0 91b1 4c22 36eb f83f
00000660: 9286 744c 720b 07c0 515d 4d0f 1751 ab3f
00000670: a991 ae2f 617f 0040 511f 2443 f77d ccbf
00000680: 7dfc 8608 8f67 e03f f658 3c50 7c26 d53f
00000690: 8f83 8221 6bd8 0a40 2071 8f2a ec6f f83f
000006a0: e8d1 465c 50d7 df3f c700 1103 580c fabf
000006b0: 6fa7 4be8 6cbe e33f 4d17 38c7 ecfe fe3f
000006c0: a048 23e5 a870 f53f e60d 50d8 11bd b6bf
000006d0: 4a8c 9921 43fa c9bf 4f20 caa5 1101 f5bf
000006e0: 2f39 ff3f 861b f93f c634 236c d483 ef3f
000006f0: 23b2 6eb9 42d9 e33f 4392 3669 3ba6 f3bf
00000700: 4dd5 bd4b 814c f8bf c83d 576f ba24 0140
00000710: 51d2 b2c4 5186 b33f 1107 bf43 d186 0540
00000720: 4e77 36b1 41d1 d53f 3845 fa09 7162 0640
00000730: d2f6 7453 d307 89bf 1af5 db71 2fe0 febf
00000740: 32cc 82cd 3e58 f4bf dc3a 474e 111e fc3f
00000750: d936 f696 c45e c6bf edf4 274e f78c c33f
00000760: 21a0 a657 a2b8 fdbf 1f6e 6f32 99dc e23f
00000770: fcd3 4393 169b e9bf 6c7a 04bf 05f7 edbf
00000780: b6bc af26 7f6a b0bf ca00 6e51 266c 9f3f
00000790: 3e32 044c cd9a f33f a6a2 b259 037e 08c0
000007a0: 21fc 2f56 508e fdbf 3b1e c98e 2a34 01c0
000007b0: 4165 ea93 babb 1140 55d7 0ff2 4b48 f2bf
000007c0: 4d6c 5b30 e403 c93f cc31 df89 4c5d e2bf
000007d0: 0bce c669 6f10 1740 8784 d72c 598e fb3f
000007e0: 57d0 0ecd b079 0940 31fa 3359 0366 f1bf
000007f0: 50ac d766 a739 d63f 38ef a644 0be0 f13f
1.7472783292160443 -3.447553771397858 -0.5629408053121581 4.833446345728661 -1.2179191773383422 1.8254638700435621 2.0856721414024864 0.9936014856945468
-4.560039766049491 -0.3845946525360196 -1.6004978520440711 11.10038396995901 -6.904003968645304 4.347019599950167 -2.4421330269706747 2.2315644499295173
5.962878537581541 1.7343931704363522 -4.0219132040012475 -2.4061335202043037 3.335097779514149 1.504877904849284 1.2717712731031794 -3.190680260882422
-0.904982819787715 0.05933389135550391 2.4184770064748853 -0.6254208078809635 1.9521515951416064 -1.685422457570429 2.258552443699637 -3.268460838035848
0.9107697732877754 0.0679519826929198 0.6498062335170698 1.5857801596091163 -1.02852136205472 0.710820059482404 0.310313594181687 -0.6227925876081671
1.5872712074685325 0.8279882361576565 1.976084555190742 -2.075546918575318 0.4642096812474266 0.4058205234976485 -0.36121481218410706 5.1537915061740325
1.1644906857215582 2.057260775123922 -1.0976540501940704 -5.282272725868199 4.049675880301008 1.0110410901944273 0.574346898497315 1.6459817071894085
-1.7051156130775897 1.8316263634125067 1.8568259209929703 -0.8240555202033308 0.9157258128879796 0.2653618548708008 4.029779531934533 0.029441347697506757
1.2278492645922214 3.5255995246245577 1.130920912784313 2.630781057420971 0.7971042674858589 1.195129546418487 2.192514153682147 -0.6513208424819881
-0.3207705238753642 0.48601727987862703 0.928968308606529 2.597375354083581 -2.009552605379088 0.6804158232725597 0.32636917215308 -0.7925438406083712
-0.0664978979967534 -0.9362681625502133 -0.5903387344651089 1.2885928500843329 0.5067350483030654 -1.547655034550896 -1.9785204731299009 1.8979907862614251
-1.308381724615656 1.1140838776083803 0.20670949318262932 -2.5008459445178333 -2.593101687614857 -0.04876850927381685 -0.11506358748166993 -2.758497143847486
-2.6026349644032134 0.3538175552699166 -1.3071715564452164 -0.6963990703325094 -2.0896600342534635 -1.46365441379075 0.523348913012115 0.830211280993455
1.3483138755600992 -1.0623394670838384 -0.7495198996220472 -2.4991262600215096 -1.2566769705561824 -0.7408932798263338 0.20441291569090914 1.9644388020818604
-0.10259398718874692 -1.3346607797870043 2.0754866760208035 0.3788146064344783 2.0385491886805522 -0.632917247139262 -0.9056763476684677 1.7239176199395616
0.0095661888147978 2.0936044189458705 0.7200363391318867 2.78593783224546 -2.137540507692524 2.254020844664419 1.3756486037020548 3.0005635157431416
0.253310068794376 0.047748633671773885 2.091161232723933 -2.988672601144116 -4.11652004403157 0.7798729156484276 0.4337805766259929 1.6014190870297103
0.5760544597524401 -1.7897924343352534 1.1545632802245882 -0.4899862215429385 -0.0399909549881779 -0.16822189522974024 -2.309507504892365 1.2814012045055823
0.18983877493984266 -2.5379677459745187 -2.4423216373632983 -0.4253211685346835 -0.46712018505240516 -0.4680986806278077 -1.4424580181476674 0.29381352184458315
-1.6030550242684543 1.020951233748283 -0.5591978952403195 0.5946982709127938 1.7894536806360652 -0.13011498848474254 -0.015074196627458845 1.52411609981618
-1.883542304020255 -4.067698325034335 -3.531322533813096 -0.5561968620064621 -0.3731414289753031 0.4359381864467585 1.1215313548836714 -5.079407303655392
0.26344229243429285 1.5352146117843504 -0.40909564937673115 1.4045244617221149 -0.44965446585132435 -0.6786551302533305 -1.526921479316372 -1.8448676432098456
3.539542325871834 -2.831975365406096 -2.2773772727852077 1.7980504131449875 0.3647861439905329 -0.8568982308474016 -1.8186686870126554 -3.588414149502495
-0.6073957428923179 -1.609331341138466 -2.5446794238732013 0.5869738861215272 -0.6310487573770631 -1.726813286531855 -2.51597240031365 0.7105344719734265
4.398058600224965 -0.30423905786216177 -0.1773230448735359 -2.292309141327783 2.064431317111345 0.25346665729712375 -1.736773900075004 0.9060402810159675
0.4088478312127978 -0.49256549928323523 -2.4622145673454967 1.5574246730639951 -2.880589101129609 0.053353043191857304 2.062197086825297 -0.22259417322515643
0.5126414457844387 0.3304739745666575 3.355673085971325 1.5273248350632187 0.49751671801939645 -1.6280136222631414 0.6169952904722161 1.937237528037673
1.3400048208900799 -0.08882247477600166 -0.20294989719977458 -1.3127609707026016 1.5692198276406761 0.9848425018368736 0.6202710744597123 -1.2280840024842667
-1.5186779936460255 2.1429337213992063 0.07626830150804521 2.690828828112793 0.3408970099061336 2.79806716723456 -0.01222195719185085 -1.9297327468514767
-1.2715442683954845 1.757340722822554 -0.17476708766155616 0.15273944202628034 -1.857576696764234 0.5894285187782237 -0.8001816631573315 -0.9364041071710978
-0.06412501043790794 0.030685995788645205 1.2252934426679896 -3.0615298278465444 -1.84724458376855 -2.1504717974783296 4.433328925305717 -1.1426505523245016
0.19543125497043193 -0.5738890354928627 5.766050007590375 1.7222530128131284 3.1844192524095365 -1.0874055370801552 0.3472689155884767 1.1171982461664367

w2 f8 [21, 20]
00000000: 9bae bffa edb1 a6bf 3212 7378 dae6 0ac0
00000010: d489 a899 57fa bdbf 201e 4ef8 91cd 00c0
00000020: 3292 0b7d fbd2 0ac0 7e8e 1dc4 f049 05c0
00000030: 08e8 7246 17f9 f43f 81bd bcbd 0512 ff3f
00000040: f668 410e 5e13 21c0 0837 c7ff 0678 e03f
00000050: 2157 d88a 046d eabf a323 6739 ef81 d83f
00000060: 1eae 866d cc95 2140 70fa 0e13 79c2 2fc0
00000070: cb93 d1e6 ad8b debf df43 11e9 4730 f33f
00000080: 0ccd af1b 0029 d4bf 543d e10c 34e0 d13f
00000090: 724e f30a 630f 1740 0e65 081e 2d1c b33f
000000a0: a218 ef54 9cee eb3f fc66 fd21 1aee e2bf
000000b0: f890 7c73 0dd1 eabf 342e dba0 7ebb f03f
000000c0: 3f83 1b01 60fa f63f 7a82 1661 ab28 e63f
000000d0: bb59 1741 95af e9bf 9355 53fb 63cb 05c0
000000e0: 7c5e fbcd 8e92 dabf 328a d981 d2da f5bf
000000f0: 7af8 c2f0 419e f83f 0827 fdcf 0581 f8bf
00000100: 3f62 8a38 f99a dfbf 9be9 a364 fddf fa3f
00000110: 6e2f c456 cf36 fcbf bece 5758 d50e ecbf
00000120: 0878 f2e4 807c cd3f e572 153e 81fc de3f
00000130: 5934 4e7e dd49 f93f 2f68 b6b7 591d fc3f
00000140: 9f61 352a c5a1 f43f 182c 42e1 8ecc 853f
00000150: 2337 4ac2 44b3 a1bf 2d19 1b51 33c9 a1bf
00000160: 8264 19ce 18f7 ff3f 8515 b532 e041 e93f
00000170: a70a 0261 a1b5 ff3f 5994 87d7 40d1 f3bf
00000180: c9ad 03fc 1577 e9bf 8e28 2be5 5a6c d03f
00000190: e48c f8c4 b1f4 ac3f edba 4e42 3cba e13f
000001a0: 5047 318f 9bda eebf dde1 9500 d747 fd3f
000001b0: 6a83 1b0f 56f6 f23f 3fac 6606 26c6 f0bf
000001c0: d3f6 ea9f f62c f3bf 69f5 20cc 3241 d63f
000001d0: ace5 0d21 1905 e6bf b5fa f595 ce39 e23f
000001e0: 891a eb6b b86c e2bf a226 a140 db89 eebf
000001f0: 95a6 bc63 3e29 d43f a911 1737 5567 e1bf
00000200: 6a03 810d 51f1 02c0 4fbf f5de f87c f2bf
00000210: b56d a46f a3a0 c43f 13c2 a3fd af46 d2bf
00000220: b5ba 94ed 5b2e ed3f 6ce4 c948 490d 0f40
00000230: 689a 4077 7b35 eb3f a2ad 6d2b 7fbf 0740
00000240: d15f 82e9 2abe fdbf 8ff2 0963 e1a2 ba3f
00000250: 947f 0006 e7af eb3f 30eb 840c 2327 e03f
00000260: 2a10 6fd3 1842 f0bf a503 0089 139d f13f
00000270: cb02 6025 afa1 f93f a454 3c47 be68 f7bf
00000280: 6798 9741 8fbd d4bf c375 6a4e 988e e23f
00000290: e3f3 5a74 7cb8 d1bf df8a 1a6d ad11 f83f
000002a0: 3c6b a71e e3f2 ec3f fb87 034d f357 f63f
000002b0: 6402 83ad 13a7 fd3f 4710 753f 15de ecbf
000002c0: 8441 d557 99ff d3bf c749 8acc d76b f5bf
000002d0: 3f8e 330f 7007 d93f bfd7 753d 6f7b 01c0
000002e0: 9660 7edf a31e ce3f 4a61 06a3 4e29 e5bf
000002f0: ce81 76e1 7f6a d8bf 1124 d56e 3753 f33f
00000300: c4be 49d6 5eb7 c5bf b124 f8f4 9702 c7bf
00000310: 080a 1f55 03a5 ef3f e5a1 558b 1c73 f23f
00000320: e3ef 9395 9bb6 e23f f7a5 83a4 7b40 fa3f
00000330: 6206 8679 8198 e9bf d2eb 137b e342 f1bf
00000340: 6197 e42f f32d e53f 26e1 4130 e6cc ef3f
00000350: 4a6b 075d 878a 0b40 3016 b711 d3c1 fdbf
00000360: fa59 c75f 9be6 e43f 2a80 e380 de0b e43f
00000370: c348 3ad9 21b4 c2bf 0b58 0c9b e583 abbf
00000380: fbfe d6c7 edc6 eebf d45f 51a0 a5fd e23f
00000390: 5746 1677 d2c1 f23f a1ff ff9c 8146 f8bf
000003a0: ff45 f706 aaa7 b73f 96a5 732b 60c2 f2bf
000003b0: 6435 9640 8de5 cc3f 8894 fb1f da78 f3bf
000003c0: fd8b 12be 1a01 03c0 f287 a86d caa8 ed3f
000003d0: dc01 f3c5 8ffc e4bf e15f 8891 cc39 f13f
000003e0: c01a 908f b04e 01c0 6300 248e 34b6 f6bf
000003f0: 0760 3acc 11bf d6bf 0b46 ae0e 8cb3 e53f
00000400: 33ff a7b0 e46f d2bf 6ecb d282 1bbc efbf
00000410: c10c 5891 7147 b8bf e640 274d 456f 0540
00000420: c59a d63d 8341 c2bf 48eb 116a a6ad f1bf
00000430: 0708 7f09 5401 fd3f f15f 6955 3cb9 e2bf
00000440: 3019 1528 da60 fbbf edf1 ecd4 8536 e33f
00000450: a69e d3f8 18dc 0840 879a 00ab 3c2f e6bf
00000460: 5e47 014e 581d e1bf 344f 00cd 960a 0bc0
00000470: 9d60 e16f 365a e03f 8839 78fb b777 e43f
00000480: 934a 7796 7272 e1bf b5fb fae1 5e1c f1bf
00000490: 20d1 7513 a3a3 f1bf 43fd 4bc3 9c03 d73f
000004a0: 6104 981f 6e98 eebf 8a8e 8c0e bcf2 a8bf
000004b0: e2e4 4e95 fe38 00c0 c506 4335 2bcb a2bf
000004c0: 302a 61c9 f62d d83f 93ae fa7f 3f1f d4bf
000004d0: 9a37 c101 3137 fe3f 1dec d8e6 107b d83f
000004e0: 1e15 4baf e28a d2bf 6915 fa82 6a18 0140
000004f0: 7da0 7921 8dd3 dc3f b90d 3d26 fa97 f4bf
00000500: 20bf a19a 1af4 f9bf 9ec6 73bd 98b8 f43f
00000510: 93dc a71a b689 e23f 9599 58aa 168e f53f
00000520: 664c 289e 3bb8 f53f d41b 631e 9fd3 d6bf
00000530: d697 6c8f a7c0 0440 2ccb 7566 685a f7bf
00000540: dad2 5b84 253a fd3f 50c3 db9f d27c e8bf
00000550: 450b 9dc7 0606 0140 309a 6f2c 735b 02c0
00000560: 6e5c 13f0 4644 00c0 61a1 9234 556c 0040
00000570: d6d0 2466 e6b5 eabf dba5 748b 5ce7 cbbf
00000580: f403 80f0 cf1d 0240 9a1c 29aa f011 fabf
00000590: 3f7b 8fb9 4798 fb3f 64ce 09ae f15d f83f
000005a0: c9b4 4984 ca8f d1bf 0eb5 8665 6c70 e53f
000005b0: 1277 0133 d18a aabf e399 a21c 8851 f9bf
000005c0: 6827 c54e 866a c23f 5c25 10f5 1e43 fabf
000005d0: 3084 a267 3804 e63f ac76 8c3f 94d9 c03f
000005e0: 2676 adc2 a787 f13f 548f acc9 9f16 da3f
000005f0: c9ca cb70 193d 6e3f c55b 34be 1de4 ea3f
00000600: 44f0 33a6 444c b83f 6130 40c2 5d81 fd3f
00000610: 1147 e721 41c7 f3bf 8f66 e71e 2d74 e33f
00000620: 3604 2579 b0ff e7bf 6cf4 8c62 03f2 ce3f
00000630: accc 2b1a 6e25 f93f c922 b999 7d70 e6bf
00000640: 00ba ab77 42a2 05c0 77a5 0ff1 c7f1 ccbf
00000650: 5164 38b7 f9a6 c43f 35d5 a93b b2bc 05c0
00000660: 2896 850c 0870 fbbf ca53 b409 06ba f8bf
00000670: f635 0855 0850 d0bf 20b5 4714 01e0 ebbf
00000680: 18a0 aaac 50c0 d93f 8753 d017 9a26 c6bf
00000690: 50ec c970 4856 f23f 99e1 94c0 a699 f0bf
000006a0: f7f1 1522 e070 d53f 9346 27a9 1a92 f0bf
000006b0: bbc3 a4b3 eed3 da3f 7a3b cb9c bffe d03f
000006c0: 6a4e 16f4 efde e63f 1b04 d67b 3555 f2bf
000006d0: 301e 6799 59e5 7cbf 1526 1adb b735 d7bf
000006e0: b783 2c0c f0c7 ebbf 4017 b658 3b4a 81bf
000006f0: 79b9 399d 3d34 f0bf 66a5 bedf b946 ea3f
00000700: 328d 8a50 db17 e43f 78f9 8678 c4bd d93f
00000710: fd99 8244 fa7d e23f d95b f201 9f08 a2bf
00000720: 99e2 7c22 9af0 f73f 7317 ebdd 1dd0 e83f
00000730: d748 d9bd 4738 ecbf 99a1 2192 40ae d2bf
00000740: ee59 4a1c 98c0 b93f b792 c052 7549 f3bf
00000750: 3475 db11 0d6c fe3f 374a d4a7 0ab7 dcbf
00000760: 46de bf0b 6140 d7bf 426f fe2f 2768 fe3f
00000770: b1e1 e7ff d71d ce3f bae7 eff6 eea0 f3bf
00000780: ac24 00f5 c17a f5bf 5a84 a765 fbf9 b6bf
00000790: 2fc9 c8a1 119a c8bf 07c4 25b9 b37a 01c0
000007a0: 4a21 44f9 e4dc e2bf 1e59 cddd 4856 dcbf
000007b0: 7d41 38a0 d3f2 f8bf d4cd ca75 b4e4 e0bf
000007c0: fad7 0bb5 932b 00c0 e90d 770b 8b05 edbf
000007d0: 500d 75ba e0fa e8bf 030d a8ef d0e5 fcbf
000007e0: 140b cfb5 d20f c13f be30 cbe9 a902 b23f
000007f0: 8b79 3105 9918 cb3f c521 87db 665a c53f
-0.044326245173434496 -3.362721386920634 -0.11710116864609371 -2.1003760718192694 -3.353018738666173 -2.6611037560958826 1.310813212576706 1.9419000064479806
-8.537826962933178 0.5146517749469419 -0.8258078300302466 0.38293057065726027 8.792575285616348 -15.879829974726107 -0.47727534809956457 1.199287329120345
-0.3150024671915197 0.27930928476140093 5.765026255703207 0.07464868529531918 0.8728772791735262 -0.5915651954521475 -0.8380191093060878 1.0457750590748107
1.4361267131100275 0.6924645324944116 -0.8026834746659043 -2.724311793785725 -0.4151951800863356 -1.365923411584515 1.5386371044874338 -1.531499683815527
-0.4938338329461977 1.6796850138913217 -1.7633813275633332 -0.8768107152413547 0.23036204508838432 0.48416167319173403 1.5805334981735284 1.7571656395216555
1.2894946717043252 0.010644069909423279 -0.034570835797337794 -0.03473816266118699 1.9978263903379063 0.7892914762857549 1.9818433560728097 -1.2385872286916053
-0.795786850181167 0.25661346797699813 0.056554370207118315 0.5539838118619095 -0.9641855046013266 1.8300390265341016 1.1851406660209372 -1.0483761072198516
-1.1984773871221719 0.3477293961949131 -0.6881223340598601 0.5695565155909522 -0.5757715328007446 -0.9543281805319632 0.3150173162453965 -0.5438638759592794
-2.367830377101588 -1.1555107793210089 0.16115229560169345 -0.28556442040920266 0.9119090690854451 3.8814874350178368 0.8502785996577815 2.96850427559339
-1.8589276429611241 0.10404785793248038 0.8652224652505418 0.5047774548068897 -1.0161369570860281 1.1008487083019898 1.6019736728632548 -1.4630720884936546
-0.32406979947552944 0.579906609683967 -0.2768851410181112 1.5043157827246245 0.9046493147573993 1.396472264132625 1.8532902505686701 -0.9021097411537163
-0.31247552468723705 -1.3388288488246063 0.39107896313200635 -2.1852707673633343 0.2353100625302928 -0.66129237976842 -0.3815002157007513 1.2078165368459433
-0.16965852225574996 -0.17976664983169635 0.9888931906246521 1.1531033938173263 0.5847909852450325 1.6407429148042618 -0.799866425848631 -1.0788302238204222
0.6618591246994862 0.9937621061826902 3.4426409976853494 -1.8598204318999585 0.6531502600362835 0.6264488713604852 -0.1461221991235729 -0.05374066846540878
-0.9617833045121807 0.5934627658089036 1.1723198558651313 -1.5172134526073722 0.09240210218492705 -1.1724549958547406 0.22575536397600182 -1.2170048951459496
-2.3755392884645503 0.926854337860503 -0.655830275172828 1.0766111073371507 -2.163422700486393 -1.4194837143295664 -0.35541195816176735 0.6781673704846879
-0.28807942630372735 -0.9917123370308738 -0.0948401431888213 2.6793314006427975 -0.14262428779075811 -1.1048950332030518 1.8128242846437403 -0.5851117771335322
-1.7111455503196105 0.6004056128218146 3.10746950527012 -0.6932662334337046 -0.5348321460280479 -3.3801704421729486 0.5110122857249909 0.6396140967861337
-0.545220655325766 -1.069426424728346 -1.1024504432835514 0.35959548065143937 -0.956107198435472 -0.04872691800690372 -2.027829328985363 -0.036706304790198575
0.37780542055102995 -0.3144072294041759 1.8884744709534744 0.3825113539093666 -0.289726897415976 2.1369219048089474 0.4504120661645244 -1.2871037954035798
-1.622095684080655 1.2950675392607205 0.5793104668254209 1.3471895841736103 1.3574787309669545 -0.35666635482305975 2.5940695958151805 -1.4595722200726398
1.8266959352742362 -0.7652371523127872 2.1279426188279182 -2.294653269916374 -2.033338428107121 2.052896891331486 -0.8347045893665619 -0.21799809274061385
2.264556769282075 -1.6293799063585426 1.7246777771430997 1.522935561978465 -0.27440131109944993 0.6699735625203702 -0.0518403410685392 -1.5824051970063173
0.14387587400625113 -1.6413869450355696 0.6880151771657719 0.13163998702014135 1.095618973216355 0.4076308698151838 0.003691243828478495 0.8403462138111243
0.0949137597817194 1.8440835559768163 -1.2361460995056783 0.6079316714851347 -0.7499620786767369 0.24176065742532005 1.571638204794719 -0.701231765976524
-2.7042283391267574 -0.22612857122957639 0.16134568640043992 -2.717136827583682 -1.714851426041955 -1.5454159144476187 -0.2548847990409223 -0.8710942646118021
0.4023629842945424 -0.17305303728849372 1.1460651784716624 -1.037512542983768 0.33501437500652237 -1.0356699569278234 0.41918532889672705 0.26554861366178495
0.7147140281035267 -1.1458029591888195 -0.007054662701598199 -0.36265369793599805 -0.8681564557810962 -0.008442367214921753 -1.0127540723438797 0.8211335535062687
0.6279121945448536 0.4022074868224972 0.577878125962172 -0.03522202395213698 1.4962407443219148 0.7754048666326824 -0.8818701465591187 -0.29188551207200814
0.10059500399288598 -1.2054341537961315 1.90137965178958 -0.44867197408271714 -0.3633043875447338 1.9004279970894946 0.23528575892829687 -1.226790394399798
-1.342470128091274 -0.08975192291065195 -0.192201808925867 -2.1849131073618113 -0.5894646519164237 -0.4427663961445364 -1.5592838533958393 -0.5279180813435524
-2.0212778228988073 -0.9069266532828212 -0.7806247369521007 -1.8061074601726552 0.1332953822839832 0.0703531451974326 0.2116881633146018 0.16682134360440962

w3 f8 [21, 1]
00000000: 6512 48b2 c10e 1a40 e511 428c 9290 eabf
00000010: 4549 00e7 8ef4 e8bf b146 db80 af6c 7dbf
00000020: 734d 53b7 3bb4 d33f ec8d 690e 4233 d13f
00000030: 8023 8fee 45ca c73f d438 cbb2 5fff ecbf
00000040: 84e3 d267 6303 04c0 f802 6163 57d8 d7bf
00000050: 3a20 9bda 1e12 d63f bd7b 9c4d 54ae e8bf
00000060: b644 a5e3 10f0 bfbf 3b1a 00c6 770f d33f
00000070: b79c 7635 5c92 b4bf b176 e8fd d6c6 c6bf
00000080: 9dc7 bb39 44c0 be3f cb8e f84a e1e1 d63f
00000090: fa7c 8787 3f6a f33f 9e88 efa1 d06d e9bf
000000a0: 84e0 ec58 a4bf d03f
6.514410768174092 -0.8301480044761403 -0.7798532973995768 -0.0071837287520836604 0.307875565556251 0.26875354201749135 0.1858603873099831 -0.9061735622470004
-2.50165444481212 -0.37257942872024286 0.344855988962539 -0.7712804332585318 -0.12475686605218325 0.2978190835569056 -0.08035827927834559 -0.17794310949186845
0.12012125405797609 0.3575366241586663 1.2134394926177365 -0.794655147820112 0.2616968983088628
