Code/Models/run_20251105_110618/model_hidden_3_width_22_act_tanh.npz (npz, 9598 bytes, 4 tensors)

w0 f8 [2, 22]
00000000: ec3f 0607 53a3 03c0 b8c6 9ed4 a0d6 25c0
00000010: 3005 a087 6eaa 14c0 e373 3b4f 5a54 0740
00000020: 4f89 ee43 e1af d7bf 760e 7abb 5ebc 1b40
00000030: 585d 7103 95b7 1140 48f5 473b d31a d93f
00000040: bd17 78c8 00f2 0840 e91c 9d5a 303a c43f
00000050: b35d 75ff 2a64 afbf 467c f0bb 4063 1ac0
00000060: d154 0cd2 c664 1640 3b0b a9ca c7aa 05c0
00000070: 3b5c f73f b2c4 0740 3866 cc6c 6f11 e33f
00000080: d9b7 13e3 064b 01c0 f4d5 b77f d348 ecbf
00000090: d962 e026 bd9b 0940 4e58 14c2 d4d4 eb3f
000000a0: 120d de49 4ee4 f8bf 6602 c95c 3157 07c0
000000b0: f95f 8096 52fc cabf be63 4137 e46f 1240
000000c0: edc8 383a 73e8 f03f 64d4 7a2e bf52 b0bf
000000d0: d6e5 400a 976e f63f 5da6 4dc5 2bba dc3f
000000e0: edd6 d669 a97f b3bf 0246 118b 081a fbbf
000000f0: 37e2 8263 f22e f0bf 96c4 996b 4538 bfbf
00000100: 9adb de47 e9af b33f 7f3b 8600 56cf f2bf
00000110: 5ff8 387e 4e7e f5bf 083d 0248 80e7 d0bf
00000120: c848 f1c6 8a74 88bf 1ac7 5281 da8c e1bf
00000130: 87b9 8527 4bb9 ddbf 6533 97c9 5be0 be3f
00000140: c7ed c77c a9ab f1bf 1a58 adef 32a0 d43f
00000150: 35fc 113b ed7b e2bf e2d8 4a7d c36e f8bf
-2.4547482060224777 -10.919195789701334 -5.166437262670385 2.916187876703121 -0.3701098597904506 6.933955125164735 4.429279378694751 0.3922622755925045
3.1181655561112778 0.15802578377245105 -0.06131109588994423 -6.596926628640238 5.598414690020221 -2.7083888848150344 2.9710431096423497 0.5958783268899372
-2.161634229697466 -0.883889913033896 3.20104437229416 0.8697303572287269 -1.5557387242741396 -2.9175746201365653 -0.21082527493194883 4.609269011846605
1.0567505144395526 -0.06376261601219962 1.4019995117690676 0.4488629748144371 -0.07616671403851756 -1.6938558037112448 -1.0114616286429177 -0.12195237996071948
0.07690294270183387 -1.1756191273195495 -1.3433365755622828 -0.26412970573524364 -0.011941036411517905 -0.5484440351339999 -0.4644344221077507 0.12061093970915022
-1.1044096826798169 0.32227776914567274 -0.5776277688709174 -1.5270419019921566

w1 f8 [23, 22]
00000000: a351 f1ee c845 1540 d2f5 e27d 3e46 edbf
00000010: 3f10 1838 968d 07c0 6b09 ab2a 4e3e 1e40
00000020: 0c7b 64ca b804 e33f f121 128c 3362 febf
00000030: 95a8 2198 78a6 16c0 6289 3111 9b7b 0c40
00000040: b383 a288 1f73 0940 8f10 e328 2f25 eebf
00000050: a95e 3af5 ee41 0740 62d7 549c d04b 0ec0
00000060: 7c3b 21d4 9a38 00c0 e878 f561 3ae9 f03f
00000070: 8ba7 d16d c4cf e4bf 1558 c156 ede0 f7bf
00000080: 317f 5818 2301 19c0 c543 0eb6 617e fb3f
00000090: c0c9 96b2 5785 0040 2d34 28e2 8175 fa3f
000000a0: d430 7915 5298 0fc0 7a24 53a3 4776 d23f
000000b0: 043a 58c5 c541 ecbf ca97 f64a f0bd d0bf
000000c0: f0dd cd0d d062 e83f ecba 2677 6f60 08c0
000000d0: b933 770c 375e e5bf 1c27 a107 1355 0540
000000e0: 6713 cd74 ebf2 f4bf ebd2 63a6 e09b c63f
000000f0: e67c 12ab 49ff f33f 3dc0 5b7e 148f de3f
00000100: adb9 3707 6d3a 00c0 b674 0945 fb08 f0bf
00000110: bb2a b8e3 5cc6 e4bf 61b2 c6e2 5022 f1bf
00000120: 970c 75b4 64f4 f13f 6f31 1956 4399 ee3f
00000130: 8f9c 734a 90c1 c43f d66f 19ed 247e f53f
00000140: 0fbe e8f9 f0e2 d63f 1b06 e439 5cd1 f63f
00000150: 011a 9382 a8d1 ecbf 1114 9c63 eadc ef3f
00000160: 3b45 0020 302e c33f 747d 730a b7de ea3f
00000170: e0be 070b 7a79 f83f b4ad 8b4b 8149 11c0
00000180: 461e 40f9 b55d fdbf 88ff 1bcb 58b2 0940
00000190: 74fd d49e 0898 f53f ee2c 2d42 566e 0140
000001a0: d851 f8eb a3b9 fcbf 8bac 3766 1e80 0340
000001b0: 0486 02cc 05e0 dabf d5fa 473a 4a53 e1bf
000001c0: 8126 57d7 a07d 1240 5468 0215 2a26 a2bf
000001d0: 1051 ae86 56b9 0240 bcb6 396c 07a0 1140
000001e0: 180b 2eef b91a e83f 0dae fce9 9524 ef3f
000001f0: 6644 3ea4 29c7 0140 4fd1 9248 7f6d 04c0
00000200: 8b14 2a97 6b19 0740 2031 0d4a 0925 ffbf
00000210: 24a0 0501 47f1 e03f 443b 27e9 835d d83f
00000220: 8286 7191 ffa3 e23f ddaf a3f0 ca95 e2bf
00000230: ec55 a731 1746 e9bf 9320 a05b 4f41 f1bf
00000240: d1e5 74b5 bd70 dabf aebc 1c6e 33f2 0ac0
00000250: d9f9 7b5e e2f4 e0bf c34c 31e1 2acc f43f
00000260: 2466 a605 6ad0 e7bf f36c 87ca 036f f8bf
00000270: 6aec ddaf d445 fc3f d219 734d 8470 f5bf
00000280: d19a d47e 49cf 1040 4259 09e2 7712 c3bf
00000290: 1f49 eca4 b442 e53f 25d4 1512 e1bc bd3f
000002a0: 2fc0 8b96 dc48 0340 5fcc 3fc0 c235 0dc0
000002b0: ef76 5b2c 304f 0340 d48c 297f 584e c5bf
000002c0: 62cf 46bc 53ff e2bf 9eab 2d4d 75df ffbf
000002d0: 92ee e0c3 8ee8 f7bf 26ad 963e 4759 1440
000002e0: bb6e 73e8 3fae fbbf 39e2 0c28 f1d8 dfbf
000002f0: 7d87 79a2 90ed f33f a25f 87c1 ee79 b53f
00000300: 13c8 d9c4 23f1 e13f bb4f 994d 841d fcbf
00000310: e2d4 5bc7 9f0a 1540 ca20 2daa 8232 0040
00000320: 3dc1 35d7 0b78 f7bf 6ff3 bd65 ce1f f4bf
00000330: 7b72 c2cd e1d1 13c0 5819 6928 cfa4 f23f
00000340: cbdd 8861 c0f2 f83f 4d93 6315 d286 e0bf
00000350: 1d24 9192 d005 dd3f 3035 bbdb e859 e63f
00000360: 9b4f cf6c 503d 0040 5bd8 5a2e 3c97 f3bf
00000370: 83c7 6ba8 6220 f83f c4fe ebcf 11b1 ff3f
00000380: 8424 a2d5 d1fe f8bf a7ef 6130 c6f3 f23f
00000390: de74 9e0b e3e7 04c0 3d15 4893 0bf6 f43f
000003a0: e0f4 03b6 33bd e83f 281a 37c7 00ac f53f
000003b0: 3bc3 c2cf 586d 06c0 070e 2af0 0302 ef3f
000003c0: cff8 ed8c a703 0540 ae66 a41c c06e ec3f
000003d0: 7bc3 4611 e49a 1140 7937 0a59 79fa 0bc0
000003e0: c84d 1aa6 2907 ea3f 29e4 5efa 2d3e f2bf
000003f0: 4311 dcbd 5ef8 f5bf aecd 3946 5d93 f2bf
00000400: 43c1 290f bf06 fa3f 9206 3d03 8caf e7bf
00000410: 3776 cdc4 3018 0640 3a8c b818 b998 0dc0
00000420: 2026 15fa aec7 f23f e565 0f6d 2c3c fbbf
00000430: 2541 a89f 95e6 bfbf 890c ed70 0e59 0140
00000440: 8037 a1b0 535b ffbf f063 509c f7b9 f2bf
00000450: e219 6ab5 ca4a f33f 7e41 a354 1644 d5bf
00000460: f60e c946 ee4f e8bf ef08 2e17 7b49 02c0
00000470: 64cc 6084 611b 0140 2ebf 5e41 7151 cd3f
00000480: 96cb 433e bd2d 0040 e0a9 8fe1 28b9 e4bf
00000490: 55e3 7997 9877 febf a977 0ac1 7337 de3f
000004a0: 5d25 f350 79c0 ebbf dbe0 c02e a057 dbbf
000004b0: 6b82 7dae b778 b53f 5809 3db1 d7ac f03f
000004c0: f8df bead 6414 cfbf f821 badf f66d a73f
000004d0: 3d61 8356 0a73 fabf bbe1 04ee a760 f8bf
000004e0: 3912 4e3e 723e dabf de37 53d9 5209 0d40
000004f0: 0de1 1fb7 f129 d73f cc4a fdea 1768 d03f
00000500: b394 1d67 e5d8 e2bf a55c 164e 2aff cd3f
00000510: c5bb 1487 3083 f73f 5881 574a 2103 bd3f
00000520: cd0a 8b1e 7515 0440 bf27 2002 37d6 ea3f
00000530: 9c75 a3c7 782d 10c0 fd03 4bf4 493a c6bf
00000540: 245c ed55 d9b7 f7bf 6797 1651 3bd3 a7bf
00000550: e59f deff 4857 cc3f 4fb1 dd07 f8cb e4bf
00000560: bdf0 2e77 0848 ba3f b45e 5ade 0997 bdbf
00000570: 5db3 2ca4 6696 b1bf 9c1b 4c10 f209 eabf
00000580: 3046 e680 c9e7 03c0 b7c9 cb8b af26 f8bf
00000590: 8e05 7d8f 0bb7 d03f 7e6e ffc7 27cb f5bf
000005a0: a4d5 1ba5 03c4 00c0 636a 9672 3191 0540
000005b0: 4721 5eb7 9e13 02c0 719a 08cd b53e c6bf
000005c0: 1125 ca62 c2ea f03f 5345 fd94 45b6 d33f
000005d0: 13cf ded0 b161 f73f fac7 0608 d57b e4bf
000005e0: f25b 02aa 93cf f0bf 48b7 8b90 835c ddbf
000005f0: b053 f06c a4be f43f 420f d419 8e18 fc3f
00000600: c646 2206 075b ebbf d3cb 3983 e7b6 c6bf
00000610: 57aa ecf5 7a57 f03f f83e d450 a5a6 db3f
00000620: 1bac 8cf1 aa13 07c0 12c4 d497 ec34 1240
00000630: 6a69 58fa 17b2 febf e7a1 d88d 072f f23f
00000640: f1d9 7f57 ea4c e33f baf4 ec20 8f39 e73f
00000650: d86d cb19 1048 01c0 0a21 46f1 de19 f63f
00000660: edb5 e8ea 07df fc3f fc3e e26e 5aef 0540
00000670: a15f ec86 d66c d53f 805c 466c 64da f7bf
00000680: 13d4 142e 3bac f03f 8bba dc33 f432 f53f
00000690: 7276 d9d2 3e85 00c0 5fa0 8dc7 ff3b d83f
000006a0: 8fa5 6876 02c8 01c0 64a8 e71b 4e3c e1bf
000006b0: ff54 f38a 7e3e e83f 6251 908d 7394 f3bf
000006c0: 4f52 a047 d1eb 8a3f cf5b c8c5 ca5e dfbf
000006d0: 8207 6b03 cc7e 01c0 5ad0 cb0f 586a fd3f
000006e0: c42a a046 2ffa 00c0 2517 5e50 cbfa f03f
000006f0: 3a5e da99 45b3 fa3f c5f3 4401 183c fe3f
00000700: 12f5 a34e d3db fabf 46d1 6824 70f0 e13f
00000710: 072e ed0e b814 f4bf 1f07 6ad3 0052 c43f
00000720: c1b3 f03d 5413 f23f b0e3 a264 17c6 dd3f
00000730: 2a21 dee7 907e 05c0 bb3d 536f 860e e1bf
00000740: 40e9 5c54 293c 02c0 e9cc 26ca f112 f9bf
00000750: e11f bc79 2670 b83f 3332 ebd4 efa8 d33f
00000760: 0b8c 9ca5 7705 cf3f 79d9 b4b8 2c04 f1bf
00000770: 372e 4616 a8d4 4f3f 937b 84a6 59fd f0bf
00000780: 900a c069 ab6f debf 309b 6e6f 914c e33f
00000790: 68b8 4e44 2fe6 f5bf db2f 2691 6e91 f23f
000007a0: a3d7 8def 204c 0940 e15a 789c d154 f5bf
000007b0: 11ab b331 6bb0 0440 fae7 2660 ccac f0bf
000007c0: 8ae5 7abc c263 f4bf 0f36 680e 492e ce3f
000007d0: 94ce 6979 f997 f43f 2ce3 8edd b4d0 0840
000007e0: edd2 7889 0a0f 8c3f a170 c4ce f69b 05c0
000007f0: 6409 34b9 b051 0440 413a 54fc 2dc4 f23f
5.3181493124760975 -0.9148247202608053 -2.944134176477774 7.56084505719114 0.5943263962725225 -1.8989749404446423 -5.66256940560756 3.5603543608896624
3.1812124895663714 -0.9420390890668545 2.9071940573156394 -3.787018987025406 -2.0276390621797287 1.0569404436606025 -0.6503622193242661 -1.4924138440014805
-6.25111043968336 1.7183549033691048 2.065108676172912 1.6536883196124663 -3.9493753125771978 0.2884692282646665 -0.8830288748156936 -0.26159293480520474
0.7620620984661723 -3.0470876034445293 -0.667750858637752 2.6665402027182505 -1.3093065798322756 0.17663200497158668 1.2498261148937728 0.4774829133957644
-2.0285282672768603 -1.00219275443605 -0.6492142150539942 -1.0708779200023388 1.122166352187184 0.9562088662728864 0.16215709338505177 1.3432969342893464
0.35760139851751743 1.4261133443218401 -0.9005930471692524 0.995717234182509 0.14984704554130154 0.8396868900417034 1.5296574049825082 -4.3217822841647155
-1.8353786217065973 3.2120834224624026 1.3496175960898116 2.1788754625355216 -1.7953223435953216 2.437557982038532 -0.41992325709188116 -0.5414172304443478
4.622683872884978 -0.03544742113554436 2.340497066683504 4.406278315565654 0.7532624885064676 0.9732160158213802 2.2222473937513767 -2.553465430241125
2.8874122438160774 -1.946542062057297 0.5294528026543088 0.3807077195059956 0.5825193253223946 -0.5807852458942723 -0.789805981616778 -1.0784448222275713
-0.41313116760610763 -3.3682621576804967 -0.5298930974384418 1.2998455807290135 -0.7441911802627073 -1.527103224877291 1.7670485372352922 -1.3399699235320566
4.202428800321926 -0.1490011075681626 0.6643927785064853 0.11616331759962913 2.4105769883535895 -3.651250364253016 2.413666101971891 -0.16645342072579317
-0.5936678578641301 -1.992055226781964 -1.494276776457728 5.087185838648372 -1.7300414161790474 -0.497616089927337 1.2454992624920742 0.08389179444145481
0.5606860012760556 -1.7572062522130938 5.260375132541613 2.024663285734367 -1.4668081671371305 -1.2577651953026494 -4.954962935441126 1.1652366236244998
1.559265500063577 -0.5164575975182771 0.45347990334681915 0.6984752933146066 2.0299385548368725 -1.2244226275193089 1.5079065875001738 1.9807298776576525
-1.5622118325284484 1.1845151796287412 -2.6132260234577265 1.3100696328340995 0.7730959467877732 1.3544929296346115 -2.8033920508682093 0.9689960184772993
2.6267844209788573 0.8885193404596146 4.401260633415286 -3.4973017650835883 0.8133743519014667 -1.1401805667976623 -1.3731372276680112 -1.1609776251978974
1.6266470520314023 -0.740179067921604 2.7618117690278967 -3.6995717936820514 1.1737508553363867 -1.7021908054506352 -0.12461218974954542 2.168484575494919
-1.9597966098403674 -1.170402155496273 1.2057597242834324 -0.33228071465875775 -0.7597571737792055 -2.2858793078349815 2.138369592861226 0.22904792491817133
2.0223336090507003 -0.6476025014392768 -1.904198257163633 0.47213453151368384 -0.8672453480768741 -0.427223249108932 0.08387325296417607 1.0421978877426081
-0.24280985339805716 0.04576083642047374 -1.653086030904958 -1.5235976503009698 -0.4100614174315385 3.6295525530358494 0.36193507083182014 0.25635335872827336
-0.5889765752769079 0.2343495255742926 1.4695287014580896 0.11332901062951828 2.5104772936041173 0.8386492768779518 -4.044406051017543 -0.17365383556719385
-1.482385001805377 -0.04653344502302908 0.2214137315143027 -0.6498985437042765 0.10266163739919683 -0.11558591536083435 -0.06870118625802264 -0.813714057760865
-2.488177306201372 -1.5094447575362275 0.2611721898320746 -1.3620984852231284 -2.0957100772017885 2.695895095076865 -2.259580071029777 -0.17378876220137188
1.057314287087426 0.30799998807659285 1.461351219081682 -0.6401162297026979 -1.0506779328331928 -0.4587716018275967 1.2965435271664596 1.7559948929710605
-0.8548617477228724 -0.17745679767139552 1.0213574987816594 0.4320462502810041 -2.8846033927016044 4.551683781014633 -1.9184798983684126 1.1364818135135637
0.6031390866253884 0.7257762568548494 -2.1601869597632053 1.3813161301387162 1.8044509101995303 2.741871706275445 0.3347679441080747 -1.490818427036885
1.042048625951115 1.3249399209850334 -2.0650612328161566 0.37866205680484727 -2.2226609469113963 -0.538611464025291 0.7576286996724376 -1.2237430124124207
0.013145098684654103 -0.49016064943992615 -2.186912562087799 1.8384628884350804 -2.1221604840878587 1.06122905152865 1.6687675485499214 1.889671330412271
-1.6786683151142978 0.5606003485795916 -1.2550583441797032 0.1587525398536451 1.1297190112629638 0.465215538289665 -2.6867998232520636 -0.5330230879134698
-2.2793757048467853 -1.5671251198335148 0.09546127769510761 0.3071860865864295 0.24235435091495136 -1.0635192122550434 0.0009713955628724628 -1.061853075465227
-0.47556577040828873 0.603096692696317 -1.368697420908143 1.160505835522591 3.162172194973168 -1.3332077133288112 2.586141956611194 -1.0421870952545746
-1.2743556368353404 0.23578751758070424 1.287103151579605 3.1019074734907885 0.01370056373625902 -2.70115434205043 2.539887854481252 1.1728954178430657

w2 f8 [23, 22]
00000000: 1e36 cea3 c194 f33f 5dda 84cc ec2e 03c0
00000010: a4a3 596f 81d3 f03f 25fe b99d 6de6 1640
00000020: 105b 5d89 4119 fd3f 3f0f c6d4 a9f4 0140
00000030: 6603 5f2f d808 0340 9ad5 a487 a01c 2340
00000040: 69bc 2108 b474 fa3f 9c3d 0482 ccee e73f
00000050: 3854 742d a666 2040 fa04 c609 0b3b 1240
00000060: c6ce 2883 ff4d f73f 81db 52c4 7fc0 fa3f
00000070: 7821 db0c 30c5 00c0 9c7d 15f2 806e 01c0
00000080: c13c d7fe 9354 2b40 aab1 7775 c5a8 2740
00000090: a317 1be2 fd91 ed3f de3a e9da 8ed9 06c0
000000a0: 418e a0fd 4543 f8bf 9e96 3c0f 01dc e43f
000000b0: e38c a1dc cca6 e53f 2bb6 4370 cd9b e93f
000000c0: b5df c14a ec1e d03f d609 f7fb dcc9 f1bf
000000d0: 4d10 1e53 f298 fbbf 7d17 f2b4 6b28 eb3f
000000e0: 8254 811d 9bb8 b73f b10e 4d20 7b3a df3f
000000f0: 8411 499d d843 e9bf 3342 ac0a c899 d9bf
00000100: 2916 a39e 2e19 f63f b353 4cf4 b180 b1bf
00000110: 1312 b1f3 d32e f23f e306 e9db 2ae7 d73f
00000120: ce60 4502 e686 cb3f 332a b553 94dd f93f
00000130: 78c4 bf46 66be ebbf c7e8 8a1e ca80 edbf
00000140: 5b09 2f3e fe8c ea3f 608e 6a13 b621 cebf
00000150: dd60 38c3 e656 d9bf bad7 5c03 94dd e43f
00000160: ffc3 c549 2b7a ed3f e9f1 4046 3718 e73f
00000170: f4c7 d5b6 ae13 ea3f 8730 9fa2 0303 0ac0
00000180: fd9d 2601 710d d3bf 83fc ffe8 ec8f e9bf
00000190: 0b60 279e dd23 e53f 61f4 cb86 4fe0 c73f
000001a0: b55b c3a6 1642 e13f f519 afc2 91bc dd3f
000001b0: 750f 23b9 3f95 f1bf a74c 3443 85c6 a7bf
000001c0: fe9e caea 4d27 f2bf 0eca f72a daa3 f3bf
000001d0: 43f6 1c2c a411 e53f 64cd ee4b 09ce e53f
000001e0: 2ab7 ac0b 5634 f23f 870c fe10 8611 dd3f
000001f0: 3abe 5645 91de d8bf 5dcb 2c6d f2d0 ef3f
00000200: 1ae0 604d fc4b fa3f 3aee 1127 48d1 f0bf
00000210: 8d9d 581e eada fabf 6e6f b3d2 ab20 f93f
00000220: 4d22 a11a 5478 db3f 6056 b6c2 f232 cd3f
00000230: 9f90 58da 462d e13f f1ae a8b5 abbd 03c0
00000240: bac1 c29c c3a8 df3f 1c08 c9b8 2064 dbbf
00000250: 46a5 d456 fd1a d93f 3c2c b156 b1a3 e2bf
00000260: 27cc 269b 6453 f03f e90c 9ef0 3964 ddbf
00000270: c76f ab07 3648 0ac0 6bd5 9cd2 8482 dc3f
00000280: 7f14 ba6c cbe7 df3f d42b 15a4 a188 f6bf
00000290: ea3e b992 7ec2 dcbf 80c0 1124 3aaa eebf
000002a0: a7e3 5345 a8e0 e0bf 6252 c76a 6a60 f13f
000002b0: a165 9e96 8e0b f1bf e472 7e96 b7be b6bf
000002c0: 2df1 065a 7c89 f13f b4fd 6cea 9658 f2bf
000002d0: 161e af8c a3d6 ee3f 7aa3 2706 fa45 e8bf
000002e0: a600 6dae 66b5 f33f e2c5 638b 844a f73f
000002f0: f3fa b0ea 7505 fe3f de38 f517 8b8c f93f
00000300: 9c6f d58e 3d6b e3bf 5a10 af1f 72c9 b9bf
00000310: 63fc e515 f864 e13f 9313 897d 29d9 0a40
00000320: 34e9 6be9 fdde e2bf 9902 fdce 5c39 fd3f
00000330: 1e22 e82d eec4 f1bf 04fc 1f84 c59a 0440
00000340: 9d2d 6cca b954 e13f 81bc 2aed 31ef f43f
00000350: dfad 2a2f e697 01c0 1329 b627 7603 cfbf
00000360: 8e5f 7ba5 f3c2 b63f 9dcb 6d7c 59e6 d8bf
00000370: c950 b6e3 6444 0ac0 6861 99d3 defb 06c0
00000380: 8954 c872 5044 dbbf 8474 a147 7a44 f1bf
00000390: fba7 1d3a 9561 0040 b312 ab4a d37a bebf
000003a0: c704 9812 7cab ad3f 7e9c 7bf7 66b8 d0bf
000003b0: b6eb 623e d92a f8bf 3a49 81b1 29e7 f2bf
000003c0: 8bba 4328 ef79 e6bf e663 0816 4c47 e7bf
000003d0: 0409 ef01 6f08 fe3f b5c5 c436 a48b e8bf
000003e0: ef8a f876 9f4e 0340 b750 16e2 0887 e43f
000003f0: e059 fbea f44d febf f74f 78a0 6cb8 e43f
00000400: fb8b f10e bacf f1bf 5ef6 3587 8f15 f5bf
00000410: 6919 6c86 6cae d63f bbcf 9b10 9ad0 ed3f
00000420: 7f16 38ab 6962 f93f 0c22 96cd 2c22 e9bf
00000430: 6afa d9a6 b67f 0640 cedb edbf 8d12 f03f
00000440: b1b7 9028 c8ef eebf 09b2 c2de d59d f4bf
00000450: 742c a223 8e5f e8bf b16b cb39 b0ac ebbf
00000460: 2574 91b4 95db d43f 522d 6b91 3723 f13f
00000470: 45e7 9652 0edf e23f 1256 dc83 ea58 f53f
00000480: a0f6 eb1a d64f f23f 6143 0500 9c57 dabf
00000490: 7753 2130 399c f0bf f74c 3bdb 4ef8 d53f
000004a0: abc1 a051 be1a f93f 8f7f 0821 e225 dc3f
000004b0: 7bdb 075a 8953 b4bf 774f ed66 41eb e5bf
000004c0: a126 29d2 6204 05c0 154f 309b 6055 b7bf
000004d0: 5bbd c9c5 4c27 e33f 1208 6adf b1bb ec3f
000004e0: e73f 46fd b3ce ddbf 8b48 44d3 43f9 07c0
000004f0: 6f06 0161 b5f3 f1bf 5857 d6a4 705c a4bf
00000500: 1ebc 5aba d4ac 79bf 5d63 1e54 dc28 c53f
00000510: f507 d311 9dc2 ffbf cb6d 29f4 cb6e e5bf
00000520: 08ac 1435 31ba e73f 6eb3 225c 84b2 e33f
00000530: 397e b119 deee f63f fc48 7fd9 30f1 cd3f
00000540: 6fdc cebf c325 d73f 9dd0 a7c5 c72b 02c0
00000550: b3c3 1869 70ef d43f a159 6406 2f85 ffbf
00000560: 86e4 1ff5 c9e7 f0bf 7252 1bf6 1eec ecbf
00000570: 7043 7b33 c5e9 943f 7bac 6eca 6496 c9bf
00000580: 6792 4fde 2da4 d9bf 57c6 7676 13ec e93f
00000590: 8696 c81d 81d7 dd3f aff5 3396 8351 0440
000005a0: c2fc 274c 1b00 f7bf 3912 2110 6e02 f2bf
000005b0: 786f 7d40 061e df3f 9194 697d 27ce f2bf
000005c0: ae7e abdf 0a36 ba3f efff 1179 6124 dabf
000005d0: a516 e4cc 56a4 0340 a460 c3fe d6ea 0240
000005e0: 66ad 296b 23c8 b83f efce 01a0 72bd cabf
000005f0: 868b b882 8c87 cdbf 860b 383c 9494 f1bf
00000600: 7e9d df75 41bb 1040 4e73 5d1f 715a f2bf
00000610: b417 d644 b9e0 f2bf d436 7b73 0003 e8bf
00000620: 8318 f3fa 1277 0240 ffcc 0ea3 76de cd3f
00000630: 5e39 7e1e 809c f5bf 82de 1ab6 d933 e9bf
00000640: 0e17 e0ee 81a5 fcbf fdee bccf db9d db3f
00000650: 31cc 67ac db1b e43f abb0 354b a44b f73f
00000660: 2466 5b7e 1acd cabf 6eaa caf0 7fd4 c93f
00000670: b261 21a2 5e64 f43f b92b 0883 66b1 d0bf
00000680: 5ab4 c825 d29b e63f 83db 9332 1e4d d03f
00000690: 3230 2ec2 6bf1 ddbf 6901 0995 9312 febf
000006a0: 9527 52bd 299a e23f 1237 516d 9395 ea3f
000006b0: 2fc3 09d0 020b ff3f e695 8b08 5605 e93f
000006c0: 2cf9 577a 77b1 dbbf c75a cb3e 50a3 c23f
000006d0: 8611 fa33 6f22 bdbf e827 c23e b6b3 ee3f
000006e0: 0c78 fb31 bd4e e33f e192 78c9 e1eb fe3f
000006f0: 5ccf 9880 1970 00c0 0824 d254 83cc b9bf
00000700: f470 655f 923a f1bf 4ebc 5fdc 16f3 f0bf
00000710: 4ebe 6e3b 1475 f1bf 81b7 ef4e 74fb e7bf
00000720: c1da 36d8 a4e4 a83f 48e0 42a4 8f3a e73f
00000730: 29c6 2e9b 1bb9 04c0 1733 b19e 30db c5bf
00000740: dc2f 79e2 f6bd b33f 192c 8b54 6459 e03f
00000750: 177d 493a 6f3d f03f b2f4 6573 c85d e83f
00000760: 35b3 652d 5eae b2bf c6f5 0207 9d0b ea3f
00000770: 49d1 1a4f 04d4 06c0 d453 9ca5 2cbf f33f
00000780: f257 69d7 4663 d43f bdc5 23ed c6a3 eabf
00000790: 9bcf 1694 430d e73f d23f 32e9 0e71 a53f
000007a0: 4c58 faf9 6c41 f73f 3163 dd89 a96c e9bf
000007b0: 7f36 e8c4 08fd c13f 3a2a 0ee8 10eb c4bf
000007c0: b5bf ab5e dac5 e3bf 4822 09e2 3caa f53f
000007d0: 065d 7570 cb16 0040 ede8 3bde d52d f6bf
000007e0: 9384 7e56 5c5d fd3f 14d4 cc4a f952 f43f
000007f0: b275 7f23 21a6 efbf 09b7 b4a3 55fe f1bf
1.2238174818661558 -2.397912595562316 1.0516371106734619 5.725027527310464 1.8186660161788417 2.2444645522063236 2.379318590247226 9.55591224562777
1.6534920041701986 0.7479002513299977 8.20048658413917 4.557659294806621 1.456542503682543 1.6719968480008165 -2.096283054768886 -2.178956881790965
13.665191615842902 11.829631491528591 0.9240712562684518 -2.8562295057703144 -1.5164241702376702 0.6518559739676737 0.6766113576126397 0.800268859163855
0.25188739109534747 -1.1117830126173565 -1.7248404738211491 0.8486841711135039 0.0926606127771539 0.487944394630385 -0.789532000730603 -0.40001107256196916
1.3811479756126437 -0.06836998190222125 1.1364326018530206 0.37348433948146303 0.21505427466286736 1.6165965337592183 -0.866992128545589 -0.9219713779960096
0.8297110762144188 -0.2354037852102122 -0.39592904152369873 0.6520481172253689 0.9211632195348328 0.7217060444013984 0.8149026461599065 -3.251471777422981
-0.2976953994024994 -0.7988190222530566 0.6606281365338885 0.18653291780347828 0.5393174416629934 0.46463436138256436 -1.0989377242958345 -0.04643646664967465
-1.1345957919638177 -1.2275029829439776 0.6584034787735579 0.6814009173453255 1.1377773719827453 0.45419456157123544 -0.38858443995829683 0.9942562229465285
1.64355116105981 -1.051094200723027 -1.6784459290882723 1.570476363230195 0.4292192707112335 0.22811731822428083 0.5367769493646114 -2.467612666330631
0.49467554386776735 -0.42798631711423396 0.3922723148303543 -0.5824820225910865 1.0203596172912144 -0.4592423295764108 -3.2852593039696987 0.4454662377132396
0.498522621325101 -1.408357277820632 -0.44937099770048283 -0.9582796768645636 -0.5274239877754682 1.0860389872588248 -1.065321529726454 -0.08884761261146995
1.096065856617382 -1.146628299451419 0.9637010333762557 -0.7585420723163303 1.231787377691981 1.455692810527005 1.8763331573133513 1.596812337480109
-0.6068408765527127 -0.10073006890803651 0.5435753276541501 3.35603616785597 -0.5897206839575007 1.826504524753693 -1.1105787080033518 2.5755720445881725
0.5415924981656876 1.3083972229322003 -2.1991695103549627 -0.24229313792268012 0.08891222753606895 -0.3890594210744725 -3.283395556451158 -2.87298360168295
-0.4260445710108987 -1.0792181776116943 2.047647909193072 -0.11906166623073026 0.0579489491174257 -0.26125501793143957 -1.510461085984145 -1.181436246279715
-0.7023845468919075 -0.7274532728507637 1.8770589900528316 -0.7670460767459902 2.4133900923346725 0.6414837280049345 -1.8940324000337725 0.6475127348116975
-1.1132145484668843 -1.3177638322516922 0.3543959915845308 0.9317140888583632 1.5865265548940497 -0.7854217543945778 2.812360099341551 1.0045297143203586
-0.9667702476779053 -1.2885340406020325 -0.7616644569365136 -0.8648301247406974 0.325902391754257 1.0710979156891267 0.5897285092425838 1.334208026009382
1.1444912959699778 -0.41159725191123725 -1.0381404762349271 0.34328051957454825 1.5690291584579465 0.43981221414468846 -0.07939966629042587 -0.6849677095692489
-2.6271416109855896 -0.0911465052488974 0.5985473502204671 0.8979119647558511 -0.4657411549933372 -2.996711397668212 -1.121999148294346 -0.03976776134656629
-0.0062683400807790595 0.165309468339525 -1.9850130745185173 -0.6697749871049664 0.7414785420163534 0.6155416297457188 1.4333172801633636 0.23392305965405302
0.36167997103934274 -2.2713771287763636 0.32711420310357225 -1.9700155496298992 -1.0565890860728202 -0.9038233572742469 0.020423012988263378 -0.1999021519125995
-0.40064570150415196 0.8100678743123336 0.4662783423285436 2.5398017630202143 -1.437526032910498 -1.1255932455106985 0.4862075452599508 -1.1753306292460233
0.10238712273302994 -0.40847050498268705 2.4552436835391114 2.364667883241127 0.09680386892585133 -0.2089064866337291 -0.23069912321906488 -1.0987741806318083
4.182866899274243 -1.1470805382916356 -1.1798641861837327 -0.7503664260381933 2.3081416707455573 0.23335154496962926 -1.3507081214080112 -0.7875793987977462
-1.790407116991847 0.43150992667118243 0.6284006469053393 1.455967229640957 -0.2093842617967293 0.20179747826962874 1.274504311868537 -0.2608276633843008
0.7065211046189106 0.2547069066926541 -0.46786016428882526 -1.8795352765738136 0.581318731086173 0.8307587752439949 1.940188229226077 0.7819013754748851
-0.4327067084085623 0.14560893121843874 -0.11380667704549383 0.9594374871969622 0.60336169969719 1.9325883741341203 -2.054736141837493 -0.10077687092611154
-1.0767997480789377 -1.0593479736669624 -1.091083748014984 -0.7494451085783426 0.04861941470465104 0.7258985717990152 -2.590384685864383 -0.17075164555208097
0.0771173766053716 0.5109120990031243 1.0149986531103588 0.7614481214401592 -0.07297314270335849 0.8139176499313912 -2.853523843770891 1.234173437992685
0.3185593703868782 -0.8324923164020032 0.7203691379895533 0.0418781909621654 1.453473068691454 -0.7945144360229276 0.14053449263194648 -0.16342364626719236
-0.6179019784012697 1.3540619687575077 2.0111302171532115 -1.386190288640644 1.8352931383781523 1.2702572748069132 -0.9890294736211926 -1.1245933909189623

w3 f8 [23, 1]
00000000: 4376 704e 8226 1940 765b 6025 39de c2bf
00000010: fb13 4058 9555 e83f aa94 5473 c3c3 ecbf
00000020: fc4b 7970 0e2a a93f 58b3 76ca ec65 d8bf
00000030: 184e 4a01 5437 00c0 d4d6 d8e4 1874 ce3f
00000040: cf6f 6c89 15cd c63f 20d8 a48e f686 ee3f
00000050: 4198 3f65 f0c4 b6bf 4d23 16c4 8316 cd3f
00000060: 6f35 ac83 9506 b03f b715 6de1 ee51 10c0
00000070: 3626 4cff 838c e5bf e652 d0d0 2fa9 b9bf
00000080: 29dd 0770 4cc8 8abf 549f 867f 72c4 b33f
00000090: 2853 04f9 392a b8bf 9ff8 0993 c8b4 d4bf
000000a0: 8524 0ef8 4a05 f83f b26e 1626 4ab5 c23f
000000b0: a708 0f8c 49b6 e0bf
6.287606454481252 -0.14740671467799488 0.7604471896780746 -0.8988969090029475 0.04914898989650138 -0.38122100612490817 -2.0270156956482985 0.23791800665065088
0.17813367090354723 0.9539749895109289 -0.08894255134473018 0.22724959444556206 0.06260046448388377 -4.08001281956006 -0.6734027849462965 -0.10023783538811024
-0.0130773517312109 0.07721629727768448 -0.09439432458414088 -0.3235341487815137 1.5012921991022108 0.14615752086398498 -0.522251866867255
