Code/Models/run_20251105_110618/model_hidden_1_width_28_act_LRELU.npz (npz, 1174 bytes, 2 tensors)

w0 f8 [2, 28]
00000000: dbd8 6da9 f272 ea3f 88d7 ba3f f342 07c0
00000010: c4dd c4fd b632 fb3f 00c9 6ac1 ccde e7bf
00000020: 66f1 08d8 95d2 fa3f 28d6 3f24 de2f 0cc0
00000030: 94cc b063 4b8c f83f f2aa da41 45b3 2ac0
00000040: 941f 3e97 a33d ee3f 8bdb d0ad 6ee4 2640
00000050: 4d53 3170 38d6 14c0 bddc 6671 65a1 12c0
00000060: 40a1 cb5f 9f8b e5bf 8622 034f e46a 0b40
00000070: 119c f94c 532f 2740 b70b 6a16 d8dd eabf
00000080: 3bb7 434d 1fe8 1140 c704 5257 269b 2440
00000090: 0eee c655 4d4f 2dc0 69d8 7b34 25c5 2140
000000a0: 0f5f 0093 d3b8 1c40 4d6a 77af 048c f0bf
000000b0: 5447 10f2 f233 1c40 d8b8 426e c5b2 e3bf
000000c0: 09b7 c314 6dd7 2040 e961 038b 222a f23f
000000d0: ec88 9ace cbfa 0b40 2880 0b3b eafb f8bf
000000e0: 9e35 b424 1cfa c5bf 574b d3ae 342d ddbf
000000f0: 6e0a 523e 8eb7 e0bf dbb1 2a49 a18e 613f
00000100: aafe 3e5c b3a1 d7bf e01c 72d6 47c4 c8bf
00000110: d7c8 6621 e3c5 e1bf c9d8 efc9 3dfb db3f
00000120: c700 094e c133 eebf b8f2 024e 5fcf d03f
00000130: ff28 010b 4533 d3bf e908 2625 a995 d0bf
00000140: cf19 9a56 19af 5abf bc9c ea60 1b62 e13f
00000150: 3482 4a98 acb2 d73f dabc 81cd f23f 763f
00000160: 774d 9a50 db1d e93f e574 ea21 ae00 de3f
00000170: 2745 e2dd 077d d63f 869e 1c58 5478 c1bf
00000180: 49d8 a6c3 fdd3 d2bf f8ef 812e dda2 6ebf
00000190: 3b08 2c6b 67c6 d2bf 30c9 8791 4694 60bf
000001a0: e2b6 b339 3624 c6bf 3a48 8882 ba7e cabf
000001b0: 140f 128e a5a0 e43f fac9 1a01 7733 e6bf
0.8265317258035582 -2.9076905230421666 1.6998815453388127 -0.7459472444227515 1.6764124335159862 -3.523372920225274 1.534251584450236 -13.350137765829889
0.9450242952307115 11.446156913514434 -5.2091996698480445 -4.6576135367424145 -0.6732937689785459 3.4271932766753848 11.592432408780981 -0.8395805776384496
4.476681906946221 10.303026894342464 -14.654886894734798 8.885049476735917 7.180494591615356 -1.0341841558607883 7.050731451266831 -0.6155726579215992
8.420754097834577 1.1352868490413306 3.49745904358962 -1.5615026766245226 -0.17169524948296283 -0.45588414261617544 -0.522406694144889 0.0021432066071922335
-0.3692444229927597 -0.19349000903114355 -0.5554061558125579 0.43720955582047033 -0.9438177608608606 0.26265699976265067 -0.3000042540994769 -0.25913456561842324
-0.0016286609119632205 0.5432259457492346 0.37028040764019754 0.005432079742703178 0.7848946165344576 0.46879151641935685 0.3513812701067586 -0.13648466398557363
-0.2941889200841428 -0.003739768977593979 -0.293359617862851 -0.00202382834344763 -0.17298009698372768 -0.20699244855546955 0.6446101927581105 -0.6937823316168867

w1 f8 [29, 1]
00000000: f64a c382 7139 f7bf 6002 38ac e5c1 e3bf
00000010: 0df0 a986 98c3 cf3f 34de fd9a 8131 02c0
00000020: 54a5 9eac 7a2f 9cbf 975f 17eb cf06 f5bf
00000030: 9e39 b9a8 dbde c23f efbb 7332 6d35 f6bf
00000040: 0c7a ca86 7d91 e13f a19d 0491 785f e5bf
00000050: 5a4e 751a cd04 0340 d4a8 5407 174c e33f
00000060: c1bb 9463 3324 e13f 4ec9 fffb 4796 88bf
00000070: f669 5a83 0e76 febf 24e5 a7a0 ac94 0740
00000080: 4e13 1ea9 af57 6ebf 6fb0 7c51 715a fcbf
00000090: 207c d714 ab10 f73f 28be 6949 fe36 fc3f
000000a0: bb34 005e f933 f33f 9cef 2cd5 5291 0440
000000b0: f7a9 1fa6 0d76 923f cf12 2ee4 ba67 0640
000000c0: 5b8c 30d0 c553 85bf b93a 714e 2c33 d63f
000000d0: 7ef1 dd72 725d f4bf cd0b 620c 3b4a f9bf
000000e0: 4948 72ed e103 f43f
-1.4515242679523772 -0.6174190868042153 0.2481566102541141 -2.2741729840015754 -0.027524868760939583 -1.314163130116844 0.14742608774618032 -1.3880435915741562
0.5490100510249376 -0.6679041702636149 2.377344328598878 0.6030383246591335 0.5356690354291161 -0.012005388620285242 -1.9038224345191543 2.947594885944129
-0.0037039214011564186 -1.7720807250107347 1.441569405949629 1.7634261005113192 1.2001889869600706 2.5709587721193667 0.018028462662110525 2.8006494356689937
-0.010413690010017065 0.3468733564413174 -1.2728142249098648 -1.58062271916491 1.2509478831530194
