Code/Models/run_20251105_110618/model_hidden_5_width_8_act_LRELU.npz (npz, 3942 bytes, 6 tensors)

w0 f8 [2, 8]
00000000: 1f89 d795 f75f 04c0 7aa0 ea20 37ab 0c40
00000010: 649b 4d65 24bf fe3f 0628 34e8 3640 f4bf
00000020: 7abc 9084 a717 11c0 dbd5 9086 35c4 13c0
00000030: 67cf 55d9 ff86 e23f 9718 da7a 7c75 f1bf
00000040: c6df abf1 e26f c23f e994 c3a8 0d27 c53f
00000050: 1276 7323 bc79 a83f 6c72 e7fe 0001 d93f
00000060: 6128 2767 8bd8 d7bf f52e 34fc 479e f73f
00000070: fd42 8a14 19df b53f 037e 89b8 6418 9c3f
-2.546858950271726 3.583601243171924 1.9216655690340412 -1.2656773634394098 -4.273099967321395 -4.941610434141206 0.5789794201686903 -1.091183166399366
0.1440395050083209 0.16525431385449643 0.04780376370193208 0.3906862725541831 -0.3725918300011753 1.4761428691589888 0.08543545485941802 0.027436803591966107

w1 f8 [9, 8]
00000000: 12d3 d545 63f4 fe3f d88c d618 62f5 b63f
00000010: 1183 f60b 6e5b cfbf 79be 372b 35f3 16c0
00000020: 375b c670 2d55 00c0 51c0 2d4f 5413 0b40
00000030: 2bac 6c45 e275 0040 e5e3 1304 9f4f 17c0
00000040: 61b7 6bcf 2f3e d5bf 2df1 a0a9 4877 efbf
00000050: 4afa 2d92 b1d2 e1bf ded0 687a 9d3b f13f
00000060: 1101 c267 46c9 ba3f 8373 da3b 406e c2bf
00000070: f9e1 e397 c7c6 debf afa7 1966 7e2f d2bf
00000080: a81d b0d0 5337 e33f bd32 6008 705b e93f
00000090: 6db9 aedc de8d dcbf c57f f428 a7ef f2bf
000000a0: c6ba e088 623a e1bf a448 5f9f 3672 ebbf
000000b0: 217f 420d 8b98 f33f f128 3868 b355 06c0
000000c0: 89f9 27e7 a1a6 c93f 3be6 4679 8d43 ccbf
000000d0: 41a9 5b85 71ba dcbf 96d3 e25a 8496 f2bf
000000e0: 3978 7f89 08c7 a3bf c71d 66ba 656c e1bf
000000f0: a93c 6525 1bef 363f fa14 6987 71c4 a6bf
00000100: 46bb a279 2e61 c5bf c9f0 42fc 6a56 f3bf
00000110: 4779 21a1 9093 993f 6392 3bc5 9223 f6bf
00000120: 4caa e112 ca83 c23f 049c 9a3e 60d3 e43f
00000130: fe9a 1e29 7402 c03f 9eae ee74 9a7f 8d3f
00000140: 1121 8a06 9079 e3bf 4249 3c7b 4e86 9ebf
00000150: 7ef4 7fd1 d2af e0bf 3c0b 4693 eef5 cc3f
00000160: 5255 d930 625b f4bf 0b46 ac8a 7340 92bf
00000170: 0d1d e3e1 b015 edbf adb1 0335 92ca f33f
00000180: 77ca 89f1 b6a2 febf fe86 5785 9c0e cfbf
00000190: a095 0ad9 4d58 f0bf 442d 6fc0 e531 fcbf
000001a0: b574 e595 a367 e33f bb95 1788 b519 933f
000001b0: 7c0e aedb c252 d3bf 5912 fab9 356e dc3f
000001c0: dc6d d85b 1c17 e63f 496e 2a1f d19f d3bf
000001d0: 5ce7 cf6d c696 d1bf 6b6a ccf8 a52e d3bf
000001e0: 4b3a 99df 72d3 9c3f 5f33 a8b9 e52c fabf
000001f0: a1e8 5da8 1e96 c1bf 28a7 4df5 f0d6 81bf
00000200: 6ae8 d946 237f c63f cc57 e7aa d393 e9bf
00000210: 14b3 e2bc bc6b e43f 6274 e967 16af f0bf
00000220: ecc8 ac71 60d0 9b3f e958 74da f52c ccbf
00000230: 90b8 8d11 5cd4 b63f e4bd 160f 038d d83f
1.9346649864139107 0.08968175035856818 -0.24497771820190242 -5.737507510449739 -2.0415905771764318 3.3844381509625596 2.0575604842938637 -5.827755035127642
-0.3319205785363604 -0.9833110154209287 -0.5569694380827255 1.077054479753364 0.10463371308469883 -0.14398959085965765 -0.48088254769348243 -0.2841487881729518
0.6005038333832333 0.7924118198003139 -0.44615909148242033 -1.183509025555382 -0.5383770631213671 -0.8576920616854022 1.2247419851264072 -2.7918460981501245
0.20039771830483868 -0.22081154271818257 -0.4488796045613022 -1.1617473173366526 -0.038627878937163414 -0.5444821014979703 0.0003499451899146669 -0.04446749475440899
-0.16702824534646704 -1.2085981229748077 0.024976978144303243 -1.3836848930742682 0.14464689180325008 0.6508027289136185 0.12507488258162164 0.01440354031895846
-0.6085891845441741 -0.02980921389741665 -0.5214628307145543 0.2262552470311564 -1.2723104389345576 -0.01782398733036498 -0.9088978206499704 1.2369558401943366
-1.914725249775669 -0.2426334048350824 -1.0215586164643824 -1.76218199891703 0.6064012458479257 0.018652759963421178 -0.3019263406097037 0.4442266765766241
0.6903211397033675 -0.3066294483521444 -0.27482758258667217 -0.29972218796471023 0.028150362870571304 -1.6359612705448041 -0.13739379139935173 -0.008710749136031717
0.1757549377396715 -0.7992952669107978 0.6381515206499864 -1.0427459773120735 0.02716208165947702 -0.2201220814392351 0.08917785099558473 0.38360668633955997

w2 f8 [9, 8]
00000000: 517e 6aeb 8231 0f40 2fe6 880d ab3a 01c0
00000010: 36fd bc5f b48d cabf 0403 38bf 9689 0dc0
00000020: b8d8 47b3 2b10 dd3f 2731 697d fd86 0040
00000030: bb7b ba1a 377e 16c0 2e53 425a ad3b e8bf
00000040: 0e61 1d3b 7f08 0440 c12b 2e6f 6ca6 eebf
00000050: 8850 e9c5 3730 f43f f019 ddf7 65f5 f63f
00000060: 52e0 1160 f155 f53f 8ea1 6720 1c5f d53f
00000070: ba1e f40b cf0c f5bf f126 987f bf27 b6bf
00000080: b31d fc2e 38ff d3bf 8155 f5cf 62c4 d5bf
00000090: 55e2 c870 179d ff3f 8043 ebb7 4e05 e7bf
000000a0: b90b d17a c528 e93f 59ad 2b0c 8200 c83f
000000b0: 1382 a482 ed65 fb3f cb89 de5a 45af ee3f
000000c0: fdf9 5818 11bf c23f 40da 524a e85e e0bf
000000d0: 8241 d954 6a5f f13f 6106 e179 37c5 e2bf
000000e0: bf69 fbf6 1dd7 e53f 31f8 46cd 1cfb e23f
000000f0: a026 9ccc 2147 d83f 3d59 f8f3 ef7e f83f
00000100: f721 db2d 9e9e f8bf c1fa 7b0a a716 c03f
00000110: e550 2290 fc80 df3f bda6 d178 628e bdbf
00000120: ccf4 4626 c362 abbf ffed fdb0 ca6f f4bf
00000130: 7d51 3dc3 ba03 febf 8ad7 5193 aac4 e8bf
00000140: 8c42 522d 9f4a 11c0 eed1 9800 a159 fdbf
00000150: c53b 75c9 5eb9 e4bf 8549 69e7 e0fe c0bf
00000160: ba48 8614 a8b5 f2bf 842b 7fe1 41ba fbbf
00000170: 61e7 a0a2 5801 e93f 1f9c 4feb 6cb8 07c0
00000180: 0259 6416 93ef e43f 18fb 6af4 6b27 d33f
00000190: 2d14 bfa9 7e7b e6bf 45c3 1b9f ebd5 05c0
000001a0: 4288 8ee7 1a36 e6bf c377 c478 0a48 c13f
000001b0: 4715 6bca 3804 8d3f f0b2 4502 c683 f1bf
000001c0: 93af 1b6d fb3f e33f dc19 f3e7 351f bebf
000001d0: d2dc d935 899a fd3f 7cb7 f9fc 983c d6bf
000001e0: 8c73 a152 62f9 e13f bbc0 5c19 ea20 e7bf
000001f0: a9a6 6479 069e dfbf 7f22 628d 16d3 d3bf
00000200: 1573 b21b 1973 05c0 652a 322f b31a e03f
00000210: c8ac 9b2d ed0e b43f 884f 9a59 ce7c d4bf
00000220: 7b55 4c50 a6d1 f3bf da84 cbd9 964d c93f
00000230: 9a4f 8da2 f01e 0640 1e62 48a8 9821 d4bf
3.8991754905580724 -2.1536465699580485 -0.20744948076933561 -3.6921820582359732 0.4541119814670185 2.0659131810881664 -5.623257081634558 -0.7572848093865099
2.5041489237156673 -0.9578153773776351 1.261771939364765 1.4349116975951084 1.3334821465232563 0.3339300457432949 -1.3156271426141033 -0.08654400696846289
-0.31245236004221083 -0.3401114493220448 1.9758524327900393 -0.7193978874366707 0.7862269781838825 0.1875155028750253 1.712384710619635 0.9588953757086583
0.1464558953175156 -0.5115853740342757 1.0857947649384134 -0.586574304623536 0.6825094055050654 0.5931533822365563 0.37934155446473916 1.5309905557711112
-1.5387250701188557 0.12569129955223526 0.4922477157172252 -0.11545386743241699 -0.05348787157297749 -1.2772929109331697 -1.8759105326217587 -0.77400711797121
-4.322872837205647 -1.8343820594137656 -0.6476282057500319 -0.13277827548388302 -1.1693497468700529 -1.7329729851214504 0.7814143349016655 -2.9650514968557355
0.6542449414580747 0.2992811095136161 -0.7025750460967451 -2.729453318629029 -0.6941046259492014 0.13501101395462287 0.01416820876819237 -1.0946712578544826
0.6015603190439712 -0.11766373551208836 1.8502285102420513 -0.34744858460077643 0.5616923917656194 -0.7227678771360141 -0.4940200982551724 -0.3097587948509854
-2.6812002338250616 0.5032592698856432 0.07835275996665125 -0.320117557051383 -1.2386839996955519 0.19768033632775578 2.7651074122786214 -0.3145505565057948

w3 f8 [9, 8]
00000000: b0a3 b52b bb0e 0fc0 7bb3 9a68 4c0d 1140
00000010: 67e3 3b42 8de1 1640 46c2 cb31 5211 f1bf
00000020: 7f03 973a 985e dd3f a469 443e ea8a 0d40
00000030: 2a4e 3e40 9633 0840 2503 39e7 97cc f2bf
00000040: 4ccd ab75 0931 0cc0 143b af44 8121 efbf
00000050: 6d41 7427 0e85 f93f 5e91 8d21 9267 dbbf
00000060: f030 9eb7 c097 a43f fdda b776 db3f cbbf
00000070: 706c 4f05 b017 c43f 1d14 03ec dd39 fa3f
00000080: 5cba b0d9 63e6 e1bf 6196 fbdd f955 d73f
00000090: c0d2 99f7 0a1a d5bf 0bbc 08a4 42fe b13f
000000a0: 8b09 129e e062 dabf 638f d57c 0e64 f6bf
000000b0: 2fba faa6 c7ea d23f 63d2 12fa 1ad2 ebbf
000000c0: 27c9 8b48 cca7 98bf 1bf4 7af8 6c26 c83f
000000d0: a527 d5e0 f90b afbf 67a3 ea9c fe05 dbbf
000000e0: 1532 ffd4 952b 08c0 7200 1971 5821 d7bf
000000f0: c189 90f1 b147 ca3f 728d 408e 6a08 e4bf
00000100: 03ac ecf3 96f1 f5bf 90e0 0aaf 4df3 9ebf
00000110: ed48 1136 eff9 f63f 6799 550f 29f2 eb3f
00000120: 8f1a 6b6e ad08 f0bf 5a5e 9d1f 51bf f3bf
00000130: 65c2 4192 cac0 e2bf 9934 d656 6ef3 dc3f
00000140: 1f15 6c8a 502e f3bf 2548 5f05 a4a3 efbf
00000150: e9c4 b826 bcfa e2bf cc5c c899 b599 fdbf
00000160: b34c cefa 8ff7 f6bf 8cc4 fed8 80e2 f03f
00000170: 84ca d242 ef8d c3bf 6dad b747 2490 e6bf
00000180: 816d 596a 13d3 03c0 538f e973 39f5 d4bf
00000190: b430 c65f 8518 b9bf a5cd 5b01 bbdc c3bf
000001a0: 3c80 3e6b 9d58 ef3f 28f4 1554 29d8 ebbf
000001b0: d8b6 0db1 6fc8 28bf 9953 0ca2 ad27 f13f
000001c0: ca6c d85a 8015 ce3f a43a 8c06 2444 ecbf
000001d0: 9891 f326 89be b9bf 5905 2d4d 8f32 04c0
000001e0: 9336 ca0d 187b f7bf 8215 19e8 e503 973f
000001f0: 9ea8 3ae0 79c1 01c0 a891 d6bc fc1f dc3f
00000200: c987 b141 ccc4 00c0 68c8 0ee1 0504 c0bf
00000210: d1b9 ab63 d547 c43f 111a 6697 9076 d9bf
00000220: 1950 e0b9 2f8a 0140 a741 d00c 793a db3f
00000230: a9de 6d99 5f37 963f f90f 5386 fe17 debf
-3.882192937355704 4.262986788217741 5.720265421777049 -1.066728777423252 0.45889859887761725 3.6928295960071456 3.025188924695404 -1.1749495536934742
-3.5239438241057197 -0.97283996024075 1.5949842015434925 -0.4281964614549646 0.040220281996058094 -0.2128862695387496 0.15697288760461303 1.6391276568622353
-0.5593737842335247 0.364622561245005 -0.32971452884457264 0.07028595452059976 -0.41228499828880477 -1.3994278789841352 0.2955798273714291 -0.8693976291893474
-0.024077598502978106 0.18867265827967192 -0.060638245292081984 -0.42224088024027256 -3.021281875646546 -0.36141024632161767 0.205312960578409 -0.6260273722040621
-1.3714818504620332 -0.03022500401377265 1.4360191452038251 0.8733105945109799 -1.0021185219972357 -1.2342082247686421 -0.5860340935306111 0.4523578498854675
-1.1988072783581811 -0.9887256722379375 -0.5931072956356306 -1.8500267035613431 -1.435440044126875 1.0552986599325633 -0.15276900065289933 -0.7050954247219302
-2.4780643757382568 -0.3274673110920407 -0.09803041065441925 -0.1551736599572965 0.9795672506916229 -0.8701368944454133 -0.00018907893584290433 1.0721870737081416
0.23503117023287806 -0.8833179595838669 -0.10056359482729815 -2.5246873883594785 -1.4675522364299567 0.022475807467591043 -2.2194707410718157 0.439452347194925
-2.0960927135756475 -0.12512277115962722 0.15844218603838425 -0.39786162171404366 2.1924738427715167 0.42544389964407475 0.021695607890676403 -0.470214492012246

w4 f8 [9, 8]
00000000: 4778 d6eb eca3 18c0 5bdf fee9 9788 1240
00000010: bbbb 3921 d3a3 f63f 7093 10cb f2c2 00c0
00000020: d695 2dfd 1a55 1040 9e51 2ed5 8005 1940
00000030: 0fce e419 ced2 f2bf 821a 3853 d6d9 ef3f
00000040: 6ab3 1daa 439b 03c0 b0ae 08f4 99ca 06c0
00000050: 8bbd f69c ae89 c1bf 73be f987 5471 f43f
00000060: f4a0 4440 60b4 07c0 84b8 9d05 7090 e73f
00000070: 35b1 1829 a3ed b3bf 32ff 3e48 6a8b 05c0
00000080: ac54 23cd 1a2c eb3f ad99 fd3b 039d dc3f
00000090: b2f3 1ddb d58a 02c0 4b28 4bec 46e7 f7bf
000000a0: 994b 11aa cfe0 c53f 70a1 21c5 21c4 0740
000000b0: 2516 d530 095e e4bf 05e6 78e4 509c ff3f
000000c0: 3d04 db7b 3ede cf3f f7a2 8c96 0c20 f63f
000000d0: 8ecb 1503 eaef cb3f 3aee e944 0d7a 96bf
000000e0: 285b 3701 c40c d7bf ed5a b194 f179 fa3f
000000f0: 6f4b 34c9 6b7a d4bf 88cb c160 af5d d33f
00000100: 77f9 e221 f928 fabf 16c0 131e 8513 e23f
00000110: 2f51 545d a68a e0bf b045 88bf 07a6 f6bf
00000120: 97c4 9ddd b8f1 d13f 61de 69fa 1dd9 ddbf
00000130: b6f6 9528 6c53 e73f a011 d9cd 0a92 edbf
00000140: cedd e2d3 3ecc c5bf e13e 6e6b 1620 03c0
00000150: 4d43 5472 7fb2 f73f 8cda a57d bde8 acbf
00000160: 7295 f9f5 43e4 fabf b8b4 b8cc 46b4 e6bf
00000170: da71 0dc1 835c 0240 ae81 fd85 e887 eb3f
00000180: 324a 807d c569 08c0 a7aa a898 02af e0bf
00000190: 9f50 9532 cbe4 d6bf 2094 c231 aeb9 bebf
000001a0: 0a66 ad09 a88a e83f fd75 3cd4 91b8 dd3f
000001b0: 9b5f 6d17 d7b3 f0bf 8c48 20d9 375e f3bf
000001c0: a210 35f9 b4a0 eabf 3262 fd69 55b9 f73f
000001d0: 415f 5bc9 f49f e43f 9a27 e3a4 a886 e3bf
000001e0: 524a 87c0 f0a1 fd3f c811 b719 f3ac f83f
000001f0: caeb 1298 fe2e 0640 ada2 3240 c2e8 e0bf
00000200: c7c8 ac16 4c2f e73f cfd7 3ad9 2195 b43f
00000210: ca23 7f75 eca8 00c0 e66f ae9f 40a5 c13f
00000220: c183 8f57 9fc5 ebbf e6c8 6b8d abb1 cebf
00000230: ad36 ba7e 2ee5 03c0 00e6 55b5 c398 f2bf
-6.160083470311355 4.633392006093199 1.414996270930472 -2.095189653819425 4.083110767276102 6.255374270393444 -1.176466084620987 0.9953414559721099
-2.450812653571508 -2.8489264550351763 -0.13701422371148583 1.277668505816021 -2.963074209303267 0.7363815412225141 -0.07784480813342472 -2.693073810980331
0.8491338736154339 0.4470832906576117 -2.317790710307656 -1.493964121839343 0.17092319301681583 2.97076753624804 -0.6364789918667993 1.9756630825708055
0.24896985099442928 1.3828245049318733 0.21825909758225887 -0.021949965792812366 -0.3601541530492107 1.6547714050590756 -0.31997198723654824 0.3025930828945822
-1.6350032161422783 0.5648828113025981 -0.5169250319327484 -1.4155347329836836 0.28037854807105006 -0.46637677626083557 0.7289334099475215 -0.9240774174182214
-0.1702955755806514 -2.3906677620906156 1.481078573797464 -0.05646316679751803 -1.6807288750072442 -0.7095064161745972 2.295173176024247 0.860340367984511
-3.051646213986964 -0.5213635427110902 -0.3577144617058909 -0.12002075877042317 0.7669258297930253 0.464390237104311 -1.0439062991262975 -1.2105024796951822
-0.8321175448732172 1.4827474727845922 0.644525903010596 -0.6101878376441505 1.852036239685408 1.5422240261551554 2.77294653709166 -0.5284129384864024
0.7245235865468879 0.08040057710135716 -2.082482259695529 0.13785560414260017 -0.8678738317649889 -0.23979706197093903 -2.486905088479793 -1.16229601701923

w5 f8 [9, 1]
00000000: 032f 3306 7e31 1c40 6aab 2eef 625e d8bf
00000010: d6f0 7040 71b0 eb3f 071a 8833 2ac4 e83f
00000020: 218d 926f c4e6 e5bf e295 4f16 2c5d fc3f
00000030: 1780 9e7a f9a5 e03f 0354 5dff e003 ec3f
00000040: 22b4 90cd 12f4 ab3f
7.048332306741716 -0.38076089246413025 0.8652883776299187 0.7739459043958171 -0.6844198397779203 1.7727471229094296 0.5202605624108426 0.8754734981145024
0.05459650763837255
