Code/Models/run_20251105_110618/model_hidden_5_width_18_act_LRELU.npz (npz, 12822 bytes, 6 tensors)

w0 f8 [2, 18]
-0.8611681703198923 -0.8433628058498777 -1.5804756807721323 -1.586635598209057 -0.972578281422489 -1.2102518431043567 -0.3316042033304416 1.9199241662563646
-3.0767601744701403 -2.1480738954880083 0.3235380651093197 -2.4805286684322074 -1.589304353943424 -0.8277245159600715 -3.092916211975765 -0.8835699037434689
-0.9827974959163942 -0.802312151334833 0.18962562964674423 0.00046321172377871 -0.36879716339245855 0.2807956332986764 0.0055863492934520136 0.1689084665823753
0.0024683456351571468 0.16871951453970083 -0.015107181466704273 0.266794714001374 -0.27906361698976423 0.0059746043319592245 0.4951455459204327 0.008276469233636483
-0.2640916494220812 -0.0029133014684948415 -0.0010969866113427356 1.949119196682931e-05
00000000: be29 fc8c b08e ebbf 7a37 b9fe d3fc eabf
00000010: 62a2 10de a049 f9bf 01a3 4f02 dc62 f9bf
00000020: 9e4d f07c 5c1f efbf 35e9 6009 315d f3bf
00000030: ec4d 21d6 0039 d5bf 3ef0 0d67 02b8 fe3f
00000040: 45e0 3770 349d 08c0 3a19 d45d 412f 01c0
00000050: 1ef6 2900 d9b4 d43f 71a7 1d6a 1fd8 03c0
00000060: 173d f966 ca6d f9bf 84ab c41f b87c eabf
00000070: 07a2 ddda 4abe 08c0 afdb 0964 3446 ecbf
00000080: c3a6 f1bb 1373 efbf 0e54 6588 8aac e9bf
00000090: 6878 e812 a745 c83f 18b7 6a34 675b 3e3f
000000a0: 1134 e86a 5f9a d7bf b627 783f 8ef8 d13f
000000b0: ec7f 4f38 b6e1 763f 5a91 fee9 ca9e c53f
000000c0: a236 e7f8 7e38 643f bd8f 92de 9998 c53f
000000d0: ea81 ac92 83f0 8ebf b86b d822 2a13 d13f
000000e0: 545e 1ea5 2ddc d1bf b799 65a3 d378 783f
000000f0: b640 9ff1 76b0 df3f 5282 7ae5 40f3 803f
00000100: c287 5aa9 e0e6 d0bf 9376 fad0 a2dd 67bf
00000110: 45e6 ab67 18f9 51bf bdd1 4e83 2070 f43e

w1 f8 [19, 18]
-0.1318051037421565 -3.8584728962505612 -2.115202840241379 0.09206300025083113 -2.9416923888099187 -0.9757071633647987 -1.5568010296042059 0.629961840846283
0.8902771703007674 1.322023516644352 8.661645023974012 0.2892148984503309 0.5777175622647831 -0.744786492511206 -2.4718461132985916 -1.2538574149334825
1.4859304116018663 -2.809533201049606 -0.15984883549661263 0.0765109517824216 -1.181207748962354 -1.3750818919209038 2.138152570389263 0.6069159429137009
-1.2220563081918565 2.314750869565255 2.0656720841059286 0.2912273139788524 -0.07273314432465511 -0.32304653086598717 -1.4763748278806275 1.050597267749369
0.41996625013366623 -2.2088641200714862 -0.49666600103134506 -1.4280006315237979 1.2312671738036378 -1.3037462270998283 -0.3741919459123444 -0.9424513536106298
0.46512195292075775 1.3546294920371347 0.8291143799856812 -0.45200204430293434 -0.7504017886809262 0.22495873518384496 -0.02017446466237211 -1.5618863957703404
-0.6978748494739363 1.320437471124208 0.34295377871976984 0.562243092194092 -0.1315549166549398 2.022327500169156 1.0552356034648263 1.4388291269407258
-1.3466295173390825 -1.2190014673335698 3.2134340539438924 -0.9148955022080488 -0.5411913604158858 3.7129111977858793 2.3825644016033483 3.1299110126403673
-0.6928296022789309 -0.48284699444922 0.5177092126407868 -1.2968211272685877 2.963041960686709 -0.3303142941384821 0.1074647938387022 2.6785566403930563
1.1991391594947187 1.3360087877810802 0.40003506007297757 -0.6180273156948753 1.0951649962961512 -0.5835618210391239 0.40521455452204064 0.6404911784025524
1.1463638267454948 2.4565223931530284 -0.9201960019118482 -0.2865026737172118 0.11853935160299442 0.3799457200305944 -0.08164567017465331 0.10669607340321907
-0.8006341804099835 -0.3696555820672796 0.3005547007747642 -1.2763295057105128 1.1239124645579268 0.6532474279311735 0.5212255169371572 0.10839986546305348
2.0819878651589665 -2.067979408718436 0.5458054208946648 -0.649313320159949 -0.4514529249003349 -1.870098404792148 -0.8091526906897328 0.25929040774041767
-0.7235084383948653 0.21782778476487358 -0.3022078009966621 0.2887961452960234 3.7363113037756555 1.3050327316514778 0.8551619563880422 0.15733145713734542
2.373076211169465 0.23762379338458478 -1.2927566796818573 1.190176211280634 2.07350549838071 0.007370409870454349 -0.741205358216583 -0.15087066595160603
1.6162346723249996 2.703715298709047 -0.23491500163512208 1.5629079830848904 -1.3181414435793173 2.6274913991205415 -0.056359272929478864 1.8191852524599004
0.1517542160646903 -0.0004819575633781731 -0.9813560553191415 0.8179651549329227 1.6599430541476266 1.1639983597086132 1.754767213028616 -3.1953515900948024
0.4243901054806915 -2.0673642452884957 -1.5747713580987184 0.5631798344167598 0.4921611145806178 -0.511906892897359 0.7415545967899229 -2.110131802501973
2.1102252104989287 0.7727869983330049 0.35528620947496936 0.10629697878852885 0.40133909281088553 -0.7714022109130397 -0.4983775323450512 -0.1785366437625993
1.214678606048557 -0.18778460930456242 0.5426492143790188 -0.3357637777698208 -0.5682291640860452 1.3248607925897524 -1.0975611242723904 1.0019835077481218
-1.5338671332549223 1.6132744127402128 0.8189224730679778 0.5302058299688044 -0.06381333517026126 0.5909532789436055 -0.5266995217605659 -0.22477555408047836
-0.6428941910762551 0.07012538442649784 0.6380628478852427 0.2352603582310401 -0.9121352066170355 -2.0791171185899318 0.8049087201098216 1.855173759744449
-0.30888740262574305 0.6631611611981069 -1.3694269127742493 -0.10973523008421303 0.3312710615753085 0.11402408526075354 0.4617217510216617 -1.2878043891603859
-0.3778396956893682 1.2407172394940287 1.0681737202257042 0.035710184769846456 0.6739918511791061 -2.7825217050225035 -1.345613706534753 -0.6531312186714937
-2.2621159562376927 3.531440319684862 -0.6812401827696426 -0.0698335008516772 -0.8988446409576717 -0.5186398152900141 2.4583520689561187 -0.023864685750503718
-0.1461663664285555 -0.7713200952636022 1.2715199542570885 1.616709215216934 -1.0203533506013782 0.644389458039848 0.9444471048840483 -0.29293542220027113
-2.2572395825416063 1.3018313922407756 -0.5143626964567367 0.3703153916094165 -1.5714807150763443 0.574911872809372 -1.717513470522082 0.2156358325773771
2.877624393105394 1.9961790326667113 0.40629007729050487 -0.7647221385637727 1.776579698673621 0.6587514130520485 -0.6073962698347911 1.6952604488627214
0.40504733961810585 -0.13680651194439164 0.4623044834561793 -0.8973290888447126 -0.5359092277731645 -1.0923277615948381 0.37950217741567943 2.60773096599973
0.2528636786215788 1.0859626192799585 1.637350062126015 3.3436969088630035 -0.3621611712345734 -1.340096795385194 -0.27079729606352093 0.5511845104604488
-0.3023500830921375 0.7328208931247444 -1.3336504557148339 1.1247505235941577 -0.39483787084239635 -1.4939975592031558 0.14145400056833085 -0.10362609245096366
0.3937925962321179 -0.816256612199936 -0.6996705424700649 -1.38191505011563 1.3997184655585888 -0.21290998605631808 -1.4062971339127495 0.5448317394544082
00000000: 8d5c 0259 fdde c0bf 4130 af09 27de 0ec0
00000010: bdf1 7977 efeb 00c0 cfbb 3fd7 7091 b73f
00000020: 4fa5 e604 9688 07c0 defd a33a fe38 efbf
00000030: 9277 4832 a8e8 f8bf 3035 05bc a528 e43f
00000040: a726 5a8c 267d ec3f 887c 8821 0227 f53f
00000050: 1d0f f722 c352 2140 680c 9734 7f82 d23f
00000060: 1911 888a a97c e23f 5cd2 7a7b 4ad5 e7bf
00000070: b5e5 4a41 57c6 03c0 55c8 efca cc0f f4bf
00000080: ad63 9ff7 5ec6 f73f 2546 fc8a ec79 06c0
00000090: 437d 6138 ed75 c4bf 3efb b0c3 3896 b33f
000000a0: 9033 b918 3ae6 f2bf 13f4 b1de 5500 f6bf
000000b0: 1971 1dbc ef1a 0140 f987 c7fb da6b e33f
000000c0: 51df 58ea 8a8d f3bf d75c 991a 9c84 0240
000000d0: 04f6 eb15 7f86 0040 186e 4fe3 77a3 d23f
000000e0: 14ab 35ac a39e b2bf 7df6 495b cbac d4bf
000000f0: a628 2636 3b9f f7bf 0702 a414 3fcf f03f
00000100: cfdc 6f1f bae0 da3f 6a1e a8f3 c0ab 01c0
00000110: 20be dd31 60c9 dfbf 31fe b030 17d9 f6bf
00000120: e3ff 4135 45b3 f33f 9dd5 fa00 25dc f4bf
00000130: 0cb0 87c6 c2f2 d7bf c883 babd 8f28 eebf
00000140: 4890 1cde 8ec4 dd3f 04f2 67f9 8fac f53f
00000150: 73d1 55e1 1a88 ea3f 5666 80fb 99ed dcbf
00000160: cad2 a79c 4a03 e8bf b235 48a5 72cb cc3f
00000170: 92bc c167 9da8 94bf 306a de96 7cfd f8bf
00000180: 9920 e6a2 fd54 e6bf 3f43 ae0a 8320 f53f
00000190: ac06 e967 f4f2 d53f 6804 ac39 e5fd e13f
000001a0: bc9a 54a0 cad6 c0bf 4339 580a ba2d 0040
000001b0: d04c 67ba 3ee2 f03f e5e1 cbb0 7105 f73f
000001c0: 43cb 8c64 cb8b f5bf 4194 bfae 0781 f3bf
000001d0: 7055 cce9 1cb5 0940 cfb6 a7ee d246 edbf
000001e0: b6a5 3b8b 7051 e1bf 528a 3bc9 0ab4 0d40
000001f0: 6400 ccec 7d0f 0340 e971 f5c8 0e0a 0940
00000200: 64a3 6ffc a82b e6bf 1d67 8814 f7e6 debf
00000210: b129 24e9 1291 e03f 4616 a682 c7bf f4bf
00000220: df99 ee57 4fb4 0740 8278 ae90 de23 d5bf
00000230: 2634 020f d082 bb3f 44c6 971a af6d 0540
00000240: b91f 168b ac2f f33f 7503 2bc0 4a60 f53f
00000250: cf13 11a7 2c9a d93f 8936 9e38 e1c6 e3bf
00000260: 0d0e 2dbb cb85 f13f edd4 11d7 89ac e2bf
00000270: 8f43 e206 09ef d93f e2b1 135b e77e e43f
00000280: 6a07 9398 8157 f23f 0ddf 6336 f5a6 0340
00000290: 08e2 c3e2 3e72 edbf 373f 754f 0f56 d2bf
000002a0: 1e85 6c4e 9858 be3f 3f57 72da 0751 d83f
000002b0: 7198 420b bbe6 b4bf 88e1 e011 6f50 bb3f
000002c0: e875 9d92 cb9e e9bf e1d1 f0e2 6fa8 d7bf
000002d0: bc25 9fc8 493c d33f db24 df7c d86b f4bf
000002e0: 277d eda2 8bfb f13f e022 6526 67e7 e43f
000002f0: bfbe a222 e1ad e03f 39fb 0df5 17c0 bb3f
00000300: 8436 fc40 e9a7 0040 10fa c9c9 388b 00c0
00000310: 721b 17ee 3c77 e13f 8c36 5eba 2cc7 e4bf
00000320: d359 08cf 9ae4 dcbf 0d25 0e4e eceb fdbf
00000330: 2673 ff2e 94e4 e9bf a457 5acb 3698 d03f
00000340: ba26 292b fb26 e7bf 4ad5 dce5 c7e1 cb3f
00000350: 821c 7863 5f57 d3bf 5a77 d0d3 a27b d23f
00000360: eb21 4b2e f7e3 0d40 3871 6a00 6ae1 f43f
00000370: 660a 6f9b 7c5d eb3f f0b9 84eb 6f23 c43f
00000380: 881b 6f61 0ffc 0240 de4b abda 746a ce3f
00000390: bcb4 cea0 21af f4bf 14d7 fe35 f60a f33f
000003a0: 7cf8 fc0c 8a96 0040 08a2 a055 6f30 7e3f
000003b0: 4420 a54c f4b7 e7bf bc0c 18e0 ba4f c3bf
000003c0: 20c1 44e3 18dc f93f ab33 8d7c 35a1 0540
000003d0: da6a aedc b111 cebf 5e1c 20cd ab01 f93f
000003e0: 6dce 7a7b 1b17 f5bf bbf3 ed35 1a05 0540
000003f0: 23ed 1d64 1fdb acbf 75e4 cafe 611b fd3f
00000400: 4894 83a1 ae6c c33f 5265 07f9 e795 3fbf
00000410: 1379 6ad0 4467 efbf 118b b642 c52c ea3f
00000420: 2695 ac72 208f fa3f fbbc 78be bc9f f23f
00000430: c7d0 00c9 8613 fc3f 216e 957e 1490 09c0
00000440: 9f46 f21d 3529 db3f 7278 f343 f689 00c0
00000450: 4e62 9b73 4332 f9bf 12c6 52b7 9105 e23f
00000460: 7925 df54 917f df3f 8dea 7290 8a61 e0bf
00000470: 6e28 adb4 d0ba e73f cbf6 4fc8 8ce1 00c0
00000480: 094d 52c1 bde1 0040 0aa8 93cc abba e83f
00000490: 108c 9a5e 02bd d63f 4172 8f5f 4736 bb3f
000004a0: f4a8 8e29 8aaf d93f 0de0 7db0 53af e8bf
000004b0: 60ec 9ee0 6ae5 dfbf 2a8a 0ceb 49da c6bf
000004c0: 1b12 82d5 526f f33f acde d379 5309 c8bf
000004d0: c3a7 9ee2 615d e13f 8cfa 2c5b 277d d5bf
000004e0: 6341 8ced ee2e e2bf 5dcf fe3a a132 f53f
000004f0: 48c6 e140 9c8f f1bf 808d cedb 1f08 f03f
00000500: 9fd3 5b43 b88a f8bf ca15 a3d4 f8cf f93f
00000510: 3c2a f9e6 9c34 ea3f 68aa 7b37 72f7 e03f
00000520: 93de 9a1b 1256 b0bf 25db d0d9 16e9 e23f
00000530: 9ef9 98f4 b8da e0bf b9a3 db02 72c5 ccbf
00000540: 9ebf aed6 9692 e4bf 4732 bbb8 bcf3 b13f
00000550: 31b6 0ec7 026b e43f 4de3 52ec 021d ce3f
00000560: 6f69 3e2c 3630 edbf 1a2e e727 08a2 00c0
00000570: 7f61 a4ee cfc1 e93f 0fff 27ae caae fd3f
00000580: 0322 1bab cfc4 d3bf 1758 6ac1 9d38 e53f
00000590: d60a ca31 2ce9 f5bf 5744 6ea8 9b17 bcbf
000005a0: 10f0 e489 8b33 d53f 75b8 26b5 ae30 bd3f
000005b0: 625a 1f63 d98c dd3f 036d 71c6 d89a f4bf
000005c0: 9173 078c 862e d8bf 325d f351 fad9 f33f
000005d0: 8e0e ad53 3d17 f13f 82f3 70f7 9a48 a23f
000005e0: 5ab6 d25b 5791 e53f c0da 5bbd 9a42 06c0
000005f0: 92db e93c a287 f5bf 221a 0671 73e6 e4bf
00000600: bf67 1e40 d018 02c0 0194 46c8 6340 0c40
00000610: 06ef 3636 b8cc e5bf 6ab9 52ba 9be0 b1bf
00000620: 5323 23d6 55c3 ecbf f55e a286 b298 e0bf
00000630: 84c3 517d b4aa 0340 a298 4ff3 fb6f 98bf
00000640: 6ffb ca59 94b5 c2bf edf3 fc7a a7ae e8bf
00000650: 06ee bb4e 2558 f43f 17fa 677b 0ade f93f
00000660: ac26 f308 5e53 f0bf cf62 05a4 d69e e43f
00000670: 7fec 8822 e938 ee3f e02a 8c36 74bf d2bf
00000680: ec05 52a0 d30e 02c0 d348 6927 4dd4 f43f
00000690: c60c f2c1 a875 e0bf 7ebe 0a54 3fb3 d73f
000006a0: f1c2 58f6 c824 f9bf 338c 7995 ad65 e23f
000006b0: 104f a567 ef7a fbbf 11fe 6178 f499 cb3f
000006c0: e379 14f0 5f05 0740 263b e46c 59f0 ff3f
000006d0: dfba a918 a800 da3f 1f13 f58f 9a78 e8bf
000006e0: dca6 88d5 de6c fc3f 2313 e8d7 7d14 e53f
000006f0: e5e3 544d ca6f e3bf 2c15 a16b c91f fb3f
00000700: e175 3fad 4bec d93f dc2a 5733 e082 c1bf
00000710: fb42 4f8b 6596 dd3f f5cc 4a7e ebb6 ecbf
00000720: a421 dd1b 2b26 e1bf e100 c9ac 2c7a f1bf
00000730: 67b6 3080 c349 d83f f4e1 7d0d a2dc 0440
00000740: eda8 8123 eb2e d03f 55c6 e756 1a60 f13f
00000750: f4f4 8efa 9532 fa3f 536c 3a2a e4bf 0a40
00000760: dd58 950c a62d d7bf 0476 5a56 0971 f5bf
00000770: 0b09 9c2e be54 d1bf 25a9 cfb2 4da3 e13f
00000780: 14b6 b429 b459 d3bf 327b 39cd 4473 e73f
00000790: 8a73 39dc a156 f5bf bbee af67 fafe f13f
000007a0: 2162 9f0f 0645 d9bf 534d 11fc 69e7 f7bf
000007b0: 0628 2a29 2a1b c23f 48d3 1656 3d87 babf
000007c0: 0954 8edc e533 d93f fe5b d12f c61e eabf
000007d0: b245 3c7a b363 e6bf a08c a1f4 521c f6bf
000007e0: 2fe7 9230 3f65 f63f 1d46 8d69 a240 cbbf
000007f0: 17d2 696c 3180 f6bf 78f1 d8f8 426f e13f

w2 f8 [19, 18]
-2.8609778432838904 -1.0046363514955448 -5.2811261825870615 -1.2418199781883255 -3.648075770042507 -1.7977819659704273 -1.9378841292121392 -3.1529260177590244
-0.5319348068516114 -1.7404524833989843 -1.5062477517482429 -1.3358675691579147 1.2117427635716342 -4.008298332428771 -0.5066026706044896 -4.548856509757887
-0.93858184639003 -1.0578073096044596 -2.74034636036377 0.12063318548896342 0.44909075292109096 0.14040876435038913 -2.404796239888474 -0.38377682084205744
-0.31881965746067464 -0.7824641194257682 -2.1852425485714426 -1.1167088651345756 -0.5790371332554872 -2.0125460992685147 -0.6223538286459948 -2.214436638926111
-0.7460597410393325 -3.1430401085673734 -2.2172711647448256 -0.8675375153283005 0.2588729294259282 -1.0369253959987783 -2.6019474254715127 -0.5850204992347284
0.49569200355348514 -2.258596716681039 -0.4149586095310753 -1.4831455314024753 0.36058722514857966 -0.9034024469110781 -1.94272634359565 -2.0305453775942466
-0.9987436759581222 -2.2341732547373043 0.41409090920555336 -0.6715998770019104 -0.31548347432309176 -1.7283662939665154 -1.529599708305106 -0.5622716264645986
-1.7316544848340394 0.8330287249431184 0.1859911340802746 -0.20685286678869513 -0.5535188049514201 -1.637019931740625 -0.1698432963608689 1.464483622251605
-1.607139813435422 2.075561540653753 1.4730370890384579 1.144827877868105 0.0633258772802466 2.127509892059305 -0.31687145143243234 1.0738317992668631
1.1509914716567107 0.3603967246171904 -1.6080062957994337 0.00833952203287201 -0.5347711125368574 -0.28310728659381634 -0.7470669746073719 0.625164885794269
1.8741284939330691 1.503305549252678 0.08110293159383225 1.8107917165986276 -0.931194698179912 1.0422170275133402 -0.5555774392880708 0.5572918343862794
0.9099384720752179 0.7146802052017478 -0.8818685298382588 -0.2923596104239067 -1.7960084752291485 0.5571205277437337 -2.6517962187826867 -0.48874511359049144
-1.2853720594651084 -0.951328137844796 -1.1737518607387825 -0.1793012771140467 -2.386805258797461 -1.3252446184822106 -0.16225204690333236 0.40497376399130475
-0.3027259505489992 -0.8246287207460556 0.06238869933270711 0.04373122274202995 0.7127465788681475 -0.7818831766200954 -0.7450600321155063 -0.17289766005958396
-1.9691754218202842 -2.412732100469174 0.45923310861289773 -1.2184310003379482 0.8246199205199867 -0.6330128494794105 -0.4389960443785756 1.7624067177775369
-1.5774563983082608 -2.846538150118842 -0.03373288324562088 0.2417991686765401 -0.6243923006712367 1.7825530457442718 0.985993201810362 0.28491591239376624
-0.23923679875321127 -0.08909372680007223 1.4851691345668567 0.48338803157082366 1.2754425990046498 0.5122352735107049 0.48956708876252625 -1.176389528838568
0.616216630971995 0.6497283524880373 0.3284076063041208 0.6055214623650194 1.1722912129829273 -0.195933981321252 -0.18875036851356347 0.7599835583350175
-2.5247733914665744 -0.06780618020376063 -0.6746146118950817 -2.0511487650950118 -1.2664711996574682 -1.2703728927113864 -2.345187155398977 -1.848148515547302
0.5341039054304652 -1.5731811552284671 -0.8715824862045306 0.751672378693019 -0.5095333138192274 2.4038317174530324 -1.582477934219366 -1.13522075819998
-1.1548857273982909 -0.5697982114514595 -0.4600367127734019 -1.2782685443255963 -1.1234578191789855 -1.101207882787316 -1.5278719908213703 0.4569084153716244
-0.35119322784854606 -0.3211810081858695 -0.57971392701988 -0.28187977619462823 0.43180686582733524 -1.299710969984804 0.03219325849323572 -2.5975179484004163
-0.5209083751960054 -1.3575954506340995 -1.8105066667833898 -0.08044406864346516 -0.5081626524512886 0.4385418726113019 -1.4147710235040492 -1.3924505592427188
0.7549224192495751 -1.055785896985733 -1.4327162495270902 -1.9672558750103661 -1.5158733749827686 -0.7296510858630633 -1.5339968518838154 -0.968981317335243
0.19405588263368342 -1.9774920476034021 -0.38809136516787407 0.7698532450021046 -0.37564434655840806 0.08337968001893163 -0.5307025676447321 -0.7898391441566709
0.6678880700618269 -0.8962901489591679 0.2503444511499228 0.3301040650523176 -1.725301961839186 -1.245067007945204 -1.802568339035405 0.8419088602316026
-0.7837926947025319 0.46963535136045065 -0.4052814681295146 -0.6683936139326555 1.057934820258037 -0.23471706588557137 -0.005637820591954742 -0.05823613408150439
0.36247742214237755 2.1774751855292607 -0.5770808411691164 -0.6858078031842142 0.7986901510235916 0.39933730668550543 -0.9220824338649488 -0.0013232399057569236
1.5352990349529094 0.10566139563080718 0.7873794133740968 -2.1011727330541374 0.2816440942647918 -0.9114839330834212 0.738557886494254 0.4155820253518731
1.3034471709857156 1.0816634108134626 0.15041635809821013 -1.4015568408638257 -2.1144638860834544 -0.8750623850439092 -0.2655240141984306 -0.20721854430925105
0.967991410308341 0.09257954555469476 -0.6963353379987021 0.9336310871698015 0.9379666596402384 -0.4592176897718179 -1.5121996434051224 0.2371264028210786
1.233136739527228 0.8918839706103179 -0.29048476352986613 -1.4105864607290852 4.717769260443796 -1.7283859599778242 0.502141582675389 -1.0949541543853927
00000000: 1fe1 fb59 48e3 06c0 eebc 2091 fd12 f0bf
00000010: 030b c18a df1f 15c0 a469 1da0 7ede f3bf
00000020: f94c 6d59 422f 0dc0 b6e7 d205 b7c3 fcbf
00000030: 0c75 e6c9 9201 ffbf 36dc a746 3139 09c0
00000040: 1404 e124 9c05 e1bf c80c 07b4 e4d8 fbbf
00000050: 6aea 163e 9719 f8bf cb1f 15ac b65f f5bf
00000060: fb46 4b61 4c63 f33f 5692 a95b 7f08 10c0
00000070: 5b00 cacd 1636 e0bf 656d de70 0732 12c0
00000080: c6a9 dbcb dc08 eebf cf88 835b c7ec f0bf
00000090: d9cc 6bb6 3aec 05c0 39c6 7c02 d1e1 be3f
000000a0: c3da 2e24 e7bd dc3f e274 7a15 eaf8 c13f
000000b0: 0beb 9ecf 053d 03c0 eeaf 9ea7 cc8f d8bf
000000c0: ae64 8790 8a67 d4bf 8244 6731 f209 e9bf
000000d0: 4b89 ff71 607b 01c0 1c80 6e1d 0ade f1bf
000000e0: a90f d0e1 7887 e2bf b667 f0c4 b119 00c0
000000f0: df65 9293 52ea e3bf b403 7a8e 2ab7 01c0
00000100: 8509 94ad b8df e7bf 5981 6236 f224 09c0
00000110: f78a 17aa f8bc 01c0 b86b 0c09 dec2 ebbf
00000120: 9c0f 6dc3 5f91 d03f 3e4e 8315 3f97 f0bf
00000130: 0b7e d2cf c9d0 04c0 f17c f6e8 7cb8 e2bf
00000140: e9a8 09f4 6ab9 df3f fcfb c727 9b11 02c0
00000150: 674b 488e ae8e dabf 9450 09cf f6ba f7bf
00000160: 2296 d770 dc13 d73f ab80 933f ace8 ecbf
00000170: b822 ed37 6815 ffbf 767d 2e93 8e3e 00c0
00000180: 6d76 2a4c b5f5 efbf 8a8e 353a 96df 01c0
00000190: e0f5 2628 7780 da3f 0511 7706 bf7d e5bf
000001a0: 465a 2999 e130 d4bf bc84 416a 63a7 fbbf
000001b0: df43 328b 3d79 f8bf 324b e410 21fe e1bf
000001c0: c457 4555 dbb4 fbbf f74b 48db 2ba8 ea3f
000001d0: e540 1cb7 8ece c73f 327c f89c 277a cabf
000001e0: 6498 9f11 6db6 e1bf 429e dbcf 3b31 fabf
000001f0: 4f4a a8d5 6cbd c5bf 7b92 f160 866e f73f
00000200: f7df ac3c d8b6 f9bf c38b 4f02 c09a 0040
00000210: 8771 b356 8f91 f73f a9e1 6f09 3751 f23f
00000220: 46bf e8eb 1f36 b03f 597d 02e8 2305 0140
00000230: ea0d 3c32 9f47 d4bf a218 b440 6a2e f13f
00000240: 05d9 8b08 766a f23f 183f 746c bd10 d73f
00000250: dd87 43cf 64ba f9bf 36e5 29b3 4f14 813f
00000260: 711f e64e d81c e1bf de80 4b06 6e1e d2bf
00000270: c887 fbff f8e7 e7bf b901 63ca 5901 e43f
00000280: b71b df28 6efc fd3f 17f8 9e1e 8a0d f83f
00000290: dc23 ce66 29c3 b43f 788a 2abc 00f9 fc3f
000002a0: a285 dcd2 58cc edbf e910 08c3 ebac f03f
000002b0: f467 8456 4ac7 e1bf 988a 60af 55d5 e13f
000002c0: bced 5d49 371e ed3f 1a15 8e05 a9de e63f
000002d0: 8bdc e059 4438 ecbf 6649 5c15 05b6 d2bf
000002e0: 162b 0762 73bc fcbf fadd d26d eed3 e13f
000002f0: f39f 9aef e036 05c0 a0dc bc95 9947 dfbf
00000300: 5584 e94a e290 f4bf f6da f9b4 4771 eebf
00000310: 1fe0 f707 b0c7 f2bf 96fd aa20 58f3 c6bf
00000320: b5a5 035b 2d18 03c0 274c 79b3 3334 f5bf
00000330: df55 94d1 acc4 c4bf cd29 0514 17eb d93f
00000340: b08a 50aa dc5f d3bf c24a 5ec5 5b63 eabf
00000350: b543 8c5e 69f1 af3f c872 fb56 f063 a63f
00000360: f262 d2e9 d1ce e63f 6307 1cde 2f05 e9bf
00000370: 18c5 ef22 88d7 e7bf 2863 c1b1 8221 c6bf
00000380: cbe1 4c16 be81 ffbf 2732 cc7c 464d 03c0
00000390: 63e6 ae43 1364 dd3f 1425 2e81 b17e f3bf
000003a0: 486e c850 4963 ea3f 62c7 ce29 a441 e4bf
000003b0: 6b7a 6bdd 8218 dcbf feae f162 d132 fc3f
000003c0: 5099 99eb 423d f9bf 379d 2ccb b5c5 06c0
000003d0: d5f0 adbc 6f45 a1bf 8e36 d570 46f3 ce3f
000003e0: a93a e88f 05fb e3bf 9db5 ad57 5685 fc3f
000003f0: 9952 7b9d 418d ef3f aad6 75f3 0f3c d23f
00000400: 0588 52b9 4f9f cebf e193 e2b2 d8ce b6bf
00000410: 72e4 dfb5 40c3 f73f dcf7 b75a d4ef de3f
00000420: 4667 aa7f 3668 f43f 45c1 723a 3b64 e03f
00000430: efb5 db32 1155 df3f f87e 9bd3 7dd2 f2bf
00000440: 26d5 a8f0 0bb8 e33f e60a 271d 93ca e43f
00000450: ac5d 3556 a104 d53f 8648 bc8b 6e60 e33f
00000460: c265 526e b4c1 f23f c294 f95c 5d14 c9bf
00000470: 82d5 efd9 f828 c8bf d17d 110a c951 e83f
00000480: 9047 5164 bc32 04c0 111c 71ee be5b b1bf
00000490: 8bc7 ef61 7196 e5bf ca82 0aaf c068 00c0
000004a0: e7ac fd4d 7743 f4bf a3b9 be86 7253 f4bf
000004b0: c580 bb7b f1c2 02c0 65d3 862d 0492 fdbf
000004c0: d3ab cf12 6117 e13f 7b3c c600 c02b f9bf
000004d0: 7d79 40f4 00e4 ebbf 9d60 793b b30d e83f
000004e0: 4d6f e2ce 184e e0bf e462 9c1f 0c3b 0340
000004f0: 31d2 e161 d451 f9bf 0a59 e33d dd29 f2bf
00000500: 6faf dc74 697a f2bf 201b 7075 c93b e2bf
00000510: 038d 14d3 3d71 ddbf b624 96b7 c973 f4bf
00000520: 95f2 fce7 aef9 f1bf e9b3 2a28 8c9e f1bf
00000530: cdd5 90e6 2972 f8bf ae73 52cb fc3d dd3f
00000540: 67ea 0b29 f379 d6bf a84b 90c9 3a8e d4bf
00000550: 75c1 b238 048d e2bf fa38 0a79 510a d2bf
00000560: a3aa ba43 b9a2 db3f 0d65 e5ba 9dcb f4bf
00000570: 4e9f c280 a27b a03f f138 797d b7c7 04c0
00000580: 29bd 750a 48ab e0bf dbbf da01 b6b8 f5bf
00000590: e164 b0d6 d5f7 fcbf c519 fb83 fb97 b4bf
000005a0: f475 aa52 de42 e0bf 6bb2 32ee 1111 dc3f
000005b0: 1374 d4f0 e6a2 f6bf 03e9 d33c 7a47 f6bf
000005c0: 4836 b60f 5328 e83f a41b b2c0 7fe4 f0bf
000005d0: 82aa c2df 67ec f6bf c088 e04b e179 ffbf
000005e0: a5d9 a670 0441 f8bf 53ba e83b 4d59 e7bf
000005f0: 8920 7048 408b f8bf c979 8c1b e501 efbf
00000600: eb08 c1ba d2d6 c83f 31e8 88b3 cea3 ffbf
00000610: 8362 502a 7dd6 d8bf cb1c c045 a3a2 e83f
00000620: 6052 d995 8e0a d8bf bb0e d5e6 5e58 b53f
00000630: cafe 7df3 83fb e0bf ed1c a8bd 5c46 e9bf
00000640: 37bb 49cd 565f e53f 0636 b0ad 68ae ecbf
00000650: 9f22 9bbb a405 d03f 7e49 ebcc 6c20 d53f
00000660: e02e dd3a d69a fbbf 6740 0762 cbeb f3bf
00000670: c864 0fe6 51d7 fcbf 2909 9dd9 eaf0 ea3f
00000680: 2fea d26a d414 e9bf e6de c86e 810e de3f
00000690: e6a1 d2ae 21f0 d9bf ad45 1601 7b63 e5bf
000006a0: 30ed e40f 4ded f03f 5b53 e574 350b cebf
000006b0: 16b5 02f1 ae17 77bf 2dac a666 20d1 adbf
000006c0: 16f4 6880 d432 d73f 0099 2d1c 786b 0140
000006d0: 5a06 7f3d 7277 e2bf db91 c034 23f2 e5bf
000006e0: 7913 c9a5 de8e e93f af5d 1210 be8e d93f
000006f0: 2f50 3505 b381 edbf 9be2 ad07 12ae 55bf
00000700: ed3f 8bb8 9590 f83f dc1c af0e a00c bb3f
00000710: 7c88 bf4f 3632 e93f 36b7 5da6 33cf 00c0
00000720: 05a5 7ef3 7406 d23f 2487 6d5a e02a edbf
00000730: 2f43 1626 44a2 e73f 6f45 ec59 e598 da3f
00000740: 6c28 b76b ebda f43f 0294 eb4a 7e4e f13f
00000750: b259 68dd d740 c33f 5fec afdd c66c f6bf
00000760: 7c69 ba0a 6cea 00c0 ae25 b7d4 8200 ecbf
00000770: c93b 526f 58fe d0bf 3d6b 7723 2386 cabf
00000780: eba9 421f c9f9 ee3f d39a 6f08 4bb3 b73f
00000790: ee1c f80b 6148 e6bf 0a8b 3d4d 4ee0 ed3f
000007a0: fd94 fca7 d203 ee3f ed22 d497 d263 ddbf
000007b0: 722a d740 f831 f8bf 5e3c 9170 285a ce3f
000007c0: 8c3f fc96 edba f33f 5422 b340 508a ec3f
000007d0: 5f36 d667 4d97 d2bf 5f30 d01b c391 f6bf
000007e0: 89b8 aee7 fede 1240 6e86 4f09 78a7 fbbf
000007f0: e2ad 7139 8b11 e03f 0746 bba5 ee84 f1bf

w3 f8 [19, 18]
2.9753808379485425 -0.026927806084775456 11.391177465342738 -1.4405017982287047 0.2681221999827298 0.005339595425290619 -0.7613094557412986 0.018891568532254745
-2.2077381540454457 -0.733887386462835 0.027311241301860693 -9.155618541268911 0.5791733364117735 -2.239872952238665 -6.230508041338189 0.009462863584379122
1.3143731707555668 -5.165977007770084 -1.6269386829692627 0.0944080048350253 1.2401938720383838 -0.7120835361641827 0.7884159214817046 0.9116493255256042
-1.6908956412985416 0.3976652373884767 0.23510870506861586 0.3212754210437835 0.8120820688077153 0.5357811653236397 0.13147751530382948 -3.8215164780978115
0.3530988738464635 1.243957148507753 2.7643853248152412 0.03520977723871906 1.228065971598709 0.33809417991886215 1.8043284842160405 0.22199309529772995
1.6786391526700035 2.0339302197399776 -3.6173978158975792 1.0315544856075027 -1.0072134400983583 -1.1992253656324101 -0.4007358694672673 0.09315541515044104
1.6868259604572913 -1.0003922136114969 -1.5234219916176392 0.36931180555125825 1.1369969281525147 0.7979866762140041 0.1452278678345653 0.5255302208172277
0.8810108843979158 -0.09595052610330959 -1.732791227109797 1.955777890989382 -0.5871629089627814 -0.3692267541062977 0.020766445000226577 -0.0504307227519018
1.1274147527965797 -0.1280216867564383 0.8917413634545229 -1.6142124432672815 -1.0986398529098358 2.311508301681309 4.6687158096144366 0.372656252492403
1.5136311803553772 0.15164867614860225 1.3472574049910466 -0.48273252195239486 0.6491155359988351 1.0509538597231773 -0.5306106940640727 -0.267821761529252
0.9780539693388838 0.8171667531984218 0.6302073189416163 0.019028555224691157 0.9038753626862331 0.11183217499820247 -0.3907572188313684 0.29451932309964746
1.4685565718509555 -0.009995030539357035 0.5873431262441211 -0.060457395535388515 1.5622987341615253 -1.2616320995700911 0.016751892880657225 0.4217088381326699
-1.078474194533202 0.8376161033800852 -0.08962336654871454 0.9881007505584133 0.15328593610348906 0.6502974182283112 -0.2277159588154637 -0.15848776904865994
-1.3627637882875119 -1.3969079845013084 1.9241277526752718 0.2236474238087217 2.03806250256034 0.5749229542098346 2.77265546775889 -1.7208346103016672
0.09946726102716527 2.429510942942467 -0.779338496942621 0.711180836533801 -0.7093102983058547 1.4075385904400464 1.1197850212058054 0.9577917663037109
-1.2537261727098967 -2.050031146020084 1.15946647077678 -0.9006549436778442 2.028943711525044 2.8760694598586256 0.28235220476760337 -0.5274914571552436
1.876639369172662 0.21228265851339972 0.4664670556421575 0.20551797847587064 -0.5146134671961758 -0.596837714403451 0.46464516687637847 -1.2703824269614197
-0.04424058296498026 0.4279065064273329 2.0796891398702035 -1.694564929682147 -0.15242113633976068 0.741699124577999 0.4636861689471891 -0.13239806392704848
-0.048213782789499476 -0.09355521919789316 2.6791078836585145 0.25169600813846454 -0.3828744614819588 -0.5001524978975778 -1.5333564314294468 -0.2691581802852197
0.9199408130804971 0.31223628757438104 0.5713458905251443 -0.36248092318431024 -0.9811148521636243 -2.697051092983081 -0.87064060955247 -0.6134516820816369
2.7577577198784815 -0.728667406472263 2.5974407202821843 -0.7339182833961341 1.784169778274737 -0.3555603073119751 0.00047685622045437194 -0.5353028988558791
-1.909679301827472 0.4399097093024563 1.1875689304386594 0.26853289150353954 -0.2955306394236446 -0.07533837574145058 -1.8604122717127547 -2.576201113321364
1.863826110856471 -0.12109808614938995 1.8168352475394685 0.6307287236156165 1.052786484967442 -0.3199016265256279 1.8442508429885498 0.751519861208859
1.5650022006066886 -1.360551780533073 -0.5280161341384658 -0.33092694456660166 0.9589847905526139 0.47081475664226685 -1.5295128017595627 -0.00045647773719177914
0.311664885958367 -2.4573206664321376 -0.1647036144634919 0.05866159489917027 3.200094618499838 -0.4751256872575845 0.8071095195103469 -0.02394513138557498
1.7896535217019136 -0.502007942997706 -1.3031707976907774 -0.4506671431859528 0.08130379205488697 1.9124672889230208 -0.40129658181593486 2.1940700301765226
2.0632421670674703 -0.619195563140548 -0.6381404723949975 -1.7982440991091027 2.142054116297723 -1.1799996963270096 0.6448018204037669 -0.16305914951399605
-1.32702253394483 0.6490992813796417 2.1651991334644336 -1.219900026570213 0.3640862809586871 -0.3731489114715265 -0.2708080618985738 -0.8598309042625626
-0.380971902382204 1.2840539172484564 0.18972637622065064 0.9227404819229018 1.318555830969773 -0.19868674499494618 1.1746107759469537 -0.1248523403472563
0.31536426193730144 -0.2260667915577239 1.8455671039441366 0.1590953859523105 2.6329229128827225 -0.35123530159300637 1.2624550057409238 -2.2038011935549435
-0.9888797505381511 -0.29049548880695536 0.29813208748748105 1.4190247792115245 -2.01070164982823 -0.4502353858660022 -0.5146081297408225 -0.6131140279217244
-0.16383347492974487 0.04938461982486589 0.27012074641659034 1.1282637107748563 2.0603583179040705 0.05345889646688805 1.3114695550476472 -1.0809517166162301
00000000: 9112 0178 94cd 0740 eed4 f279 f692 9bbf
00000010: 9128 a969 48c8 2640 2c8b 139d 4b0c f7bf
00000020: 2e79 1004 ea28 d13f 09a0 9bbb f8de 753f
00000030: 076c d1a5 a55c e8bf aa90 10b4 4f58 933f
00000040: 840d 0e9f 72a9 01c0 d6c0 7966 017c e7bf
00000050: 6191 d160 7af7 9b3f 6acd c23b ad4f 22c0
00000060: 1c52 5385 9688 e23f f47a a882 42eb 01c0
00000070: d70c cc4c 0aec 18c0 d3a9 f80c 4461 833f
00000080: e428 7229 ac07 f53f b30a 71e0 f5a9 14c0
00000090: 6934 3fdb f007 fabf 3f3e 3f7d 1f2b b83f
000000a0: e6ab 9187 d5d7 f33f dd0b 7b69 63c9 e6bf
000000b0: a61b cd06 b43a e93f 96b1 d134 3b2c ed3f
000000c0: 0c38 8596 e80d fbbf bebb 55e5 5873 d93f
000000d0: 9226 a3c3 0a18 ce3f 4a11 99c8 c68f d43f
000000e0: 204f e688 93fc e93f f416 dc8a 1e25 e13f
000000f0: 29d4 3156 41d4 c03f 0d71 343b 7792 0ec0
00000100: 0b33 db04 2c99 d63f 9d75 679c 3fe7 f33f
00000110: 8afd 9c0d 761d 0640 abbf 7a13 0407 a23f
00000120: fc8c 1581 28a6 f33f 840b 6ec5 55a3 d53f
00000130: b42f 6f8b 87de fc3f 7deb 1e0e 456a cc3f
00000140: 890b 68ba b4db fa3f cd08 0135 7d45 0040
00000150: 2837 1f44 6ef0 0cc0 099f bb46 3f81 f03f
00000160: 9206 15d7 8b1d f0bf 29cc deef 0630 f3bf
00000170: e38b 6c0f a8a5 d9bf e235 8485 08d9 b73f
00000180: 6053 e337 3dfd fa3f 9b26 0a44 9b01 f0bf
00000190: 4314 00bd ef5f f8bf afa3 b7fb cda2 d73f
000001a0: 8814 e1b0 2331 f23f d373 9f5a 1b89 e93f
000001b0: 3f9c 68a7 d396 c23f 6207 efc0 24d1 e03f
000001c0: 3917 fdbc 3d31 ec3f 42d0 a5b3 3690 b8bf
000001d0: 72b7 334b 83b9 fbbf c3a0 00c2 dd4a ff3f
000001e0: 7e6b 6dde 09ca e2bf 5077 6c40 69a1 d7bf
000001f0: 9447 8588 cc43 953f 38ba dd41 0ed2 a9bf
00000200: b4a0 440d e409 f23f af19 e6be 0363 c0bf
00000210: 4fe2 102f 2589 ec3f 5311 4a6d d0d3 f9bf
00000220: a947 e561 0794 f1bf d43a 8110 f87d 0240
00000230: dc72 52d6 c3ac 1240 deb4 469c 99d9 d73f
00000240: c950 1d54 d537 f83f d11c 454c 3969 c33f
00000250: 9baf dbc7 5d8e f53f a512 a0f2 16e5 debf
00000260: a318 cef1 8dc5 e43f 36db 91fe b4d0 f03f
00000270: bc37 3d47 c3fa e0bf 4537 bbe2 fd23 d1bf
00000280: 5f12 81d6 374c ef3f 05b4 0be4 3a26 ea3f
00000290: 0dbb 118a a82a e43f 804d 85b9 387c 933f
000002a0: 67b8 4c06 8cec ec3f 0c01 428e 08a1 bc3f
000002b0: 08a0 e390 2a02 d9bf dc31 3093 67d9 d23f
000002c0: c8cf 062d 357f f73f 89fe 4f4a 4678 84bf
000002d0: fcf6 d7cf 83cb e23f cd6c 4091 45f4 aebf
000002e0: 2be5 1cf5 2cff f83f 37cc f323 a52f f4bf
000002f0: 9629 4680 6827 913f c4b1 0d11 47fd da3f
00000300: c899 3128 6e41 f1bf 7dda 5349 c0cd ea3f
00000310: 03be 4894 8ef1 b6bf 63a5 1977 859e ef3f
00000320: 5828 40a1 df9e c33f b4d7 fe87 3ccf e43f
00000330: ace1 f1e9 cb25 cdbf b1a3 70c4 5349 c4bf
00000340: 0ce3 ed66 e1cd f5bf 3345 cf2f bc59 f6bf
00000350: 700f b12e 3ac9 fe3f 14eb 8b91 7aa0 cc3f
00000360: c89a 9db6 f34d 0040 58a1 c1d2 c465 e23f
00000370: d5cc 68fd 652e 0640 0921 51df 8988 fbbf
00000380: 1666 22b9 af76 b93f 36b2 e96e a36f 0340
00000390: 3d3c 9c49 57f0 e8bf 108c 4e50 fec1 e63f
000003a0: 9d11 be82 abb2 e6bf 5ac4 5c2f 4785 f63f
000003b0: d812 cab2 a3ea f13f 63e1 14eb 3aa6 ee3f
000003c0: 21da de2c 430f f4bf 5580 bfba 7666 00c0
000003d0: 8ab7 ccb6 2c8d f23f 4c77 0251 2ad2 ecbf
000003e0: 3e66 33d7 463b 0040 fdef 78b4 3002 0740
000003f0: e28a 5bfb 0e12 d23f 46d6 acc3 35e1 e0bf
00000400: f3b8 cf00 b706 fe3f aa57 e901 142c cb3f
00000410: 243f 29a3 98da dd3f 659e 25c2 694e ca3f
00000420: 310a 76a9 b677 e0bf 113b 0c68 4b19 e3bf
00000430: e09f fe14 bfbc dd3f 0466 1386 7c53 f4bf
00000440: 542b fba1 b3a6 a6bf ed76 b6f8 d162 db3f
00000450: 0eb6 4c0f 34a3 0040 0cef 9e1d f01c fbbf
00000460: ee32 e629 8982 c3bf 4719 71cd ffbb e73f
00000470: d715 cfc0 08ad dd3f f568 4f75 6bf2 c0bf
00000480: fc3d 9818 7aaf a8bf 4b37 d31e 3cf3 b7bf
00000490: 1a27 361d d06e 0540 d942 df92 c91b d03f
000004a0: d478 a2e2 0381 d8bf 2473 afcf 3f01 e0bf
000004b0: a29c e1c0 a088 f8bf 31a8 713b e339 d1bf
000004c0: dcf6 4db7 2770 ed3f 2669 f0e8 adfb d33f
000004d0: c04d 502d 7748 e23f 3408 a02f e332 d7bf
000004e0: 5b34 75f9 4a65 efbf f006 0086 8f93 05c0
000004f0: 9b1d 13b2 49dc ebbf 30f0 066c 65a1 e3bf
00000500: 5b5b 8947 e30f 0640 4bb4 0e4f 3e51 e7bf
00000510: 0b49 1700 8fc7 0440 6fee 2332 427c e7bf
00000520: 9e39 039c f58b fc3f f847 ea04 80c1 d6bf
00000530: cdb9 2adf 5140 3f3f a747 818b 3321 e1bf
00000540: 5827 33e2 0b8e febf 1667 a90d 7b27 dc3f
00000550: 05ad 5f47 4800 f33f fa1c ba94 a42f d13f
00000560: e997 d257 f9e9 d2bf 747b f133 6049 b3bf
00000570: 6455 81a8 3fc4 fdbf 8812 4d54 0f9c 04c0
00000580: 5cf3 f853 3bd2 fd3f 8dac 9ebf 4800 bfbf
00000590: ed6e 26d6 c111 fd3f ee75 1201 ee2e e43f
000005a0: 02b2 29a4 36d8 f03f 8658 f7ab 4479 d4bf
000005b0: 9c19 042c 0d82 fd3f e1f7 4561 730c e83f
000005c0: 5161 5cbf 3f0a f93f 4477 9ef1 d1c4 f5bf
000005d0: 6952 7c17 82e5 e0bf 30d7 1135 e82d d5bf
000005e0: ca1d 19df 00b0 ee3f cf2c 9037 d421 de3f
000005f0: 32ee 656a e278 f8bf 2efd dcf3 6cea 3dbf
00000600: 272d 2047 51f2 d33f 3de3 d0bc 97a8 03c0
00000610: 20ac d30e 0215 c5bf c70b 3f7f e408 ae3f
00000620: cc7f 1435 cb99 0940 c1b1 1092 7568 debf
00000630: 75ca d257 d7d3 e93f 4341 cc90 1285 98bf
00000640: 5a18 2ebb 6ba2 fc3f 743c 30f6 7210 e0bf
00000650: 29f2 529f c9d9 f4bf fc62 5700 bbd7 dcbf
00000660: 54a1 ea47 53d0 b43f ab81 c94c 7799 fe3f
00000670: 8858 b9db d7ae d9bf 68ef 8596 748d 0140
00000680: 7d43 fa1b 8581 0040 e98a b036 73d0 e3bf
00000690: 9e18 6691 a56b e4bf 9460 be9a 9bc5 fcbf
000006a0: 5316 be44 ed22 0140 233b 905c 47e1 f2bf
000006b0: 5c22 616d 37a2 e43f b5f3 3c49 1fdf c4bf
000006c0: cc91 05fb 7b3b f5bf c63e 2cdb 6bc5 e43f
000006d0: 5075 5cec 5352 0140 3523 e8e3 b584 f3bf
000006e0: f4f2 688b 304d d73f a4b9 d3f8 abe1 d7bf
000006f0: bd3d 5656 eb54 d1bf e3ba bc19 bc83 ebbf
00000700: 4c4b 5bf9 d761 d8bf fe1f ce1e 7c8b f43f
00000710: 6634 8732 f448 c83f 89bb 110c 1787 ed3f
00000720: c871 bfff cd18 f53f 4374 f337 916e c9bf
00000730: a68a 43ab 34cb f23f ddda 9eae 52f6 bfbf
00000740: c943 d695 ed2e d43f 88dd 39b2 c1ef ccbf
00000750: 4b37 205f 7187 fd3f b609 ced3 3c5d c43f
00000760: 47c3 5de3 3910 0540 edba 62a1 a37a d6bf
00000770: 9a42 2505 0433 f43f 4da2 2985 62a1 01c0
00000780: ad9d 8725 e7a4 efbf 19ee 0364 7a97 d2bf
00000790: 7f67 699b 9814 d33f 7ad5 ae53 53b4 f63f
000007a0: 3534 20bf ea15 00c0 8cf8 7214 a8d0 dcbf
000007b0: 08c3 ef77 ab77 e0bf 7c90 544f a19e e3bf
000007c0: e419 68cc 7ef8 c4bf 7479 25de f048 a93f
000007d0: b224 f586 a849 d13f 70aa b03f 5e0d f23f
000007e0: 3584 4b24 9d7b 0040 5ed5 02e8 f65e ab3f
000007f0: ae11 0a80 c7fb f43f 90bf f606 944b f1bf

w4 f8 [19, 18]
-2.598429361536332 0.9054110834028968 5.521818236440939 0.05705319223996986 -1.419162070684102 -3.1737687171531905 -3.0015234653759397 -1.2778887406753792
0.8559448696514054 -0.7878807598414294 2.885200704323521 -1.917420468540348 -1.5023838364950952 -1.9225130882492545 -1.537305922752181 -0.6224065942423591
-2.4470757144976627 3.984067648927534 -1.4464230828878017 0.9614311913867332 -2.9148442510866923 0.830150285336509 -0.23592142345736117 -1.0458222897673977
0.17284727235738323 -0.24709844608880127 -0.39361662158959804 -1.5352533312673189 -1.0508935647028719 0.5711536580431699 0.7773575914054763 -0.008318244636149823
-0.848865065127706 1.2940456463347607 1.8619725176416095 1.5322470721674724 -0.8141333244073119 0.0005708331429991279 -1.9141384459563173 0.7360253046852684
1.5006161580386945 0.5128984842990477 -0.31194268751164533 -0.5501300491202205 -0.5868398457956607 -0.37549269519803297 0.6306776037033025 0.531350686287179
-0.20458190233937085 -0.4938735760720697 1.1375676995104953 -0.5375567689656269 1.3296261116784978 0.10883009649201864 1.7746097034345762 0.863319382549278
-4.280308213491823 -0.3417772701877705 -1.13720266645873 0.31743164634287996 1.5185065778296083 -0.05704916544279191 0.3077822171362725 0.5475650142990254
1.7603806017428154 -0.6012962278633655 -1.7264508214312206 2.1428392061734765 1.6589471841746597 -1.3406166954536873 1.8469532350537163 3.4263847657971342
-0.4932727704123541 -0.40347983844422874 0.03374039387738941 0.2199905960315961 -0.7774294009259363 -0.12854840757083585 -0.6859412277279697 -1.702342629336723
2.1193529606798163 2.1029241583490266 -0.5087142956372005 0.7740408193697328 1.6357500201882504 -1.2188715878433294 0.4613458160305248 -1.3272579029648983
1.7037808882542773 -0.5954230311127565 -0.6558821417425128 1.8273281502547507 0.13758992638079914 0.4247289001363897 0.8629553723176138 -1.9577673793911914
0.43714495314044766 1.6569793124339378 0.4915973480044677 2.4879593109883453 1.307955962124927 1.1485578450348053 0.1353264308871569 -0.12049133582365237
-0.9334666612900259 0.8492554859908447 1.3947161384098385 0.7911020243948512 1.8080223818604957 0.2503612873120485 -0.7220902074725156 1.835059237376296
-0.7255792477191277 -0.5715028123034236 0.1530578496414477 1.0393382295024338 -1.1514592028242319 0.6379219103129758 -0.6747552485290373 2.044409518461809
-0.8188020790133745 -0.2524416059777897 -0.46972496317218726 1.7158084507252396 -0.41091455519379966 -1.349160431247002 1.0477747276274336 -0.8981657999259861
1.384326197113125 -1.4939209025408877 0.12232733106071154 -0.6346223319887455 1.565279463888369 0.0668900808687342 -1.8209232002260383 1.0121061026713838
0.0295907464166115 -0.7988678693279578 -1.0975823070473012 2.3003199219450883 0.6283091091080721 -0.7333645422361328 -3.038103686757099 -0.06910428183907365
1.5141748371165038 0.8391660850467243 1.901254555164093 0.5258126188299714 -0.35052530150238126 0.8640989216180364 -1.0421055923524085 0.4472407878707507
-0.22395976734942727 -0.3229336066560891 0.07125521900344124 -1.1456676002147026 0.4848291246658299 -0.5943606170443301 0.400046057335472 0.2761537600273135
0.5035688011894122 -2.04025661046523 -1.6815921363805642 0.12454051721127149 0.5699963874001904 -0.002345635714760438 -0.7099477505042902 2.532980827141979
0.7708697800569095 1.2033962187909366 0.5032007507556511 -0.9998005631537938 0.5129462480467349 0.280986823436583 -0.17754665737925873 -1.8887905436650245
-0.46621156473096553 -0.08675558687037856 0.6966164667783287 -0.2689570843871695 1.38870087916042 0.17675202362913167 1.410461898413884 -0.14476629071746783
0.49945691123150554 -0.10809370868887412 -0.23782844518180887 1.6852253142300715 1.0581618775080868 -1.215706638492327 -0.3532813819793853 -0.9887218158846841
-1.1312664347398924 -0.5004753309187984 -0.37484956274222614 0.7706188195356846 0.980272212294338 1.019644750344679 1.3642813307031079 -1.533010471745414
-0.4192694366203798 1.3424717794166947 -0.18169546594945268 1.7817494938887988 -1.4102710884984937 0.10176874026133421 1.134644159522187 -1.7112373870693431
-0.2388876841473183 -0.4202328609733327 0.12816768627979153 -1.6829338694048765 0.4237642139318272 0.1265778802690132 -0.2773985482991646 -2.085694961161272
-0.2619854428657051 -1.219828932654837 0.23465557276441168 0.5613769552889902 2.5855916174171405 0.5078876516157266 -0.34677415725889305 1.6014676001733756
-0.4776849384412896 -1.2781962562615006 -1.1434279596299048 -0.8033883850931124 0.835380561109324 2.4054116860512855 1.1362942747666995 0.022067003687526957
0.3641824582586242 1.323533037291882 -1.066338911569011 0.3154092013626518 -0.7373435163776507 0.962849678174683 -1.1186602297205326 -1.7066181186281644
3.4907018630810285 -0.13630203949462033 -0.16377933832564126 2.8183613553516786 -2.78510592219343 3.518997291392903 0.08447299058375154 2.319059911183678
-0.7316036434796336 -0.31319689053169414 -0.21094543116153633 1.0380238707204181 -0.39445999328212805 -2.62881539011583 1.1221482764577964 0.20245893050783914
00000000: 1e1e 4655 95c9 04c0 06d8 14aa 20f9 ec3f
00000010: 84e1 0f85 5716 1640 312c 9b75 1336 ad3f
00000020: 5ffd 9449 e3b4 f6bf 37ed 69da e063 09c0
00000030: e1ba 0fbc 1e03 08c0 be09 d276 3b72 f4bf
00000040: da9d ca7e e663 eb3f 8954 15b6 5136 e9bf
00000050: bbb9 5b1b e414 0740 19fd d015 c1ad febf
00000060: 2f91 3ca2 c309 f8bf a499 8215 9dc2 febf
00000070: fbae 6218 ce98 f8bf d8bd e23b c1ea e3bf
00000080: 8cd3 a46e 9c93 03c0 1d90 09dc 5edf 0f40
00000090: f4eb d287 8c24 f7bf df87 8b58 0bc4 ee3f
000000a0: c2ce dadc 9951 07c0 ca21 c954 9790 ea3f
000000b0: c66a 1657 ac32 cebf 33a9 3f27 b0bb f0bf
000000c0: 6e27 fd02 dc1f c63f 5002 6c00 eca0 cfbf
000000d0: cdea 38c5 0331 d9bf 1ae4 0dcc 6590 f8bf
000000e0: 729c 3fc5 75d0 f0bf 6728 4909 e446 e23f
000000f0: 8348 0c07 1de0 e83f 7c0e 61e5 2709 81bf
00000100: d117 ae11 e729 ebbf a99f 2835 69b4 f43f
00000110: d924 d5b1 a3ca fd3f e29d 8581 1584 f83f
00000120: a238 5d54 610d eabf d0ac 1fd7 7eb4 423f
00000130: db60 96a2 4fa0 febf 6dda 94f0 848d e73f
00000140: 7a01 aa16 8602 f83f a76f 0715 aa69 e03f
00000150: f4af 4576 def6 d3bf 4395 3055 aa9a e1bf
00000160: 52d3 355b 64c7 e2bf f2cb 7083 1208 d8bf
00000170: ed35 47cc 822e e43f 59f0 8927 d300 e13f
00000180: 0e56 f361 bd2f cabf 8ea3 65ea 9f9b dfbf
00000190: f322 2630 7a33 f23f ea6c ce40 aa33 e1bf
000001a0: 9411 9907 2646 f53f 64f5 4009 4adc bb3f
000001b0: f8a6 f624 cd64 fc3f 7eaa 41f8 4fa0 eb3f
000001c0: 82fd c61d 091f 11c0 923f 7ec5 addf d5bf
000001d0: efd3 556c fb31 f2bf d584 f0d2 cc50 d43f
000001e0: ef9f a88d cd4b f83f 6e88 ae57 8c35 adbf
000001f0: 9800 392f b4b2 d33f 8623 9b10 a785 e13f
00000200: 99f8 8fd9 842a fc3f c333 3c96 d13d e3bf
00000210: dc30 83e5 8a9f fbbf 3fd0 b8e1 8824 0140
00000220: ab24 dd33 0c8b fa3f 741f f77d 2a73 f5bf
00000230: f9c0 dcd5 1e8d fd3f f7e3 846a 3c69 0b40
00000240: 896a 3bf4 c791 dfbf 22a7 ad19 9dd2 d9bf
00000250: 17dd 83c0 6b46 a13f 6c0e b1df a628 cc3f
00000260: e59f 7d9f b3e0 e8bf 781c 3c33 4674 c0bf
00000270: 223b 8204 3bf3 e5bf f067 f99f cb3c fbbf
00000280: 9967 3653 6ff4 0040 819e b0e6 c9d2 0040
00000290: 599f d833 6347 e0bf 14c9 9e40 f1c4 e83f
000002a0: ee3c 9236 082c fa3f 97f8 7c7e 7f80 f3bf
000002b0: a4d7 ff99 b086 dd3f ee77 69c8 723c f5bf
000002c0: 98a1 a9bf af42 fb3f 6b43 bd99 b40d e3bf
000002d0: 9f10 9a8b fcfc e4bf 2178 4671 bc3c fd3f
000002e0: 2844 08f5 8b9c c13f 351e f01f c22e db3f
000002f0: 7a5f c095 549d eb3f 9a92 3ae3 0353 ffbf
00000300: 1461 56d3 2efa db3f 57d6 50bd fc82 fa3f
00000310: 73b0 1eb9 5476 df3f 02ca 1336 57e7 0340
00000320: d8f4 1e3b 63ed f43f d1d1 df30 7e60 f23f
00000330: 58ed 7861 6052 c13f 625e d02a 85d8 bebf
00000340: fbb3 c479 f5de edbf bbef 48d7 192d eb3f
00000350: 56c7 9ade c150 f63f b268 5231 b550 e93f
00000360: fd6d 88e0 a8ed fc3f 2d24 4c59 eb05 d03f
00000370: e366 3bec 5c1b e7bf f10f 2c13 675c fd3f
00000380: 9984 73f8 f137 e7bf 9249 0d44 c049 e2bf
00000390: ca94 4d4d 6697 c33f c020 931f 21a1 f03f
000003a0: d3ee 2c7c 606c f2bf 4246 c635 db69 e43f
000003b0: f691 a751 9897 e5bf 8965 ab60 f35a 0040
000003c0: ca4b e86a a033 eabf bdc1 74d6 0028 d0bf
000003d0: 4a1e bc4a f90f debf 990b e18f f373 fb3f
000003e0: 157f 0090 6c4c dabf c835 943f 2996 f5bf
000003f0: 1dc3 cb6e afc3 f03f 552b 2234 c6bd ecbf
00000400: fe8c f939 3326 f63f 2995 b39a 19e7 f7bf
00000410: 7d0e 500e d850 bf3f 4b7e 267e d34e e4bf
00000420: ec03 a87a 620b f93f db0c c255 b51f b13f
00000430: d5f9 975d 8022 fdbf c9e3 302b 9631 f03f
00000440: 998a 7e60 094d 9e3f 4ad7 9259 5390 e9bf
00000450: 73fb 1677 b28f f1bf 3ebb 9821 0e67 0240
00000460: f4bc 6cb4 1b1b e43f 0c68 9eea b877 e7bf
00000470: 85d4 434e 094e 08c0 dd2b 8376 d1b0 b1bf
00000480: d476 dd64 0f3a f83f 6304 66d5 72da ea3f
00000490: 1bd0 7ce5 896b fe3f e85c 36fc 74d3 e03f
000004a0: 9ce3 97ac 016f d6bf 7877 1bc8 b2a6 eb3f
000004b0: e91d e2e9 76ac f0bf c0e5 55d3 979f dc3f
000004c0: fd59 31b2 b6aa ccbf b580 d7b7 f1aa d4bf
000004d0: 5102 4a33 c83d b23f a924 b08c a754 f2bf
000004e0: 8da2 a5bc 7007 df3f 7e8b 878e 0005 e3bf
000004f0: ef92 49c7 5a9a d93f 0a06 ffd1 80ac d13f
00000500: 589f 8c51 3c1d e03f f52a cb0e 7252 00c0
00000510: d971 ef27 cde7 fabf b207 7328 e3e1 bf3f
00000520: 551a 5710 693d e23f 12fc dc95 2737 63bf
00000530: 361c 4958 e4b7 e6bf 36c2 af73 8b43 0440
00000540: 6436 da19 f7aa e83f e664 bd64 1c41 f33f
00000550: 702e fa75 381a e03f dc92 28c0 5dfe efbf
00000560: a3ee fe3f 0e6a e03f 5a17 5128 b0fb d13f
00000570: d6a0 7a4f d9b9 c6bf c190 e06e 7c38 febf
00000580: c155 e207 69d6 ddbf 1983 5a38 9d35 b6bf
00000590: 3160 d59d ae4a e63f 1e1b 5ec6 9736 d1bf
000005a0: 2cba be69 1e38 f63f 9495 7e70 cf9f c63f
000005b0: 3a11 df7e 4091 f63f a8ed 18aa b387 c2bf
000005c0: 0d08 e01e 1af7 df3f 47d9 b87f 07ac bbbf
000005d0: 97a4 0e99 2971 cebf d526 b0d1 aef6 fa3f
000005e0: cc56 1c26 3bee f03f 9aac ddcd 8873 f3bf
000005f0: f6c6 7883 299c d6bf 5f20 02ef 9ba3 efbf
00000600: 6153 44d5 aa19 f2bf 5408 58d7 e403 e0bf
00000610: ec74 3905 89fd d7bf 01d0 72cc e8a8 e83f
00000620: 816a 9fd4 635e ef3f b34b 8403 7750 f03f
00000630: 819c 1ea9 18d4 f53f 4327 09fd 3587 f8bf
00000640: d1cc 9f79 4fd5 dabf b15c 46b0 c37a f53f
00000650: fecc 0a0a cc41 c7bf ccab dec1 0b82 fc3f
00000660: 9086 b96a 7890 f6bf d973 2d23 840d ba3f
00000670: 57ec 5ba2 8027 f23f 337c 5274 3a61 fbbf
00000680: 7c3a 6a23 df93 cebf 4a70 a55e 18e5 dabf
00000690: 7ee3 7c7a cc67 c03f 7dcb a610 4ced fabf
000006a0: a159 03f0 f31e db3f 5982 1338 b433 c03f
000006b0: 49c7 39d7 e5c0 d1bf 0df5 fcd6 80af 00c0
000006c0: cfb8 4897 5ec4 d0bf 4a79 c757 6b84 f3bf
000006d0: 3674 6c9d 3109 ce3f 7037 f6cd ccf6 e13f
000006e0: 68f2 6ca8 4aaf 0440 cd6a b79a 9d40 e03f
000006f0: 1298 213c 8c31 d6bf 7192 857d 9c9f f93f
00000700: 496a 19d9 6392 debf 5934 e8ea 7d73 f4bf
00000710: 4614 bf1d 7b4b f2bf ebc1 fe8e 5bb5 e9bf
00000720: b7b7 b503 70bb ea3f 4b0d 687b 483e 0340
00000730: 8814 cce7 422e f23f 7172 a28c bb98 963f
00000740: edd9 fff0 c34e d73f c581 65fa 302d f53f
00000750: 1a42 fa63 b90f f1bf c271 2d13 aa2f d43f
00000760: 0e4f 186e 5198 e7bf 312e d720 aacf ee3f
00000770: c0c4 df44 08e6 f1bf e24d e4cc 4e4e fbbf
00000780: 8027 3019 f5ec 0b40 96f5 0061 5872 c1bf
00000790: 4340 efaa b8f6 c4bf 955d cc09 018c 0640
000007a0: cebb 1d9d e547 06c0 f7f5 490d e826 0c40
000007b0: eed8 f39b 05a0 b53f 0efd 5f48 6f8d 0240
000007c0: 9e24 4c0b 4c69 e7bf 9fb8 82f8 6a0b d4bf
000007d0: 5d2a 0a88 4200 cbbf 6b62 13eb be9b f03f
000007e0: 2189 ae20 d53e d9bf db26 fe5c d007 05c0
000007f0: 5062 4ac0 51f4 f13f 2c3b a89a 2cea c93f

w5 f8 [19, 1]
1.884116802884829 -1.1852177339767376 -0.8254590328793908 0.9764810288929835 -0.774371301407253 -0.645387912910413 1.9681423880887057 -0.30748939376250034
-1.3003275816353694 5.05732226761327 -0.7174866565456588 -1.5461418143872416 -1.1404039215011996 -0.37504138328650805 -0.8819473080449279 -1.1329180792868134
-0.3312012384274809 -1.5572845654644478 4.300824462592369
00000000: 2ec0 23a9 5725 fe3f eb1b e1de a6f6 f2bf
00000010: e5f3 cc0f 296a eabf 3e50 8824 553f ef3f
00000020: dd29 d052 a6c7 e8bf ace2 658d 04a7 e4bf
00000030: b565 6bdf 827d ff3f 61ea 84fe e7ad d3bf
00000040: f45e 534b 24ce f4bf 1ded 42b0 b23a 1440
00000050: 78c2 a593 a6f5 e6bf 4457 fc32 ffbc f8bf
00000060: af3e b12e 183f f2bf 842d f792 ad00 d8bf
00000070: 7b24 9b8f e938 ecbf 0f58 39b5 6e20 f2bf
00000080: e734 dcad 6632 d5bf 18c4 7338 a3ea f8bf
00000090: 1baf f253 0b34 1140
