Code/Models/run_20251105_110618/model_hidden_3_width_6_act_LRELU.npz (npz, 1790 bytes, 4 tensors)

w0 f8 [2, 6]
-2.6312686873883666 -1.927026727535947 6.2003141563600135 -1.3928497948107432 -3.44476194575104 -6.013069318602572 -0.2227503782359892 0.28812345062323585
-0.2994847670327925 -1.5532892944136316e-05 -0.45198607274430974 -1.322962868158642
00000000: 3793 fa98 d60c 05c0 858e 54fa 19d5 febf
00000010: e6f7 7927 1fcd 1840 3f3d cfdd 1c49 f6bf
00000020: 600c dc59 df8e 0bc0 8cea 1f0b 620d 18c0
00000030: 70fc d89a 1583 ccbf 4acc 6857 9d70 d23f
00000040: e095 0328 c22a d3bf b832 7b46 9449 f0be
00000050: 5dcb 2bfe 56ed dcbf 0705 c91c db2a f5bf

w1 f8 [7, 6]
-3.2343703792903162 3.068030544339681 -0.02097251482665694 -2.4200934043770737 11.607983968313764 -3.6496780482142714 -0.1275882569753402 -1.5243941914788899
1.1327525118933846 -2.806255527096175 -1.5503467790132077 -1.7746024635994144 0.36954160349095594 -8.823825928563293 0.4414759282650341 -0.618532143999688
-2.6023363048798314 0.12500498684727318 -1.6191381989283233 1.830053248063473 -2.6275455647719475 -7.2500734573939 -1.1477484592628937 0.6550335067352461
0.23106966000794305 -0.4737721041284443 0.6723874855927675 1.4312350000407077 0.7836648316418626 -2.1978399017994286 -1.2675114198308535 -2.778172664215191
-0.913904162700741 -3.543285393599483 -1.9541225729387568 -2.005343510795982 -0.17044352853801042 0.0525484097929795 0.8696581477567612 -10.24637516622272
-7.0333141571130255 -0.2115434940923106
00000000: cb9f d193 fddf 09c0 488b 1899 538b 0840
00000010: 9974 2ea5 d179 95bf c884 48ee 595c 03c0
00000020: c2cc b8ac 4937 2740 4413 9067 8a32 0dc0
00000030: 8a07 88df cf54 c0bf bdd3 e929 eb63 f8bf
00000040: f8b3 1019 c11f f23f 4cc7 0819 3673 06c0
00000050: 7321 956c 38ce f8bf dff7 888d c564 fcbf
00000060: d352 60d3 91a6 d73f 678d 1983 cca5 21c0
00000070: eea6 7740 2441 dc3f 0a1c 40ec 03cb e3bf
00000080: 0938 55b2 95d1 04c0 0a48 2cd5 2900 c03f
00000090: b59f c174 fde7 f9bf 67f0 25ea e547 fd3f
000000a0: 1b90 eb9b 3605 05c0 f56a a441 1300 1dc0
000000b0: a518 097d 2d5d f2bf 57c9 26d4 08f6 e43f
000000c0: 7c7d 6acc b093 cd3f 1648 3f3b 4852 debf
000000d0: 198a 9bc2 3284 e53f df0b e1ab 56e6 f63f
000000e0: 2eab dd44 c813 e93f 4594 2016 2d95 01c0
000000f0: 40ae f70d ba47 f4bf 4090 fb96 b239 06c0
00000100: 554b 4ff1 b33e edbf f03b 2f03 a658 0cc0
00000110: 7c5b f207 1644 ffbf a1ea e089 f10a 00c0
00000120: 425b 71f2 17d1 c5bf d309 090b a0e7 aa3f
00000130: 5316 ea52 3dd4 eb3f 40f2 c2e2 247e 24c0
00000140: 502d 3d1b 1d22 1cc0 f66d 6772 db13 cbbf

w2 f8 [7, 6]
13.372634155641906 10.043382548415432 5.5030596514836185 -2.243889335372119 -1.995569682896597 1.5719422592175225 -4.892618483083998 0.1007799565093334
-0.18533186687587752 -1.7380000312526536 2.4458129465633047 2.3742109958872515 -1.1578933604798394 1.8095343529247723 0.09175750722337486 1.8402969300710572
-0.03732482227795905 1.1254711113550806 -1.2864716777203924 -2.3871704431828014 0.7415241947600599 -2.5013232911539744 0.11158886188078339 -1.4237573713115994
5.833881851236748 10.28919242744878 4.88151798948445 -2.5221361477105924 2.1962713776668648 1.147518202856377 -0.8572320299333727 4.590531202109742
-0.896669881263178 -0.6748518803852627 5.080682992716524 -2.3525539371327064 0.19143267150223794 0.40289520235750986 1.369744628329054 -0.1278341465788701
2.711764939571466 3.0003935502568493
00000000: 89b5 6fe7 c9be 2a40 a552 c53c 3616 2440
00000010: b93c bc11 2203 1640 a521 7a40 7cf3 01c0
00000020: 2de1 ce79 daed ffbf 42a2 28ed ac26 f93f
00000030: 869a 6294 0a92 13c0 8bc5 4c19 b7cc b93f
00000040: 03bb 9161 f4b8 c7bf 81d5 ea1e d9ce fbbf
00000050: 79fb cc60 0691 0340 5c1d a955 62fe 0240
00000060: 6043 3830 bb86 f2bf 84ce 2c4b daf3 fc3f
00000070: 4ad7 af84 6b7d b73f a959 9931 db71 fd3f
00000080: cc93 0636 3d1c a3bf 37ce fdfe ed01 f23f
00000090: 20a1 7053 6395 f4bf 6b95 3bd1 ec18 03c0
000000a0: 7afd b5f2 90ba e73f d3d5 21c9 b502 04c0
000000b0: 1d36 6070 1691 bc3f 548e 33cf b5c7 f6bf
000000c0: b928 bf1f e555 1740 6749 a407 1194 2440
000000d0: 7faf dea6 ac86 1340 b5cf 73b7 552d 04c0
000000e0: a9c2 61ba f691 0140 4953 0d0c 3c5c f23f
000000f0: 8eb8 b4dd 716e ebbf cd50 2136 b45c 1240
00000100: 77ac ea08 85b1 ecbf 07c3 7cf8 6298 e5bf
00000110: 563e fc8f 9e52 1440 f57c 70cc 07d2 02c0
00000120: 8b77 bea3 dd80 c83f c8cf 75f5 08c9 d93f
00000130: 2ab8 e857 79ea f53f 0625 6f8b de5c c0bf
00000140: df30 0fd1 b1b1 0540 29dc 6b55 ce00 0840

w3 f8 [7, 1]
4.129626181503206 0.7388332625812124 2.6848271170487683 1.2350740108594713 -2.377843496694803 -1.272105272133203 1.5954221146597467
00000000: e90b c9b9 bc84 1040 1877 7fa7 85a4 e73f
00000010: 7e1b b9a3 867a 0540 e37e 4cf7 dcc2 f33f
00000020: d47b aacf d205 03c0 c019 ce0e 8b5a f4bf
00000030: dc75 dc56 d986 f93f
