Code/Models/run_20251105_110618/model_hidden_4_width_14_act_sigmoid.npz (npz, 6586 bytes, 5 tensors)

w0 f8 [2, 14]
00000000: 950d b853 4ade f83f 5585 3c45 0f6c bcbf
00000010: d6d3 8336 42fe e73f 7882 8713 a167 e5bf
00000020: d65c 959a 5352 e23f f126 a9df f333 d53f
00000030: e9c5 f3af 8ac6 c43f a375 34af 7620 09c0
00000040: ff21 fd02 d8d0 ea3f 4324 451d 3900 0940
00000050: 77a9 bc25 4842 f4bf fd72 767f f8dd f1bf
00000060: 5033 6471 5127 e13f 4aaf 5fa4 9737 e6bf
00000070: b19f f0b6 3a73 0d40 bacb b66d bb18 10c0
00000080: 4e83 2700 f736 2140 fb9c ec1f b7dd 1040
00000090: 0879 6ad6 dca9 07c0 5d8d c4f1 84e1 2140
000000a0: 6c17 ef47 e0b5 23c0 ef3b 72b0 b141 19c0
000000b0: a227 c678 10dc 1640 1617 f192 9c8d 1840
000000c0: a10e 4818 0d74 1cc0 74db 60df dce3 12c0
000000d0: 3c3b ef63 19e9 0940 01f2 290d 8c39 1340
1.5542701025268333 -0.11102385940877942 0.7497874321694507 -0.668900049346191 0.5725496310432401 0.33129593698377763 0.16230901328485395 -3.1408513725170493
0.8379936273932457 3.1251089369511944 -1.2661820863819153 -1.116692064190999 0.5360495772052705 -0.6942861757683911 3.681264332979446 -4.024152483255358
8.607353215049127 4.216518877808308 -2.957940745472232 8.940467410319508 -9.855226753173802 -6.314154393169686 5.714906584829722 6.138292594876267
-7.1133312028866 -4.722522249495217 3.238817959535849 4.806198316273822

w1 f8 [15, 14]
00000000: 6b11 019c aabf fd3f 269a ad15 ee6f fc3f
00000010: a870 8f61 cdd3 fbbf 2084 ff05 e1a7 f6bf
00000020: b29b d487 e3cb db3f e7f2 77c1 56bd f1bf
00000030: bff8 caba 2883 f9bf 08e3 f6a9 d806 d9bf
00000040: 7328 710a 241e d9bf 1866 a5ba 8a70 fdbf
00000050: 57db 99f7 f618 fc3f e77b 0e39 4031 0a40
00000060: e183 94df 6666 f33f 6526 9757 51d4 f53f
00000070: 0351 097e 1084 cfbf f6c5 fdc1 5095 d2bf
00000080: c06e 4672 8c2a aa3f 5d4c 2bba 6b85 f2bf
00000090: 99eb b28d 02ff cabf dcd7 3a90 7ff9 f83f
000000a0: c2c3 0f13 8816 e8bf cd05 dde7 7f99 f03f
000000b0: 8796 8400 3ea3 f1bf 6438 fd99 6ca2 e93f
000000c0: a722 c438 edb1 ddbf 8047 4c83 cdc1 f23f
000000d0: 0954 be4b b9fc 08c0 017b ffb1 c2f1 f73f
000000e0: 633b 0990 b5aa fd3f eef5 8cd6 564e f73f
000000f0: f11d 4f46 f40c 07c0 1154 8c07 c062 e1bf
00000100: eb1f ab7c 43b6 fcbf d62a 74ef ee64 0cc0
00000110: 85a1 134c 4361 ebbf ea97 3d8e 4078 0040
00000120: c034 82a8 3d61 00c0 1099 b350 a7cc e33f
00000130: 6e9e 39e8 656b 0040 f3dd e1d8 79de e03f
00000140: fbab a9da 02bd c43f bbc8 0899 edc5 e8bf
00000150: dbb8 402f 35a4 f3bf 9be6 9d84 5f5c 8abf
00000160: 278a 59c6 1e8b 9f3f a18e f2ea bab1 00c0
00000170: bf6f 2593 0c2f ac3f 6c74 8e34 43a0 e43f
00000180: 9510 7b8b ed87 c43f b0b7 e7e5 c5d5 f2bf
00000190: c196 5ab3 fcbb eebf 09e8 3931 4b86 dfbf
000001a0: 6c6a ee60 aebc ed3f 7ef5 f3de a70e c63f
000001b0: 9b4c 833c d4bd a73f aa7f 9192 6b0b fd3f
000001c0: 4539 b933 6c58 f9bf cbd3 8fbf c9c8 f23f
000001d0: d0b7 3d93 99aa 7cbf 390b 2eca 8446 ecbf
000001e0: c43e f7c3 8f85 e4bf 1da6 b257 963a f03f
000001f0: cc66 60ec bcf4 d13f 05fd fbc0 782b e73f
00000200: 459a 9b65 c05b efbf 617d 6f6c 837e 0540
00000210: b293 4ccc af54 a03f 15d0 ccb2 5a29 53bf
00000220: 120b 1ad5 4211 10c0 3a5c ab7a b057 d5bf
00000230: 3101 9253 dae7 0540 316b 6c67 a9fe cabf
00000240: 6e3f cc40 845d ca3f a748 0804 6b02 f73f
00000250: 9147 40bb 59e1 cd3f 81e2 6903 f0d3 c23f
00000260: bb6f 8815 42da 0bc0 e4c9 d975 52ae f63f
00000270: 0653 766f 7701 b43f ced4 740b 8b3d f6bf
00000280: 9b5b c070 bf67 e83f a7a9 9950 3fb0 f13f
00000290: d489 e6e2 e6ef 0240 1da0 5b91 23e0 0140
000002a0: 2643 8440 8aee e03f b29a 657a cf9c f03f
000002b0: 03c8 cc05 38e3 cdbf d263 d03e 2e79 dcbf
000002c0: 6067 acad 92c9 d03f b4e5 0742 2ff3 f03f
000002d0: 6295 9eac cf67 bdbf bbf9 af1b b486 e53f
000002e0: 44b5 094a 367a c9bf 3623 1362 a297 fc3f
000002f0: d4fb 0a13 7859 dfbf fc67 7bf5 9920 e3bf
00000300: 311b decd f246 eebf d4c0 5898 2881 f03f
00000310: fd1f bea3 48aa ff3f f752 cac1 a7a7 c8bf
00000320: af83 d432 65c7 02c0 3d5c 0fb5 22eb f3bf
00000330: c586 0c47 8c22 f6bf def0 fa9e 98f8 17c0
00000340: 5dfd b05c bfba b03f 9b87 4457 941f 0540
00000350: 7c1f 9fa8 cbad f6bf f65e ac7c 9c05 febf
00000360: 1826 57db f6d2 0740 baa3 3405 3a16 11c0
00000370: d738 e685 ae78 f8bf d2b0 5ec5 5913 ffbf
00000380: 2fa8 8361 d656 ff3f d2cc 0252 0fe6 f2bf
00000390: 40a2 c3da 3788 08c0 406a 2def fee5 c2bf
000003a0: 3859 932d 050a f9bf a03c 15d0 3bb6 06c0
000003b0: 3ebe 4b02 785a fcbf 68da 0598 7892 fe3f
000003c0: 1fe1 6369 bd70 d03f f07c 4f3b 086a f7bf
000003d0: 8c7e 1516 6c9f 0a40 086a fdbc eacc e93f
000003e0: 2ecb 30f3 6437 c43f f2d0 449b faf3 f7bf
000003f0: ab14 d7dd 4366 e9bf e73f 7875 40a0 e63f
00000400: 8991 b550 f140 e33f 3212 1b8a 44fe d43f
00000410: 2b16 3833 07b4 f1bf f44b 1429 4f84 ea3f
00000420: 1ff0 3133 34b2 fb3f af71 3e92 2017 db3f
00000430: 2143 1bf3 95c2 e7bf 3bad 8dfd 2b4a f93f
00000440: 43ed 9abb 0153 e5bf 3de2 4b89 53a0 f03f
00000450: 89ab 5f72 18e0 06c0 986b ad15 b067 0040
00000460: fd2e c582 59f3 b9bf 41b5 bf5a 859b f13f
00000470: ef4d 38bd 5e38 00c0 fdad a738 bc58 f03f
00000480: 0f7b a6d7 6e40 fd3f eb24 cd58 9115 0640
00000490: 819b 3b5b 9782 e23f 8c2f aa50 a72e 0ac0
000004a0: f6ed ff14 983d c33f 20df 9647 f542 f7bf
000004b0: 00fa 5638 0cea dcbf f43d d792 e60b fcbf
000004c0: 3592 4ec3 d779 e0bf abb1 3bdf 84eb e73f
000004d0: 1856 b788 ed29 0e40 2b1a 0510 0d0e fabf
000004e0: 5d2f c1b1 a285 fabf 9eef 7c52 bed9 d7bf
000004f0: 50db b834 f8cf bf3f 5d4b 6e12 9c5a 03c0
00000500: 3456 f0e5 51f5 04c0 f87b 3a41 a3c4 0040
00000510: ce14 32c2 bdc2 fdbf 9d7b efe5 9687 07c0
00000520: db7d a157 75d7 f93f 0a4c fff3 b2a0 f6bf
00000530: 82a0 6b63 cdb5 d43f f599 d541 69b0 e1bf
00000540: 722a e132 8819 0440 4603 f441 3bdf bcbf
00000550: 7bd5 045e 0acc 06c0 cd9c 5399 4179 e43f
00000560: 4f7d e714 ac69 f2bf e1b0 3bd3 0199 e8bf
00000570: 2406 3f97 2d81 fabf 9c5c 7557 0749 0240
00000580: 5067 4dc6 d589 e9bf 1030 3d64 6741 d7bf
00000590: 8240 15a5 9565 a7bf 72e0 3e2c 763f c2bf
000005a0: 9867 60ff 3339 a93f 2b4e bf11 c0eb c6bf
000005b0: e635 f3f7 64b7 b1bf adb4 b74f ff4d f23f
000005c0: b94b f994 d10d f0bf 569e 885a 4102 f9bf
000005d0: f894 5690 bad3 e63f 8187 df6a 2641 fe3f
000005e0: f51e e2c6 7890 dcbf f81f 4821 112c de3f
000005f0: 1f37 38f5 2250 00c0 e5a8 3808 3358 dd3f
00000600: 7c36 22ca e14d b93f 9838 940f 814c eabf
00000610: 2d0d 8621 e4b6 01c0 4bb4 f393 476e dabf
00000620: 4318 cff3 d890 eabf 2ea8 3b2c 69b0 f83f
00000630: 0878 5c90 543e ee3f d6fd 002d 5a9d cd3f
00000640: 707c 8fd9 3720 e5bf 493a 8d60 d570 03c0
00000650: 1c1b 1518 cd84 fabf 5f2b a536 9b96 d1bf
00000660: 202e b2d5 fb7c 02c0 e927 8247 6bf9 0740
00000670: 864f 215b 38f7 dcbf d740 c032 e246 83bf
00000680: ebc1 826b a171 03c0 1139 ddde eee6 c3bf
1.8592935651696176 1.7773266646196446 -1.7392095385503499 -1.4159860834408917 0.4343193842382177 -1.1087253148427239 -1.5945212647052782 -0.39104286764227014
-0.3924646474812398 -1.839976052366529 1.7560949012674507 3.2740482766671337 1.21250045143119 1.3643353864194065 -0.24621778635140154 -0.29036349243605686
0.05110587019882251 -1.157573439810924 -0.21090728682414975 1.5609126695612678 -0.7527504322334766 1.0374754960215455 -1.1023540516120265 0.8010771758652138
-0.46398478072709753 1.1723151329829022 -3.1234002988298966 1.496523566536496 1.8541770578774155 1.4566257840045824 -2.8813252919096546 -0.5433044574189144
-1.794497954355388 -3.5492838580442863 -0.8556229101059648 2.058716880087549 -2.047480885003637 0.6187321258737786 2.0524404661735423 0.5271577106458935
0.16201816250699594 -0.7741611470176147 -1.227589783269244 -0.012871500239032321 0.030804139000233512 -2.086782298590905 0.055046456300913864 0.6445632959836423
0.160398190599271 -1.1771906834287442 -0.9604476454739698 -0.492571638176401 0.9292823689641643 0.17232225786566951 0.04637015570337973 1.8152881360365236
-1.5840875645113368 1.1740205271610076 -0.006998634245844529 -0.883608240969216 -0.6413039042908726 1.0143035340974003 0.2805626209607055 0.7240566033578096
-0.9799501404311931 2.686774108078382 0.03189610833059166 -0.0011695275999956724 -4.016856507982782 -0.333477134508431 2.7382093933994374 -0.21089665937400917
0.20597890056569262 1.4380903394235618 0.23343965190047958 0.14709282080345434 -3.4815713579427814 1.417559109072152 0.07814737769360755 -1.3900251815332925
0.762664528100561 1.1055291317412441 2.367139599476312 2.2344428402029863 0.5291186580744565 1.0382838040474494 -0.2334966686553913 -0.4448962796610064
0.26230303726480564 1.0593712405519513 -0.11486528362600759 0.6726933041352859 -0.19904211630947988 1.787020094971195 -0.4898357568708296 -0.5977296633311648
-0.9461606999255762 1.0315328551333112 1.9790731807897821 -0.1926164337388838 -2.3473609896759267 -1.2449061463028237 -1.3834345603321918 -5.992769702974526
0.06534954083416751 2.640419656542645 -1.4174305521755448 -1.8763699407626837 2.9780099044771866 -4.271705705011238 -1.5294633131448359 -1.94222428414928
1.958700543322731 -1.181166954379297 -3.0665127840950674 -0.14764391592582804 -1.5649463444038485 -2.838981271408173 -1.772087105720757 1.9107595384972687
0.2568810967636796 -1.463386756593362 3.327842876940684 0.8062642756661385 0.15794050097027806 -1.4970651688755052 -0.7937335331740959 0.7070619863825386
0.6016775680878236 0.3280192707718782 -1.1064521790261874 0.828651027901627 1.7310068130309515 0.42328657418854737 -0.7425031421827023 1.580608358805718
-0.666382662216542 1.0391421664372864 -2.8594216285177407 2.050628823618762 -0.10136947100289358 1.1004689736249278 -2.0275244505698917 1.021663876827801
1.8282307075348319 2.7605311334233327 0.5784413129702984 -3.272780065721184 0.15031720185639558 -1.4538471981486012 -0.4517851400559323 -1.7529054389923404
-0.5148733915889979 0.7474998817465822 3.7704725914907264 -1.628430426195005 -1.6576258605518526 -0.37266500525924495 0.12426711356316145 -2.4192429962071587
-2.619785114666934 2.096014508817003 -1.860044249130897 -2.9412057841977473 1.615102140720288 -1.4142331629889235 0.3235963316824454 -0.5527845655277007
2.5124668097462797 -0.11278124199089942 -2.8496291489815895 0.6398017878208521 -1.1507988754818432 -0.7686776281020934 -1.656537619405193 2.2856585343066183
-0.7980755684941219 -0.36336693562475464 -0.0456969036118844 -0.14256169472151076 0.049264550136469853 -0.17906952730719303 -0.06920462659328272 1.1440423120468879
-1.0033737010278243 -1.563050607344754 0.7133457964997936 1.8909057783825747 -0.4463178579539851 0.47143963098687847 -2.039129176881843 0.4585082607542417
0.09884463486579337 -0.8218388847615357 -2.214302312758852 -0.41298093269762565 -0.8301815759557559 1.5430690505841187 0.9451086825899901 0.2313645095582461
-0.6601828812816972 -2.4300944846247927 -1.6574221554489617 -0.2748172792095626 -2.3110272116662287 2.9967866503329685 -0.4525891199057174 -0.00941254346255997
-2.4304836653975506 -0.155485018558871

w2 f8 [15, 14]
00000000: d475 a874 1322 00c0 b425 0e27 909c e33f
00000010: ab0a 9684 5437 f33f 406b e365 7811 ec3f
00000020: af4a 28c1 a760 eabf 9e28 cc8d 2e41 fbbf
00000030: 370b f88a e0a8 f23f cf03 7e7c 3005 b03f
00000040: 669c b98f 0e25 fa3f e94c 7565 2824 8e3f
00000050: eb2d fbd9 3f0a e23f 7825 cbe8 c410 ca3f
00000060: 9a85 5abf 4771 02c0 528f 75c6 2207 09c0
00000070: 5af0 595f 4f3f e7bf a70a 8f8e 3e4c 07c0
00000080: b648 c7a8 5d7a ffbf 4721 61b0 243b 0fc0
00000090: 3c96 fbe8 0b3f e4bf f666 35f1 1ace e63f
000000a0: bdd5 8c24 67d5 fabf 40bc 1e3f 579a febf
000000b0: 22b8 e693 668b c2bf 10fe 8e64 ad4e 1140
000000c0: b8dc 16ad 2290 00c0 32a8 383c 3750 00c0
000000d0: 4221 2e12 c11c 11c0 4575 38cf f542 d7bf
000000e0: c5b8 4a19 a479 e5bf 1258 0422 4837 96bf
000000f0: c20a 8d73 44b0 01c0 2bf6 9c80 c1e8 f5bf
00000100: a92c 6c7b 80a1 f8bf ce7c 5f90 1c2f 07c0
00000110: 58c0 fc91 f72d db3f e3fc 3e83 8437 f0bf
00000120: 6ff8 7a46 208a d93f 4c01 1791 6964 fbbf
00000130: 87cb 482a 20e4 f9bf 85cc 6993 08e7 fcbf
00000140: 4db2 11ba 5682 f73f db12 4c1b 0d6e ecbf
00000150: b0e7 5eb0 3712 02c0 547e a1db 3b05 f83f
00000160: 9f6b dccc cc99 1340 8658 0d91 4532 0840
00000170: ccf9 777a 5764 c2bf f995 cb8a 6d6c c1bf
00000180: b83f f23c 82d5 0c40 8e36 942b 042b 0740
00000190: 9b97 76b2 13de 0c40 44f9 82ca df7c e03f
000001a0: 9a12 120d ed85 f53f bd98 1b50 418f b63f
000001b0: 383b 459f 8f41 1140 1f1d 0920 2e29 0bc0
000001c0: 2a73 dce3 cf45 d6bf ec4c 1c93 b62f 9fbf
000001d0: e9c3 fcfc 6411 e6bf 29e5 7c89 33ba c4bf
000001e0: 24c8 0b2a 5acd 0040 014e e674 f339 0540
000001f0: 99a7 70fb 5dd2 e3bf 297a 23df 559e e4bf
00000200: fc87 9573 fdd2 05c0 77dd dfcd 9240 d33f
00000210: cd5b 5005 53fd 05c0 ec95 9a3a a463 f1bf
00000220: 5269 9a83 882c e8bf 4af8 fe79 59b3 f73f
00000230: dfa5 0fab f92b b9bf 5744 eea5 111a 0040
00000240: 7547 42a0 6c56 f93f 8eb8 0765 4139 eabf
00000250: 5352 5b17 98ab 05c0 62fa 0648 2ba5 0cc0
00000260: 0737 f003 eb69 e5bf 69d4 f2c8 cf00 f23f
00000270: 9a85 fa11 b75e f9bf 2a20 6d5b e7ff d6bf
00000280: 70e7 b2af 347f f43f e623 dbdc 7aad d0bf
00000290: 0d41 2ddf 1e56 e2bf b41d 5dbb 5791 eabf
000002a0: c08b b5f3 e52c e4bf a8a9 3ceb b9f7 06c0
000002b0: 9c6f a576 67b6 efbf 0072 c144 4f45 eebf
000002c0: da7a ce1b 816d f2bf f9b7 43e9 e647 fdbf
000002d0: d65d 6021 8604 cebf 5061 445f 513d f03f
000002e0: c03b e32e 41d7 b23f 513d b570 e253 0140
000002f0: 1aec 04e3 f85d d5bf f638 e5d4 41c7 0a40
00000300: 1fd5 c9bd f2e3 0040 a9b8 b6ba 3953 08c0
00000310: b4c8 67a1 4646 07c0 42df 2455 a7c3 f1bf
00000320: f5d2 ce08 a785 d2bf 108c 7aab ffd2 f13f
00000330: c283 05eb 045d a3bf ac06 6dc8 8aed d33f
00000340: 6315 c482 5561 eabf 18c9 038c f854 0640
00000350: 7484 f623 4586 b5bf ad63 029b 6c66 f2bf
00000360: 25fd 8d37 7517 9d3f 0e53 1e6c 1b52 e33f
00000370: de76 9ccd 5957 e13f 1abb 179a f062 ebbf
00000380: b5fd b64f 1581 01c0 4a2f ef8c fed3 ea3f
00000390: 8253 6af5 e532 f9bf 5d23 45bc 45b6 d9bf
000003a0: 318f 46b0 b9ee 01c0 59c8 10c9 03d2 fa3f
000003b0: a3a4 230e 0015 04c0 a7bc a6f3 b0a0 cebf
000003c0: 8dcb 3074 b6d9 f3bf aacf 4da4 680d 0640
000003d0: 2fa4 5584 130e a63f 3cc5 99fc 2f25 f7bf
000003e0: aa1f e81b 82b4 f53f c6cb bda8 c24b fa3f
000003f0: 4cf6 df5a 79bd f4bf 328e cd17 925f e5bf
00000400: b5a0 a4ff 9185 cebf 5a53 4828 6959 853f
00000410: f91e 27f8 3f3a ebbf 250c 4c4a bc12 b23f
00000420: 4cae 74b9 2385 01c0 4168 81b1 96cc d23f
00000430: 8ffc 4b38 7cc6 b5bf 64ed 81ba 7c03 fe3f
00000440: 832f 8810 037c e8bf 1761 7153 e3a3 f13f
00000450: 8d90 4ccb 8a21 f9bf 26b9 d4fb 0d63 f2bf
00000460: b74f 64d2 2b18 febf 82f8 12ae 2894 e33f
00000470: 750e fa56 89a8 d43f 93d4 9faf d18b af3f
00000480: 9300 0243 61bc dc3f e77f 4d05 d166 c1bf
00000490: b697 4abc bb98 e93f 396e 254f 7a31 d03f
000004a0: 9405 faf5 8fe0 bf3f 6733 1b35 be78 edbf
000004b0: bcea e0ee 0c07 bb3f 22e7 b8cd 460f fc3f
000004c0: 7107 edc1 c329 0340 e156 d305 052e babf
000004d0: 6790 f276 1a37 c4bf 4c66 2691 a8fd 02c0
000004e0: dcaf 8243 878f d6bf 15c0 f328 a673 dcbf
000004f0: b536 b837 9c3a b03f 2d39 ab22 9267 f4bf
00000500: 131f 8863 0c84 d5bf c65e acf0 a390 08c0
00000510: 57dd d10d 3f1b 04c0 4814 1b0b be83 f23f
00000520: 13b8 862d c6ca 00c0 0ac0 f6d3 daec d53f
00000530: e509 bf81 6de1 14c0 2134 eb05 6b48 d6bf
00000540: 8b9d 9d28 29fe d03f 55a6 e84f 0348 e53f
00000550: 15a8 fc5e 1182 e3bf f61a fa4e 2968 f33f
00000560: 6817 c517 18a8 f2bf cff3 489e 16e1 ef3f
00000570: bce2 8b07 bc10 f3bf a65c c58d b3f5 c8bf
00000580: bed1 86bf 13a1 ce3f 935a beea 8968 f4bf
00000590: f4f9 f78c 11a8 d7bf 3641 3ce8 ed92 d53f
000005a0: 3e3b 102e 3420 ff3f 64fb 2ada bd90 0dc0
000005b0: a82b b8fc 42c1 0ac0 e740 617c b29f 02c0
000005c0: d1df b993 d476 f6bf b4dc ca20 5c67 f2bf
000005d0: 5c24 672e 9cb6 0dc0 bd6b 0dc5 96b0 f53f
000005e0: a38c b087 a140 b53f af70 4918 9f76 f4bf
000005f0: ff25 6621 d96a f0bf ab5a 33ad 162e b4bf
00000600: d003 a1b7 6e7a e0bf 869d cc4c 9f33 09c0
00000610: d712 e3db 2886 bb3f 9657 4f5a fd8e 07c0
00000620: 6898 6690 275f f7bf 084b 816b 845d 05c0
00000630: 6707 72e7 683f fdbf f447 503d e10b 02c0
00000640: 2b69 cd20 516c f2bf e4ca 986a 16fe fdbf
00000650: 516f 8c1b 70de 08c0 9a5c 3a04 b52a e8bf
00000660: 9e4e c967 dfc4 07c0 61c8 00d7 46ce da3f
00000670: 0ed5 f9ca 591b f3bf a210 c0f1 512e d93f
00000680: 66c9 8030 3faa de3f 7326 52f6 f820 e33f
-2.0166386712942117 0.6128617060468771 1.2010083369392912 0.877132605553335 -0.8242987415890947 -1.7034135378803863 1.1662297657464487 0.0625791839538714
1.634047089982937 0.014717403026827518 0.5637511498875346 0.2036367546736917 -2.305312628698357 -3.1284842972399156 -0.7264782774286787 -2.912228692760738
-1.9673744767101602 -3.903878572429821 -0.6326961088604501 0.7126593314271463 -1.6771003177394583 -1.9126808610560744 -0.14487917157879432 4.3268333160663275
-2.070378639469336 -2.0391678528585766 -4.2780802574782815 -0.36346192585354614 -0.6710987562162464 -0.02169525821326352 -2.211068060628663 -1.3693251632643164
-1.5394291707223522 -2.8980037001743773 0.42468060738156543 -1.0135541083143884 0.39905554659697534 -1.7120147388050837 -1.6181947375996246 -1.8064046629267818
1.4693209904027242 -0.8884339841029844 -2.2588952807390896 1.5012777880982826 4.900195313409227 3.0245467502782644 -0.14368718604960262 -0.13612145688163915
3.6042523156574724 2.896004047833066 3.6084360067788572 0.5152434306435585 1.345196772629754 0.08812339978939839 4.314024437523408 -3.3951075079709336
-0.3480109906393404 -0.030455448845782593 -0.6896233502540073 -0.16193241322779642 2.1002696308942337 2.6532963879378717 -0.619429579824316 -0.6443280561614461
-2.7280224828728006 0.3008162508480931 -2.7486935057781694 -1.086826542779245 -0.755436188733521 1.4812865033595863 -0.09832725931450835 2.0127289737070373
1.583599687587108 -0.8194891904111203 -2.708786184763349 -3.580648958886102 -0.669179446880407 1.1251981591751934 -1.5856238081254106 -0.3593691246828735
1.281056104968652 -0.2605883747860943 -0.5730127676888813 -0.8302420291374148 -0.63048074340292 -2.870960080899028 -0.9910161320981277 -0.9459606497653681
-1.1517344556993323 -1.830054198445849 -0.234513059899412 1.014970180642269 0.07359702486722508 2.1659592442808067 -0.33386060876699875 3.3472935326054722
2.1113028361529724 -3.040637453747952 -2.909314404468285 -1.110267002672075 -0.28940749988696207 1.11401335700862 -0.037819055260804216 0.31137342045631544
-0.8243815950415122 2.7914896906523943 -0.0840800488281433 -1.1500059180309379 0.02840979720667493 0.6037728416145869 0.5419129386752635 -0.8558276185629865
-2.1880289294928965 0.8383782150863024 -1.57492633691183 -0.4017500246596251 -2.2415651103528025 1.6762731413005183 -2.5102540115954795 -0.23927890679394645
-1.240652517194323 2.756547244667634 0.04307614317333052 -1.4465789668286808 1.356569394121815 1.6434961883030481 -1.2962583112524895 -0.6679163422490488
-0.23845124228069428 0.010424443761658676 -0.8508605810866064 0.07059838117497515 -2.1900095452054185 0.29373709997674174 -0.08505989431795256 1.875851372284921
-0.7651381800546776 1.1025117167938043 -1.570689005028757 -1.1491832577845087 -1.880901166766291 0.6118358039746143 0.3227866505987785 0.061613609970586534
0.44899779838306947 -0.13595021017954353 0.7998942067686048 0.25301988343355536 0.12452029948510407 -0.9209891354781633 0.10557633239742875 1.7537296329523504
2.3953929090939075 -0.10226470367646413 -0.1579316216276567 -2.3738566722720744 -0.35251027672597757 -0.44455865859254234 0.06339432106343675 -1.275285849976693
-0.3361845943440908 -3.070625190983125 -2.513303859679279 1.157163661367365 -2.099010806726264 0.3425814695319792 -5.22014429787166 -0.34817004755024256
0.26551274267554764 0.665040641853191 -0.609627423783652 1.2129300198591273 -1.1660386017333284 0.9962266055587125 -1.191585568884121 -0.19499821112069532
0.23929068424116723 -1.27552215286929 -0.369633090653138 0.3370928543017898 1.945362262664005 -3.6956746143691124 -3.344366049166144 -2.3279771535090847
-1.4040113230275788 -1.1502343445734313 -3.7141650796152543 1.3556125352249488 0.08301744044051644 -1.278960318441971 -1.0260859779976952 -0.07882825592546776
-0.5149453722480022 -3.1502061843818323 0.1075158631165992 -2.9448191695655153 -1.4607310906081015 -2.6706627272445793 -1.8279809037053043 -2.255800704014286
-1.1514445573180392 -1.8745330966891567 -3.1086122657997426 -0.7552132685258528 -2.9711292370137263 0.4188401317252382 -1.194177430033338 0.393452154239876
0.4791410421049903 0.5977749644236624

w3 f8 [15, 14]
00000000: afa6 9e5d 895f 0cc0 44d5 cf78 3d9e cc3f
00000010: 05b3 4ff8 dbb5 00c0 f69d e546 1959 dd3f
00000020: c036 abdd 3ae5 e53f a82d e84e f3a8 0840
00000030: ecc5 4f87 ca80 f9bf 0093 0a27 8d84 fcbf
00000040: 9969 777c f024 fe3f fa88 54d8 c540 f8bf
00000050: 0a72 63c1 6e1d e33f 24d6 c0c6 8807 f9bf
00000060: 0a40 b3e2 6c1f e33f db06 4c22 ef33 f7bf
00000070: c5a2 af8b 450c e2bf 8cdf 14d3 f2f2 c13f
00000080: d1b8 5275 43be e5bf 649a 54b9 f220 cabf
00000090: 8d69 2420 f2b3 06c0 01ca ee09 d5a8 ef3f
000000a0: 0199 c9b5 8e70 f5bf b3cc 5b66 6941 e13f
000000b0: 397c 0ed8 179b cebf 1104 d1ec 93af e83f
000000c0: fe6c 23a5 91f7 02c0 f6ee 1aff 1a85 e1bf
000000d0: 7ba2 3e91 6c82 f13f 81ce c87c 232b de3f
000000e0: ff43 d7b1 c0e9 d1bf 08ea 7a25 4521 e6bf
000000f0: 2cc1 8abd 1d90 e83f dede e23f af9f 07c0
00000100: 7702 d2ef 139f fdbf a246 2a84 791f f83f
00000110: db08 a71d 9d54 e9bf 39b9 1b35 1dee e6bf
00000120: 019b d661 bcea f5bf e580 f1ce 2dc4 07c0
00000130: e6d1 db95 05c4 db3f 4aab 3c42 ee49 03c0
00000140: be71 4bcb a014 0040 4029 aae9 55f2 01c0
00000150: 890a 6dc6 7445 f5bf 13fb 0c29 d325 fd3f
00000160: 1a8d 3e2f ce01 fcbf 6108 ba40 9593 07c0
00000170: 8f49 3789 0839 f83f a737 85ff 1476 f93f
00000180: ef40 ce73 b1b5 f4bf 4788 523d 57b6 de3f
00000190: 00a1 e850 d1dc fc3f ed9f a1e3 4769 03c0
000001a0: d50a de13 3f93 da3f 6551 55d4 bec9 e9bf
000001b0: 6d25 554a 1184 f83f eec2 4cf2 a92a e4bf
000001c0: 5925 2431 0a33 d43f f8d8 bfa4 8db5 f63f
000001d0: 3cff c460 8fa9 e7bf 06e0 7449 d438 0ec0
000001e0: c49f aa0a a60b f43f e785 a5ba bf03 0140
000001f0: 7e7d 926d cb22 eabf ea10 c025 6af6 c2bf
00000200: da7a 7e20 2e9f 0040 feff 82a2 5618 05c0
00000210: b8db d72e 39dd e83f 2901 87dc c4f2 d2bf
00000220: 8e3d 1423 0b5d e3bf 8c8f eeda 9629 ebbf
00000230: a1be 4f7a 74ae b3bf 41d8 20a0 325b e8bf
00000240: 7f14 da3b 4522 ea3f 9082 cf0d 4f3a e1bf
00000250: c1cc 9cfb 4c06 febf 4041 9fff 8e80 ea3f
00000260: 6778 2de9 2a9a f03f 1496 2b8c b9ee e23f
00000270: 07f1 19f7 5b8b ee3f ae1e 90f8 86fe f73f
00000280: 60c5 ca48 243a e73f b8b0 16d6 c4b6 fe3f
00000290: 8910 18d4 e932 e5bf 0be8 a086 1440 f9bf
000002a0: ff67 324b d6ed f1bf 3684 4c01 cdb7 f13f
000002b0: f4f5 80a7 906c f3bf d3da 4b26 8627 01c0
000002c0: a279 f770 81ce d63f 4d80 44cc 8a1f e23f
000002d0: f492 382c dd52 02c0 e36a 5d38 4879 c13f
000002e0: c5ef 2ca3 0b90 e23f 3956 a3c0 5e72 e33f
000002f0: 6610 79df 5261 efbf 0c03 5539 13ba c43f
00000300: 3a4e 45fa caef f73f 9f31 afb6 e4aa fabf
00000310: 5aa4 b39e 4eda c83f 439f f1d0 94cf d93f
00000320: 6c2b 566b 02f9 f6bf 97ee 0a2a 453d 04c0
00000330: 26e8 a15b cd01 c73f 946d 64a7 9ce2 d93f
00000340: 498b aeb6 0e95 c8bf 3954 71b2 7d5f c93f
00000350: 0370 9b20 dd0e f0bf cf37 0cff 6884 02c0
00000360: 92a6 4050 a151 0b40 04be 39a6 f2e6 81bf
00000370: 9f6a 784e cc16 f8bf a16d b104 1f72 cbbf
00000380: b35c 8f36 e929 efbf a4b7 7a70 19a8 ea3f
00000390: bfd5 cf88 8d4d f3bf 5cd9 db01 c32a 07c0
000003a0: 4a6f 8219 dfee f03f 6554 f4c0 f042 d5bf
000003b0: f799 9090 a226 e8bf 60d5 e94f dc2b e23f
000003c0: b8fb 50df ef48 e93f 3c79 7314 1257 e43f
000003d0: ca39 af1a 8dea d8bf 5081 9a5b a1f6 f4bf
000003e0: 28fb fd05 fddb fc3f cea5 99a8 0858 02c0
000003f0: 1fe7 3d0d eda1 da3f 894e 4904 db19 f33f
00000400: 17d7 6cdb a4c8 01c0 7f0f 55af be6a 09c0
00000410: ac9e b520 7bd8 d73f bc73 288b 3ae8 0240
00000420: 864e 663d df27 00c0 e9a7 1c5d 82a3 e4bf
00000430: 38f8 4a6a 8e8c d33f e598 b504 283b 03c0
00000440: 4554 83e7 405b 0140 fa5d e50d b82e ecbf
00000450: 5cbf 56e6 3165 e73f d195 a7af fc05 e3bf
00000460: 1066 c890 42bb 05c0 aacc 4a12 f04d 0540
00000470: 3f28 59c0 e332 03c0 e27f 0fdb 760e cebf
00000480: c238 37f1 3c93 f43f cd02 00e2 9f86 0040
00000490: 9aeb 1ff0 2c26 04c0 4d4a ab02 41e5 f6bf
000004a0: dd7c c763 40bd 0640 04e1 d465 c8e1 dd3f
000004b0: 75fa 3855 59eb f93f 19dd 139b 70df 09c0
000004c0: 7d36 743d 2914 e03f 25c1 ea92 2593 02c0
000004d0: 3893 385b 94b8 e23f d9b6 658f 8789 f33f
000004e0: 32c0 d961 c21c d73f c97e 0220 9fbb 01c0
000004f0: 4c81 ab7b 95f1 83bf b238 e4ae 5841 f43f
00000500: 703b 784a 2078 08c0 efc6 ce3c 0393 f2bf
00000510: 4c68 5ba1 2156 f03f 97f1 ab4d 52df f2bf
00000520: cadd 5dbc 1af0 0440 2e81 93a4 99ea e7bf
00000530: aebe 19a7 5e46 d13f 392f 2d6a 90a4 d9bf
00000540: 9ce7 a6b6 9eac 00c0 e814 09c0 41a8 cd3f
00000550: 69ef 0b54 66cb 03c0 21b8 059b 08c7 0640
00000560: dab2 af36 51de e03f a3d8 e022 8c70 0d40
00000570: 365e 8c33 4109 f6bf 783b 4aaa d6d5 0ac0
00000580: 4389 e11f 46dc 1240 4c4d 2208 bfc8 b93f
00000590: b2b6 2502 32bd f33f a661 6d85 c57c 07c0
000005a0: 6d7c 6281 3bf5 0e40 eab0 8132 1d5e 04c0
000005b0: 84f5 12c5 6fed fcbf d9f5 0489 4cd3 fd3f
000005c0: 5204 6995 4a0b e1bf 84a9 1473 2266 0ec0
000005d0: 21e0 a2bc 3651 1240 0338 150e fa66 f63f
000005e0: 43df 1cdf 0669 f9bf cc47 7eeb f98f 01c0
000005f0: a953 cbf8 e091 e93f 5cfd d0c6 2b55 0440
00000600: 0963 df9f 867e f33f 1557 c0f3 9271 01c0
00000610: 518e 1eb9 9951 0040 e4b9 2bb7 f144 04c0
00000620: 941f 818f c27f f2bf a4ff 24b1 d906 e33f
00000630: 96c8 70e3 0103 e7bf 7e62 61de 7682 c03f
00000640: 9074 3040 b336 cc3f 8513 10c9 7ee2 fd3f
00000650: 320f c4e2 82ec ed3f 6f5a 3c1e 75c7 febf
00000660: 507b dea3 1926 dabf b69b 6215 1046 1040
00000670: 2615 9faa c5ee f93f ee41 6061 c434 f0bf
00000680: 506e 6c52 8d2b f03f 5a76 b396 e1c1 fabf
-3.5466487230340458 0.22357910536781322 -2.0887984656641287 0.45856315539864967 0.6842321710079986 3.082495323620339 -1.5939431462869562 -1.78236117601881
1.884018408009615 -1.5158136797331836 0.5973428513639771 -1.5643394244956506 0.5975861003626062 -1.4501792278028265 -0.5639980056995105 0.1402267008468211
-0.6794755259959634 -0.20413049744930156 -2.8378641615974574 0.9893593973159228 -1.339979848964106 0.5392348288718466 -0.23910806703222123 0.7714328408548018
-2.3708832646785813 -0.5474982244990929 1.0943418191547198 0.47138297258354817 -0.27989213340066493 -0.6915612918886049 0.7675923063270935 -2.9529709807501225
-1.8513373725874354 1.5076842463208 -0.7915788249158838 -0.716566661574496 -1.3698085614975641 -2.9707904975367563 0.4338392222846593 -2.411098973728632
2.0100723154448294 -2.243327928071409 -1.3294570685399398 1.8217345813315589 -1.7504407735330632 -2.9470620209477123 1.5139241561888388 1.5913286191239224
-1.2943586848887738 0.47987919796480977 1.803910556840549 -2.4264066489886233 0.41523720684214754 -0.8058771273741 1.5322430518739012 -0.6302079899233755
0.31561522292084515 1.4193245349429713 -0.7394482507733993 -3.7777486552040527 1.2528438965473336 2.126830537964213 -0.816747392662293 -0.14814497798227616
2.0777246988867377 -2.6368839927890795 0.7770048060327701 -0.29606744323611395 -0.6051078496110891 -0.8488268161786308 -0.0768807219135348 -0.761132538557611
0.8166834038717211 -0.538367773984719 -1.8765382603276495 0.8281931870097097 1.0376385792256089 0.5916412103367201 0.9545116258809977 1.4996404370776122
0.7258473798484992 1.919621311458327 -0.6624650137387259 -1.5781445750167247 -1.1205656945589906 1.1073732424486145 -1.2140051406016683 -2.1442988387965243
0.35635410339264173 0.5663503636933541 -2.290460916019919 0.13651373626893024 0.5800836741468564 0.6077111971341714 -0.9806303372101979 0.1619285612050806
1.4960431839180175 -1.6667220245463807 0.19416220425708525 0.4032947578875687 -1.4357933228336277 -2.529917076548212 0.17974249815216686 0.4044562945070649
-0.19204887313852684 0.19822665417692223 -1.0036288522451293 -2.3146533895114554 3.4148584623079126 -0.00874127931385172 -1.5055659356354807 -0.2144202015796113
-0.973866087496296 0.833019942938098 -1.2064338058674904 -2.895879759332429 1.058318233152891 -0.33221072047428485 -0.7547161887676442 0.5678540764626341
0.7901534425399097 0.6356287383494315 -0.3893158684340078 -1.310212476564704 1.8037080987994134 -2.2929852649583387 0.4161331776918917 1.1938123862682082
-2.2229706900205985 -3.177121515067426 0.3725879496982809 2.363392913028717 -2.0194687649580514 -0.6449596232025644 0.30545387630616316 -2.4038849227828103
2.1695573889688 -0.8807029982953616 0.7311028956228074 -0.5944808417086113 -2.716435557475741 2.663055556209277 -2.3998484637459394 -0.23481641479793242
1.285946790932528 2.0657346397641505 -2.5186403999081906 -1.430970201898748 2.8424079699758367 0.4669056887100995 1.6199582413679796 -3.234101497214976
0.5024610710404002 -2.3218490102664355 0.5850316793117605 1.2210765458543646 0.3611303287098081 -2.2166121006738178 -0.009738128506285769 1.265953715486415
-3.058655339998431 -1.1608917594243697 1.0210281661043323 -1.1795218500184086 2.617238494505476 -0.7473877157572468 0.2699200279084647 -0.40066919678496365
-2.08428709694722 0.23169729115230742 -2.474316269506677 2.847184382545507 0.5271383350460284 3.679954788672221 -1.377259446487995 -3.3544133476165676
4.715111253872524 0.10071939419349468 1.2336902698402068 -2.9359236167913023 3.869742403810554 -2.5459541269138883 -1.8079679201322003 1.8640866615600002
-0.5326283376854326 -3.7998703947716326 4.57931036705125 1.4001408147919399 -1.5881413188307796 -2.1953009031212556 0.7990574702513317 2.5415874035385695
1.2183901066802625 -2.180456070239311 2.039843984837525 -2.533664160749355 -1.1561914067878876 0.5945862254957217 -0.7191171114157153 0.12898145540636458
0.2204193175720417 1.8677966932311574 0.9351210049648897 -1.923695676906984 -0.4085754490169409 4.06842072882039 1.6207939782046394 -1.012882595419906
1.0106328220052951 -1.6723342787512565

w4 f8 [15, 1]
00000000: 503a 36cc 3b35 e7bf 9fe7 f2d4 bdad 73bf
00000010: 9072 699d d283 de3f 6b1c 1eb6 c2f4 7dbf
00000020: 4aec b8b3 44b9 fe3f d553 971c 090c 0240
00000030: 3132 54e7 d06a fabf 1cb2 5141 9de7 a7bf
00000040: d438 d179 7243 e23f ba5c 4640 ffc8 f3bf
00000050: 88ba 8cae 32f3 fb3f fe6e 1afb 9e24 d53f
00000060: 7d07 5d83 1e6d ec3f 8828 4344 8203 fdbf
00000070: 48a2 214e dea3 d93f
-0.7252482403290035 -0.0048043647104182565 0.47679581997162135 -0.007313500014681211 1.920231534996463 2.255876754158161 -1.6510781322750854 -0.04668895170548046
0.5707332972758885 -1.2365715513931677 1.7468745058392035 0.330360169618629 0.8883202138606375 -1.8133566538331554 0.4006267321588308
