Code/Models/run_20251105_110618/model_hidden_3_width_30_act_RELU.npz (npz, 16574 bytes, 4 tensors)

w0 f8 [2, 30]
00000000: 7316 b49e d7ba ecbf 9d9e f6b5 4d13 e8bf
00000010: 1518 7765 ba68 e1bf 937a 74dc ce1c 0a40
00000020: f7d7 de1a 8642 fe3f d173 e5c0 d877 f0bf
00000030: d717 b56c 818d 09c0 755f 36df a0f2 1640
00000040: 2129 f5e1 c0b9 00c0 8d4f e633 e375 a5bf
00000050: adbf 2be5 658e 10c0 4bf4 1379 c5e7 0440
00000060: 72f4 e038 8c1e c8bf adc1 d347 198b 1040
00000070: ff07 e551 bde3 ebbf 619d abd4 83eb dcbf
00000080: 88fe 15ae f125 13c0 7a54 24c8 3bc3 0ac0
00000090: b0cd b0b8 da11 08c0 91d2 d016 e8af 1040
000000a0: d54b 0575 3a26 c6bf b08f ca82 0a1c 03c0
000000b0: e3fd a766 529f fa3f 0438 cdb6 3f10 d0bf
000000c0: a657 a3eb f6d1 d3bf 89fc abc7 615d 1140
000000d0: b49a b699 bffb 0ac0 a6a3 8120 0b95 0fc0
000000e0: b413 7b8e 388c 02c0 badc 6b95 b93b 0dc0
000000f0: 1950 9d6d 06ce 7ebf 7aa3 6580 f1ae 79bf
00000100: 1e72 c1ca ce72 67bf 4881 2621 c9a5 ccbf
00000110: 7a54 e2f6 58cc e8bf c2b0 b736 f682 833f
00000120: 0bbc a858 1255 d0bf 9309 9272 576d c2bf
00000130: da7e 7e72 e58e e2bf 80aa c15c a041 31bf
00000140: 0f7f ca42 bf76 d5bf c5af 48f8 a71f d3bf
00000150: 03ad 4fd6 dd8a 4fbf 8754 659f 12d7 ecbf
00000160: 8f30 efd1 a1d8 393f 960d 692f 6eef 5c3f
00000170: c40a d5b4 e459 d03f 05c6 8b29 64b0 cfbf
00000180: 93d0 da3d 0068 9abf 5d91 089e 07c1 c3bf
00000190: e8d9 fa7b f6c8 e7bf 68ff 2dc5 ccee c8bf
000001a0: cf52 3f86 582f c3bf 4326 3f7a 424b 5a3f
000001b0: cb75 6885 bac5 533f ef93 cf3b c949 ebbf
000001c0: 75b1 9461 c513 d2bf fb7e 7226 fbee d2bf
000001d0: 5b89 053a a448 863f 2593 b33e 2920 d3bf
-0.8978078937222577 -0.7523563913318473 -0.5440341932051093 3.26406643133607 1.8912411737087476 -1.029259446622053 -3.194094514156841 5.736941802686364
-2.0906999257032486 -0.04191503532925287 -4.139060574336253 2.613169618531662 -0.1884322431305097 4.135838625239939 -0.871550235701079 -0.451874692617329
-4.787054748623298 -3.345328868492797 -3.008717959304441 4.171783787246242 -0.17304163659954833 -2.388691922957115 1.6638969430931574 -0.25099175311777366
-0.3096902180817501 4.341193313476773 -3.3729240425921834 -3.947775129276539 -2.3184672480878934 -3.654162566522783 -0.00752069960602244 -0.0062703546194392504
-0.0028623618036773954 -0.22380937689468738 -0.774944765277396 0.0095271335075825 -0.2551923623859131 -0.14396184057484315 -0.5799433933461515 -0.0002633110532374375
-0.33537274859007565 -0.2988071369788908 -0.000962599104807366 -0.9012539971542005 0.0003943820065017778 0.001766069033366379 0.25548665675539106 -0.2475705340253144
-0.025787357116045028 -0.15432830063322003 -0.743281595371454 -0.19478759410776125 -0.1498823791031527 0.001604857367953364 0.0012068101401675353 -0.8527570884876904
-0.2824567273080654 -0.2958362460576464 0.010880740185431994 -0.29883795855703205

w1 f8 [31, 30]
00000000: ec08 b606 f4f2 933f 1825 0c04 32bd fbbf
00000010: de29 ed95 dd55 a8bf e5b4 707e ce19 eebf
00000020: 5b6b 714d 5e7a cf3f 2d00 ace0 5cf6 f6bf
00000030: dfc9 f8ad 944e 01c0 4558 59cc 29b9 cc3f
00000040: c94b 9c34 3666 01c0 f727 79a3 377a f8bf
00000050: 368e 43e5 a9d6 dcbf 2b51 e0fa 8a0d c4bf
00000060: 0eb9 3753 93f5 76bf df37 8de2 f9f1 e83f
00000070: b549 403d 5bdf 0cc0 0cc1 eae4 f066 0240
00000080: 9f2e 1cf7 a568 fa3f 372e defb 77f8 e9bf
00000090: 1e00 eae9 59c1 f93f 0429 a29b 506b e8bf
000000a0: 3661 8a6f c39e eebf 98bb 8cad e5f8 fdbf
000000b0: 67b7 3c55 46d9 ba3f 6a6f 8dc5 b14a debf
000000c0: b950 cf7d 7e55 c5bf fb4d 0b46 eb2b 7a3f
000000d0: dcf8 6db0 3f85 05c0 5d8f e808 402a 03c0
000000e0: 79d9 55d2 f9fa f4bf 9498 12ac f190 1440
000000f0: 59f9 6124 3557 c33f 36d7 07e2 8bcd e0bf
00000100: 8cf6 040a 8d7d fd3f 1d0f d2be b260 ddbf
00000110: bc28 ac49 bd4c e53f 03fb 89de 0380 0140
00000120: 25d1 ccad 88a9 d13f 3f66 9f3a 2788 e63f
00000130: 76db 66f3 d295 df3f dbc7 6115 45d6 e9bf
00000140: b289 b652 588e eb3f 588c 5a06 aa05 e4bf
00000150: 872e 0c44 d1e3 e13f 9492 1d0e 5f34 dc3f
00000160: 91fa 72b5 84b2 e53f 1b53 0b7c ccc5 f93f
00000170: a3f5 8d80 d955 f2bf a6a9 50f1 bda4 d4bf
00000180: 34d9 428c a0db acbf 7aea 13d8 3888 b0bf
00000190: b668 228e 9a1d e0bf 7194 a167 bbb3 d4bf
000001a0: 3e9c d843 1b8e dbbf 49bb 6906 22c6 e8bf
000001b0: 62a7 a520 116f dabf b3a3 e083 d39f 01c0
000001c0: 47a2 23a0 6132 e83f 0b19 a07f aa43 e63f
000001d0: be90 15e8 d1aa d73f d4db 634a 112a d7bf
000001e0: 8c6e fff5 32b4 0440 f7b2 0096 5a79 00c0
000001f0: 388e 9a8c 4d03 bfbf 3626 a004 14c9 f2bf
00000200: 6446 5317 7167 d1bf 228e 0e0d 22ed f9bf
00000210: 8777 6b34 1ffa f2bf f0b0 847f b348 df3f
00000220: 721b 5a6a b907 e6bf f487 7428 834a e0bf
00000230: 5b6e 9504 601e c43f 35db 947b 1bbf dcbf
00000240: 84d2 4690 9070 f83f a9ed 644a 0f67 cfbf
00000250: e7f5 fb6b 0272 0040 61a0 5cfb 0730 e53f
00000260: 57b5 a356 31e2 a23f 8c7c 9754 94a3 f2bf
00000270: 8de1 f292 e7f1 eebf 9015 0310 5089 d43f
00000280: 0ee2 eb3a 3498 eb3f d9c1 2cac f9f8 af3f
00000290: 28ca 6f66 24f7 e6bf 20d7 fe9f 721d a0bf
000002a0: d8eb 6c89 2b71 0240 1ffa ba5f b006 b03f
000002b0: 9b08 a148 81db 9d3f b3e4 b159 ec86 f23f
000002c0: a441 a63e 970a f3bf 73af d393 28ed fa3f
000002d0: 5cea 80f7 4298 f1bf a258 051e 4c36 f83f
000002e0: 4a57 4e9b 1205 e03f f5f3 1ff9 5e75 dd3f
000002f0: 6328 30f6 f4b1 f6bf 21f1 bcf5 01f1 e23f
00000300: 42b9 0c8b 0bf4 fc3f bba6 07ac b9b5 f23f
00000310: 9a8b f510 5143 f13f 83e7 5ef4 94a3 0ac0
00000320: 02bc 93bb de80 f43f a493 d721 bffa fdbf
00000330: 35d2 c19a 81ab ebbf 8c02 3ef7 acb2 f0bf
00000340: 387b 50f1 58c8 e13f b2f5 a07e 0649 dbbf
00000350: fe06 9575 8c0d fb3f 1e21 1757 5adf 01c0
00000360: 5d67 2635 c650 e63f 348f 5305 ec27 bd3f
00000370: 167c d5f4 55c1 e73f 57aa b244 a2f8 e13f
00000380: 90bb e942 806d f0bf 5818 e320 c7ad c43f
00000390: 8da0 66cb 6e8d d0bf 32e2 c65a 2ac6 f9bf
000003a0: b546 61d1 87e1 d33f 2b65 6bbb 6665 e6bf
000003b0: dff8 4416 6a63 e73f f40d efec 4dec b83f
000003c0: 82f0 59ae 4c2b e73f ea20 cecc 77d8 eabf
000003d0: 5a71 6ead 3528 f3bf c38d cbf6 8ebd e53f
000003e0: fe0b 7885 54c3 d8bf 1886 41fb 538b f13f
000003f0: 5541 8d71 ce84 d93f 166f b72d bc85 e3bf
00000400: 16a6 f473 86bf c33f cb40 6391 d0f5 e13f
00000410: 7b65 25c8 e9c0 ecbf 2015 2a8d 4d7a f1bf
00000420: 23a7 bfcc 6c75 e1bf 4bc9 f7e1 39c6 d8bf
00000430: cb72 3622 98e9 9a3f a043 744a 7c28 e1bf
00000440: 9561 bb3d 57b1 c33f ef30 45c4 672e 04c0
00000450: c107 344c 16a3 f63f 2643 943e 2924 ee3f
00000460: 80ad 84de bea8 e7bf 8612 7e1c eb91 d33f
00000470: 0ae9 f5a8 f362 f3bf 21e2 2874 b979 e1bf
00000480: 70d3 f541 5477 b03f 1000 95ad b593 d7bf
00000490: 233d e9c9 df6c d43f 8a1f 14b6 b8ca e4bf
000004a0: 3e2e c14d 0f10 efbf 2689 cc7c 48d2 acbf
000004b0: 91bd 5687 3cad f53f 6986 d147 bde9 c9bf
000004c0: 3b20 2c79 8df6 bbbf d470 84a7 86a2 08c0
000004d0: 3f0f e322 9b11 f3bf a4e3 25b6 5afb e8bf
000004e0: 9403 b654 4147 fdbf 1e11 407f b01b f43f
000004f0: 8b3d c247 0d0b e4bf 6c60 d324 8b4f 89bf
00000500: ff16 36d3 6254 e5bf 3c25 ac4e 5fd7 e6bf
00000510: 3a43 86e3 3033 0040 b983 8821 c5e0 b8bf
00000520: c099 c1c2 c7c7 c3bf badb cce9 70fc e0bf
00000530: de29 5665 fab7 b43f 43ff 403a 91bd e13f
00000540: 3a6b c000 edad e7bf 93fb 0b66 37cd b2bf
00000550: 1ce3 d1f4 a581 cd3f 978c 5ad7 031e e0bf
00000560: 0416 d623 0168 fbbf 2b5e 4306 8a5d f13f
00000570: 6f60 2b37 8b96 bebf cc2c ffe3 b222 e03f
00000580: fb28 4c19 9e23 e9bf 04df a422 cd78 a23f
00000590: 170c 1db0 58d4 eabf b175 bd55 7db4 aa3f
000005a0: 82ca 7e43 cb81 f83f 31b7 5d8e 6604 e53f
000005b0: e7d8 fc7e 3672 dd3f 0d55 e447 2d79 f2bf
000005c0: fec4 a119 1aa7 e63f 412e 8afd f2d5 d73f
000005d0: 4fb0 e5da 7a73 f3bf 03f9 9962 6b71 f5bf
000005e0: 1b54 cc5f 6cb4 debf 9393 4bd6 18aa 01c0
000005f0: fedb c765 ffbd da3f ce99 15b3 3d5a e5bf
00000600: 27bc 6a28 9d68 e5bf b07c 9bc0 7f81 f7bf
00000610: 7013 4893 e635 d8bf a03d 8153 f2ac f93f
00000620: f62e 9aa4 f346 e0bf 3397 4981 486c 36bf
00000630: d048 b3c6 12ce ed3f 23ea dfe0 0148 f83f
00000640: 6217 1971 276a afbf 04c9 c899 8d43 01c0
00000650: 4b41 da4c 9ba2 e1bf 017c 8c8d f390 ddbf
00000660: 0d69 9940 9781 b0bf 1abf 6afc 5ae0 e03f
00000670: a8f9 8afb 18c0 04c0 0c4f 92e9 ac2d abbf
00000680: 3794 0917 1291 ebbf e9c4 6dda 36a8 f4bf
00000690: d3f2 1408 4c63 c13f 01e0 110d 0543 e8bf
000006a0: c9fb 8253 55df e73f 10c2 d7da d95e f3bf
000006b0: 337f 4133 a8d4 e6bf d056 cafc 1a64 f9bf
000006c0: 7d85 4659 6bb9 f23f 3f11 580f baf4 04c0
000006d0: 46fd c76b 8540 f7bf f276 ed09 fbf9 d73f
000006e0: a4ab 0623 8e0b 0940 f43b 5598 f892 f33f
000006f0: 318b 4e7d dbe5 ea3f a4e0 4d24 e831 ab3f
00000700: 6dfc ddd1 7591 b23f 886b 4964 73e7 b3bf
00000710: d1bb d08d 4d74 d83f 531c e0ed bcfa e13f
00000720: a644 5792 2acf f7bf 0bab 8fd6 e688 e2bf
00000730: 22ce 79e7 345d f13f 7656 7825 fddc d63f
00000740: 0165 264e c41f e93f 2da4 0fdd e9a2 e0bf
00000750: 837f 6073 89fd e43f 7d39 ce03 21a1 b33f
00000760: 7a83 1049 cbed 0140 1b8b de9e cd1c c53f
00000770: a082 bd49 45a1 ff3f 8e96 234a 94c8 04c0
00000780: a15f f972 acee 02c0 7940 b0f4 979c e4bf
00000790: 2b24 771f 3d00 eebf e6dd f1c0 2862 dcbf
000007a0: 2dae 9eec 42a8 03c0 ce93 0b34 6d56 fdbf
000007b0: 06af a5f8 e212 e03f 263b e77b d30b 0140
000007c0: f795 66c0 0a57 d13f e656 1dca 5b13 f2bf
000007d0: 573d 2cda 6fa8 fdbf da87 b4fd 2358 febf
000007e0: 0731 9a77 6b14 eebf 4826 8dc7 e3a1 e73f
000007f0: cd3e edee a36f 02c0 f48a 7754 8bbd 0540
0.019481480512248447 -1.733690276918713 -0.047530102302136376 -0.9406502217804272 0.2459218862666955 -1.4351471687550756 -2.1633695212887996 0.22440073469141644
-2.1749080763051762 -1.5298382173227745 -0.45060202969600327 -0.1566632962209352 -0.0056052927861698475 0.7795380997501943 -3.609060743832027 2.3002641567364943
1.6505489018190145 -0.8115806502623347 1.6097048890369545 -0.7630999603000252 -0.9568803003813062 -1.8732659129416103 0.10487784939752275 -0.4733089856360865
-0.1666715730958737 0.006389540708102266 -2.690062883716662 -2.395629949185532 -1.3112734047150225 5.141546906123171 0.15109886433124123 -0.5250911154423423
1.8431520835287385 -0.4590269912225596 0.6656176031986187 2.1875073800905525 0.275972528196933 0.7041202683423718 0.4935195328684395 -0.8074059884659123
0.8611261001099619 -0.6256914257140904 0.5590597466520685 0.4406964910361151 0.6780417961052355 1.610790714786339 -1.1459593793546012 -0.32255505147863983
-0.05636312210246999 -0.06457858348213988 -0.5036137367308331 -0.32346997375709124 -0.430548492675772 -0.7741861462835483 -0.41302898586456227 -2.20304015187545
0.7561500671118403 0.6957600109751935 0.369801022190824 -0.3619425989594991 2.5879878252579314 -2.0592548102343886 -0.12114414866169276 -1.1740913563429678
-0.27193858411656024 -1.6203938016923378 -1.1860649154327534 0.4888123269363538 -0.6884429051577696 -0.5090957441464057 0.15717697357000557 -0.4491642672395984
1.527481616573966 -0.24533263332874114 2.055668681742407 0.6621131810579862 0.03688196356402312 -1.164936380802632 -0.967029368409429 0.3208809048049597
0.8623295927819201 0.062446405665813116 -0.7176687241283775 -0.031474668532082584 2.3052588211407787 0.06260206544082124 0.029157657678532272 1.1579402450281975
-1.190085644459125 1.6829000257957574 -1.0996732395275535 1.5132561848345536 0.5006192239113514 0.4602887566432508 -1.4184465042804042 0.5919198798724531
1.8095813209179856 1.1693665237348074 1.0789347326724283 -3.329873952051402 1.2814624144773465 -1.8737174341160676 -0.8646858236884954 -1.0436219842814891
0.5557064736529815 -0.42633211484993716 1.6908077805568946 -2.234059029000618 0.6973601377569413 0.11389041070975453 0.7423505575096694 0.5616008130794609
-1.0267336477079176 0.16155327897849037 -0.2586323725067892 -1.6108802362415529 0.31064029166473556 -0.6998780880486825 0.7308855471563013 0.09735571894184841
0.7240355878161753 -0.8389243126012194 -1.1973168158211451 0.6793894596307201 -0.38692200693202483 1.0965156378446235 0.3987308606056293 -0.6100750821019314
0.15428238546273637 0.5612566794971142 -0.8985489758589859 -1.0923591150506766 -0.5455841063496546 -0.3870987612455294 0.026281716430832696 -0.5361920789892913
0.15384951128249882 -2.522658856736704 1.414816186589164 0.9419141981362358 -0.7393488260326393 0.3057811525580195 -1.2116581535361228 -0.5461089390510702
0.06432081804616785 -0.3683904833924325 0.319145152262495 -0.6497462803099421 -0.9707104223866236 -0.056291833147286405 1.354794052760415 -0.20244565970192532
-0.10923084457692848 -3.0793583953182893 -1.1917983401080645 -0.7806829030588358 -1.8298962887786034 1.256760117598851 -0.6263491059816472 -0.012358748494463799
-0.6665510297031857 -0.7137905632563739 2.0249955916737266 -0.09717971867259124 -0.15453431138594276 -0.5308155599985789 0.08093228315389164 0.5543905389567744
-0.7399811758690256 -0.07344385377289901 0.23051905111403748 -0.5036639410140137 -1.7128917121748382 1.085336708512737 -0.11948461625013505 0.5042356923162514
-0.7855978483287623 0.03607789085293514 -0.8384211959568145 0.05215827628738213 1.531687987950733 0.6567871838176186 0.4600960006822689 -1.1545841987875207
0.70789818769677 0.37243342170470234 -1.2156933355972972 -1.3401903010959024 -0.47976216655053044 -2.2080551854909998 0.417846536059585 -0.6672657487622986
-0.669020251216243 -1.4691159747815554 -0.3782898367210725 1.6047232877643651 -0.50866109990008 -0.0003421475424033482 0.9314054375520531 1.5175799163977295
-0.06135676627722721 -2.157984925689677 -0.5510994435335673 -0.46197213004228393 -0.06447739913111068 0.5273871355074988 -2.5937976505076286 -0.05308285094466045
-0.8614588212918822 -1.2910679371237228 0.13584280390377632 -0.7581811194677358 0.7460123663985253 -1.2106569813296382 -0.7134591103640332 -1.5869397997498034
1.170268391353914 -2.61949550616751 -1.453252240200372 0.37463260621539896 3.1306421982203165 1.2233816099649149 0.8405587623022709 0.05311513369719137
0.07253204702100087 -0.07775040815742618 0.38209856843144246 0.5618576665882621 -1.4880777088585915 -0.5792116346977719 1.085255531504011 0.3572380891722341
0.7851277853361865 -0.5198869054412448 0.655949330659482 0.07667738287839217 2.241110392395453 0.16494150407114536 1.976872718856761 -2.5979390899763706
-2.3665398580887573 -0.644115426928706 -0.9375291456755169 -0.44349116174950465 -2.457158897964993 -1.8336002381340566 0.5023054939642584 2.130774467462646
0.2709376219666803 -1.1297262091733784 -1.8536222956061772 -1.8965186987265867 -0.9399926506025914 0.7385119340407948 -2.304511896720078 2.717550907037884

w2 f8 [31, 30]
00000000: 9465 945f 4b31 fa3f 0547 5f11 91e5 f13f
00000010: ed7f af1f e8e3 fbbf dcba ece7 d963 dd3f
00000020: 6325 c9fe e6d5 febf bac5 4411 47af eebf
00000030: 5f38 0cb1 0c92 b2bf d4bd 8554 29b6 fabf
00000040: e849 5553 3719 06c0 7a95 ffe5 28b8 ad3f
00000050: a080 f0e0 a1cf f7bf 6322 730f 3657 02c0
00000060: 0276 f3d5 768c fdbf 34e1 0dc3 4d43 cd3f
00000070: 7bf1 2e53 fdc7 de3f c2de 7794 e60e eb3f
00000080: 769e 1199 17dc 9abf 9f5a 05b5 13da 0140
00000090: 16f1 8b6e fc97 ffbf e5a0 59fa 0d6f 09c0
000000a0: 9064 ecde 15e0 0cc0 d270 dbdc a19a 09c0
000000b0: 061b fda0 3de8 0bc0 a3bb f0ee 0b71 08c0
000000c0: 309a 8dd7 9b2d 0bc0 d7c3 0f79 b713 f2bf
000000d0: 5a25 1be7 eace f43f 3e45 0173 25e5 f73f
000000e0: f286 9e9d a183 e93f f202 e00a fc98 0640
000000f0: fc7d 9ef1 c754 d13f 3c59 4b6e 6a5a 82bf
00000100: 8d2d bffd cd1b b1bf 8825 7d23 4125 e23f
00000110: a33f 7795 f7aa e43f d1f1 35e9 15a9 e23f
00000120: 6251 43e9 fa1e ec3f db57 6ca0 d0d3 e13f
00000130: 71ad 291a 7b8c d2bf 69a0 a241 2d35 d3bf
00000140: dd47 3abf b411 edbf 72a4 d714 dacf e83f
00000150: 60b7 d526 1c3a c13f ec43 ebaf 29f6 ff3f
00000160: 478f 7341 ee04 f93f 9a23 d5ee 08d9 d3bf
00000170: 9ebd 38dc 9307 b3bf 20f2 b93c 8c88 d8bf
00000180: a554 c706 2087 debf 3623 7e4f b8ae e83f
00000190: 21b8 7fe5 3c5a e2bf 5466 0bec ed9c c13f
000001a0: 246e 215c ef94 eb3f 776c ddee 11ca 9d3f
000001b0: d226 25e9 0158 ea3f 2093 d8d7 9887 f7bf
000001c0: 45db 4716 88bc db3f b190 b432 3c51 70bf
000001d0: 9067 2b03 8796 9abf ff91 59b0 a504 d33f
000001e0: a01f ca37 3540 b33f 346b 54c5 9c8f 95bf
000001f0: b0f3 ac58 bb83 ee3f 88da 70cb ef44 fc3f
00000200: c906 5e3c 6378 02c0 bf11 4cde fba9 e53f
00000210: fe9a 430c 6284 d7bf ca23 6927 fe9a f03f
00000220: 30ae 3fd6 ab6f a23f 82bd 2afa 8374 f03f
00000230: 3e8e 5348 5451 f53f 5cf6 7aab 9ee2 e4bf
00000240: 5767 91f7 adb3 d5bf 1316 78d7 5447 01c0
00000250: 9abe e509 1059 e13f fa10 8958 c783 eabf
00000260: ba40 a400 aaa0 cf3f b706 132f 8574 ddbf
00000270: e008 86c6 5930 02c0 566a ed75 168a c43f
00000280: 353c 4489 59d8 f43f 948d 5774 6f05 ec3f
00000290: 9ee9 6c06 dc85 d4bf d5df cda8 02f2 dc3f
000002a0: 4277 0830 1c02 a2bf 630a e137 cd90 10c0
000002b0: 3ea6 ed1a a86e eebf d36e ea47 17f7 e5bf
000002c0: e536 4c43 9cc7 c2bf 9dbd dc82 528f d03f
000002d0: ed3e 9cd6 c44f ecbf fd45 1bc9 ade6 e5bf
000002e0: 4ec5 a24d 3a0a 0140 ca0c 9e9a c219 d33f
000002f0: 844a 25d9 1b6c e4bf 35fe 8d81 e3e8 fb3f
00000300: d88c 8a5e f486 f13f b601 23d6 6ce1 e13f
00000310: 5807 eeae eb9a e6bf b10a 03c6 f29b fa3f
00000320: db52 edac 9cfa b4bf 3a42 c6a4 ebd0 d6bf
00000330: b81a 4510 b7a9 e03f 8fc6 bf9f de03 e53f
00000340: 2871 0c4e cb3a d5bf 458b 7fb9 2368 d63f
00000350: a857 0ece 5cf4 dabf f8c2 0c9d 87a3 e0bf
00000360: ca7f 0067 2539 d13f 520a 25c8 4ed1 c33f
00000370: 238e af3d 92b6 edbf dc28 3e93 5429 fabf
00000380: f74a 3c0c bfe8 d5bf 1156 0946 d861 d43f
00000390: 7b52 61c4 a441 da3f 443d a34e ede4 e2bf
000003a0: a60e 7cbf 5e0e ef3f 17ee 8098 b3ce ee3f
000003b0: 162a 24e2 dc9f e33f 88f7 d4da e595 e03f
000003c0: 7b89 159b 6813 edbf 8dee fcc5 e12f d6bf
000003d0: b28d 512b b83b 00c0 0756 48a1 10d7 db3f
000003e0: c239 13da 0884 f93f 8295 c1cc a8a8 e83f
000003f0: 8dd8 8ae1 b165 c4bf c3d2 99a4 2faf d9bf
00000400: d9c5 d9da 8689 d9bf 7eac adbe 8e1c e1bf
00000410: 1a55 338a 63ed de3f a172 0c54 cf7c eb3f
00000420: e16c 8eff 6da8 cb3f 3bcc e85b 37a8 dfbf
00000430: 2c2e bcd1 9ac0 ec3f c61a b6d7 29d0 e3bf
00000440: 7d8b 6b4d 672e f73f af66 0927 fd6e a8bf
00000450: ebdc 9481 2278 dd3f baf4 ef8a 1ba8 e23f
00000460: 9f1e 924a cdcd f2bf 8623 a2e3 edfb ebbf
00000470: 6998 e8b3 5988 eabf 464a 2193 79c7 d93f
00000480: 2830 a8c4 45d2 eb3f 176a 450d 146f b63f
00000490: dd97 c2c3 9859 cfbf 9aa7 a317 a997 bd3f
000004a0: 191d 153c 19d5 dd3f fa88 3938 0a92 f2bf
000004b0: 5973 7823 ddce fabf 3bf4 ee45 bb7c eb3f
000004c0: 6dee 5d44 e83a ee3f 9780 b209 b6f2 f9bf
000004d0: 7a44 feba 2cb1 e03f 1797 923d 1fde ed3f
000004e0: 14d7 e6b5 e87f cdbf 0104 48ad de92 01c0
000004f0: cff3 2fdb a44f f73f 67d5 d5de d0a4 a1bf
00000500: 189f 2bb5 547e c03f 4255 8dae cdbf df3f
00000510: ae3e cf9e 1ded c1bf b318 0729 e1b7 f5bf
00000520: 99a5 e784 0ccc 953f 0487 f058 a31d e63f
00000530: fc56 0269 b271 f0bf 80e1 48c6 e84f d7bf
00000540: 38c0 dc5f 939a fc3f e8ce a4b1 8fe1 f8bf
00000550: 2aaf 1a4b f5a3 ef3f a9bd a9c4 3158 efbf
00000560: 420d 759e 04a2 f73f 39d6 a738 a15d de3f
00000570: 2fd9 b75d 0334 d8bf 6538 c9b6 60b7 ee3f
00000580: 5e86 a9e6 2f38 f53f ff31 b01c 7fd5 b2bf
00000590: d186 8d41 868a d13f da80 3d86 f5d3 fbbf
000005a0: a21e bbb1 ce5e d33f eccd 992c d38b f23f
000005b0: 3cc7 5298 3c6b d0bf 30b2 3d39 fffc fd3f
000005c0: 7765 5004 fbca ed3f ada5 9463 1d01 aa3f
000005d0: d5ba 19fa 8788 8f3f 103b 89b3 c2ce e3bf
000005e0: 49b3 7aab ed19 e3bf 84ea bfc2 ca66 e83f
000005f0: 7a1f 0283 5355 8bbf ef37 0dfe 2ccb f03f
00000600: 9b16 4df0 ca05 f63f 9874 8e16 5ef1 e33f
00000610: 254a e223 46f8 e4bf 512a 1c1d 1899 f23f
00000620: 1aab 3c66 fde6 e1bf 9915 dac4 a37e cebf
00000630: d080 6e29 dea3 c73f b6e4 691c 8b61 e03f
00000640: 7731 5b58 d16c f5bf 69d2 e345 313b d03f
00000650: 15ea e48c 409a ebbf 3f99 15a8 6439 f73f
00000660: 3b09 38f7 5f94 d5bf 440a 78b1 d9ab d6bf
00000670: be11 69f7 f3d1 dcbf 6445 1be9 5e98 f83f
00000680: c91c 07f5 8450 b1bf a93f 120b cd84 f2bf
00000690: 8704 8d2d d687 d8bf 40ea e2c3 b876 e4bf
000006a0: 11f4 f501 4bd5 dabf 3356 eab4 e8ac e7bf
000006b0: 6e15 455c 9a73 ec3f 7c67 1928 0f47 e43f
000006c0: f36c affa 4100 d93f 847f a28d 478a e63f
000006d0: ef65 695f a772 e0bf 4e37 33e1 1af6 eb3f
000006e0: 485c da59 cdd4 bdbf 279a df1b 0669 e2bf
000006f0: fc2e 2b3e ff8e dbbf a4e0 c822 9cd7 d33f
00000700: 8937 c507 bca2 da3f 41c6 335b 101e f1bf
00000710: d6a9 c496 daef dbbf 30f3 77a2 8dca a83f
00000720: 55d6 64d2 024a ef3f 3756 8e17 67f1 c7bf
00000730: 3e51 15c2 5656 f33f e292 2161 eb21 e63f
00000740: fc65 ad2f e18a cabf 4b70 4249 2adb ea3f
00000750: 264f 8b22 bd90 d0bf a9bd acac 34fe e53f
00000760: 09ce b240 9d97 bcbf 02fe ebd3 e56a debf
00000770: 3ef7 bc56 bd3e b73f 6adf 9902 e8e9 00c0
00000780: 30bf 6707 bf56 e3bf 7a76 61dd 4597 e5bf
00000790: 5fa6 daab 6dba e6bf 1ed7 cdc6 9857 653f
000007a0: 8c4b 6015 dbed c53f 4f49 9cd8 f2ad ffbf
000007b0: fbed 1e49 003e febf 76ec 9685 ac76 af3f
000007c0: 38cd 1b52 21b8 c53f 190c c5af 0686 e1bf
000007d0: 0cfe 970a f0d9 ecbf 802d 0561 f7a1 e83f
000007e0: c4ae 9418 6067 ea3f 7cf3 9bcb eb92 e73f
000007f0: 1086 c53f a70f e63f b156 a6ad 0a23 0bc0
1.6370347722607663 1.118546550617283 -1.7431412923542624 0.4592194332971482 -1.9272222473685694 -0.9588961922910848 -0.07254103968100044 -1.669473009267553
-2.762312556305222 0.058045652461980304 -1.4881914889047394 -2.2925835806857306 -1.8467930180989929 0.22861644767886846 0.48095639346481506 0.8455689334650389
-0.026230210034923172 2.231482900834933 -1.9746059721210876 -3.1792258795359083 -3.609416715230118 -3.200504041144179 -3.4883987977258384 -3.055198542329394
-3.3972699012840835 -1.1298136452644394 1.300516989477123 1.4934439175015792 0.7973182753086958 2.8246994828808676 0.2707996234475727 -0.00896151684848389
-0.06683051533689462 0.5670476620809248 0.645870010304851 0.5831403307816406 0.8787817531506728 0.5571063168779306 -0.2898242717262383 -0.30012065324490905
-0.9084113821902481 0.775372544009896 0.13458587547523404 1.9975983497463359 1.5637037808127887 -0.310121758685051 -0.07433437468056645 -0.3833342164068956
-0.47699738180137735 0.7713281204788476 -0.5735153658295112 0.1376016047059233 0.8619305419374013 0.02909114857116576 0.8232430986037917 -1.4706047469600847
0.43338205505226696 -0.003983721874906519 -0.025964841431096952 0.29715864392917973 0.07519848453568878 -0.02105565027623442 0.9535805446572478 1.7668302485377883
-2.3087830272860157 0.6769999829999093 -0.36745501706757 1.0378400363426743 0.03600823393193442 1.0284461757799765 1.332355768704374 -0.6526635503029854
-0.339091769948586 -2.159829791404954 0.5421219056424491 -0.8285862664420443 0.2470905783779978 -0.46023683163739854 -2.2736087331442008 0.16046410329984678
1.3028197633718837 0.8756634971909301 -0.3206701338528094 0.45227114186081724 -0.035172348845874626 -4.141407845602404 -0.9510078931754788 -0.6864124683956682
-0.14671662603398442 0.25874769954222093 -0.8847374145134076 -0.6844090392934842 2.1299940171526606 0.2984472761092546 -0.6381968728185972 1.7443575916985428
1.0954478924766615 0.558767717586355 -0.7064112106893203 1.663073323711313 -0.08194903585292528 -0.35650149432425204 0.520717174317574 0.6567223663425511
-0.33171351072248223 0.3501061736589473 -0.4211647045389051 -0.5199621264819987 0.26911292132171794 0.15482506535234336 -0.9285365299987841 -1.6350904227897933
-0.34233070559382334 0.31847197379588105 0.41025656869650334 -0.5904451881305381 0.9705041637357297 0.9627321222864705 0.613264505083239 0.5182980798779093
-0.9086192158686538 -0.3466724809147557 -2.0291598686469223 0.43500152349710713 1.5947350042875859 0.7705883025306977 -0.15935348046122436 -0.40131751131347587
-0.39901896831642386 -0.5347360347926864 0.48323906417984264 0.85898558059451 0.21607756594025943 -0.49464210486911825 0.8985113235843918 -0.6191605771171786
1.4488289856169267 -0.04772177793047427 0.4604574456638619 0.5830209458942115 -1.1752446091576656 -0.8745030828441578 -0.8291443361129157 0.40279998176734855
0.8694180336910948 0.08763242076876342 -0.24492177542305074 0.11559540583735242 0.4661315047018931 -1.1606542774466662 -1.6755038629118728 0.8589760175597186
0.9446908316890138 -1.621755636100749 0.5216277744494981 0.9333645060148424 -0.23046597368163957 -2.1967137849428586 1.456944328499265 -0.03446057052762335
0.12885531278811224 0.4960817532167604 -0.14004869703648154 -1.357392463936361 0.021286197292203466 0.6911179291821274 -1.02775803584285 -0.36425227512111036
1.7877382034894378 -1.5550686778269043 0.9887644259337993 -0.9795159188342285 1.4770551862464605 0.4744647076871363 -0.37817463066257323 0.959884984020175
1.3262175569765513 -0.07357019853970569 0.2740798607029378 -1.7392478221664107 0.302661584439628 1.1591369383066832 -0.256545208695673 1.8742668376900262
0.93102789728725 0.05078975525459426 0.01539713127132584 -0.618989325195658 -0.5969150876240771 0.7625478557304892 -0.013346340594821749 1.049603454961012
1.3764142405283681 0.6232138100200642 -0.6553068829401282 1.1623765122518714 -0.5594470021072511 -0.23823973762425224 0.18468834898977216 0.5119071536020303
-1.3390668345847112 0.2536128218191949 -0.8625796081390172 1.451512009219712 -0.33718108313054856 -0.3542389138312141 -0.4503145137898875 1.5371998887752278
-0.06763487798808678 -1.1574221069786097 -0.38329081009221294 -0.6394923997789377 -0.4192683715007784 -0.739857056951854 0.8891116907258672 0.6336742194355192
0.3906407306764798 0.7043798223785278 -0.5139958251485818 0.8737921141089176 -0.11652835315395393 -0.5753202957537881 -0.4306028468242713 0.3100347842878455
0.41618252524210014 -1.0698398172938968 -0.4365145180078377 0.048420358736598224 0.9777845486884852 -0.18705452585406743 1.2085788327577371 0.6916405579655385
-0.20736327007288924 0.8392535620546452 -0.25883415578322155 0.6872809765390474 -0.11168845014145047 -0.4752745217847122 0.09080108039503629 -2.114212055512259
-0.6043391365655904 -0.6747159313051292 -0.710257373478452 0.002605245963816296 0.17132128280408343 -1.9799679242465407 -1.8901369911462769 0.06145228510600813
0.16968170651635162 -0.5476106102945578 -0.9016037184628103 0.7697712798048286 0.82511906433998 0.7366847016088367 0.6894108052767383 -3.392110211027863

w3 f8 [31, 1]
00000000: 505a f02e b0b1 f23f 10bb ea4e 1347 d73f
00000010: 2531 8a19 414e e9bf 82ce e701 5c57 ad3f
00000020: fe4c b2b2 6eb0 d13f 8ed0 5be5 174c ddbf
00000030: 2e5e 9360 2f30 f0bf 19bd 86ad d661 f63f
00000040: 1ae8 070e 6d31 b2bf 65bc 2b04 1f02 a33f
00000050: 45be d4c9 95b2 d13f ced4 7df3 1a97 e2bf
00000060: 974f 5ae8 a68c cb3f 5d6f d00c 0223 e3bf
00000070: 3451 e610 8d15 d13f 6044 46d9 7ade fe3f
00000080: f6d0 4bb8 855d e4bf 8d1d 834f 43d8 d53f
00000090: 5fe4 f5ca d2bc f83f 586f 5c0c 00a9 d53f
000000a0: 9b37 f5d9 b04e e2bf 2615 a6db 6081 d3bf
000000b0: d0f0 ef71 86dd d3bf 1f3e 5b33 2c19 d7bf
000000c0: 6950 d08a 2854 e2bf 10eb bb96 e1e3 bdbf
000000d0: bffe 348f 8503 ccbf 81fb 1d70 c464 ce3f
000000e0: a8cb 985c 5d88 ee3f 076d bcef bb95 e13f
000000f0: 16f0 b887 0fce dd3f
1.1683809121656346 0.3637130995438591 -0.7908025263618909 0.05730712435970721 0.2763935799677738 -0.45776936910920873 -1.0117639324652248 1.3988863733646382
-0.07106668083716308 0.0371255581466066 0.27652497015057903 -0.5809454684919275 0.21522985787725865 -0.5980234384801225 0.2669403710399536 1.929316376427117
-0.6364163016828843 0.34132464184627836 1.5460994651932862 0.33843995291839724 -0.5721058136930312 -0.3047716279036926 -0.3103958237331996 -0.36091141715312064
-0.5727732382970433 -0.11675844125776913 -0.21885747425584687 0.23745017504185387 0.9541460808308004 0.5495280916542534 0.465701944867534
