Code/Models/run_20251105_110618/model_hidden_2_width_14_act_sigmoid.npz (npz, 2754 bytes, 3 tensors)

w0 f8 [2, 14]
000000 ef 5b 8c 96 1b a5 e6 bf 30 d8 a9 80 db 5a 0f 40
       -0.7076547565837908 3.9193639804680274
000010 37 ed af 20 8a c9 fa bf be 58 f6 6c 1d 66 f2 3f
       -1.6742039944500229 1.1499304062213436
000020 03 97 2e eb 41 31 06 c0 61 d7 53 19 5b c4 c9 3f
       -2.7740515111535173 0.20130480515188778
000030 8e 7b 87 a3 a8 34 0c 40 49 b2 8a 60 9d f2 09 40
       3.5257122779580135 3.243464235527686
000040 4d 0a a3 f1 e1 bb be 3f 63 a6 77 30 53 9a d0 3f
       0.12005436086023132 0.259419247943333
000050 a6 89 24 eb 8e bf f1 bf 99 1c 2f 5b 75 bd 0e 40
       -1.1092671571028432 3.8425089954140046
000060 4c 4e ab f8 70 e4 f0 3f a1 6e c8 ea 89 c8 03 c0
       1.0557718003882597 -2.472919306031898
000070 e2 42 e2 19 36 1a 0a 40 a3 2a 9a 8f 73 de 1a c0
       3.262798502175756 -6.717237705025272
000080 ba 82 0c ab 90 b8 e1 3f 51 55 75 70 a4 92 d9 3f
       0.5537799206541287 0.39957533819445695
000090 75 3a b8 80 1b 93 a5 3f 2d 92 87 cb e4 ed 19 40
       0.042137965643736765 6.482318096303556
0000a0 8f d0 3f 98 57 3e 2b c0 69 a7 14 d1 ba 65 26 c0
       -13.621762044706228 -11.198690923472627
0000b0 c7 42 ba 27 31 e6 0d c0 95 b6 cf bc d9 5c 22 40
       -3.7373984435765553 9.18134870563089
0000c0 5f f1 14 84 fe 81 f6 3f d9 0b cd 78 0e b1 ff 3f
       1.4067368659444452 1.9807266920840816
0000d0 37 59 21 03 84 44 00 40 ba d7 bc 23 0a 20 02 c0
       2.033454918341842 -2.2656443397526944

w1 f8 [15, 14]
000000 df 41 1c 86 43 48 f2 bf dd 31 58 7f 98 10 d6 bf
       -1.1426425207792972 -0.34476292072284115
000010 d1 66 bf 0d bd 6a f1 bf f5 76 02 b7 80 7e b2 3f
       -1.088559201909835 0.07224277942665565
000020 d2 2e 40 6d c9 09 d6 3f 93 30 6b 8d 8f 06 f3 3f
       0.34434734028830605 1.1891017460029942
000030 85 cf 60 7c 4a e5 e0 bf 91 3b 91 b6 78 73 f4 bf
       -0.5279896191845955 -1.2781912929092167
000040 dd a6 c2 38 26 19 ee bf 73 fe b3 00 be 54 e4 3f
       -0.9405699833489184 0.6353445066196869
000050 31 e0 94 64 f4 d8 f1 3f 31 5a b7 14 88 07 eb bf
       1.1154674462286602 -0.8446693806279822
000060 74 c1 74 a3 11 34 f2 bf d0 88 47 80 13 ab f3 bf
       -1.1377121338847163 -1.2292666445651328
000070 a8 03 31 3c d0 1a eb bf 52 48 cd d4 9d c5 f5 bf
       -0.847023122369241 -1.3607462227414726
000080 d0 f5 cd dd f4 5d f1 bf 7d 69 a0 3b d8 df 02 c0
       -1.0854386009444745 -2.359299150307548
000090 21 3c bc a3 16 de ed 3f 45 8d 9c 8e 00 38 09 40
       0.9333604047732288 3.152344812538703
0000a0 02 f6 b5 d4 99 12 f0 3f ab d0 a3 37 bf 9a e1 bf
       1.004541235829834 -0.5501400076596118
0000b0 74 fb 50 e8 30 d8 ff bf 52 e9 7a 1b 58 55 f2 3f
       -1.9902810168129834 1.1458359788362782
0000c0 16 16 f1 ab 32 21 b7 bf 89 4e 82 64 54 b9 ca bf
       -0.09035031030460802 -0.20878081233660264
0000d0 5d 75 23 a4 61 d1 f9 bf 76 a0 da 7c 53 bc 91 3f
       -1.6136185084972887 0.017319969649776522
0000e0 a1 54 5c 7c a6 07 fa bf 97 40 2f e5 ac e1 de 3f
       -1.6268677575911072 0.48252413159662794
0000f0 2a 4e 2e 58 fd a5 fb bf 77 94 d7 72 2c 95 60 bf
       -1.7280248112264283 -0.0020242565285451502
000100 90 e3 49 df 83 ed f0 bf 76 fb b5 ba 60 91 c5 3f
       -1.057987091275411 0.16849907986394513
000110 c1 d9 07 56 a8 7f c3 bf d5 2a 99 99 01 6e db bf
       -0.1523332996436704 -0.42858924865565245
000120 8f 00 9e bb 25 2a f0 bf 02 49 5e bc 6d 66 fa 3f
       -1.0102898911282272 1.6500069959770944
000130 f7 b0 1a 8a 75 2d fe 3f c5 e4 16 5c bd e0 e4 bf
       1.8860984224984898 -0.6524340437528272
000140 5a 41 eb 42 ad 7d 00 c0 5a 69 3e 76 cd 47 d9 bf
       -2.0613656261486257 -0.39500748202558145
000150 5e 38 01 dd 1b 83 ed bf 2b 4c 95 bb 5e ef e3 bf
       -0.9222544971942275 -0.6229699767812965
000160 b0 0e fc 8c 54 57 a4 bf 90 c9 fd 83 23 f6 07 c0
       -0.039728777132066795 -2.9951849281143907
000170 08 58 a0 8a 89 f1 ee 3f d6 5e 17 b7 cc fd e2 3f
       0.9669845302148596 0.5934814048768782
000180 b7 a3 92 51 b3 48 e8 3f c3 2f ae ed 95 42 ff bf
       0.7588745682925183 -1.9537562641516935
000190 a4 5b 05 eb da 2d e9 bf 4f 3a df df 61 7f b7 3f
       -0.7868475523235827 0.09178744998573872
0001a0 49 61 c0 a4 40 a8 cb 3f 65 95 0d c6 81 eb a9 bf
       0.2160721592379196 -0.05062490027084258
0001b0 9b 21 5d 33 fa 2d f0 3f e9 ce cc 9d 31 fd e8 bf
       1.0112249380491452 -0.7809074480087165
0001c0 df 14 cb cb 70 18 f5 bf 84 fe 35 a6 41 e3 d1 3f
       -1.3184669457125933 0.27949563247236875
0001d0 e8 6d ad 2f 76 8d e3 bf 49 f5 b0 a5 55 b2 01 c0
       -0.6110182696533544 -2.2120774216297474
0001e0 45 dd 64 84 24 c6 ea 3f 50 fd b9 b5 79 3b fe 3f
       0.8366873346157396 1.8895203684513326
0001f0 c5 cf a0 ac 2d 44 e0 3f e6 63 79 16 e2 2b b0 bf
       0.5083225604671432 -0.06316960381208467
000200 c4 a8 f2 7c 10 4e e7 bf 15 60 d3 1a cb ea 07 40
       -0.7282793465031081 2.989645204139388
000210 7e ea 89 09 a5 83 9c 3f 63 4f 87 52 d6 94 c5 bf
       0.027845934588621273 -0.16860465078081707
000220 6b ca b6 d1 49 8f f4 bf 5f f1 33 52 e8 91 fc bf
       -1.2849825088457247 -1.7856219492960788
000230 1d 59 42 d0 b3 d9 fe 3f 47 33 19 b7 1b 97 e2 bf
       1.9281499991535107 -0.5809458328381901
000240 e1 51 ea 59 da 6e f4 bf 72 7e 07 cd 6e a0 ed 3f
       -1.2770637047116156 0.9258340839841834
000250 1c 2b f6 8f ae 74 ff 3f 9e 7c d1 c3 ca 10 05 40
       1.965986788129789 2.6331992433839124
000260 d1 41 67 4b e9 cf e6 bf 5e 9f b4 38 ee 0e ec bf
       -0.7128797981950418 -0.8768225772409826
000270 02 c8 6b c1 d2 f2 f3 bf 39 42 35 ce d5 09 d6 3f
       -1.246783023405897 0.34435029160980296
000280 09 75 39 be b0 1a fd 3f b9 a1 76 e7 fd dc f2 bf
       1.819016211570956 -1.1789530793704286
000290 ed a3 b5 73 09 13 e8 3f 17 e1 ae f9 27 f1 f1 3f
       0.7523238429977234 1.1213760140654523
0002a0 59 53 9a 77 b2 fa f9 bf 94 49 2b 2a f6 3d c7 bf
       -1.6237053558335985 -0.1815784173873679
0002b0 be cf 2c 80 ed e4 f9 bf 61 ac 16 ee 32 58 09 c0
       -1.6183905608022395 -3.168065891329704
0002c0 87 a6 78 89 99 af f5 3f 26 f2 a1 a2 90 46 d9 bf
       1.3553710336658769 -0.39493194467630344
0002d0 24 47 fd b7 cd fa 18 40 62 18 27 b3 78 0f 00 c0
       6.244925379594665 -2.0075544353776857
0002e0 3f f4 fb db c1 fe f1 bf c8 22 91 2f 0a e4 19 40
       -1.1246965973980563 6.4726951057752515
0002f0 d5 59 65 c6 d1 ad e0 bf da 38 ab 37 0c 2b 00 c0
       -0.5212181925697289 -2.021019396698745
000300 fd b0 3e 5b 8a 10 f2 bf 21 f6 bb c3 67 57 00 c0
       -1.1290381969693606 -2.042678383992794
000310 68 42 4f af 7a ec ec bf ac 34 9a fa bd 9e fe bf
       -0.9038670944228899 -1.9137553967623644
000320 3b 28 6c d6 67 3a e0 bf aa df 7c c9 07 09 e0 bf
       -0.5071295917453037 -0.5011023459728581
000330 ab 84 7f aa 02 9b f5 bf 4d 06 a8 5a 1f b8 ec bf
       -1.350344339378618 -0.8974758883125077
000340 f3 dd ce 09 3a cd e0 bf bb b3 5e 29 37 9b cc bf
       -0.5250520888866376 -0.22348680038467514
000350 9d a9 1e ba 8f 4f b8 3f 1b d7 b8 ff 30 c5 db bf
       0.09496401113452753 -0.43391060803274834
000360 e1 67 ac 8e 94 89 f3 3f 44 32 b3 7c 05 17 05 c0
       1.2210889409238848 -2.6362409345804583
000370 6d 95 19 d1 64 16 f2 bf 2d b1 71 4c 84 04 f6 bf
       -1.1304672401396048 -1.376102732286266
000380 dd 03 c2 79 37 34 f1 bf 6f 87 81 09 b3 79 07 c0
       -1.0752482181708196 -2.93442351748029
000390 aa d0 73 00 01 7e f2 bf 8e 89 60 f3 79 d1 e1 3f
       -1.1557626741096478 0.5568208459338153
0003a0 75 f5 01 ad e5 73 f6 bf c2 48 08 f6 dc ce ee 3f
       -1.4032952077971832 0.962751846820787
0003b0 0f f8 fd 33 7f 1a f6 bf fa e5 58 29 8c 5a ec bf
       -1.3814689665737239 -0.8860531623424202
0003c0 78 ee f9 ef 7d 75 f5 3f 98 76 4b fc 52 83 e0 bf
       1.3411845563959144 -0.5160307815201177
0003d0 96 8a 17 b3 a1 cd e4 3f 0f 99 08 9f 5a 29 a3 bf
       0.6501015184297383 -0.03742488089874218
0003e0 ef 7f 4c 70 ca 42 f9 bf 42 19 60 bc 89 ef f0 bf
       -1.5788063418076452 -1.0584809645093434
0003f0 5d f1 28 64 1f c2 02 c0 ca f0 84 5e c2 01 cd bf
       -2.34478643655727 -0.22661618819427637
000400 de 69 57 67 63 30 ea 3f 73 0e af a2 67 20 c5 3f
       0.8184067743671297 0.1650514168123781
000410 e6 18 0b 10 c3 4e e7 bf cb aa 96 cb 77 82 f2 3f
       -0.7283644975039152 1.1568525269200787
000420 c1 ee d0 3a f2 9d eb 3f 16 32 4f 9e c4 70 dc bf
       0.8630305432083888 -0.4443828149785828
000430 93 a6 ba b4 16 0c 91 3f 4b a3 a3 f2 f4 c9 ed 3f
       0.01664767721255218 0.9309029330298498
000440 1e 08 46 bf 05 6c cc 3f c2 37 dc 88 1a ad f0 3f
       0.22204658355264056 1.042261633501298
000450 4b 57 50 8e c0 b0 0b c0 00 38 6a 0c 25 50 f3 3f
       -3.4613047712581753 1.2070665821988769
000460 2e 49 e3 8a 41 a5 f8 bf 47 fb ca 6d de 32 d0 bf
       -1.5403457093530721 -0.25310478898966376
000470 52 20 4c f3 a1 82 09 c0 b0 d3 49 7b d3 ea f7 bf
       -3.1887854583365334 -1.4948305908157913
000480 16 43 96 a1 82 90 09 40 bc 7a fd 56 80 df ef 3f
       3.195561659238943 0.9960328768755384
000490 71 05 73 51 d0 7a 17 40 70 a9 aa 5f 74 27 15 c0
       5.869935295720425 -5.288529867926954
0004a0 4b e3 2b 3d b6 9d dc bf d8 4f 19 ea c8 9f 05 40
       -0.44712596868298665 2.703019932649095
0004b0 33 f5 21 11 bb 97 d7 bf 15 07 3c a4 bc 38 07 c0
       -0.36863590882406355 -2.9027035551852216
0004c0 5f 19 d9 54 30 34 e6 bf 64 ea db d9 fd 6f 01 c0
       -0.6938707024753902 -2.179683401130477
0004d0 4d 8c 82 1e 7e 9e f3 3f 6d 5d 3a b7 fb dd ff bf
       1.2261944953723003 -1.9916951329558643
0004e0 71 0d d0 45 40 af f2 bf 8b fd bf 7f 42 78 ff bf
       -1.167785904603843 -1.9668602934105788
0004f0 24 b1 04 1b 21 3b f6 3f a8 ea 1e 70 50 b3 00 40
       1.3894358687785564 2.087555767005444
000500 a5 d5 07 85 1b c0 d0 3f f3 d4 6f 40 6c 3a f7 bf
       0.2617253111960401 -1.4517633931221183
000510 85 b9 07 5e 25 ba 02 c0 47 98 3e 1c a4 24 c6 3f
       -2.340891584978808 0.1729931962883617
000520 bb b0 0c 9b 02 c7 db 3f 0e 51 57 23 30 8d 01 c0
       0.4340216173320745 -2.193939472295944
000530 ef a9 91 b0 cb 8f ec 3f 66 3a b0 23 3e 53 fc bf
       0.8925531815160052 -1.7703229326322343
000540 af 4d 97 21 f3 dc ce bf 9d 3f ae ca 02 c4 ec bf
       -0.2411178506869027 -0.8989271124464612
000550 29 7a ba 9a 41 72 06 c0 92 ff 73 bd 4c 01 e2 bf
       -2.805789192977745 -0.5626586628204555
000560 7b 44 30 b5 42 c8 d4 3f 1c 7e c0 c9 0b 9c 06 40
       0.32472293562120286 2.8261943590039333
000570 5d 15 2e 0d ba 2d fe 3f 3f 5a 91 ad c7 7a e8 bf
       1.886163760647228 -0.764987792014672
000580 c4 13 4d ae 69 31 f7 bf bb b4 8c b1 65 92 ff 3f
       -1.4495636757503556 1.9732415137798813
000590 2b 22 ef ed 0f 79 e5 bf 8d 7f fa be 18 a6 01 c0
       -0.6710281035566984 -2.2061018867679594
0005a0 0b b7 4d 3e 81 fb e4 bf 20 00 87 92 ef 78 f7 bf
       -0.6557012764803586 -1.4670253490185203
0005b0 3c 5d 2b ee 50 ab c0 bf ff 9b 8a aa 1c 94 c8 3f
       -0.13022815350880446 0.19202001883715522
0005c0 39 fd f3 45 a3 66 02 c0 c9 0b 07 c9 9c 2f 0d c0
       -2.3001161065182285 -3.6482482629084854
0005d0 ac b8 45 9d 24 15 00 40 83 c0 64 d7 6d 53 06 40
       2.010323742571094 2.790736849558074
0005e0 ff 70 09 66 07 41 ed 3f ad 94 6b 32 c2 bf eb bf
       0.9141880982311078 -0.867158030011202
0005f0 fa 97 93 0a c3 1d 05 c0 b1 5f 9b 29 51 cb f5 3f
       -2.639532168034745 1.3621379494925174
000600 b9 04 ae 9a 24 82 b6 3f 54 ae 05 c6 d2 2b fb bf
       0.0879233243595249 -1.6981990561715934
000610 c7 79 13 09 56 ac e1 3f d4 7b 49 67 8b f2 02 c0
       0.5522871186511161 -2.3684299535084197
000620 64 55 01 d5 9a 22 fb bf 1b bf 97 aa d7 8a ee 3f
       -1.695948440600966 0.9544485408677902
000630 66 4e a3 52 02 4a e4 3f fd 23 97 32 53 b4 84 3f
       0.634034310724428 0.010109567624470012
000640 94 87 8a 8a 33 9e d5 3f b9 6b bc a4 fb c3 f3 bf
       0.33778084306151723 -1.2353474078179103
000650 77 5e 52 19 67 f1 01 c0 50 38 c6 17 02 de f2 bf
       -2.242872426820948 -1.1792012146647899
000660 cf 6f b4 0b 9c aa 02 c0 b9 33 04 f9 f4 3f 05 40
       -2.333305446094506 2.6562289671332704
000670 91 e3 07 54 45 28 de 3f 01 53 39 9e 5e 3e b5 bf
       0.47120793539175404 -0.08298293459786167
000680 ac d0 e7 99 ad d7 f7 bf f9 c8 3f 38 2d 53 f1 bf
       -1.490155793374508 -1.0828067967636896

w2 f8 [15, 1]
000000 dc cd 5e dd 7b 17 f7 bf 3b 61 ac ad 18 21 ee bf
       -1.4432333609846557 -0.9415400878961359
000010 c4 40 96 64 08 5e ec bf 46 37 c7 5a 4b 26 d5 3f
       -0.8864786114300149 0.3304623018747076
000020 36 02 31 c7 4c bf fa 3f 1e 0b 87 43 4c d5 04 40
       1.6717040806689858 2.6041493678652747
000030 57 a7 3e f7 8d 8b e4 bf d7 41 b2 f0 2c 06 f2 bf
       -0.642035468006024 -1.126507702083577
000040 82 7d b1 4e bb 1f 88 bf 22 3f bc 8d 99 86 d1 3f
       -0.011779273356465895 0.27384032098142275
000050 db 52 6e 7b c2 54 fd bf 70 49 ad 62 03 0d 01 40
       -1.83319328513351 2.1313541134961085
000060 4b 25 b7 b4 89 a5 d6 3f 5f 91 43 3c c7 11 ca bf
       0.35385363243093043 -0.20366754953932806
000070 aa b6 34 d8 7b ef ce 3f
       0.24168346459321316
