Code/output/reg/Models_Reg/run_20251103_203959/model_overfitting_l1_1.0e-01_l2_4.6e-05.npz (npz, 54886 bytes, 6 tensors)

w0 f8 [2, 40]
00000000: a2f8 298d d3bb c5bf 52ed 6883 314f d1bf
00000010: 348b fecf 4e98 d73f a516 3edd 751b debf
00000020: 13e4 d8d8 cdba d8bf cc3e bd75 711a d4bf
00000030: c176 9182 19c1 b4bf c10f ee44 c216 d7bf
00000040: d6ba 574a b57b d2bf a773 6dbd 73c5 f0bf
00000050: 490a 0729 d788 d83f ecf1 b730 cd40 d8bf
00000060: 6d7b a068 94aa aabf b067 1098 54ee d1bf
00000070: 472f 2918 f85b d43f 7130 3b6f 848b e6bf
00000080: 3a58 bde5 eb6c ccbf 1a20 d381 42d8 8b3f
00000090: fde1 7490 4c97 d0bf 90f5 8b7f e6b9 e63f
000000a0: d900 aae3 e9d7 bcbf f158 d864 e86a d6bf
000000b0: 8cca e03c 4528 d6bf 553c 09c2 380e d03f
000000c0: dde7 c0a5 8ce6 b63f 37e2 f84d d704 c2bf
000000d0: 6ea2 38f2 9a82 cb3f 0ff3 26f9 f0ba cd3f
000000e0: a40b 99cb e0fc f0bf 01d2 4cd6 b731 bc3f
000000f0: 53bf aa3d e26d d8bf d583 2fff dfbf ddbf
00000100: beea e871 3e47 9d3f c5f5 49aa 556f 8bbf
00000110: c549 1935 c903 d2bf 7bfd 21f3 4881 d43f
00000120: 56e5 895b 5020 d9bf 73bc c51e 7f8c a1bf
00000130: bbc9 60b4 f750 c5bf 9e39 c889 31b7 d0bf
00000140: 04b3 5bc5 6412 2c3f 1da0 7988 99d8 2cbf
00000150: 55cb 57a2 74ae 3b3f 7040 e163 9532 2b3f
00000160: 74e4 0ad3 61f9 2a3f b35e a4e7 19a1 3bbf
00000170: 814a 4b0d affe 2abf 0e77 4d14 b72a 3bbf
00000180: a620 863c 9abf 3a3f d892 bfe8 b309 2bbf
00000190: 009a 3adc 6ddf 023f e093 931e 8fa9 3b3f
000001a0: a7d5 2b23 2de1 2c3f 2b04 853b bfc4 3abf
000001b0: 60e8 17e2 18d0 3abf a9d4 ee93 1afc 2cbf
000001c0: 8180 ea40 ef03 2cbf 183c eff0 26cf 3a3f
000001d0: 652a 162a c92b 3bbf 08b5 e8ca e099 3c3f
000001e0: 4d36 5cb6 6ab3 3abf dee5 3f23 5457 40bf
000001f0: 04dc 8962 92cd 2cbf 90b3 3893 c6c3 2c3f
00000200: 5774 b30b 80d9 3abf 53c8 e188 1cce 3a3f
00000210: 30b2 3d63 5efd 2b3f 0a96 100f 5aa6 3abf
00000220: 9027 661f e312 2b3f 0361 43a9 95bd 2c3f
00000230: 622e 3699 50ad 3a3f 803f 8767 9a02 2bbf
00000240: 3f4c eecb 441b 2b3f 7f75 c518 6ecb 3abf
00000250: 3ff6 22f1 f2b0 2cbf 8fe0 bcef 5031 3bbf
00000260: ddbe 5b5b e6be 2cbf 3ecd d895 a89d 3bbf
00000270: 216c 30ab 85c0 2c3f c9fe 8994 4db7 2c3f
-0.16979450600405693 -0.27045858223910557 0.3686711341089677 -0.47042605024067036 -0.3864016168259365 -0.3141139650151501 -0.08107146680546419 -0.3607640908378436
-0.28880054721859716 -1.048206081343986 0.3833520794543444 -0.37895517118138744 -0.05208266999419817 -0.280171535968857 0.31811334952793796 -0.7045309231266527
-0.2220740196013951 0.013596076571403205 -0.2592345629414295 0.7101929179331581 -0.11266958053784339 -0.3502751335921764 -0.3462079138290981 0.25086802433810834
0.08945540472714648 -0.14077273661838927 0.2149232561798899 0.23226749578125136 -1.0617378190079103 0.11013363820968182 -0.3817067720619793 -0.4648361198470046
0.028592086508278262 -0.013395947703652386 -0.28148107705524367 0.3203909277289864 -0.39259728373834457 -0.03427502871169787 -0.16653343493960712 -0.26118124442373325
0.00021417121995827998 -0.00022007822211667162 0.0004223856688831314 0.00020750115976620213 0.00020579642434429316 -0.0004215896839396646 -0.00020595442642575362 -0.00041453332624096027
0.00040814891374242113 -0.00020628281742953477 3.599695221838742e-05 0.00042209381224572566 0.0002203338240957368 -0.0004084555507866706 -0.0004091320753044688 -0.00022113632618717585
-0.00021374030662446936 0.00040907574378662567 -0.00041459714164974174 0.0004364179430094849 -0.0004074225929436612 -0.000498691637857703 -0.0002197495644115922 0.00021945761692290485
-0.00040969253650563947 0.00040901371620017285 0.00021354462807767058 -0.00040664385511698985 0.00020655653470341402 0.000219273108661218 0.0004070588849678145 -0.00020607123202731267
0.00020680632402711623 -0.00040885389241459425 -0.00021889653777933286 -0.0004149267767732467 -0.0002193123051976641 -0.0004213844857503152 0.0002193606538590529 0.00021908590339946566

w1 f8 [41, 40]
00000000: 932f e3a0 add7 ddbf 1862 07c1 783d d63f
00000010: 9c6d 3cf3 b0bd c8bf 94bd c3bb 14b4 d7bf
00000020: 035a 72ad 7ed9 bbbf 7de1 cf50 d80b d7bf
00000030: e13d 7f0b 2e92 573f 1396 d15c dbd6 e03f
00000040: a132 b2be 32a1 d7bf b2f0 6229 5f8b cf3f
00000050: 624a 6e7d ccb0 c9bf 5830 43e7 2a97 c43f
00000060: 1d32 7b59 8adb cabf 7276 a8f6 6c50 e2bf
00000070: 9cad a31d 3dbe cabf 3817 972f b5cd b8bf
00000080: 542c 7acc 6c7e de3f a597 d6ee 6323 d5bf
00000090: c556 5fb4 8959 c1bf 0a0d 4944 dbc7 d9bf
000000a0: a299 113e 9fdb c4bf ddeb b269 d422 f2bf
000000b0: 928f a0ed f868 d2bf d367 2b47 e210 b9bf
000000c0: 4dea 9d54 1b9b c9bf e5db e0e3 6549 dabf
000000d0: c896 24a0 636f ce3f 6eaf e9fe f13e dcbf
000000e0: 25d4 5317 03ba c5bf 2c47 ac10 633f c13f
000000f0: d28d 1870 c3ab ab3f 9375 c71f 0187 c73f
00000100: e903 81f0 9ade c3bf f188 3b7d 4ff5 d03f
00000110: 36dd 8682 2fe0 debf 5553 ef78 25c8 d7bf
00000120: a0d2 4437 f6f1 e4bf 51fe 885b a2d9 e5bf
00000130: 8908 2408 e62d e53f a69a e4c7 149a a5bf
00000140: 32a5 b8a2 b7c0 3cbf ebc3 58d2 af83 3b3f
00000150: e89a c44d d944 2bbf 0433 efd3 a295 3b3f
00000160: d91a df5b 9a3a 2b3f 66a7 3f49 e7dd 2cbf
00000170: 5803 25e7 f00f 2bbf b6af 5c71 7a87 3bbf
00000180: 1454 d6ba 509b 3b3f 11fe 4a5b 7ce6 2cbf
00000190: 1b26 8573 b3d4 023f 9213 7f6c 682b 3b3f
000001a0: e7d2 f1ee 63e7 2cbf 7254 180e 3fd9 2c3f
000001b0: 0f16 cc94 14ec 2cbf bd2d 2e9f d088 3b3f
000001c0: bd66 1c36 83b1 3a3f ae9c 2f23 eed0 3abf
000001d0: a823 fe15 9c0f 2b3f db9e f716 bf7b 02bf
000001e0: bc9d a27b 2c4f 2bbf b57e 78b0 0f01 2c3f
000001f0: cce1 ad3f 4dd3 3a3f 68b1 3c60 779c 3b3f
00000200: 05ce 67ae 76d3 2cbf 0f31 2742 1e8b 3b3f
00000210: 9321 a1f8 ccb8 2cbf 55dd 69a7 678d 3b3f
00000220: 21e6 9610 96c4 3a3f fb92 31b5 6644 2b3f
00000230: abbf d7b2 d9ff 2bbf 9ac9 3aa5 a9f2 2cbf
00000240: f7f4 5f68 fcb2 2cbf 6893 d9a1 b4ca 3abf
00000250: 1119 7a4b 7982 3b3f dcda 978f 5329 2bbf
00000260: 1f60 3663 d19e 3bbf 7c26 8afd 9ea8 3a3f
00000270: 7b1f 86eb edaa 3bbf ad40 4240 75c8 3a3f
00000280: f684 3e1b 97c5 3a3f 64f4 9ce2 6e3d 2b3f
00000290: 99fe f87a 0a86 3b3f 2c09 dbb0 918b 3bbf
000002a0: 98b5 8e4f 83f3 2ebf 3aa6 b394 2e83 33bf
000002b0: 6a1a c6e7 6fa1 3bbf ae47 5e09 8ac3 3a3f
000002c0: 4660 d2dc 2a41 2b3f 9f1e e7ff 24d4 3a3f
000002d0: 1a11 3cef f609 2b3f b707 8aad 67ea 2abf
000002e0: 2f2a a121 e529 3b3f 8905 bdfe 6549 2b3f
000002f0: 97b9 cfe2 01c4 3a3f 7194 3dbf 1c03 2c3f
00000300: 7f1b 6f73 9a8d 3b3f 88d7 3486 74ff 2a3f
00000310: b6f9 08ff 319a 3cbf b45c e38a 2106 2d3f
00000320: 1a2d 6de9 e909 2c3f a0c4 1033 c58b 3b3f
00000330: 717d 8605 d6ac 3abf 6b0b c98b afa6 3b3f
00000340: 5f8e db26 e788 3b3f 9344 c264 3cb1 2c3f
00000350: 0925 5adc 55a6 2cbf 56a0 bd42 4ac4 3cbf
00000360: 912c 44f3 c94a 2bbf bab9 0a1a 6ed2 3abf
00000370: f335 8259 d56c 333f 21e2 a0ad dc8f 3bbf
00000380: 0a25 d64b 9ff5 2c3f c845 b235 a368 403f
00000390: 30ab 01dd 1b97 19bf 3b1a 10be dcdc 2cbf
000003a0: 02f9 fdc4 7c3f 2b3f 0247 e0fd 1d4e 2b3f
000003b0: 3cf7 b265 53ac 3abf 825a 2481 eeab 3abf
000003c0: c9ca a81a 0fa9 3b3f 4ba5 1449 c899 3b3f
000003d0: b87c 8947 5cd6 3a3f 4cd2 2eaa 90af 2cbf
000003e0: 555d ca94 e22d 3bbf 5489 58b4 85f3 2cbf
000003f0: ab66 310a f108 2d3f 2d71 d022 b99d 3bbf
00000400: e173 d601 6eba 3a3f 9bad 7f7c db05 2cbf
00000410: 9615 9217 8557 2b3f 7ee0 17e3 0c4f 40bf
00000420: 24a9 e017 0944 2b3f 28b7 f6b0 90af 3b3f
00000430: 5837 bc73 4501 2cbf 9616 55d2 c0a5 3bbf
00000440: bace dd94 4bb5 3abf f02b 8738 f4c8 3a3f
00000450: 3caa 580e 0bc6 3a3f 01bc f853 c1ca 2c3f
00000460: e25a 7a73 2f23 2bbf a978 75c9 8dc9 3abf
00000470: 13c3 c911 140a 2bbf d006 3c22 8f6c 40bf
00000480: 20c8 7388 e844 2bbf fda6 2cab 2bb6 2cbf
00000490: 63ad 84ff 8fb1 3a3f 307b cd63 549d 3bbf
000004a0: eca4 67e6 b7c8 2c3f 3796 85aa b208 2b3f
000004b0: 84f0 9cb1 c6a5 3abf febc 3068 c9b1 3bbf
000004c0: aff2 056d 52ba 3a3f 3e58 f497 034b 2bbf
000004d0: 008d 1210 03b3 3abf b4e4 80e8 7928 2b3f
000004e0: 94f8 06d9 12af 3abf 3f60 d9bb ea8a 3b3f
000004f0: 4a14 b82d 3633 2b3f 2913 a385 2181 33bf
00000500: fe12 e1b2 39af 3a3f e926 8ee0 26b2 3abf
00000510: 82e7 cac3 4c59 40bf 2ef9 ba5c 6f4f 2b3f
00000520: b750 b466 c63a 2bbf 702f 5c61 e322 2bbf
00000530: 7009 2662 1f2b 3bbf 1cfb 904b 93a6 3bbf
00000540: ec98 4288 91fe 2abf de67 7cd9 e22e 3bbf
00000550: 6c09 49b4 7203 2c3f d10a 1639 ca03 2d3f
00000560: b62e 16fc b3b9 2cbf dd14 7338 e9fd 2bbf
00000570: 7c29 d84d 36c3 3abf 572c e1e6 caad 3a3f
00000580: ea14 fd50 82f9 2a3f 84ac bdf6 6f09 233f
00000590: 92f5 bea1 3acc 3abf 51e2 b15f 59ad 2cbf
000005a0: 9995 57f1 2cb6 3a3f 5785 9c9b 4a2d 2bbf
000005b0: 4c0b dbae b5ba 3a3f 3276 59ac 6282 3b3f
000005c0: 4ee6 2272 ff84 3b3f 87fd a6e9 97aa 2c3f
000005d0: e87d 51ac b531 3b3f 6275 208e 3a42 2bbf
000005e0: 8939 0aa6 3541 2b3f ecfd 69af 0764 193f
000005f0: 6751 dc0b 09b3 2cbf c62b b452 cc2c 2bbf
00000600: ea5f a524 4a22 2bbf 7d10 9040 adb2 3a3f
00000610: 02b1 cbb4 24d2 3a3f 5bcb bb82 4797 3b3f
00000620: cbdb 078b c42b 3b3f b372 b176 c12b 2bbf
00000630: b28b dbd8 05df 2c3f 5027 1d19 e129 3b3f
00000640: 153c 3cad 5bd5 3a3f 1cf6 4cdd d307 2c3f
00000650: a696 415b b1b9 3abf e77f fd0b 37ec 2c3f
00000660: 6a26 5d1f 4af7 2b3f 3985 303c 81c5 3a3f
00000670: fa58 9aac 8b66 403f f8dd 950e 11d0 3abf
00000680: a765 f32e 1bab 3b3f 9179 5ac1 372d 2bbf
00000690: b2cf 6a4f 0198 3b3f bed4 7faf d8fb 2c3f
000006a0: ee43 d863 13a9 3abf 680f 24da e8c1 3a3f
000006b0: 7317 af71 bec8 3a3f e0de 4391 90a8 3a3f
000006c0: b956 fe9f ffa1 3bbf 5251 822d 532f 3bbf
000006d0: 5e19 d460 71bb 3a3f c769 4f33 4498 3b3f
000006e0: dd21 54e0 82af 3a3f fe04 9324 7af5 193f
000006f0: 6af1 26b9 b0e8 2ebf b82e 7437 88fd 2c3f
00000700: 6807 6d89 fbed 2cbf 091d d8f2 17a3 3bbf
00000710: a288 b869 2b25 3bbf 2821 788b 119a 3cbf
00000720: 43f7 b257 44c9 2c3f f8e2 46d2 6988 3bbf
00000730: 6b95 7e44 7cb2 3abf 1066 5315 8f50 403f
00000740: bbaa 8104 1c4a 2b3f 3d87 0795 e48e 333f
00000750: 1a7b 14fd 97b9 3abf cdc9 355f ad38 023f
00000760: f37b d0b9 60ad 3a3f f5fd 820a a4fd 2b3f
00000770: c9ad 70e4 1cd6 2c3f 7d72 0e48 80aa 3bbf
00000780: 4b54 de5e 5b58 2bbf dfbd a388 6731 2bbf
00000790: 55c8 8cf8 e3ed 2b3f a2d1 2bd8 35eb 2cbf
000007a0: 8955 81ce ae7e 3bbf ac69 386f 4c0e 2bbf
000007b0: 7598 a6dc ff77 02bf c568 c195 616e 33bf
000007c0: f31a 7872 4595 3bbf 7f16 35a0 90c3 3a3f
000007d0: c7ee 10dc 99cc 3abf 7039 9afe 9dea 41bf
000007e0: 9065 237d 07b1 3a3f d8c7 6914 3421 2bbf
000007f0: 9659 a314 3805 2cbf 1946 9090 50cc 3abf
-0.46628895484604377 0.34750193453285894 -0.19328891636619694 -0.3703662713660034 -0.10878745779550773 -0.3600979603939079 0.0014386605889632408 0.5262276471009407
-0.36921375868477396 0.2464407875139663 -0.20070797085334663 0.1608632687770093 -0.20982484215927935 -0.57231758284952 -0.20893062541231877 -0.09688885127897329
0.47646636932831155 -0.3302850563435363 -0.1355449801182457 -0.40282327335826607 -0.16295233278942783 -1.1335033539642076 -0.28765700536518424 -0.09791387784517207
-0.20004598266298715 -0.41072985891099584 0.23777432746390148 -0.4413418759711395 -0.16973913802181176 0.134746916905493 0.054044825967391255 0.18380750705447876
-0.1552308725677272 0.26497256498090765 -0.48243320223578523 -0.37159096536679687 -0.6545363501996526 -0.6828166759295958 0.661852851772225 -0.042191171074866404
-0.0004387329415487972 0.0004198364498249607 -0.00020804550775573656 0.00042090630807649376 0.00020774015678012047 -0.00022023628537165134 -0.00020646873196919035 -0.00042006244017289294
0.00042124482100663993 -0.00022049205803929874 3.591702119594091e-05 0.0004145746174766758 -0.00022051901712285342 0.0002200974914080864 -0.00022065879093007042 0.0004201421099245503
0.00040730908777817846 -0.00040918172743293734 0.00020645885797090685 -3.52542582467399e-05 -0.00020835321430932678 0.00021365467567679088 0.000409323081548088 0.00042131342364617195
-0.00021992515321721265 0.0004202793953964759 -0.00021913053598355807 0.00042041569341884816 0.0004084459656855406 0.0002080321670262715 -0.0002136185880057239 -0.0002208549582199515
-0.00021895724438528833 -0.00040881071058711813 0.00041976414966206447 -0.00020722527533197684 -0.00042145359039969134 0.00040677911378193105 -0.0004221754893696178 0.0004086767442084232
0.0004085058128514141 0.00020782450274650914 0.00041997676723679874 -0.0004203062716038482 -0.00023613908686341274 -0.0002977360461061427 -0.00042160970749486346 0.00040838356050542756
0.0002079357931605871 0.0004093733149628051 0.00020629062020572562 -0.00020535007094585136 0.00041448444392658523 0.00020818109566715325 0.0004084114651154101 0.00021371580043730605
0.0004204275205065763 0.00020597741522870535 -0.0004364368496999853 0.00022143516020520714 0.00021391849869654354 0.00042031826439188104 -0.0004070303453093871 0.0004219225482168717
0.00042014735559645593 0.00021890508867675583 -0.000218580227898259 -0.00043894589429394526 -0.00020822253430483444 -0.0004092711260836008 0.0002964039681579704 -0.0004205621495461405
0.00022094316038260452 0.0005007550165762537 -9.761912883880504e-05 -0.00022020525560169528 0.00020788572373570824 0.00020832172498379964 -0.00040699993196456944 -0.0004069764410287517
0.0004220640063607282 0.00042115344793332694 0.00040950539508872617 -0.00021885529448941105 -0.0004147222687520176 -0.0002208805764648084 0.00022151892071313925 -0.00042138833924966723
0.00040784059259540815 -0.00021379761005789203 0.00020860194834796943 -0.0004977047848902098 0.00020802126886227637 0.0004224518060834564 -0.00021366093448487822 -0.0004218669658552025
-0.00040753455402085424 0.00040870630666905907 0.00040853280947553464 0.0002196656223402982 -0.00020704225766073671 -0.00040874206157138576 -0.00020629401196316978 -0.0005012225051077238
-0.00020804728067208653 -0.00021905215324951452 0.0004073120649248 -0.0004213648824612946 0.00021960492013243323 0.0002062528703944842 -0.0004066095440185063 -0.0004225842205327206
0.00040783417082205625 -0.00020822924486968599 -0.0004073984601495467 0.0002071999372235449 -0.0004071637167973954 0.0004202673988849027 0.00020751987800352235 -0.00029761379631691953
0.0004071727624970627 -0.0004073471941913169 -0.0004989266231725106 0.0002083610000819884 -0.00020774528398049215 -0.00020703340185723338 -0.00041455761142840993 -0.0004219159705520102
-0.0002059509898845799 -0.00041478193587496197 0.00021372580717311394 0.00022136539022817603 -0.00021915742949506705 -0.00021356079034810004 -0.0004083640650100124 0.000407087360944918
0.0002058002069082251 0.00014523975130073888 -0.00040890151444358217 -0.00021878925312869777 0.00040758702502182717 -0.00020734344234888777 0.0004078572809300032 0.00041975888266229937
0.0004199145934183677 0.00021870712664727126 0.0004149502313506013 -0.0002079674223417856 0.00020793704881723007 9.685799509816907e-05 -0.0002189587157138781 -0.00020732874086379203
-0.00020701556270341588 0.00040737848081585215 0.00040925403736370724 0.0004210042559257742 0.00041459606566668074 -0.00020729767433893195 0.00022026964545948446 0.00041448350485905495
0.00040944565010731074 0.00021385632740049474 -0.0004077966689294089 0.00022066280325372322 0.00021336345496996155 0.0004085007205408445 0.0005005056384159983 -0.00040913025312458396
0.00042218602807294687 -0.00020734124762085114 0.00042104751575355447 0.00022112865531168606 -0.0004068062151825748 0.00040828642717393457 0.000408693785797324 0.00040677575567780837
-0.00042164316982372 -0.00041480808932560953 0.00040790098212574964 0.00042106308984348996 0.00040718980047007946 9.902532578378098e-05 -0.00023581654802552347 0.00022117889214034125
-0.0002207154800207237 -0.00042170843775619964 -0.00041420278441440573 -0.0004364292940129016 0.00021962126979773776 -0.00042011817484026394 -0.00040736707569018785 0.0004978846215195083
0.00020820228587877472 0.0002984340726738149 -0.0004077907625105612 3.475455369085813e-05 0.00040706263991013776 0.0002135527368007786 0.0002200041073775318 -0.00042214996215664946
-0.00020862689364934054 -0.00020746601905539863 0.00021308334205511156 -0.00022063286095143098 -0.00041953819027659066 -0.00020641978299880176 -3.522634104351298e-05 -0.00029649622388706567
-0.00042088456618254096 0.00040838509467664563 -0.00040892368639665024 -0.0005467673738211287 0.0004072802813773419 -0.00020698319186213013 -0.0002137785871300756 -0.0004089066210904726

w2 f8 [41, 40]
00000000: 6997 71f3 da6f b8bf 7e7f d842 5246 cbbf
00000010: 5f91 28ea 8f95 e43f 568f 1342 dd6f b8bf
00000020: b214 eab1 4975 ddbf 0c0f 8900 a234 e93f
00000030: 9214 a9c1 92b5 b6bf 2cbe 8f68 6cb1 b63f
00000040: d3f5 e7e5 22c4 b5bf a32a 6c85 18e1 ce3f
00000050: 5374 0b7c 9a56 ee3f 90a1 178e 8132 e83f
00000060: fe99 4a32 068b cebf a97d ebac 668a b5bf
00000070: c94c cdca 421d d03f 46d0 0fd1 481b c8bf
00000080: f9a1 496b 1380 e6bf f0ed f033 e7e0 cbbf
00000090: 0640 8f50 285b e13f 8b31 418e a084 ccbf
000000a0: edea 0be0 e4ed cd3f 8d97 21f2 4135 b4bf
000000b0: 4e64 4d37 b565 c83f a54f 69d6 71df e9bf
000000c0: a0f0 598d 015b e8bf 46a7 eb6e b0d5 e6bf
000000d0: 533b b0d1 c849 d3bf bdfd 9da4 f847 e5bf
000000e0: 282a 411b 5871 d8bf 2f7a f98b 348a d1bf
000000f0: e343 b800 5161 c7bf 82cf 1e5f 8a91 c8bf
00000100: 9f0e 998b ee0f ccbf 53d7 3c1e 6fff c83f
00000110: 20d5 8337 feda dfbf c61c e7d8 9645 ebbf
00000120: 4d0a aeea 9015 df3f 2cd3 b7bb 7b22 d23f
00000130: 9f9c 9259 aed4 b3bf 9504 dfce a22e e7bf
00000140: 19cd c9d9 3841 2b3f b006 573d bfa8 3bbf
00000150: c3cb 3270 e9c9 3abf 7a04 8769 578a 3b3f
00000160: 901e 5e8e dda3 3bbf 80bb a23c 12ae 3b3f
00000170: cca6 0ed7 adbe 3abf f8aa a141 8ea2 3bbf
00000180: bd26 df51 8ff3 183f 52d4 5790 0cf1 2c3f
00000190: 22a9 a372 f273 033f 9f31 b981 7b09 2dbf
000001a0: 1e33 98a5 57ad 3bbf a431 09e0 6f5a 40bf
000001b0: bc89 b1ef e27f 3bbf a41e 7413 37ae 3a3f
000001c0: 8831 663a cf1a 2b3f ad42 4888 cc09 2dbf
000001d0: 3805 8f86 eeb2 3a3f f5b3 bffa a9c8 3abf
000001e0: fa49 4b06 c3fc 2abf 6a1f 4587 db07 2b3f
000001f0: 925d 92ae 66d4 3abf f6f9 3df8 202b 3bbf
00000200: 37c3 8ea5 c61e 2bbf 8a82 f02a ceab 3c3f
00000210: 1b75 8c4c 09d4 3a3f 35e9 be3d 7a86 3bbf
00000220: 35e9 d3e5 2382 3b3f ce46 11a8 999a 3bbf
00000230: 9845 33ca 3c2c 3bbf 9ace 9605 66d9 2c3f
00000240: 8837 deee 61cd 3abf 1516 ab40 4dc0 2cbf
00000250: 9a32 ba47 0488 3b3f 5a89 64d2 86b9 3a3f
00000260: 3d5d a25d cacb 3a3f 6a77 fd82 8e9f 33bf
00000270: be86 647e fea7 3abf 7b83 0282 8e9f 3b3f
00000280: 062a 4d45 200f 2bbf f935 b6d9 c6f5 2c3f
00000290: 85ce c17a cc20 2b3f 7e0b 82ff 1fa4 3bbf
000002a0: adf9 39dc 7ef1 2c3f 3b27 0533 cca3 3b3f
000002b0: acbe 53c2 9601 2cbf aea2 2103 a082 3b3f
000002c0: 1169 97a7 b67f 3bbf b3db 3c36 a3bd 2c3f
000002d0: 5f80 b190 34ff 2b3f 5566 a26c b788 3b3f
000002e0: 161c 2e4f c207 2f3f 54bf 0bd5 0901 2b3f
000002f0: 60c8 972f c8c9 3abf 0f40 74f2 aef7 2cbf
00000300: c71f 8bea e4ad 3b3f 8b8a 0d13 bf28 3bbf
00000310: d310 084a cac6 2cbf 7e59 12bd eb42 2bbf
00000320: 8bf4 16dc 0184 3b3f 4c01 7c21 6c2c 2b3f
00000330: 2c35 77d1 8af2 2c3f 5852 0150 4103 2dbf
00000340: 46ce d6d9 e193 3b3f 1089 af88 1e03 2fbf
00000350: fa9b 4a1e 614e 033f 268e 0fa2 c12c 3bbf
00000360: c88c cb1e ca99 3b3f 2ccf 880e 942e 2b3f
00000370: 4ac6 20e7 7041 2b3f 2976 4eb1 acbe 2c3f
00000380: b0be a919 0910 2b3f 162f 8907 01a7 3bbf
00000390: 7971 864c 14f7 2cbf d6af 6be7 7827 2bbf
000003a0: db24 ec96 3444 2b3f 3b6b 3af6 2188 3b3f
000003b0: 2841 1c96 96b2 3abf f68d cf42 d9f6 2c3f
000003c0: 6aaa 1dd5 bbdf 2c3f 710d 785e 8a05 2b3f
000003d0: fb16 16e1 d9c9 3abf c1d8 4711 90a8 3cbf
000003e0: 4964 98a8 dcc1 2c3f ff25 bc2e 8ae9 413f
000003f0: 71d9 9f62 9348 2bbf f08b f3eb 1bfe 2bbf
00000400: 8afd 50b9 82f7 2a3f d82b 095a bbbb 193f
00000410: d058 b9de 7bac 2cbf d404 56aa 7fb8 2c3f
00000420: a10c ccb2 928e 3bbf a756 a720 118b 3bbf
00000430: c69e 751a 1729 3b3f 0691 cca5 a79f 3a3f
00000440: c78f cc3b 2b00 2dbf eff2 b6e1 c588 3b3f
00000450: 3329 504e 2c29 3bbf f6f1 7db5 88b5 2cbf
00000460: d729 a530 0577 333f a899 6659 d190 3b3f
00000470: f5fd 6b84 9503 2bbf ce7e c504 3ce9 413f
00000480: 2d25 bf3e 2bfc 2abf 076b 8908 2200 2b3f
00000490: 4b2f e49c 45aa 3a3f b7ac b7a0 5ba2 3bbf
000004a0: 05bb 6409 30f8 2cbf 8eee 825d 4dc4 2cbf
000004b0: 14d1 8c62 218d 3b3f c6ed f13b 25f9 2c3f
000004c0: 8e8f 28f4 5926 2bbf f0b7 7e57 5010 2fbf
000004d0: c25b 80f7 43d3 2c3f 807b b805 97b3 2c3f
000004e0: 274f 5a6f 79eb 2c3f 92b9 f4c7 7bfb 193f
000004f0: 4eb7 c669 942b 3bbf c63d e273 a89e 3b3f
00000500: afdc 4b7e 97cb 2c3f 63bc 5e35 0ea9 3abf
00000510: 958a 60d8 d89c 3b3f 2efd 3c6e dc2d 2bbf
00000520: 0845 3c78 73cb 3a3f d7a4 49f7 8900 2bbf
00000530: bd68 20ab a62a 2bbf ab6e 9654 632d 2bbf
00000540: 8b4f 1e8d e10e 2c3f 1385 2651 e3bc 3abf
00000550: 2af5 f45e a398 3b3f 56f4 c971 372c 2b3f
00000560: 2b83 e62c d1cf 3abf bf6f 0b8f 0227 2bbf
00000570: 46f2 394c b781 333f bc94 5e2b c07a 03bf
00000580: a51b d7be c401 2bbf 296b 631b 561f 2b3f
00000590: e3af e7ff 7be6 2c3f 97a2 59fc 7aa1 3c3f
000005a0: 9b72 af2f 9c9f 3abf 09df 8c5f 65be 3a3f
000005b0: aae2 908c 8efd 2cbf 8a5f 4143 74f8 2cbf
000005c0: 2845 5bcc 5584 3bbf a9ed 4b31 ef8c 3b3f
000005d0: 176c d8aa fcfb 2cbf 4036 6f14 771a 2bbf
000005e0: 51bc 128f 2fca 2c3f f239 4699 d9a5 3bbf
000005f0: 8132 5f33 14c9 2c3f 8636 5426 a3e2 2c3f
00000600: 6a35 97f8 3101 2dbf 302f 3080 adff 2cbf
00000610: ece9 51a6 1eaa 2cbf 55b2 dcdd 6b25 3bbf
00000620: 00a5 6c63 b766 403f 79e5 d10c d1b6 3a3f
00000630: 4f54 7ef4 daa5 3b3f 026a 41e3 249d 3b3f
00000640: 4249 4ba5 1dcd 3abf 0364 907e 558a 3bbf
00000650: 8c7f b6d1 782b 3bbf feaf aa4d 4129 3bbf
00000660: b22c 332e b928 2b3f 3e73 343d 507e 33bf
00000670: 9aa0 9c4b a78a 3b3f f3ed e050 b528 3bbf
00000680: 80f5 3fa9 1de8 193f bfb3 febc 77a2 3b3f
00000690: 12e8 5542 f9bf 3c3f b968 9d25 a48f 3bbf
000006a0: b61f 9463 26d5 19bf 2b1d 1977 4ba3 3b3f
000006b0: 22d8 2e03 bb0e 2bbf 5124 3b49 8cbc 3c3f
000006c0: 8b35 7a74 d4a9 3a3f 8db7 53b6 3858 403f
000006d0: e29d 6335 342a 3bbf 25c0 1103 2d4f 2bbf
000006e0: 6a2e fb00 8227 3bbf 90fa 15c4 6bef 2c3f
000006f0: eea4 44a4 dd4b 2bbf 8eff f753 2e27 023f
00000700: f1be 2624 e9a8 3bbf 58de 44fe b5b9 3a3f
00000710: 9007 b831 3697 3b3f a423 f9ec aaad 2cbf
00000720: 08ab 5bc1 54b4 2cbf 24ae 43ae f358 2bbf
00000730: e2ac af1d 442c 033f 7a2e 3f06 b4ac 3bbf
00000740: 0ed1 a3a3 9aa3 3bbf 7097 cc6b 0354 2b3f
00000750: 1ccd 4242 e90d 2b3f 389a 889b 71b3 2cbf
00000760: d7f8 20d8 73aa 3abf c129 d37c 52c1 3abf
00000770: 59ec 4ba2 9dd9 3abf a74f e9d0 77ac 3a3f
00000780: a855 38b8 4a01 2b3f 6a5a dbad d416 2b3f
00000790: de26 90d8 6050 403f 74d1 4f40 56a0 3b3f
000007a0: 08ac 5861 75d4 3a3f 22ac ce57 5ae9 2c3f
000007b0: 3fe9 fb26 d0c6 2c3f 0a86 0bda 2d1b 2bbf
000007c0: d19b e18d 4daf 2cbf daae 34ac d16a 40bf
000007d0: f582 b335 fbc9 2c3f 5877 27e8 53e9 41bf
000007e0: 1c86 a98a 8ba4 3bbf 8408 8292 dfb9 3abf
000007f0: 6f31 9b8d 06c7 3a3f 5bc4 ffae 9dc0 3a3f
-0.09545677607965576 -0.21308353675794572 0.643257100430258 -0.09545691359704497 -0.46028368353320126 0.7876749048668628 -0.08870808818854162 0.08864476731081855
-0.08502405274335638 0.24124437823077924 0.9480717108487035 0.7561652922859583 -0.23861768203387607 -0.08414308282544049 0.2517859440315076 -0.18833265503019642
-0.7031342597447853 -0.21780099903286 0.5423776219777217 -0.22279746004131726 0.23382245006344907 -0.0789376464977904 0.19060387802417939 -0.8085259616586781
-0.7611091385620234 -0.7135851065079144 -0.3013784454096157 -0.6650355544260759 -0.38191797887398815 -0.2740603796900442 -0.18265736136575503 -0.19194154400394942
-0.2192362004881163 0.1952952287335231 -0.4977412740839373 -0.8522447811491467 0.4856912891192778 0.283354695623802 -0.07746400534471086 -0.7244428673221984
0.00020793742159561852 -0.0004220454114510592 -0.0004087634008086949 0.00042023309790912395 -0.00042175444684076305 0.00042236275897782755 -0.00040809387342709 -0.0004216763787840273
9.51820588560815e-05 0.00022080686919393133 3.710349695203371e-05 -0.00022153504038370257 -0.00042231931510698813 -0.0004990621819814145 -0.0004196099322994159 0.0004071125471942583
0.0002067926372543267 -0.00022154447300739202 0.00040739367846860967 -0.0004086890210135968 -0.00020589714690417965 0.00020622782506962294 -0.00040938860781510836 -0.0004145579807683092
-0.00020691084753601274 0.00043748649017242484 0.0004093668654137781 -0.0004200027885833569 0.00041974426660797436 -0.00042120219592787784 -0.0004146240627963204 0.0002201020277375801
-0.0004089702696256016 -0.00021935408616095888 0.00042009453293515855 0.00040778676556576176 0.0004088753754642632 -0.00029942731179299095 -0.00040674174523945203 0.0004214976234014273
-0.00020644444398450218 0.00022094776509755368 0.00020697113120925564 -0.00042176991656377855 0.00022082017504838677 0.00042175040563973185 -0.00021367039986540848 0.0004197731642592667
-0.00041959962217465266 0.00021927468616819503 0.00021359936394827175 0.00042013624318712933 0.0002367424673048463 0.0002060245992860874 -0.0004087556586390758 -0.00022100458702611943
0.0004223522069364241 -0.0004144159784599608 -0.00021954745626840427 -0.00020798804920181194 0.000419855550798883 0.00020731754261050573 0.00022085136946118614 -0.00022134945175146764
0.0004208017724877982 -0.00023660419205302112 3.682359582529017e-05 -0.0004146549927652475 0.0004211538751361485 0.00020738179525069936 0.0002079439469198522 0.00021930559219367318
0.0002064715489100608 -0.000421941520049472 -0.00022098658361081514 -0.0002071700179934177 0.00020802633249442687 0.00042010144373143585 -0.0004073732035161531 0.00022097971068922557
0.00022029083134652026 0.00020615877222960767 -0.0004087597781893129 -0.00043729321740161245 0.00021940058313488418 0.000546638938858368 -0.00020815657745716255 -0.00021356669274216712
0.00020574064970622599 9.816485408824184e-05 -0.00021876346669342248 0.0002191215364000578 -0.0004204853201345647 -0.0004202763381305576 0.0004144364742928282 0.0004062446876551693
-0.0002212574744585567 0.0004201396093000261 -0.00041444141089698737 -0.00021903318224393537 0.00029701115331151384 0.00042061911644921757 -0.00020610046541234798 0.0005466025409468168
-0.00020587947744691565 0.00020599761434677446 0.00040687751324307704 -0.00042166459090138157 -0.00022101961503425568 -0.00021947330856685428 0.0004203993326428329 0.00022104815977628931
-0.00020713661258852902 -0.0002369974206408161 0.00021991924927597216 0.0002189752438974367 0.00022064072952742675 9.911482810729389e-05 -0.00041458485955102743 0.00042144405950580684
0.0002196905544662223 -0.00040680500876084084 0.0004213361174853295 -0.000207360418352545 0.0004088551433919095 -0.00020600971369625381 -0.00020726475264682366 -0.00020734632043405607
0.00021406653700905792 -0.0004079871152048036 0.0004210852484510414 0.00020731140911670287 -0.00040911537953474086 -0.00020715624079670027 0.0002976486686987783 -3.715418772224632e-05
-0.00020604635885332099 0.00020692754851022705 0.000220492016480888 0.0004368710764084764 -0.00040624201909426346 0.0004080770009298051 -0.00022117962933678365 -0.000221027557588679
-0.000419875094263738 0.00042038764631488007 -0.00022113284414690466 -0.00020678237544162655 0.00021964865257959263 -0.0004218727347272958 0.00021961566534258253 0.00022037736486206857
-0.00022128806112535075 -0.00022124283722779184 -0.00021869300977413132 -0.00041421779120546137 0.0005005259944016738 0.0004076252342382829 0.00042187305052127517 0.0004213538225081027
-0.000408954370226717 -0.0004202326513805256 -0.0004145784348228369 -0.00041444629975262426 0.00020720730308307827 -0.00029744585954620875 0.00042025169715254886 -0.0004144137063837032
9.882622754272229e-05 0.0004216711358775958 0.000438688616064221 -0.0004205489873264734 -9.854361350758356e-05 0.00042172043240325485 -0.00020643265596981356 0.0004384844298611123
0.00040685116662405517 0.0004987980761634745 -0.0004145028555186653 -0.00020835327589763353 -0.0004143421547097905 0.00022075834753461756 -0.00020825462900945314 3.462419635624692e-05
-0.0004220551674291992 0.00040779774851127304 0.00042100022412238595 -0.00021879874701571684 -0.00021899733172089258 -0.00020864462488333444 3.6569432005107016e-05 -0.00042228121878615905
-0.0004217388665346413 0.00020849744569167604 0.00020640823743676366 -0.00021897088824225793 -0.00040688827732883237 -0.00040825141770697507 -0.0004096994255601886 0.00040700841137674765
0.0002060321531735358 0.00020667406254544783 0.0004978630905736155 0.0004215441297781488 0.0004093920300387026 0.00022057750530044088 0.00021954813882258704 -0.0002068036528930925
-0.0002188474817927653 -0.0005010150711419429 0.0002196425583411915 -0.0005466136647631443 -0.00042179495600267055 -0.0004078074293901795 0.00040859136570927426 0.00040820932099367373

w3 f8 [41, 40]
00000000: 645c 8857 1204 efbf 3abc 110b 5670 e4bf
00000010: 592f 7a77 e9ce d0bf 4b53 a5ef 2097 e7bf
00000020: 058f 6a2d 6ce0 b93f d79f 53c1 62b0 e5bf
00000030: f57a 1d0e 5b11 dd3f cbfd 6461 d69a f2bf
00000040: 6a58 8821 8338 f43f 5b0c f341 a4de d13f
00000050: 7d73 d454 e8ce adbf 6eaa 5366 9fdd d13f
00000060: a7ce d917 4ed1 d93f 52b1 1661 459c c23f
00000070: 8666 1dd1 1f3c e43f cfaf 0288 6e2e c5bf
00000080: 86a2 5432 b257 c8bf ef13 0809 4a3a cd3f
00000090: cc4d 7a46 9d1d d2bf 02c7 78c9 ac06 ef3f
000000a0: f7dd 19c9 88f5 d53f e4f0 73c3 ead1 e63f
000000b0: 4a7d 1f37 4a6c e83f 52e7 9b4d 584c d2bf
000000c0: 1338 8dff 4d0c e2bf 7673 a8de ecbe cabf
000000d0: 44d0 b3b4 c6bf e6bf 3468 ccae 5c04 e6bf
000000e0: ecb3 5cea 9f6e c83f 2fa9 89f6 730e dbbf
000000f0: 19a4 f2eb 9db6 e13f c7f2 20f6 d7e3 c4bf
00000100: 4bde 79d2 f77e bc3f c950 5af0 66bb c23f
00000110: 3916 9605 aa4e e1bf 1ff0 9df8 a63e c1bf
00000120: 1207 e405 410b d4bf eea8 2e10 6fc3 b5bf
00000130: 21e7 a577 f4dc c73f 1bd6 9776 cd14 f13f
00000140: 765c 4a25 2237 2b3f 26ac a490 c8fc 2cbf
00000150: 3e6e 2920 342b 3b3f 79d6 ecf7 90b4 2c3f
00000160: 043d 49c9 6aba 3abf 925c 2ae2 9101 2d3f
00000170: 0696 229a 43bf 3abf 014d 68fc 34db 3abf
00000180: d940 92b8 c3ec 2c3f 4817 21cb 4ed2 3abf
00000190: 7511 8820 ae44 2b3f 147e fe54 574c 2bbf
000001a0: ba3d 3b80 f619 2b3f 8a9c 1ab1 aebd 2cbf
000001b0: 5d46 0f0e 96f2 2cbf ade0 2c92 95fe 2c3f
000001c0: 8466 852f 8ef7 2cbf 1f98 e360 7f3b 2bbf
000001d0: 20af a913 ffcf 2cbf 778f 0e50 5c00 2cbf
000001e0: 30b1 3385 4cb8 3a3f 62f3 0856 84e8 2e3f
000001f0: 2526 835e 0fd3 2c3f 3cce b827 2707 2d3f
00000200: 1b5a 4573 ebaa 3c3f 3755 8eb4 e2d4 2c3f
00000210: 6a4c a1ac aef9 2cbf c140 4346 750c 2bbf
00000220: 8a5d c233 7abf 3abf f64e 2633 b944 2b3f
00000230: 7780 0d67 eb8a 3b3f 1b82 2bdc 36e7 2cbf
00000240: 5d3a 4025 8ff7 2cbf 9136 8f74 c298 3b3f
00000250: c40d 110e e0c4 3abf 36ba 25be 6551 2bbf
00000260: da4b 186a e714 2bbf 848f 5a92 eeb7 3abf
00000270: a477 8cad fda1 3b3f 5198 6709 23bf 2cbf
00000280: cc50 4cf5 5803 2bbf 7129 7ad3 817f 3b3f
00000290: adae be51 74fe 2bbf f994 7fed 7edf 2cbf
000002a0: 0ed1 0a01 867f 3b3f 3929 8e38 52d1 3a3f
000002b0: 7d01 19f0 4485 3b3f 7232 4bd3 7803 2bbf
000002c0: 243b e386 4223 2bbf 86cb 15da 7a7f 3b3f
000002d0: ff1f 0193 be9f 3b3f 762c 2484 49fd 2a3f
000002e0: 51b0 d668 2824 2b3f 8edc 9790 109b 3b3f
000002f0: a089 c420 9da6 33bf d7d9 ff27 74d4 3abf
00000300: d6b2 425b d501 2b3f 35af 1126 33df 2c3f
00000310: 41af 4ba5 7dca 3a3f caae 9a65 c484 3bbf
00000320: fbf9 d863 9505 2dbf 44bc 96d0 1103 2cbf
00000330: e027 b40c 9027 3bbf 1c0e 6245 8dfb 223f
00000340: c952 3e54 bfc9 3abf 4012 4d76 e318 2bbf
00000350: 0b90 c69a cf8d 3b3f 088d d903 ae0d 2b3f
00000360: 9f43 83b5 45a8 3abf 4a36 6fba bb0d 2b3f
00000370: 1fd1 80ef dbf8 2cbf 1f67 cf46 5e9a 3b3f
00000380: 6dd4 7858 dc32 2b3f 0bb0 8c98 daac 3a3f
00000390: 424e 741a 0458 403f 6d7d 29c8 6f27 3b3f
000003a0: f5fd e161 f6d6 2c3f 4531 cdba 37a5 3bbf
000003b0: 0426 ff7a 4903 2cbf 2bfb 994a 40be 2cbf
000003c0: 6625 9491 1095 3b3f 5931 e2db 7397 3b3f
000003d0: 1b5d 5f12 884b 2bbf 24f9 db0b cff5 2b3f
000003e0: c7fb 54b3 f47d 3b3f 1235 d409 a1a2 3bbf
000003f0: 8a16 6eff dfb2 3abf 44c3 550f 04ac 3b3f
00000400: f24f 6e91 7aa0 2c3f 582d 83a2 0f87 3bbf
00000410: 98dd fb24 02d2 3a3f 6a52 0ff7 c19a 3bbf
00000420: 8504 a7d8 189a 2c3f 37dd 1950 7f4a 2bbf
00000430: 9c4f ecb8 d2d8 3abf f7d5 6b9d 4d0b 2bbf
00000440: 8a1b 8353 dec2 3abf ba40 55a3 fe15 233f
00000450: 2b1d d442 f891 3bbf 9c79 2834 b4bd 3abf
00000460: 5e1e 4a0f bcb0 3a3f ff57 f48b e7c6 3abf
00000470: 132f bf2b 539d 3b3f 4aa1 e3fe 8d03 2b3f
00000480: f938 13b1 ca81 3bbf 7bb6 9838 d6f5 2bbf
00000490: 68aa e43c 3dc5 3abf 6fed e549 414e 403f
000004a0: 8f76 2f49 6e0c 2dbf ceb4 74af 8111 2bbf
000004b0: fc66 6010 e99f 2c3f 37d7 ab5f daf5 2cbf
000004c0: b633 064d 820a 23bf 21b9 329b e7df 2cbf
000004d0: 0ec8 177c 5761 403f b7dd ab7e 8500 2bbf
000004e0: c2fd f22f e32a 2bbf 49df 9e92 3ec2 2c3f
000004f0: 2e4d 49b1 9e3a 2b3f 32eb d1b6 6062 2bbf
00000500: fdcc 4baa df29 3bbf f74a b2bc 60b5 2cbf
00000510: 8466 4558 a03f 2bbf d6a5 9d4a f9b8 3a3f
00000520: 96f5 a213 7e9e 3bbf 0142 59c3 972d 2bbf
00000530: 9afb 9685 73cc 3a3f ee6b b7f0 b190 3b3f
00000540: e1eb 04e1 8e93 3bbf e6a4 1a6d 53c6 2c3f
00000550: 8e7c d0f0 db07 2b3f 2c86 20d5 cf06 1a3f
00000560: e8f0 3bce 9151 2bbf ec0a 3600 f9a7 3a3f
00000570: 4797 fd55 3f45 2b3f 9296 2d8c 45a8 3a3f
00000580: 34a1 d542 f22a 3b3f aebc 5e64 1260 40bf
00000590: db2b 01c8 db8d 3b3f d33a 26eb 99c8 3abf
000005a0: 9823 b042 70cb 3abf 8c5c 38e2 bb02 2c3f
000005b0: 0544 e3b7 f4ad 2cbf e806 5395 9de4 2cbf
000005c0: f60c 3c0b 86dd 2cbf 9223 93af e714 2bbf
000005d0: f488 7122 6bc4 2c3f 5e6d 8b6c 3f04 2c3f
000005e0: 118e cc74 56a3 3b3f 04e8 4de4 ebbf 3abf
000005f0: 9f47 1141 e4d1 3abf bb05 4db0 128a 3b3f
00000600: a47a b6d3 0b0e 2cbf 78a0 2fcb 47cc 3a3f
00000610: 0c0e 5280 b99e 3b3f 8f21 9701 3b05 1a3f
00000620: 93c1 0ad2 45ac 3a3f cb0e 8292 68cb 3a3f
00000630: 5b5b 3ea2 63f6 2c3f 6013 b2ef 0ed3 2c3f
00000640: 1b03 9feb bbae 2c3f 6a56 1315 68f5 2c3f
00000650: f002 7a83 f30d 2b3f e08a ca0b 97fe 2c3f
00000660: 3d08 0989 f0ce 3a3f c8ea 80a3 f603 2dbf
00000670: 9a1d 1d18 6f18 2bbf 3aa1 e884 66b6 2c3f
00000680: 63c0 ab51 f1b1 2cbf fd3a f29a 6c01 2c3f
00000690: 24ab b536 9ffd 2abf fe0a 8d0f a1f1 2c3f
000006a0: 9ebf c837 aaa2 3bbf 5643 c594 b4ca 2c3f
000006b0: 0b0c b709 7b55 2bbf 7a73 85d6 e4f0 2cbf
000006c0: aee8 9a22 8b1a 2bbf 1a1b 3c09 cda8 3a3f
000006d0: 04c8 69f7 1b76 333f 99b6 140c e4dd 2cbf
000006e0: cfc1 7ec1 9dda 2cbf 9646 a541 7cad 2cbf
000006f0: ee68 6c6d 8ec0 2c3f a7d3 f0f7 e588 3b3f
00000700: f318 d416 a5a3 3b3f 33e9 4c44 ab7b 023f
00000710: 1c3e 84e7 e6a1 3b3f 70cf f5c5 4582 3b3f
00000720: 8c07 e8df 4984 3b3f 12d6 9c7f b825 2f3f
00000730: 6da7 71ea 4abb 3a3f 0756 1797 9cd2 3a3f
00000740: 326a f348 2f29 2b3f 1d79 001f 9031 2bbf
00000750: 03de 5af7 3ee7 2c3f cb0e bf6d c5dc 2cbf
00000760: 44df b1ed 182c 2b3f 6a6c 580c cf2b 2b3f
00000770: 7889 dada 7fc2 3abf 6bdb c336 33f7 2c3f
00000780: c887 9160 4424 19bf b08e 0c9f e936 2bbf
00000790: 4ae3 d0fe 57a4 3b3f b15b 0073 a5a1 3cbf
000007a0: 9896 e350 b02e 2b3f 82fc be53 cb90 3b3f
000007b0: acc2 477e 5593 3b3f 3cb3 b420 3798 3bbf
000007c0: bea2 7f0e e486 3bbf e812 b9be 9186 3b3f
000007d0: 5916 b912 2a2b 3bbf 1dc7 6c19 a80e 2cbf
000007e0: 379e d763 4c95 2c3f 03a9 52c2 7c4c 2bbf
000007f0: bd0a c159 2c9d 2c3f 7b24 25dc 3ddc 2cbf
-0.9692470273611318 -0.6387129036137431 -0.2626289049883233 -0.7371983223516535 0.10108066662592925 -0.6777814651404651 0.454184306892713 -1.1628021053764879
1.2637969312541153 0.27921396675464444 -0.058219204287730066 0.27915177338460395 0.40339996651821725 0.14539401283890158 0.6323393902086571 -0.16547948495042283
-0.1901762719874293 0.2283413452243219 -0.28305751688568814 0.969564813136657 0.3431112254979491 0.7131246392669053 0.7632189823743059 -0.28590972498897316
-0.5640020362131984 -0.20895157691930039 -0.7109101800292668 -0.6880324758560676 0.19087599700415525 -0.4227571399302574 0.5535420997958936 -0.1632032348442378
0.11131237877440829 0.1463440583799012 -0.5408525570971455 -0.13472449435710218 -0.3131868894125641 -0.08501333375048478 0.1864305099696191 1.0675787575286282
0.00020763675515375932 -0.00022115658095720017 0.00041456244085733343 0.00021900434145443232 -0.0004078398426700799 0.00022129922679845322 -0.00040812874261528275 -0.00040979426958749626
0.00022067917987956298 -0.00040926383656302414 0.00020804048132573206 -0.00020826879562906074 0.0002067674068855061 -0.0002192760226098249 -0.00022085267758469281 0.00022121024911725875
-0.00022100077309055246 -0.00020776681817053028 -0.00021982182245793794 -0.00021363379349026063 0.0004077135865390323 0.0002358113806780983 0.00021991312610784953 0.0002214656159239425
0.0004374337034013535 0.00021996753119128142 -0.00022106415991860205 -0.00020636493275683589 -0.00040814145519037974 0.00020804177036081562 0.00042026755459368493 -0.0002205137698956396
-0.0002210008848355258 0.00042109248584840895 -0.000408463192858668 -0.0002084194848736718 -0.000206616638977224 -0.0004076917124200485 0.000421642716490806 -0.00021931936926406157
-0.00020609341540789858 0.0004195873220643942 -0.0002135769835808118 -0.00022028374109975943 0.0004195882948281473 0.000409205029932597 0.00041993077329396234 -0.00020609712523480015
-0.0002070444783783483 0.0004195856982597768 0.00042150881472879925 0.00020591280378598795 0.0002070712402376684 0.00042122988142474164 -0.00029984794743334077 -0.00040939174505130515
0.00020604829263017624 0.00022027491926068237 0.0004087979080355971 -0.0004199008450125162 -0.0002214188443065561 -0.000213714527757843 -0.00041434542500040465 0.0001448259305939372
-0.0004087535964967635 -0.00020673538815620292 0.0004204398963116868 0.000206401340551478 -0.0004067583263465627 0.00020640293698053126 -0.00022103962669607014 0.00042118837046488557
0.0002075094200663404 0.0004070314103497014 0.0004987735782457441 0.00041433791208152806 0.00022002942654707173 -0.000421835046655845 -0.00021372100809306804 -0.00021929297263408842
0.00042087225445238405 0.000421014581555542 -0.00020824466736144788 0.0002133193246933253 0.00041949485906294905 -0.00042168075181410567 -0.0004073902959408146 0.00042224024885855285
0.000218405687260614 -0.000420037571996009 0.00040924599032573497 -0.0004212115809967611 0.00021821549701253967 -0.00020821384537204345 -0.00040965218151822204 -0.00020633051345668427
-0.00040834358106816486 0.0001456139886308933 -0.0004206877809597882 -0.00040803575044092723 0.00040726271917221845 -0.00040858414645705826 0.0004213645986481534 0.00020609958978146998
-0.0004197234967023979 -0.00021332015994473042 -0.0004084848886970805 0.0004976099769885954 -0.00022162290824117136 -0.00020651538918895488 0.0002183887483518317 -0.00022095003790639233
-0.00014527168833602743 -0.0002202959272827399 0.0004998852893420851 -0.00020600919318501467 -0.00020727179796685256 0.00021941198184349312 0.00020774066128357568 -0.00020892553894554796
-0.00041448317124022344 -0.0002190285289072819 -0.00020788986524671396 0.0004077538129566271 -0.00042143419308245925 -0.00020735242439907933 0.00040891476018239394 0.00042061180348945584
-0.0004207824540746735 0.00021953361879426604 0.00020622787306565467 9.928363331870225e-05 -0.00020842461446324918 0.00040674046632475816 0.00020805738585776888 0.0004067582887528977
0.0004145471055694461 -0.000499733906272134 0.00042044273141489196 -0.00040868528153563155 -0.0004088543961989154 0.00021370452405797648 -0.00021880733760906726 -0.00022043632148976218
-0.00022022496488469768 -0.0002066166705730036 0.00021947677416551232 0.00021374963969021226 0.00042172299144935347 -0.0004081679256199291 -0.0004092390309483554 0.00042021709696279567
-0.0002140416562328068 0.00040890457893150807 0.00042144802893792697 9.926006932581818e-05 0.0004069967708728802 0.00040885260614962883 0.0002209660170790728 0.0002199130757142521
0.00021883052778373037 0.00022093673263750012 0.00020640943124663287 0.00022121042083707906 0.0004090630764360703 -0.0002213705608954035 -0.00020672184114743365 0.00021905900435227073
-0.00021892615116980975 0.0002136654925135247 -0.00020592278029182246 0.00022082415650900156 -0.000421682889085945 0.00021966413840826077 -0.00020854117324917184 -0.00022080224449441325
-0.00020678471019214745 0.0004067898346282059 0.0002969568517193768 -0.00022023590830981958 -0.0002201383183524489 -0.0002187933140001443 0.0002193616735091728 0.00042014708009512975
0.00042174129960449654 3.5253681323915014e-05 0.00042163741410747454 0.00041975215386646277 0.0004198723180764911 0.00023763539484782152 0.0004078920268911688 0.0004092819500248483
0.00020722105225597223 -0.00020747074404509842 0.0002205147135805192 -0.00022020254152554092 0.00020730785658761898 0.00020729925579207896 -0.00040832158524941415 0.00022099018259044297
-9.590785352167543e-05 -0.0002076301748498064 0.0004217829544504349 -0.00043688096320820396 0.00020738508505429155 0.0004206177143223981 0.0004207690929254697 -0.00042106004612456663
-0.0004200274256605344 0.0004200082609922399 -0.00041456010032834206 -0.0002140598487244066 0.00021807248587822774 -0.00020827315271294147 0.00021830717457945416 -0.00022018675924531994
