Code/output/reg/Models_Reg/run_20251103_203959/model_intermediate_l1_1.0e-06_l2_1.3e-05.npz (npz, 8174 bytes, 4 tensors)

w0 f8 [2, 20]
00000000: a8bd 5606 344b 0cc0 75d1 b62b 3988 0d40
00000010: 3044 e4a7 1ff6 e0bf c98f f49b eaa3 13c0
00000020: 399d d7de ffe0 c5bf 8c04 4d4d fe99 f1bf
00000030: db11 bea7 3dd8 13c0 239b 2fe6 8d99 c2bf
00000040: 5863 ae48 2ac5 c8bf 0117 797d 84fb c5bf
00000050: fa88 b1ff 1033 04c0 e38a 3dfe 5056 1c40
00000060: 3da3 8951 c2bc 10c0 b66c ee3a 2ac3 fbbf
00000070: f3d5 05b7 df9f d2bf e585 a594 57f4 d2bf
00000080: 01c9 9cc1 543c c0bf 55f9 f72a b6c9 1340
00000090: c894 25a2 cd51 febf ad6f 6c10 88e7 bcbf
000000a0: a66b 27fb 0e96 cbbf 647a d66d 9207 f1bf
000000b0: 9558 be2f e7d8 a03e 4544 1360 058c ee3f
000000c0: b370 9cde 7417 a13e df06 8b7a 8893 b03e
000000d0: 8959 a91d dd83 e93f b4fd 053d 44fa b8be
000000e0: 2d0e 35e5 7317 a1be 40a8 6b0d a75b 323e
000000f0: 425c 95c5 8393 b03e ee31 bf6d 93cf c73f
00000100: 5ac2 3654 e9bb f1bf 53a6 ffca 7417 a13e
00000110: defd 27cf fb09 a53e dc8e 2e9b 8893 b03e
00000120: 9dcc e925 52d8 aa3e 61bb 9bb3 124a e03f
00000130: 5c1d 7d29 ffdb b0be 58c6 0d44 9900 49be
-3.5367203231068807 3.6915152945677456 -0.5300443915495006 -4.9100746505755035 -0.1709289396378411 -1.100096036869476 -4.961172696090638 -0.14531110515164256
-0.19351700352560885 -0.1717382061635178 -2.5249347663931276 7.08429333925844 -4.184335016275154 -1.7351476957326617 -0.2910079276401511 -0.29616345897929214
-0.12684115842564128 4.946983977685098 -1.8949714979037697 -0.11290789032903943 -0.2155169226014923 -1.0643486300029048 5.0208799916536e-07 0.9545924068899089
5.093701791222832e-07 9.880245476632638e-07 0.7973466471983538 -1.4887811979612396e-06 -5.093697360920536e-07 4.274309093062701e-09 9.880202667866875e-07 0.18602221354230103
-1.1083768167119588 5.093701442835504e-07 6.270110176064802e-07 9.880246636195528e-07 8.000434482249801e-07 0.5090421207404284 -1.0048962959129754e-06 -1.1642621201951801e-08

w1 f8 [21, 20]
00000000: b9d4 ef15 c423 01c0 689a 8bd9 a479 e1bf
00000010: e45c 150e 84e9 8abf a52a 195f c5a0 a1bf
00000020: a526 824a 6bab 75bf 2413 1843 2412 f0bf
00000030: 1eb2 1922 4c2a f9bf ec44 9582 4174 d8bf
00000040: 51b2 e6c6 0a76 dd3f 7b66 2bc2 a108 ccbf
00000050: 247a a0d5 f46f e7bf 23e1 9c72 f1b2 2040
00000060: a3c1 e132 b4e4 f43f 4ab4 8360 e021 b0bf
00000070: 6857 fa74 72dd 1740 0e4c 253c aa52 e1bf
00000080: 8763 6a2c 0d35 f1bf bc3d 893f 5359 83bf
00000090: a675 fe3f d067 7fbf 14dd 13a0 9e8d 0bc0
000000a0: f76d cb7d e6d8 a03e f8f9 1898 8893 b0be
000000b0: 6256 b5bb f321 adbe a627 1898 8893 b03e
000000c0: 90eb d8de 7417 a1be 68c3 bb73 8c5b 32be
000000d0: 74c6 8457 fb89 81be 0a1b c5f7 7cdb 83be
000000e0: e93d 6bfd 9ede 70bf b247 c26d fb89 813e
000000f0: 5aba 46ca f889 81be 7c97 4f4a 9d98 f9bf
00000100: 70ea a8fa d315 eebf 28ab 1c6d fb89 813e
00000110: 7fb7 4a98 0257 f4bf c012 bd66 2c60 a3be
00000120: 4c7c a598 8893 b0be 6cdd 5490 8f93 b03e
00000130: b06e 29c2 2a9d 75be 272f 9138 9e5f 803f
00000140: aa0a 8752 13d8 aa3e 0820 4268 8c5b 323e
00000150: e593 acde 7417 a1be e8f1 b0f0 9f9c a5be
00000160: 98d8 eb6d fb89 813e f8a0 ec6f fb89 813e
00000170: bb04 6e83 fb89 813e 9c9d 7543 44fa b8be
00000180: a43a d78a aa01 92bf eea3 4bb2 13d8 aabe
00000190: 39ee 1e07 5592 b6bf b5aa b159 0718 d4bf
000001a0: 540f 33bc eb0c f03f 8d80 2898 8893 b03e
000001b0: 1e19 725e 5df0 dc3f 6fcf 9c2f e7d8 a03e
000001c0: 17b3 cb98 8893 b0be ffba c3bd e7d8 a0be
000001d0: 0ea0 6fde 7417 a13e 8742 610f 52ae ef3f
000001e0: 6020 6b69 8c5b 32be 007c 1998 8893 b0be
000001f0: a113 179e 356e ab3e 3e93 b3de 7417 a13e
00000200: dfb7 aaf6 7cdb 83be ef80 2d9d 356e abbe
00000210: c4cf d81a ffdb b03e 2fd2 d66d fb89 81be
00000220: 608b 7f69 8c5b 323e 2aa6 b92f e7d8 a0be
00000230: ba88 c1dd 7417 a1be 9dba 1998 8893 b0be
00000240: 685e e653 8c5b 32be 5075 53b2 13d8 aa3e
00000250: 98fe 5df5 9200 493e 1be4 a66a fb89 81be
00000260: 0eab 086b fb89 81be 688d 796b 8c5b 323e
00000270: a92f f3d5 fb09 a53e 8884 e169 8c5b 323e
00000280: 8834 e2f9 9900 49be c13b de9e 356e ab3e
00000290: 88cc 48d6 fb09 a5be 7430 b3f0 9f9c a53e
000002a0: 70fc 0d48 9300 49be be0e 4073 4772 b03e
000002b0: c069 f06b 8c5b 32be e85a 3274 fb89 813e
000002c0: 8f1c e789 024e dc3f 13dc b92f e7d8 a0be
000002d0: ea6f 9e9b 3226 c0bf 54bf bf76 7253 e0bf
000002e0: 15d7 5aa4 9933 f5bf 48cc 8e43 44fa b83e
000002f0: c2dc 813a 6f5e dabf 0857 22bc f321 adbe
00000300: 1fe4 b3f0 9f9c a5be db7d 2a5b 8193 b0be
00000310: 8085 029e 356e abbe da1a 64f1 c36e ab3e
00000320: 3e4e 8df6 7cdb 833e 3ec9 b42f e7d8 a03e
00000330: ce3d 0e0c b0c6 a4be 8050 026d fb89 81be
00000340: 308e f80b b0c6 a43e 003f 439e 356e ab3e
00000350: f074 774e 9300 493e a8e5 316a 8c5b 32be
00000360: 38a1 4c4f 12d7 60be 4059 bb2f e7d8 a03e
00000370: 7414 fc6c fb89 81be 89cd c664 2c60 a3be
00000380: 063e 97d5 fb09 a53e 60c7 1f2e 9300 493e
00000390: 48ef 9452 8c5b 32be 7a9f a8de 7417 a1be
000003a0: d4de b86d fb89 813e 0d20 2dd5 fb09 a5be
000003b0: 7f3c b9de 7417 a1be da9e 2adf 7417 a13e
000003c0: 30c8 0d4d 44fa b8be c96d 12d5 fb09 a53e
000003d0: 3b77 b32f e7d8 a0be 5633 e36c fb89 81be
000003e0: ecd0 f697 8893 b03e bc16 b52f e7d8 a03e
000003f0: 7d3f 966c fb89 813e 78c1 4c97 8893 b03e
00000400: 8dc4 8aaf 7317 a1be c804 fd51 8c5b 32be
00000410: efc0 a480 346e abbe 0a00 ecfa 326e abbe
00000420: 02ae 5959 f909 a5be c23e 359e 356e ab3e
00000430: ef1f ee71 2a9d 753e ce3d ba2f e7d8 a0be
00000440: 2629 88d5 fb09 a53e 3023 89e0 f789 81be
00000450: eaf9 b02f e7d8 a0be 008b f1af 945b 32be
00000460: 9865 de4d 1c01 493e 8893 0f75 8c5b 323e
00000470: 90a8 43b2 13d8 aabe 6df6 0669 f825 993e
00000480: ac44 f1de 7417 a1be 26bf 79de 7417 a1be
00000490: c984 3f98 8893 b03e 00cd 8099 8893 b0be
000004a0: 057b b306 1cea e03f 3ebd 2d6d fb89 813e
000004b0: 4de0 4b55 63ff 88bf 0105 1861 e0ba c2bf
000004c0: 228e b002 5c61 fbbf 403b 17d6 fb09 a5be
000004d0: 1a3c ea42 e2d8 ccbf e814 5b69 8c5b 323e
000004e0: 383b 4f33 9300 49be 98c1 6dd0 ea5a 32be
000004f0: 08ad 6a40 9300 49be 76f5 1029 afdb 833e
00000500: 916a ff88 fb89 813e c82e 1160 8c5b 323e
00000510: 2689 a86d fb89 81be 408c 0d0c b0c6 a43e
00000520: beb5 a72f e7d8 a03e 73ab 8f63 e8be a13e
00000530: 94f1 7497 8893 b0be 5f2a d573 4772 b03e
00000540: 24db df59 8893 b0be 8270 889e 356e ab3e
00000550: 6cba 5ab3 f689 813e 824d 0a17 e7d8 a03e
00000560: d8d5 af4a 356e ab3e 49c7 c7bb f321 adbe
00000570: a9f2 407e 4772 b0be 50b6 bdde 7417 a13e
00000580: 2dfe 389e 356e ab3e 7750 5d16 fc09 a53e
00000590: 22df 66de 7417 a1be 1e48 0912 b0c6 a4be
000005a0: 41c3 8b94 fc09 a5be 2804 66bc f321 adbe
000005b0: cf56 c22f e7d8 a03e 7a0d e09e 356e ab3e
000005c0: 503f e8de 7417 a13e 6f24 96de 7417 a13e
000005d0: 3246 cf2f e7d8 a03e 873f eaeb 2a9d 75be
000005e0: e2cd 7e32 44fa b83e 204a ba68 8c5b 323e
000005f0: 4cef 8c3e e7d8 a03e 4a94 44dc fa09 a5be
00000600: 9f49 97a5 8993 b03e 7cfc 01d6 fb09 a53e
00000610: 20e0 8d51 8a5b 32be 9e80 4473 4772 b0be
00000620: 6c56 bb2f e7d8 a0be f17a 4a29 ffdb b0be
00000630: 57fd aff0 9f9c a53e b84e 19e3 735b 323e
00000640: 722b 4199 286e ab3e 963d b22f e7d8 a03e
00000650: 88fb 9b63 e8be a13e a01b ff5e 8c5b 323e
00000660: 702a 012e 9300 493e 3a7b bcde 7417 a13e
00000670: 6815 f7de 7417 a1be 823b 2e73 4772 b03e
00000680: acdf 4866 2289 81be 88c1 ec62 8c5b 32be
00000690: 3dee f5eb e517 a1be 7260 8f19 41fa b8be
000006a0: 9286 a424 71fa b83e 6406 ea6c fb89 813e
000006b0: e242 f255 b288 813e ee32 1798 8893 b0be
000006c0: c76b 9cf0 9f9c a53e 69ae ec5c 1a9c 75be
000006d0: ce14 8bde 7417 a13e da00 f938 3417 a1be
000006e0: 7fc7 50d4 386e abbe 8c06 d46d fb89 813e
000006f0: 9323 4473 4772 b0be 679e ba2f e7d8 a03e
00000700: 2876 bb2f e7d8 a03e dd04 bb1a ffdb b0be
00000710: 42a8 d19a 8893 b0be c3d1 35d5 fb09 a53e
00000720: 59b1 c5b8 420a a53e 323f 1adf 7417 a13e
00000730: cc0b 02ad 4689 813e 34fd 522f 01d9 a03e
00000740: 68da a8db 5c6d 32be 68f2 ffd5 fb09 a53e
00000750: 68e2 902b 090c 493e e02b 5721 9300 493e
00000760: c947 96a0 356e abbe d1d3 0810 fb09 a53e
00000770: 08aa f731 9300 493e 6060 df65 5467 323e
00000780: ef31 01b8 6517 a13e a7da b82f e7d8 a03e
00000790: 8845 d068 8c5b 323e 58bb 8f44 9300 49be
000007a0: 52d9 b86c fb89 813e f8a6 9ee2 9200 493e
000007b0: 3a1c c5e7 7417 a1be efc3 c79b 356e abbe
000007c0: 5e18 9514 2295 a53f ff5c 316e fb89 813e
000007d0: 6e10 48eb 4539 f03f b07d 52da 8ef7 913f
000007e0: 5866 fcd7 2913 b53f 320a 779e 356e abbe
000007f0: 0414 acd2 0cad c43f e871 96bf 2a9d 75be
-2.142463847524223 -0.5460991143161893 -0.013140708617966408 -0.034429710253410385 -0.005290431123407356 -1.0044291134701746 -1.5728265125318397 -0.3820956969476146
0.46032971786442994 -0.21901342373785213 -0.732416550865143 8.349498349809954 1.305835913426656 -0.0630169139510183 5.966256931094769 -0.5413409399719755
-1.075452016352047 -0.009447718025653688 -0.007667363621206935 -3.4441502100049863 5.020876830646278e-07 -9.880246526619069e-07 -8.682198919067285e-07 9.880246526505054e-07
-5.09370179541947e-07 -4.274214589670289e-09 -1.3067566918263525e-07 -1.4794897741141348e-07 -0.00411855798183989 1.3067567905929178e-07 -1.3067537908474636e-07 -1.59975937869737
-0.9401645560931922 1.3067567877200165e-07 -1.2712427090550305 -5.774401876453925e-07 -9.880246546118623e-07 9.880309915342296e-07 -8.051817749473616e-08 0.007994876958171538
8.000148783926634e-07 4.274214430420604e-09 -5.093701792342594e-07 -6.44082292728838e-07 1.306756791313973e-07 1.3067568002093352e-07 1.3067568868308385e-07 -1.4887812208266246e-06
-0.01758448097626321 -8.000150485107407e-07 -0.08817035125587659 -0.313966596214111 1.0031545020619506 9.880246528773694e-07 0.452170698387265 5.020879989326591e-07
-9.880246551421885e-07 -5.020882514453932e-07 5.093701788113165e-07 0.9900293636693086 -4.274214446521079e-09 -9.880246526689559e-07 8.174927723028405e-07 5.09370179282814e-07
-1.4794897692154947e-07 -8.17492770682102e-07 1.0048962438948204e-06 -1.3067567909492468e-07 4.274214447627939e-09 -5.020879991327684e-07 -5.093701776033167e-07 -9.880246526723502e-07
-4.274214147890726e-09 8.000150485649883e-07 1.1642576385394622e-08 -1.3067567767951177e-07 -1.3067567784912807e-07 4.274214475058684e-09 6.270110296745663e-07 4.274214452939081e-09
-1.164262624874274e-08 8.17492773684768e-07 -6.270110302686243e-07 6.440822927444111e-07 -1.1642578680432867e-08 9.802819933576677e-07 -4.274214481502137e-09 1.3067568191824624e-07
0.44226134745662987 -5.020879991342296e-07 -0.1261657008989226 -0.5101864165608085 -1.3250976963149175 1.4887812211760994e-06 -0.412013823638926 -8.682198926630855e-07
-6.44082292749281e-07 -9.88018069726532e-07 -8.174927721602102e-07 8.175574943987746e-07 1.4794897687052672e-07 5.020879990990247e-07 -6.191767384244972e-07 -1.3067567872628453e-07
6.191767382740203e-07 8.174927726093274e-07 1.1642578858401478e-08 -4.274214457296456e-09 -3.136717366950925e-08 5.020879991445614e-07 -1.306756787154693e-07 -5.774401841601917e-07
6.270110290365774e-07 1.1642577960716992e-08 -4.274214129598388e-09 -5.093701792068178e-07 1.3067567904296866e-07 -6.270110283002422e-07 -5.093701793220961e-07 5.093701801088571e-07
-1.4887812549127797e-06 6.270110281149991e-07 -5.020879990898629e-07 -1.3067567867231048e-07 9.88024652187837e-07 5.020879991011252e-07 1.3067567853881912e-07 9.880246498277753e-07
-5.093696407635335e-07 -4.274214121363004e-09 -8.174922652478659e-07 -8.174915729630705e-07 -6.270098988464515e-07 8.174927725121763e-07 8.051815967972659e-08 -5.020879991368786e-07
6.270110289319282e-07 -1.306752752830734e-07 -5.020879990725884e-07 -4.274243846962389e-09 1.1643552285354677e-08 4.274214608091588e-09 -8.000150484553551e-07 3.7473919525439006e-07
-5.093701797108958e-07 -5.093701788815482e-07 9.88024653196788e-07 -9.880246576554727e-07 0.5285778170471934 1.306756788016145e-07 -0.012205863991297994 -0.14632801762494554
-1.7112693886819064 -6.270110299246806e-07 -0.225368769334154 4.274214445651289e-09 -1.1642578104639682e-08 -4.273640336459817e-09 -1.1642578468437713e-08 1.4795468364525519e-07
1.3067569115575487e-07 4.2742143167451296e-09 -1.306756790146325e-07 6.191767384196845e-07 5.020879990082906e-07 5.288640699795797e-07 -9.880246503854948e-07 9.802819954269558e-07
-9.880244316009537e-07 8.17492773089453e-07 1.3067514153171403e-07 5.020879552834948e-07 8.17492624148842e-07 -8.682198920346888e-07 -9.802820324498736e-07 5.093701793531535e-07
8.174927725381814e-07 6.27011144097816e-07 -5.093701787505762e-07 -6.191767490482233e-07 -6.270113682410782e-07 -8.68219893132684e-07 5.020879991930675e-07 8.174927736973914e-07
5.093701796483005e-07 5.093701790785826e-07 5.020879992828228e-07 -8.051818676580599e-08 1.488781160558009e-06 4.274214436934731e-09 5.02088025467853e-07 -6.270105861501344e-07
9.880256100948057e-07 6.270110297772626e-07 -4.274207009910562e-09 -9.80281993419352e-07 -5.020879991444848e-07 -1.0048962952102813e-06 6.44082292722209e-07 4.274127317333806e-09
8.174868519975738e-07 5.020879990813616e-07 5.28864070065017e-07 4.274214301887503e-09 1.164257795739792e-08 5.093701793446131e-07 -5.09370179751248e-07 9.802819931102942e-07
-1.3065100569627529e-07 -4.2742143564037945e-09 -5.094215892865365e-07 -1.4887783434860516e-06 1.4888220386050875e-06 1.3067567868414898e-07 1.3063826551477444e-07 -9.880246526372392e-07
6.440822925864246e-07 -8.050269360560775e-08 5.093701790018312e-07 -5.093407810588766e-07 -8.174942328685547e-07 1.3067567909007534e-07 -9.802819934143081e-07 5.020879991394969e-07
5.020879991453449e-07 -1.0048962434813652e-06 -9.880246623302954e-07 6.270110283605703e-07 6.27043264906457e-07 5.09370179995242e-07 1.306551298299008e-07 5.020998218515446e-07
-4.29041640631043e-09 6.270110297631117e-07 1.16634252135804e-08 1.1642577605900185e-08 -8.174927767382074e-07 6.270106781060784e-07 1.1642578067390059e-08 4.284929381767115e-09
5.093632893332301e-07 5.020879991272522e-07 4.27421443812638e-09 -1.1642578583477625e-08 1.3067567859884212e-07 1.1642575865048889e-08 -5.093701953916997e-07 -8.17492768199794e-07
0.04215342046022451 1.3067567925199042e-07 1.013982695644724 0.017545921397525255 0.08232366107076794 -8.174927729687186e-07 0.16153106962897834 -8.051817692315568e-08

w2 f8 [21, 20]
00000000: 6be6 1497 44fb 53bf 8812 65a3 78dd d1bf
00000010: aecd 481c 8e7d f93f 47ff 2353 c4a2 7bbf
00000020: eb53 4072 b547 10c0 bb42 8ece 226c d4bf
00000030: f56f 2be0 fa8f fdbf f0d2 77f9 f418 8fbf
00000040: 56ec a510 c0e4 14c0 b23a 3f82 ba55 2240
00000050: ceaa ac3d 1e08 b3bf 845a 8b7c 2a02 96bf
00000060: 01ed 6294 8a1a 1240 e9a8 b97c fe16 24c0
00000070: 4aed 3f1a e59e 0ac0 453d 3b23 061a 65bf
00000080: 4aeb d996 604d 74bf 305d de4d e5af 1240
00000090: a5ee f123 b8e4 d3bf 07e6 7c11 075f 77bf
000000a0: e054 45b2 13d8 aa3e a234 b32f e7d8 a0be
000000b0: a5a3 b8b2 e8d8 a03e 4733 f9d5 fb09 a53e
000000c0: d6f8 c961 f825 993e 0f62 b72f e7d8 a0be
000000d0: cf9d 492d e7d8 a03e 2af1 2e9e 356e abbe
000000e0: 504c 967f f557 323e df2d a51e 3a6e abbe
000000f0: 8cc2 3198 8893 b03e bfaf c1f0 9f9c a53e
00000100: c089 6991 8393 b0be 3cb6 e8b4 d55f a33e
00000110: fea7 8dad fb09 a53e d44d 4950 7417 a13e
00000120: 18a0 450e 9300 493e d178 5793 456e ab3e
00000130: e090 5e9e 356e ab3e 1dee d41a ffdb b0be
00000140: 09dd 0298 8893 b03e 294c 56b2 13d8 aa3e
00000150: 08e3 5268 8c5b 32be 2ebc f3d5 fb09 a5be
00000160: 0432 ba2f e7d8 a0be 86db 83de 7417 a13e
00000170: fa03 ed9e 356e abbe 74c0 669e 356e abbe
00000180: b0ae cb4b 9300 493e b57c bb66 2c60 a3be
00000190: 8c7f 396d fb89 813e 8ca5 daf6 7cdb 833e
000001a0: 3ab7 ec4b 12d7 60be 0600 4d9e 356e ab3e
000001b0: 9563 6998 8893 b03e bfdd f7d5 fb09 a53e
000001c0: a800 ed2e 9300 49be 5c41 9c2f e7d8 a03e
000001d0: c0cb 9543 44fa b83e 905a b92f e7d8 a03e
000001e0: b0d4 8530 9300 49be 129d c36d fb89 81be
000001f0: 0a19 1bd6 fb09 a5be 307c f92b 9300 493e
00000200: 3e8a f6de 7417 a13e 8e99 699e 356e ab3e
00000210: dee3 b667 f825 993e ece8 43c1 2a9d 75be
00000220: 5fac 919e 356e ab3e 97cc 14d6 fb09 a53e
00000230: 11a0 ebd5 fb09 a53e 091b 2ad6 fb09 a53e
00000240: 6004 d52e 9300 49be c8c6 146b 8c5b 32be
00000250: 6330 59b2 13d8 aabe 675c ad2f e7d8 a03e
00000260: 29c3 a7de 7417 a13e 1cfa 3f6c fb89 813e
00000270: 73ed aade 7417 a1be 46c8 0bd6 fb09 a5be
00000280: ac48 326d fb89 813e 448d b82f e7d8 a0be
00000290: c08e e465 8c5b 323e 9f15 9fde 7417 a1be
000002a0: 7806 c02f e7d8 a03e d978 edd5 fb09 a53e
000002b0: 356a b82f e7d8 a0be 282a 6f9e 356e ab3e
000002c0: 88fa b76b 8c5b 323e 2300 4198 8893 b03e
000002d0: 1d79 ebd5 fb09 a5be 23f8 ba2f e7d8 a0be
000002e0: 6864 631e 9300 493e 08bf d1d5 fb09 a5be
000002f0: 8035 8d43 44fa b8be 8077 c26e 8c5b 32be
00000300: 5c68 1b9e 356e ab3e 3e7a 63de 7417 a13e
00000310: b76d 239e 356e abbe c513 ba2f e7d8 a03e
00000320: 113e 4f73 4772 b03e 8022 6f9e 356e ab3e
00000330: 11f5 45d6 fb09 a5be c060 da6b 8c5b 32be
00000340: 682d f5ec 4d9d a13e f2c1 736d fb89 81be
00000350: 4255 2398 8893 b0be 26ca 130c b0c6 a4be
00000360: f26d 684c 12d7 603e 32d0 8243 44fa b83e
00000370: fce5 6b68 f825 993e 4fe9 5166 2c60 a33e
00000380: e867 179e 356e abbe 0626 2898 8893 b03e
00000390: 86a7 a7de 7417 a1be 4e24 84f6 7cdb 833e
000003a0: e592 b4de 7417 a13e db7a b32f e7d8 a03e
000003b0: 21e8 a1d5 fb09 a53e 6abe c12f e7d8 a03e
000003c0: 3721 4e6e fb89 813e 6081 fc67 8c5b 32be
000003d0: 7c92 166f fb89 81be 3c76 799e 356e abbe
000003e0: 6479 2ab2 13d8 aabe 8a50 4b9e 356e ab3e
000003f0: 3c58 4a9f 356e abbe 84e0 abde 7417 a1be
00000400: 3834 bb9d 356e ab3e 7397 906c fb89 813e
00000410: 8a95 7068 f825 99be 06c1 7e43 44fa b83e
00000420: f222 0fde 7417 a13e fc3b c12f e7d8 a03e
00000430: 6293 ae4a 12d7 60be 8038 c465 8c5b 323e
00000440: 6402 5fd6 fb09 a5be 801d 5276 8c5b 323e
00000450: 3a66 509e 356e ab3e bac9 d16c fb89 813e
00000460: 3393 84d6 fb09 a53e 2876 5732 9300 493e
00000470: 846b 40b3 13d8 aabe 1cec 1098 8893 b03e
00000480: dd5e e630 e7d8 a0be bd0a cd1a ffdb b0be
00000490: ee43 3f2f e7d8 a0be a4d5 199e 356e ab3e
000004a0: 60e6 f79f 8c5b 32be 3586 e3de 7417 a13e
000004b0: 810e fa97 8893 b0be 38c4 b29e 356e ab3e
000004c0: fccf 902f e7d8 a03e a26a 7aa1 356e ab3e
000004d0: 5536 3ad7 7417 a1be 1182 aa95 8893 b0be
000004e0: c1b0 be2f e7d8 a0be 3667 b42e e7d8 a0be
000004f0: 6a6e b12f e7d8 a0be 7920 5db2 13d8 aa3e
00000500: acb0 0f0c b0c6 a4be d717 8c43 44fa b83e
00000510: 620c 722f e7d8 a03e 39bb edd5 fb09 a53e
00000520: 28f7 6543 8c5b 323e cdec c72f e7d8 a0be
00000530: 48df 1b56 8c5b 32be 1467 309e 356e abbe
00000540: 284a d382 9300 49be e518 f61a ffdb b03e
00000550: c4d1 474c 9e4a ba3e 46a3 af6c fb89 813e
00000560: f0c0 0de9 9200 493e 7358 db1a ffdb b0be
00000570: 7899 7279 9300 493e a6df 47f7 7cdb 833e
00000580: 52ac bc9e 356e ab3e fbe7 83d4 fb09 a53e
00000590: 96bd c6d5 fb09 a53e 8bb2 bb2f e7d8 a0be
000005a0: c063 2465 8c5b 32be f952 9663 e8be a1be
000005b0: 6f73 7958 6038 eabf 16f0 39c1 2a9d 75be
000005c0: 7ccb 9dd9 fb09 a53e 0f7a 269e 356e abbe
000005d0: c769 036f 2c60 a33e b494 82f6 7cdb 83be
000005e0: 78c0 776b ead6 603e 03f5 f5b1 ad8f c7bf
000005f0: 0256 cb1a ffdb b03e aadf c74b 12d7 60be
00000600: 54cd 9877 f7c3 cdbf 1cc5 4fd6 ceda 0a40
00000610: c792 5a38 e7d8 a0be ba6e 79f5 346e ab3e
00000620: 187f fb0c 9300 49be b4f4 42e2 4e10 d0bf
00000630: a043 07d6 fb09 a5be 55d6 4573 4772 b0be
00000640: 8601 676f fb89 81be ba26 4373 4772 b0be
00000650: e45f a16e fb89 813e 2084 c069 8c5b 323e
00000660: f264 5898 8893 b0be a007 d920 9300 49be
00000670: 28de 4498 8893 b0be 5a95 8443 44fa b8be
00000680: 684e a263 8c5b 323e 41aa 8e43 44fa b8be
00000690: b8f8 8643 44fa b8be 7664 9f6c fb89 813e
000006a0: b037 fb97 8893 b0be 808e ce65 8c5b 323e
000006b0: 8f13 4698 8893 b03e 5789 1b66 2c60 a33e
000006c0: f72d ae2f e7d8 a0be e44f d01a ffdb b03e
000006d0: 917d a5bb f321 adbe 8034 8963 e8be a1be
000006e0: ac0b 8143 44fa b8be edd8 2ad6 fb09 a5be
000006f0: 911f ba44 770e d8bf 3490 e36c fb89 813e
00000700: 381a eac9 9900 49be 5e38 b62f e7d8 a03e
00000710: 1c72 bb75 fc09 a5be e287 a29e 356e ab3e
00000720: 385d 3673 576e ab3e d0eb 0857 d8b1 a7bf
00000730: 533a 0198 8893 b03e 71a8 8dd5 fb09 a5be
00000740: 54ef 51e2 3258 d2bf 962c afb9 374f 10bf
00000750: 449f ee69 7417 a13e ce5a 051d e7d8 a0be
00000760: 141f 626f fb89 813e 5f24 eddb c246 c0bf
00000770: c8c1 4867 8c5b 323e 61ec 1798 8893 b0be
00000780: 3a3e a34a 12d7 603e 41e6 4566 2c60 a3be
00000790: 9ee9 5160 f1e6 d33f aa34 489e 356e abbe
000007a0: 467b 571b ffdb b03e 3a69 fe97 8893 b03e
000007b0: 98aa ba6a 8b00 493e 81e1 079e 356e ab3e
000007c0: a0c2 b7e8 f8e3 e7bf e174 e38e 74bd dfbf
000007d0: e560 4eb2 13d8 aa3e 89de 1edf 7417 a13e
000007e0: bcd6 e842 89f0 d1bf c60e 9e71 f516 f33f
000007f0: b768 3a9f 7417 a13e a8a7 a59e 9200 493e
-0.0012195749116713738 -0.27914253193402105 1.5931531052454875 -0.006747023481011478 -4.070028100181825 -0.3191000954766811 -1.8476513630512248 -0.015184320319329342
-5.22338891995158 9.16743857404558 -0.07434262281155243 -0.02149263749273668 4.525919264352752 -10.04491033331256 -3.3275854159125275 -0.0025758857608263763
-0.004956605245406484 4.671773163506529 -0.31083491811998903 -0.005705859766572902 8.000150484669645e-07 -5.020879990880578e-07 5.020886865758581e-07 6.270110297162977e-07
3.747391888255375e-07 -5.020879991170446e-07 5.020879948026721e-07 -8.174927724684398e-07 4.270949810301932e-09 -8.174948196519537e-07 9.880246530058471e-07 6.440822928450059e-07
-9.880200814374197e-07 5.774007634845025e-07 6.270109579157872e-07 5.093699263027386e-07 1.1642577076641905e-08 8.175000291673613e-07 8.174927727988967e-07 -1.0048962438409544e-06
9.88024652355027e-07 8.000150485846895e-07 -4.2742144313292585e-09 -6.270110296783751e-07 -5.020879991365591e-07 5.093701789517063e-07 -8.174927737873395e-07 -8.174927728556975e-07
1.1642578784266507e-08 -5.774401876343867e-07 1.3067567882201312e-07 1.4794897700469203e-07 -3.1367173294846264e-08 8.174927726770093e-07 9.880246537778552e-07 6.270110297070405e-07
-1.1642577982967397e-08 5.020879989288082e-07 1.4887812212732151e-06 5.020879991307192e-07 -1.1642578027292644e-08 -1.3067567906160502e-07 -6.270110299515089e-07 1.164257790105403e-08
5.09370179747476e-07 8.174927728754598e-07 3.7473919408840437e-07 -8.05181772956571e-08 8.174927731535256e-07 6.270110299078034e-07 6.270110296221019e-07 6.270110300556464e-07
-1.1642577980366886e-08 -4.274214469595613e-09 -8.000150486047534e-07 5.020879990475024e-07 5.093701792008461e-07 1.3067567838916277e-07 -5.09370179222809e-07 -6.270110298452364e-07
1.306756788094982e-07 -5.020879991251546e-07 4.274214397592724e-09 -5.093701791406312e-07 5.020879991770121e-07 6.270110296349167e-07 -5.020879991242044e-07 8.174927729140737e-07
4.274214478442819e-09 9.880246532173528e-07 -6.270110296210461e-07 -5.020879991419292e-07 1.1642577523958442e-08 -6.2701102944253e-07 -1.4887812211540478e-06 -4.274214520644747e-09
8.174927723328927e-07 5.093701787270249e-07 -8.17492772388549e-07 5.020879991357393e-07 9.802819935684e-07 8.174927729138662e-07 -6.270110302489063e-07 -4.2742144803076086e-09
5.249521225851412e-07 -1.3067567892307702e-07 -9.880246528056335e-07 -6.191767384629957e-07 3.136717334849855e-08 1.4887812210097782e-06 3.7473919471640296e-07 5.774401869018076e-07
-8.174927723051248e-07 9.88024652872462e-07 -5.09370179200097e-07 1.4794897685463003e-07 5.093701792897435e-07 5.020879990899612e-07 6.270110291105771e-07 5.020879991889369e-07
1.306756793018923e-07 -4.27421442664651e-09 -1.3067567964960455e-07 -8.174927729855248e-07 -8.000150482806041e-07 8.174927726653139e-07 -8.174927744349405e-07 -5.093701792293974e-07
8.174927716653456e-07 1.3067567852900683e-07 -3.7473919473265996e-07 1.4887812209534445e-06 5.093701781417916e-07 5.020879991854015e-07 -3.1367173156875026e-08 4.274214395839736e-09
-6.270110304227398e-07 4.274214625576459e-09 8.174927727005962e-07 1.3067567864210454e-07 6.27011030683404e-07 1.164257807777643e-08 -8.000150502092406e-07 9.880246525501333e-07
-5.020880012194429e-07 -1.0048962437314838e-06 -5.020879982835607e-07 8.17492772321977e-07 -4.274215203552964e-09 5.093701796155276e-07 -9.880246522328087e-07 8.174927733831555e-07
5.020879988494073e-07 8.174927783212197e-07 -5.093701660061916e-07 -9.88024644023423e-07 -5.020879991677499e-07 -5.020879973200107e-07 -5.020879990757461e-07 8.000150486320776e-07
-6.191767384345495e-07 1.488781221138562e-06 5.020879986359387e-07 6.270110296367158e-07 4.274213918885363e-09 -5.020879992318275e-07 -4.274214178546728e-09 -8.174927724785747e-07
-1.1642580311647951e-08 1.0048962443012405e-06 1.5670942029563567e-06 1.3067567858286338e-07 1.1642576043627985e-08 -1.0048962439299856e-06 1.16425800513646e-08 1.479489771941706e-07
8.174927734518967e-07 6.270110271260494e-07 6.27011029366163e-07 -5.020879991469817e-07 -4.274214387175277e-09 -5.288640700257538e-07 -0.8193818786636323 -8.051817728700776e-08
6.270110361874724e-07 -8.174927724097002e-07 5.774402023443286e-07 -1.4794897685192222e-07 3.136603992845772e-08 -0.18407221974840846 1.0048962437078086e-06 -3.1367173278868576e-08
-0.23254292812053257 3.3568398230642185 -5.020880144602596e-07 8.174924727810154e-07 -1.1642577040849257e-08 -0.2509953698716558 -6.270110298138853e-07 -9.802819934378764e-07
-1.3067567978913486e-07 -9.802819934006012e-07 1.3067567944629906e-07 4.274214451150061e-09 -9.880246535420067e-07 -1.1642577592223885e-08 -9.880246532710218e-07 -1.4887812210343438e-06
4.274214366245656e-09 -1.4887812211742548e-06 -1.488781221067486e-06 1.3067567855468217e-07 -9.88024652248919e-07 4.274214396400048e-09 9.880246532877946e-07 5.77440186524506e-07
-5.020879990531826e-07 1.004896243776866e-06 -8.682198917967683e-07 -5.288640699347222e-07 -1.4887812209852468e-06 -6.270110300607934e-07 -0.3758829280054608 1.3067567867293977e-07
-1.1642624917331328e-08 5.020879991089757e-07 -6.270113135048837e-07 8.174927732704978e-07 8.175081575465269e-07 -0.04627872526585686 9.880246523323287e-07 -6.270110289700729e-07
-0.2866332254559343 -6.221559162538007e-05 5.093699718587844e-07 -5.020879659073018e-07 1.306756797806615e-07 -0.1271594594821037 4.274214416902329e-09 -9.880246526472924e-07
3.1367173151960276e-08 -5.77440186818458e-07 0.3109706345200268 -8.174927726437417e-07 1.004896245652719e-06 9.88024652293238e-07 1.1642522799425613e-08 8.174927721973984e-07
-0.7465786500234408 -0.4959384341617135 8.000150485297404e-07 5.093701800273165e-07 -0.2803061631596895 1.1931051672153656 5.093700665315743e-07 1.164257397842898e-08

w3 f8 [21, 1]
00000000: 0656 21e2 9246 2140 6ebb 9b9e 356e ab3e
00000010: 6776 b52f e7d8 a0be 7290 9daf b7e9 f83f
00000020: acfd fb97 8893 b03e f560 5ba3 356e abbe
00000030: 24ae 526c fb89 813e ccc9 5ee1 fb09 a53e
00000040: 68d8 886b 8c5b 323e af34 6187 f80d d93f
00000050: 2bf6 2674 a61d a13f a277 94f6 7cdb 833e
00000060: c37c aef0 9f9c a53e 3e7b 917c a4ad 8d3f
00000070: de35 f8a8 341d acbf c2e5 698f fb09 a5be
00000080: 3008 f91f 7000 493e f88a ac2f e7d8 a03e
00000090: b476 579a 3664 f83f 7527 c92f e7d8 a0be
000000a0: 2e44 ccde 7417 a1be
8.637839380807247 8.174927732233227e-07 -5.020879991037182e-07 1.557059942243566 9.880246522596518e-07 -8.174927816585654e-07 1.3067567842160773e-07 6.270110499611311e-07
4.274214475887718e-09 0.3914777109210474 0.03342933814881762 1.4794897688295026e-07 6.44082292711785e-07 0.014491353084108757 -0.05491032183281751 -6.27010904376956e-07
1.1642328877980478e-08 5.020879990418257e-07 1.524466135880556 -5.020879992403563e-07 -5.093701794541434e-07
