Code/output/reg/Models_Reg/run_20251103_203959/model_overfitting_l1_7.7e-03_l2_4.6e-05.npz (npz, 54886 bytes, 6 tensors)

w0 f8 [2, 40]
-1.023249387938032 1.2256512309745675 0.009567036523193581 -0.26715076337577126 -0.8081419416911243 0.42006054054290304 1.2249720227024006 -0.18472293796275455
-0.3446008194103993 -0.4674246670957222 0.9245795151792411 -0.6334366441861006 -0.5705841651091957 0.641680671710954 0.692624549994008 0.9810299481059861
-0.26297970446127245 -0.09071638551510884 0.42640559577123477 1.313404542458351 0.91924039988114 -0.5804351563581726 -0.3504905395951895 0.66720081881912
-0.28151734201300443 -0.10054404421691898 -0.43649953780258427 -0.5063915380041454 -0.9765833838635487 -0.05992969413061337 -0.558456636829987 -0.43841701154197205
0.1514606257193041 1.1150865994507935 -0.05292866957760674 2.907894490631198 -0.0141938198297659 0.822698999084116 -0.22936008317302928 -0.5279030308901081
0.0004040855281305108 -0.0004045894787716028 -0.0001103502960526756 -0.00010868990049196447 0.0004040640807145009 -0.0001103465413109884 -0.00010868830105578204 0.00040407771780998867
-0.00010874774240920194 -0.00033611246535044504 -0.0004045962699568866 0.00010691953902709744 -0.0001087480546334565 -0.00040409000532587604 -0.00010692021877637846 0.00040408914808646567
0.0003958272612101914 -0.00010199573922257938 -0.0004040772942738439 -0.00040408224880131066 0.00010873032322282524 -0.00040459472482974476 -0.00010870934765878993 -0.00011032066977127163
-0.00010871691908484407 0.00010866623873323104 -0.000404081579491617 0.00040408653997861516 -0.00010690745949342047 0.00040459414377321977 0.0001003645350045602 0.0004040875087122772
-0.000393704233222358 0.00010873062440005183 0.00010868479470842781 -0.00011034696998237153 -0.00010872856840469211 -0.00033608613997023607 -0.00039583393410783904 0.00010868690745504883
00000000: a988 0dc0 3a5f f0bf 1468 1577 449c f33f
00000010: 45df e4e7 e197 833f 4c39 f383 ff18 d1bf
00000020: b1db 427d 4cdc e9bf cd32 fe9a 45e2 da3f
00000030: 3659 8043 7c99 f33f 257f af50 00a5 c7bf
00000040: c7b7 6298 f00d d6bf a344 a126 49ea ddbf
00000050: 50e2 87c7 2796 ed3f d8c0 dbec 1c45 e4bf
00000060: 7f4d 18b9 3942 e2bf dc29 6fe7 a588 e43f
00000070: 0031 d4f5 fa29 e63f 9060 f0ea 9864 ef3f
00000080: f710 8bd3 a8d4 d0bf 27ac ff64 3039 b7bf
00000090: 6dce 2ab2 3a4a db3f 626c 447b b403 f53f
000000a0: c0d8 d4d7 6a6a ed3f 5339 c0bf ec92 e2bf
000000b0: 4e99 47df 6f6e d6bf 4d29 1688 b559 e53f
000000c0: 0df9 4c50 6104 d2bf 7020 b825 41bd b9bf
000000d0: a132 e5c1 9bef dbbf c35d d606 5c34 e0bf
000000e0: c059 f0cb 2b40 efbf 4656 b3d8 1aaf aebf
000000f0: fc67 ed73 e0de e1bf ff4c a539 060f dcbf
00000100: 414d 0cd1 0f63 c33f 8b95 cd0b 65d7 f13f
00000110: ba95 b671 7719 abbf 2bd6 cb2f 5e43 0740
00000120: d514 cb3f a611 8dbf 3295 f0d9 8c53 ea3f
00000130: 4535 1ed4 ab5b cdbf bd3b a4e5 94e4 e0bf
00000140: 0ea6 cb20 6e7b 3a3f 049d 6294 e283 3abf
00000150: 71c3 8da6 7bed 1cbf 0aa3 a645 0e7e 1cbf
00000160: 0dba 1c03 127b 3a3f 9672 0625 3bed 1cbf
00000170: 8c96 41cb f27d 1cbf 91dc 4195 4c7b 3a3f
00000180: bbdd 17fd ef81 1cbf 7dad e40b 0807 36bf
00000190: 3c55 5fbf ff83 3abf eb43 96b1 3f07 1c3f
000001a0: 1120 455a f581 1cbf 1d1c 865b 817b 3abf
000001b0: e0ea 275f 4b07 1cbf b0aa faac 7d7b 3a3f
000001c0: d594 4a24 e1f0 393f f40b 0975 d1bc 1abf
000001d0: fc08 93c3 4a7b 3abf d689 220b 607b 3abf
000001e0: 1e8c b3ba c480 1c3f e9b4 7c1c f983 3abf
000001f0: 3af4 315f 5c7f 1cbf 664a caac 7eeb 1cbf
00000200: d1d7 ad72 de7f 1cbf e4ae 22c4 777c 1c3f
00000210: a59b 382b 5d7b 3abf fd91 5579 727b 3a3f
00000220: 786c 3c2b 7006 1cbf b8d5 9b9d f683 3a3f
00000230: 07f0 0395 594f 1a3f f0da 77a2 767b 3a3f
00000240: 6026 55ce 42cd 39bf 6df5 4ae7 c980 1c3f
00000250: b86d 2d8e b67d 1c3f 9784 5782 42ed 1cbf
00000260: 87f9 ed94 a680 1cbf 7fe5 d4fa 9606 36bf
00000270: 954a 38cd fdf0 39bf 02a7 22da da7d 1c3f

w1 f8 [41, 40]
0.8660188902728625 3.3935665714045156 -0.17506410337333245 -0.3895368821615895 -0.29986305642438743 0.9490354147575932 1.1673465824285925 1.1247381863672943
-0.042392529780619415 1.4324795550418896 1.223659837925524 -0.04303870962843257 -0.27185712796092854 1.424294036022703 -0.42669499985275566 -0.3339074175623069
1.7846793602628548 -0.7632312109494249 -0.3133483547638076 -0.17133556211402065 -0.24200022860816617 0.9562180617789952 -0.28227942845214954 -0.42834240004879476
-0.2763829108435103 0.5865861145307134 -0.22349768563617187 -0.6166505390727594 -0.27831037126010255 -0.24244857082436427 1.3951485098402403 1.5595654331594464
-0.25202784291076213 0.9611780395236599 -0.2004693845938012 -0.283895669174917 -0.6715562937494132 -0.28119553565694044 1.1017067358443509 -0.23128882508122517
-0.00010871287878658683 0.0004040923360992728 0.00010032084444714597 -0.00010871685304385785 0.000106912463780538 -0.0001086872466637374 0.0004040849417486564 -0.00010868848796702738
-0.0001103448187349626 -0.00033611173133542353 0.0003360869990007965 -0.000403255479278443 0.0003360965836545416 0.0003360883210452961 0.00039582151569988414 0.00010874923742846973
0.00040408969360584295 0.00010868651606497272 -0.00010868791080820189 0.0001019495389171008 -0.00010869557255334218 -0.00010690895666345615 0.00010036897404595427 0.00040407856240052946
0.00010874907521214809 -0.00010690783648240824 -0.00010866982650411633 -0.00011034043962457644 -0.0004040627894182231 -0.0003361132075659476 -0.00010194789334125003 -0.0001103192210607049
0.00040408378546586267 -0.0004040937536957359 0.0004045970515941467 -0.00010876888035319819 -0.0004040945960367706 0.00011034726798032121 -0.00040408195234382347 -0.00010690791929312936
-0.00010692254194433028 0.00010870682286517961 0.0003360908101226017 0.00010869572711601794 0.00040408288575328907 -0.00010865054249794797 -0.00011034675379970143 -0.0004040960891136211
-0.00010874985185909105 0.00010194577751736057 0.00010194954514656872 -9.872128408859533e-05 -0.0003360889156345609 -0.00040407860326127984 -0.00040406844092117186 -0.0004040823021174732
0.00010872730671021779 0.00039582674674296423 -0.00033611189282503173 0.00010194935154139286 0.00010692022665470367 0.00011034610308378331 0.0001087193514924913 0.0001103461647548672
-0.0004040881949798729 0.00040408671717837594 -0.00010870516718251562 -0.0004028774811777369 0.00010691939622754331 -0.0003360853868167323 -0.0003361115620751755 -0.00040407741882329264
-0.0004040872136199757 -0.00010871908498344 0.00010876899507502155 0.0003958223750413363 -0.00011034720155466646 -0.0004040750343162436 -0.00010874864455223505 -0.00010691935120204436
0.0004040782658075577 -0.00010871085759493179 -0.00040459121294234945 -0.0004040933589737343 0.00010691095558069711 -0.0004040872561604004 -0.00010870570665714827 0.00033608545925468557
-0.0004028760098661672 0.00010200186946270417 -0.00010875040013482652 0.0003958227760766329 -0.00011034801194229936 -0.00033609667748994845 -0.000402898945817639 -0.0001103471560032643
-0.0001103215870581184 -0.00010874991058387748 0.00010876791678812877 -0.00011034752688631956 0.0001019210556385031 0.0003361132133113707 0.00040287502432771966 9.872261070104663e-05
-0.00040459210251754166 0.0004040884972227561 -0.00040245321059101787 -0.00010691930237347343 0.00011034699538225423 0.00010866976662532423 -0.00011032124484356153 -0.00010194659687259738
0.0003360915399915125 -0.00010866897173938995 -0.00040408484195943476 -0.00010872054250754589 -0.00010691166370142865 0.00010867856550360211 0.00040406227536747585 -0.00010194665867411197
0.0001087685209466794 0.0004045967597749845 0.00033609698040060074 -0.0004040817428727042 0.00011034688813308779 -0.00010871187149572015 0.00040459670391572135 0.00040408239627213224
-0.00010871109311551582 0.0001087492622869423 -0.00010866695259605195 0.000336097393475111 0.00040408307396270506 -0.0003361165616078771 0.000404060274175113 -0.0003361064259292673
-0.0004028772080609966 0.00010874994506509587 -0.0001069207089851232 0.00010872995430629044 0.0003360882717940284 -0.0004040878859070641 9.87231315853187e-05 0.00010874988765133628
-0.0004045963987619872 0.00010871558045615412 0.0003360956758824444 0.00010872049556124084 0.00010871073108327991 0.000336097814199744 -0.0001086824212795535 -0.00033608407338727467
0.00010691705841445854 0.0004028791246917459 -0.0004040767098176492 -0.00039582719265782455 -0.0001069196367092157 -0.00010875086680742682 -0.000395828183219298 0.00040406689334759204
-0.00010868097522924623 0.00040290074139106175 0.0004040876605961383 -0.00040286848180914956 -0.0004040875118164617 0.0004045907712909672 -0.0003360842402372538 -0.00040325890388780855
0.00033609672598060265 -0.00010199010827837951 0.00010868802440967441 0.00010875020020856033 0.00039582142243917585 -0.00010691628037206144 -0.00010690954069007102 -9.872505002198048e-05
-0.00033610879169022233 0.00040459305448582115 0.0003360949181857193 -0.00033609205352281066 -0.0004040811659623397 -0.00033609121874317153 -9.87255434989949e-05 0.00033608834941231794
-0.00040458965029798404 -0.00040459387767275996 -0.00040459553878819505 -0.00010870910953008825 0.00040287739434035914 -0.00011034860910731678 -0.0001086877359891698 -0.0004040781182996652
0.00010690885664997135 0.0004040886244949 0.00010691256399631105 -0.0003360973839105368 -0.00033608729568575295 0.00010691989942811849 0.00010691133019766344 0.00010874984728652466
-0.0004045924525366467 -0.00010872906689937385 0.00010872226209273759 0.00033610923313936504 -0.0003360908361225076 -0.0004040836179073426 0.00010692021112022047 0.0004040879000629327
-0.0004045948894545868 -0.0004040940602658752 -0.000402877429500627 0.00040405931275823355 -0.00010874967241514783 -0.00010868176442714937 0.00010868764587207725 0.00010871923508913394
00000000: c415 6e3f 6db6 eb3f 96d9 073b 0626 0b40
00000010: 5094 5823 8068 c6bf bd11 5e1a 2cee d8bf
00000020: 25c4 27d1 f430 d3bf 2a26 a484 7f5e ee3f
00000030: ff0c 2a9c 73ad f23f 7a28 f077 edfe f13f
00000040: 4843 0142 79b4 a5bf 2c7f 91ae 6feb f63f
00000050: bf19 9556 1c94 f33f 7ddf a174 2b09 a6bf
00000060: 0cb5 7170 1b66 d1bf 89af 098b e8c9 f63f
00000070: f1fe 6e8b f84e dbbf 689a 9437 bd5e d5bf
00000080: 78cd e2f1 0b8e fc3f 650e 4adc 636c e8bf
00000090: 48d2 fd41 e60d d4bf 8ff3 f5dd 52ee c5bf
000000a0: 8090 bf0d ddf9 cebf e9ed e59e 5699 ee3f
000000b0: 8546 62bc dd10 d2bf 40c8 ec3d f669 dbbf
000000c0: 18c1 cff2 41b0 d1bf d84e 463e 50c5 e23f
000000d0: 7fff 4479 929b ccbf cd1a 4ce9 99bb e3bf
000000e0: d9c8 ac4d d6cf d1bf e287 5305 8e08 cfbf
000000f0: 413b 6d3e 8752 f63f 3545 36e2 faf3 f83f
00000100: e9eb be63 3921 d0bf 8566 ac72 f8c1 ee3f
00000110: defd 5615 fba8 c9bf 7744 a5bd 582b d2bf
00000120: 5174 e29f 637d e5bf 7060 5b8f 1bff d1bf
00000130: 18c0 033e 97a0 f13f 6cba d349 df9a cdbf
00000140: 5e69 4209 997f 1cbf 557f 3c5e 8b7b 3a3f
00000150: 3f6a e9fb 6a4c 1a3f 844d 3a50 dd7f 1cbf
00000160: bad2 5224 c606 1c3f e8ae fdad e07d 1cbf
00000170: 71d4 0f9c 6b7b 3a3f 19f1 4c01 f67d 1cbf
00000180: b842 0e8d 1ded 1cbf 0dd1 d5e4 0407 36bf
00000190: e380 58ab 9a06 363f 1b58 6e18 816d 3abf
000001a0: 72b1 c8d5 c306 363f bdf2 f258 a006 363f
000001b0: 9233 0977 c8f0 393f a4eb 41ac 0982 1c3f
000001c0: 84b8 c804 807b 3a3f 269a c820 d47d 1c3f
000001d0: badf ed16 ec7d 1cbf 8a69 f1bd b7b9 1a3f
000001e0: 7e03 a4b7 6f7e 1cbf 0407 dce3 8906 1cbf
000001f0: cb3a 20d8 a54f 1a3f e2f6 e435 507b 3a3f
00000200: 3c94 d2e2 0682 1c3f 384a 40a5 7606 1cbf
00000210: b496 5167 b57c 1cbf e848 8651 d2ec 1cbf
00000220: 1523 5177 0c7b 3abf dcc4 f73b 0b07 36bf
00000230: 16b7 9f78 9bb9 1abf d032 4bc9 65eb 1cbf
00000240: 4c28 b7a4 667b 3a3f c76d e674 917b 3abf
00000250: 9ba9 ca1a 0384 3a3f d80a c122 5b83 1cbf
00000260: 195a 1013 957b 3abf b861 f3a0 47ed 1c3f
00000270: 932c 2dc5 5e7b 3abf 84df 7411 7806 1cbf
00000280: 7e7f 8e48 7307 1cbf 3810 09ff 307f 1c3f
00000290: c1ec b709 ab06 363f aa1d 6a5f 727e 1c3f
000002a0: eb94 78c7 627b 3a3f 16d7 5c1b 6a7b 1cbf
000002b0: 4578 8fcb 3eed 1cbf a91f b87c 9b7b 3abf
000002c0: be4c 8d3a 1482 1cbf 8ecb 211f 77b9 1a3f
000002d0: 6c2b 57d9 b7b9 1a3f d4bb 0ebf 12e1 19bf
000002e0: 9af2 b4e6 a206 36bf 3f3e d262 507b 3abf
000002f0: 45cc 35bd 247b 3abf 3bb4 c145 607b 3abf
00000300: 9b48 f0e7 9080 1c3f 3bee a0ee def0 393f
00000310: ae19 6596 0507 36bf c21e db85 b4b9 1a3f
00000320: 841f ce81 4b07 1c3f 6c7a ae9d 33ed 1c3f
00000330: ee62 853c 0880 1c3f 21f2 e9ac 34ed 1c3f
00000340: c002 0795 797b 3abf 6ade 2a3c 737b 3a3f
00000350: 301b 448d 147f 1cbf 52c0 1f9b 2967 3abf
00000360: b842 8c3d 3d07 1c3f 1308 bbbe 9306 36bf
00000370: d04a bb2a 0407 36bf 9a96 844c 4b7b 3abf
00000380: acc1 025e 757b 3abf d4de 66a8 0380 1cbf
00000390: 2555 4e1b 5d83 1c3f 1251 e427 ccf0 393f
000003a0: 44be ce7c 46ed 1cbf ae85 b90e 417b 3abf
000003b0: 829f c27c ff81 1cbf 380e 8677 3c07 1cbf
000003c0: ee76 c9ef 4e7b 3a3f 5cea f64f 767f 1cbf
000003d0: ac48 2007 ea83 3abf 0810 e6c2 8f7b 3abf
000003e0: 46c3 303b ac06 1c3f 54d2 c88c 757b 3abf
000003f0: 7b8b e6d1 1d7f 1cbf b480 600e 9406 363f
00000400: 875c 6649 2367 3abf 06d5 1dc6 3abd 1a3f
00000410: 36e6 e4a5 1d82 1cbf abb7 d5e0 cdf0 393f
00000420: 861a ee68 54ed 1cbf 1903 f53c c406 36bf
00000430: 8ec4 becb 8567 3abf 7c6c 78b4 45ed 1cbf
00000440: 4877 0f6f 8eeb 1cbf 0688 d33c 1582 1cbf
00000450: 7038 f394 4a83 1c3f 039f a113 4ced 1cbf
00000460: 4ab1 2867 ceb7 1a3f 3af6 4842 0b07 363f
00000470: 2af3 c90d 1f67 3a3f ac91 8f89 29e1 193f
00000480: bd70 39d9 ed83 3abf bbd1 58e1 7a7b 3a3f
00000490: 493c ae60 0b60 3abf daf8 c5a0 3b07 1cbf
000004a0: 563e 0df2 42ed 1c3f ef0f f85f b47c 1c3f
000004b0: d420 fc8d 88eb 1cbf aac7 b132 85b9 1abf
000004c0: 6ec2 372c ae06 363f 1910 06b8 a67c 1cbf
000004d0: 38a9 572e 6b7b 3abf 1e20 a9b2 1c80 1cbf
000004e0: 16d4 8965 b806 1cbf ae4b d889 4b7d 1c3f
000004f0: 06b7 1c42 0a7b 3a3f 7619 8042 86b9 1abf
00000500: be46 11f6 5483 1c3f e2de eed9 0184 3a3f
00000510: e9c7 028a c506 363f b34b dcde 5d7b 3abf
00000520: c06a 5d1a 41ed 1c3f f8b7 25bb 877f 1cbf
00000530: c7e2 839c 0184 3a3f 6ee2 47ad 607b 3a3f
00000540: e384 cb5b 7a7f 1cbf 8a12 9619 0a82 1c3f
00000550: 48c4 bc07 847c 1cbf 47eb 3050 c706 363f
00000560: 9cd2 6896 637b 3a3f 9aa4 c6a3 1907 36bf
00000570: 2624 c7a9 017b 3a3f 0abe 7a1b ee06 36bf
00000580: 1f39 d46e 2867 3abf 92ee 79d4 1582 1c3f
00000590: c4e5 1dcb 5307 1cbf 8674 3064 be80 1c3f
000005a0: e2f2 cb22 a006 363f c4bf 3241 787b 3abf
000005b0: 581f 6f7c 32e1 193f 0cc9 f7d7 1482 1c3f
000005c0: e2be fe4c 0084 3abf fcec 5373 c77f 1c3f
000005d0: 3090 adef bf06 363f f448 30e4 1b80 1c3f
000005e0: 5a75 8f23 747f 1c3f 1660 c81e c906 363f
000005f0: 8214 bac7 8d7d 1cbf 6b81 991a 8e06 36bf
00000600: ecb9 bc13 1507 1c3f 93d1 2faa 3067 3a3f
00000610: c73d f540 487b 3abf 36ce ead8 e0f0 39bf
00000620: 9c8d 325f 4107 1cbf 5689 57aa 2582 1cbf
00000630: bc12 0d1a e5f0 39bf 838f a217 1e7b 3a3f
00000640: 822c eeef 747d 1cbf 51c1 ff81 8d67 3a3f
00000650: 8b5c 7749 777b 3a3f 0eb0 36f4 0267 3abf
00000660: 019b e1a5 767b 3abf aa78 8621 e883 3a3f
00000670: 7b99 0dd2 8e06 36bf 822f d4cd 8f6d 3abf
00000680: f9ea 4572 c406 363f 237f e1b7 70bc 1abf
00000690: e2c2 8d0a ee7d 1c3f 4eef 9b36 1a82 1c3f
000006a0: 50a5 7e10 c8f0 393f 25dd deb5 0707 1cbf
000006b0: e789 6fec 9306 1cbf fec7 ce71 53e1 19bf
000006c0: 8740 a944 f806 36bf 8fb0 ecef f183 3a3f
000006d0: 2ae5 94ae bc06 363f 3df8 d960 b006 36bf
000006e0: dc76 8a64 5b7b 3abf e463 00cb ac06 36bf
000006f0: 7b81 24ec 5be1 19bf 158e 2378 a006 363f
00000700: 5dff fa50 e383 3abf d036 0779 f583 3abf
00000710: 7ca4 719b fc83 3abf f8de e447 587f 1cbf
00000720: ce33 a53b 2967 3a3f 1f24 4aab 5eed 1cbf
00000730: 5924 1116 e97d 1cbf 18af 994d 4e7b 3abf
00000740: acda fe2b 8806 1c3f 35be 486d 7b7b 3a3f
00000750: b0c0 13dd c706 1c3f 13bb ac45 c706 36bf
00000760: 09e5 8df1 9b06 36bf c8bd a5e2 4507 1c3f
00000770: 64f8 c5aa b206 1c3f 360c 7126 1482 1c3f
00000780: 510f 135a ef83 3abf 2817 5525 af80 1cbf
00000790: bfee 793d 3a80 1c3f a423 0a2a fa06 363f
000007a0: 6b3f 4e26 ab06 36bf 7ba0 7bec 657b 3abf
000007b0: 94d9 7b3d 4b07 1c3f 9945 c350 787b 3a3f
000007c0: f27a 7ed1 f983 3abf 6c40 fac5 927b 3abf
000007d0: 1df0 4d62 2967 3abf f358 b088 fd7a 3a3f
000007e0: 7d61 5925 1182 1cbf fd04 dc7e 827d 1cbf
000007f0: de50 ba89 e77d 1c3f 74db 923c 0680 1c3f

w2 f8 [41, 40]
-0.4721134247984362 -0.35014388360952675 6.385109047629542 -0.2814814767521226 -0.34385206745122615 -0.1275534887293464 -0.4434340196416032 2.5807516766071226
-1.3043741371940913 -0.24894211348645096 2.6338443349766774 2.575024230001471 -0.3478659871895758 2.958322212056479 2.631239710780683 2.8487206271722036
-0.7178434669934267 -0.6827714752666909 -0.3444123984829118 -0.33640817341033513 -0.2587386583938483 -0.38830712031003056 -0.45514671815886754 -0.990442274413612
2.759043587184625 -0.8054790580283281 2.713698018932089 2.7070484074051855 -0.4708929789070808 2.8676380002272954 -0.5341084679148436 -0.3735155239921998
-0.38011626184918107 -0.3138263405366622 2.5376158020939323 -1.1157217960503798 -0.23483466122025276 -0.39938533761307143 -0.22271696985372966 -0.5402480404177938
0.00040407764847855837 0.0004032554772868696 0.00010872241559586642 -0.0004045938940945518 -0.00010874968213491772 0.00010871215756268112 0.0004040942056811595 -0.00040411500199785986
-0.00010866989378181989 -0.00040408659358001924 -0.00010877951549622346 0.00040245890872610154 -0.00010871275156247638 0.00010865600386077085 0.00010871771250625493 0.0004028268283872229
-0.000404068533355317 -0.00040459757684509185 0.00010870772097230665 0.0004045975892950816 -0.00040409649126814883 0.00010876984116151266 -0.00010692032591492727 0.00010691816896242326
-9.858579792514297e-05 0.00010691966120708667 0.00010862018602115021 0.00010197811170007561 0.000336098939445694 0.00010865710230475432 0.00010691950991336186 9.87245072232474e-05
-0.00040407489540880877 0.0004032584706778295 -0.0003361274336400571 0.00010200176565859679 -0.00010691970579986893 0.00040406420582745267 0.00010866910796978208 -0.00040459642934400074
0.0004045971967236538 -0.0004040884222439491 0.00010866017468899152 -0.00033610830124000836 0.0001103487623487219 -0.00010871711952325384 -0.00011034471602394241 -0.0003361630671432183
-0.00040408111824581536 -0.00010875053685229419 -0.00010218989638343066 0.000403489372377192 -0.00010871532989136944 -0.00040423169634723705 -0.00010870172482550851 0.00011012049473215674
0.00011034668430286554 0.00040409333366179373 -0.0004045907790288311 -0.00010872950438605272 0.0003958232961829511 0.0004040812632871899 0.00010874905598920088 0.00040406206114778785
0.00040361534049381074 -0.00010866586373528444 0.0004039599003635583 0.00010202949667891155 0.0001069159554249431 -0.00040378851598691734 0.0004040880161385406 0.00010871503361818712
-0.00010192206570333172 0.00033609904356725746 -0.00010876495071016708 -0.00040289906856504965 0.0001086691878007798 0.0004040931234774957 0.00010872064493397992 0.00011034958515255958
0.0004045966334865195 -0.0003360872871930748 -0.0003361138237817025 -0.000404591307273346 -0.00010871496602824079 -0.0004040632711588479 0.00010874974183189113 0.00010692043380429396
-0.00010871424442731428 -0.00010193270425687528 -0.00011034145176265409 -0.00010868089481802122 -0.0004028765086412422 0.00040289498593574195 -0.000404580869937596 -0.0004028752102097959
-0.00033609252983392117 -0.00011032089772149205 0.00040409208717561156 -0.0004040771081308616 -0.00010690905841587804 -0.0004045969333208021 -0.00010875047812620669 0.0004040880737872419
-0.00010036395475288483 0.0001103190526484307 -0.00040459712044452407 -0.00010868823515286879 0.00010875036709623973 -0.00010872993515247595 -0.00040409489833933936 -0.000404074897798106
-0.00011034704492258977 0.0003360919403070009 0.00010874994713094874 -0.00010692003867331874 0.00010874852870776033 0.0004045828314421839 0.00010871515881397118 -0.0001087498542881158
-9.872346326601935e-05 -0.00010192220955931206 0.00010194892317134008 -0.0001003215228426338 0.0001087124275084001 -0.00010032075244684448 0.0004045917824590118 -0.00033609107422809167
0.00033609406387923957 0.0003360853908415842 -0.0004045944546640906 -0.00010691745355790542 -0.00040459226278480857 -0.00040407779312057017 0.00010691066919119691 -0.00010032206936784878
-0.00010690829120580157 0.00010192993984864309 0.0003361141873916495 0.00040408362937258846 0.00040459554939466225 0.00010877025805541439 0.00010194887048484421 0.0001103452051365026
0.0003360891635164837 -0.00040408017342922174 -0.00010691665944390656 -0.00011034683620511908 -0.00010692010278013836 0.00010194697010153348 0.00033608710754219433 0.0004040811288444322
-0.00033609056830509454 0.0004040875787634224 -0.00010691225382661977 0.00040459099271638737 -0.00010868359142603976 -0.0003361129523711718 0.00040289741889974496 9.872520733042158e-05
-0.0004040903776420351 0.00010876872280452459 -0.00040459778534329477 0.00040408815079258554 9.872495959037575e-05 0.0003360869930352586 0.0001003217494159659 0.0003360961995769295
-0.0004040942601331139 0.0004040763794125194 -0.00010870400653570101 0.00010866587932347966 -0.0004028767061352238 -0.0004040636509222592 0.00010691229560036715 -0.0001086666167408593
-0.0003958216290675091 -0.0004040785865875906 0.0004040775840991241 0.00040409393787023786 -0.00040290031854611113 0.0003360889501982516 -0.00033609683718784154 -0.00010691197468381705
0.00010875112363441196 0.0004040890722785581 -0.00011033760800621094 -0.0004040896825420738 -0.00033608915281069403 -0.00040459525629580505 -0.00010871536602058345 -0.0004032584923725054
0.00033609210624508084 -0.00010690802925141394 0.0003361074230460455 -0.0003360990629781851 -0.0003360979605756626 9.872678479844933e-05 -0.0003361080482753304 -0.00033611205214684274
-0.00040286900095038965 0.0001069103515351829 0.000101979981138976 -0.00010200212667918945 -0.00040459676568744114 0.00033610994462454305 -0.00040459808798975827 0.0004028659288269986
0.00010868780063709495 0.00033608695297109454 -0.0004034814172859945 -0.00033608524098394316 -0.00033608739913194575 -0.00040411606459067427 -0.00033609279363325874 0.00040401175415680376
00000000: f8c1 e039 1b37 debf 8cd4 3fe4 c168 d6bf
00000010: b1d9 b306 5a8a 1940 3121 45e2 ca03 d2bf
00000020: 335c 171a ac01 d6bf daa7 4a37 ac53 c0bf
00000030: 36d9 1215 3961 dcbf 82ff 9022 61a5 0440
00000040: 0ef3 4f6a b7de f4bf 22be 02ce 55dd cfbf
00000050: 6cd6 8bfa 1c12 0540 781c b24d a699 0440
00000060: cdad 97b3 6f43 d6bf ee80 fed5 a4aa 0740
00000070: 90ea cd67 c70c 0540 6b29 490a 2eca 0640
00000080: eb49 ccdc 92f8 e6bf 0230 9d90 43d9 e5bf
00000090: b18b f44c da0a d6bf 1ae3 b925 b687 d5bf
000000a0: b5cc 0097 2c8f d0bf f045 a21b 06da d8bf
000000b0: b0f0 57b3 1f21 ddbf 93d5 25ff b3b1 efbf
000000c0: 6992 b971 8512 0640 9906 7b04 7cc6 e9bf
000000d0: 3944 944e a7b5 0540 08f4 d3fe 08a8 0540
000000e0: 809a 144e 1c23 debf d1f1 1d31 ecf0 0640
000000f0: d8bf 46a4 6a17 e1bf 3a11 06a8 ade7 d7bf
00000100: f77a 5428 d353 d8bf d99c 4e13 bb15 d4bf
00000110: 3273 7e83 094d 0440 3f88 1719 ffd9 f1bf
00000120: b840 f4ea 0f0f cebf 3134 e384 878f d9bf
00000130: 379b e45a fd81 ccbf 0252 2a42 b649 e1bf
00000140: 82cc 0649 4c7b 3a3f 1ec4 3d16 816d 3a3f
00000150: 4f17 97e0 3c80 1c3f 9f89 158b f583 3abf
00000160: 6cde 1850 1182 1cbf bc7b 48a5 8c7f 1c3f
00000170: f203 dd65 937b 3a3f 39c6 a7b7 ec7b 3abf
00000180: 828c 358f b67c 1cbf 3406 45b4 727b 3abf
00000190: 7295 9bd8 1184 1cbf ebac d8d9 2360 3a3f
000001a0: 28cc b8d9 967f 1cbf d3bb b0ee c77b 1c3f
000001b0: 84ef 2e14 ec7f 1c3f 93b8 ca0d 5066 3a3f
000001c0: 60b2 d722 257b 3abf fba8 4f5c 0584 3abf
000001d0: 45cb f36c 407f 1c3f 4a05 006a 0584 3a3f
000001e0: 5c8f e436 9d7b 3abf bc08 6fa4 6b83 1c3f
000001f0: 1a33 5b36 4d07 1cbf 8793 fa27 2807 1c3f
00000200: 9aec 9b1c fbd7 19bf 2cb4 f0ca 4107 1c3f
00000210: 0771 2a96 6079 1c3f 121a 5f9e a2bb 1a3f
00000220: f1f3 00f4 cd06 363f 5db6 b2cd da7b 1c3f
00000230: f61c 8b31 3f07 1c3f fbbc 8d1e 4ae1 193f
00000240: 228e fe75 407b 3abf b46a 82f1 8d6d 3a3f
00000250: cca5 b355 4807 36bf 1bcc 94fd 38bd 1a3f
00000260: 94b6 0f8f 4207 1cbf 57e4 ac8c 127b 3a3f
00000270: 44d9 2b0f a97c 1c3f 33d1 9e6e 0084 3abf
00000280: b6fc 5cba 0384 3a3f 4b29 e88e 7a7b 3abf
00000290: bcd6 2f96 0f7c 1c3f 1dca 6729 f606 36bf
000002a0: f69f 404d 61ed 1c3f 0f6e 37e4 e17f 1cbf
000002b0: bcee 53c9 1bed 1cbf bc1e 2761 e107 36bf
000002c0: eb74 1330 5b7b 3abf 5815 2fff 1f82 1cbf
000002d0: ab5c 420d d9c9 1abf 09de 9ca8 6d71 3a3f
000002e0: d80e 5525 c37f 1cbf 2a0c 73ea e17d 3abf
000002f0: 2eac 9e69 d97e 1cbf 2166 a8b1 0fde 1c3f
00000300: 1ffd e899 3ded 1c3f 7e62 11a7 8f7b 3a3f
00000310: 857c 082a e883 3abf 2b4d 6ba9 b680 1cbf
00000320: 9aa1 b21c d0f0 393f 67f9 8ccf 5b7b 3a3f
00000330: ee76 478e 0682 1c3f b63b 9356 097b 3a3f
00000340: 128f 05b0 8a73 3a3f b087 e052 717c 1cbf
00000350: 1adf 9a8f 5279 3a3f 80fc e567 15bf 1a3f
00000360: ffee bc20 0207 1c3f aa72 7d78 7276 3abf
00000370: a1a6 63d0 787b 3a3f 101c 4f0e be7f 1c3f
00000380: c896 78c1 dfb7 1abf 4b91 7c66 ce06 363f
00000390: d851 00a0 1783 1cbf a417 b552 8667 3abf
000003a0: c48f 456e aa7c 1c3f acc3 f7bf 8e7b 3a3f
000003b0: ba09 2375 1e80 1c3f 9863 fb6f 6fed 1c3f
000003c0: f1d3 134f 0184 3a3f 156b 37e8 9b06 36bf
000003d0: 9115 81e1 0d07 36bf 5419 d86e ea83 3abf
000003e0: 6898 0be5 bc7f 1cbf 7511 ff88 0e7b 3abf
000003f0: 86af a556 1282 1c3f d8d3 db10 4f07 1c3f
00000400: ed2d 697f b07f 1cbf 5a08 5386 96b8 1abf
00000410: bf73 f4b4 e3ec 1cbf e02e 478e 737d 1cbf
00000420: 6610 cf6d 2567 3abf 611a cfc9 7467 3a3f
00000430: 0443 df9a bd83 3abf 5a1a 2bda 1f67 3abf
00000440: e0a0 8f6c b206 36bf 2c6c 5397 82eb 1cbf
00000450: 34b7 8a4c 8a7b 3a3f 8971 e8f6 497b 3abf
00000460: da11 5fa3 8b06 1cbf f5ac bf98 0284 3abf
00000470: 0e63 e7fc 1e82 1cbf 5951 c60f 797b 3a3f
00000480: 5fa1 0a9d 4f4f 1abf acd5 9be4 62eb 1c3f
00000490: 2652 7e66 0384 3abf 1281 69a9 f17d 1cbf
000004a0: eac1 9614 1d82 1c3f 5e2d f30f be80 1cbf
000004b0: e0f5 725f 967b 3abf 2515 9f78 407b 3abf
000004c0: e2b3 eecb 43ed 1cbf 618d 5ee4 af06 363f
000004d0: 1fe0 8fdd 1582 1c3f 3ae6 0d47 4807 1cbf
000004e0: fc56 457f fd81 1c3f 50b8 9107 c683 3a3f
000004f0: fe07 ed34 c07f 1c3f 7623 3c45 1482 1cbf
00000500: 7464 2e2f 38e1 19bf 1b06 283a e2b7 1abf
00000510: 5051 dd29 adb9 1a3f e2d4 86a3 764c 1abf
00000520: db57 8448 917f 1c3f be48 4a67 694c 1abf
00000530: 20f9 5079 ec83 3a3f ef02 1b2c ac06 36bf
00000540: aaff 4203 b906 363f 38ed 27c3 9306 363f
00000550: e1d5 6ff3 f783 3abf 40b2 98dd 1b07 1cbf
00000560: 65aa 7089 ee83 3abf e0e7 0fe8 4c7b 3abf
00000570: e8d9 a24f a706 1c3f 2c85 2b07 804c 1abf
00000580: ec50 2575 7e06 1cbf c00f 5408 67b8 1a3f
00000590: 842f 4c71 0f07 363f 83ce 16f9 657b 3a3f
000005a0: fe18 1ba7 fc83 3a3f d8d6 f3cd 7283 1c3f
000005b0: ca98 2542 acb9 1a3f f0b7 7730 24ed 1c3f
000005c0: 9081 41f7 a306 363f 603a 3d21 577b 3abf
000005d0: a7d1 0b39 0e07 1cbf ccb8 fb35 40ed 1cbf
000005e0: f6c2 ff60 4907 1cbf 4e34 2c9c 8bb9 1a3f
000005f0: de30 b022 9b06 363f bfb3 ba3b 5b7b 3a3f
00000600: fe58 d6ff a906 36bf ec7f 7def 767b 3a3f
00000610: e6b9 ef88 c206 1cbf b32f fc14 e983 3a3f
00000620: 65e6 15e2 a17d 1cbf 4ed3 6023 0a07 36bf
00000630: d196 e13c 7f67 3a3f 2457 a825 56e1 193f
00000640: c2ca e3f4 827b 3abf 6401 d96d 5883 1c3f
00000650: d8af 8e41 0684 3abf 2365 7164 797b 3a3f
00000660: 8bd8 15e4 51e1 193f 945a c9a4 9a06 363f
00000670: 9fb9 0188 7a4c 1a3f cb74 7c2f c206 363f
00000680: c5e0 bba1 937b 3abf 1177 acd5 467b 3a3f
00000690: 3cf7 af9c 007f 1cbf 0f47 6f97 717c 1c3f
000006a0: 8cad f446 2667 3abf 2ef7 8c2a 107b 3abf
000006b0: d2c8 a840 c306 1c3f c66f a142 7e7c 1cbf
000006c0: de59 aff3 c8f0 39bf 5104 7d50 507b 3abf
000006d0: 5e99 3d02 4c7b 3a3f 46f1 663f 927b 3a3f
000006e0: 867b 13b1 8b67 3abf fec2 b50c a306 363f
000006f0: 0cf9 8bec c406 36bf dfde 40bd bd06 1cbf
00000700: de03 e113 2a82 1c3f 42a3 a059 7d7b 3a3f
00000710: 4d6e efab a1ec 1cbf ee8b 9ef8 7f7b 3abf
00000720: 1e18 7ceb a306 36bf 871a d764 fb83 3abf
00000730: caef 3ac4 c37f 1cbf daec 5c09 8e6d 3abf
00000740: 2ef8 d19a b006 363f 3ee5 0ef5 7906 1cbf
00000750: 0d2a d263 f206 363f 0942 d47b ce06 36bf
00000760: 9b88 b9bf c906 36bf 2672 6f3f 71e1 193f
00000770: 0b90 4413 f506 36bf 0f34 9245 0607 36bf
00000780: c8f4 032f 0567 3abf 80f9 91da a106 1c3f
00000790: 862f 40bc c2bb 1a3f 54d9 5d31 3fbd 1abf
000007a0: 4914 6fe0 0184 3abf c369 5338 fd06 363f
000007b0: d917 528e 0784 3abf a218 2efd f766 3a3f
000007c0: 223c 6432 ea7d 1c3f 4f4b bc78 9a06 363f
000007d0: fec1 e57d 4b71 3abf 28c0 621e 9306 36bf
000007e0: cd68 4b63 9c06 36bf df0f fd47 f17b 3abf
000007f0: 738a 9c8e b306 36bf 1c1e 7445 317a 3a3f

w3 f8 [41, 40]
-1.1857985438661547 -1.4103035889314246 9.449869997388777 -0.6443681248865853 14.89636838874514 -0.8028416595220835 10.395665553218624 -0.7530217806795971
-0.18916391350485606 10.413251188224258 10.519709795580873 10.37748445515884 10.263008110559323 -0.3899584928845038 10.349157024882802 -0.4712022013412441
-0.4457949042262498 -0.3740524333335169 -0.44264976494382097 -0.15215522020345085 10.272228529870961 -0.3825074097185846 -1.3411655907146198 -0.3698949615527414
-1.401449098602669 -0.424272029340247 5.35488246370801 -0.29214902271806936 -0.4327260891148209 -0.9137352071868078 10.185427040595359 10.15107309552082
-0.4393791131266924 -0.04398441678253944 6.341418214654549 -0.4594283576587295 -0.15886862545886607 -0.1993264340322656 -0.35653164871040366 10.67211411728189
0.00010869575165816406 -0.0004040825070930862 -9.872071985597301e-05 0.00011032087599683745 0.00011034573994204557 -0.0003360915474639826 0.00011034087931733721 -0.0004045755425486705
-0.00033609581965870746 0.00040407700847271117 0.00040287804394430237 0.000404078154029714 -0.0004040855736377845 9.871042532407996e-05 0.0003360946977763231 0.00040459763548458393
-0.00040459294195246026 0.00040408478628574135 -0.00033608624542730053 -0.00011035011710616199 0.00011034559985602481 -0.00010691694446860752 0.00010690950735328997 0.00033609143978406144
-9.871083230726215e-05 -0.00033609714824799764 -0.0004040866025185625 0.00010194857403189315 0.0003360969390656726 -0.00010691963289104949 -0.0004040880606122257 0.00010194829246709832
0.00040290076276161714 0.00010870520643969258 -0.00010691187134916001 -0.00033609920170550356 -0.0004028986530546136 -0.00033609860562780876 0.00010870405767745555 0.00010868810578729173
-0.00040408382202958883 9.872376546690668e-05 -0.00010691913864481722 -9.87240226479385e-05 -0.00010194942105715336 0.00033609191981320944 0.00033609141138128766 -0.0003360847606419368
-0.00040408635465770496 0.00039582355642147 0.00010871896578274631 0.00010871492286895055 -0.00040459479942016785 -0.0004045755043272929 -0.00010691016846350624 0.00040409550030823195
-0.00010691931871329525 -0.0004040611160568652 -0.00010866559494839963 -0.00010868376948141065 0.0004040825563009565 0.0004040602113360004 0.00010876871014600821 -0.00040408247165316937
0.00010874909544795302 -0.0003360854686314411 0.0003360976333912685 -0.0003360861461722174 -0.00033609570610490617 0.0004028672008601953 -0.0003360847144914132 0.00040405968354352947
0.0001086883987186422 -0.0004040807955120474 -0.00010871500224935968 0.0004040956403408596 0.00033608872469786515 0.00040408609228682825 0.00010194932570359007 -0.00010691107538217932
0.00010874856274967442 0.00011034778423571716 0.0004221077240593884 -9.872580018895815e-05 0.0002108664345673201 0.00010691980308927832 0.000564144219638378 -0.00033609699824736425
-0.000336107877195484 -0.0001436669744920894 0.0003361369143530753 0.00011285127965396541 -0.0004009399923587829 -0.0001003640238992934 -0.00032619008097276253 0.00040407801961235275
0.00010192134144552404 0.0004040812277128811 0.0004029004632006929 0.0001003197471147201 -2.727973408844292e-05 0.00011034126033191357 -0.0003360856063140273 0.00040459593289915723
0.0004040876493761175 0.00010870627962863142 -0.0003066396719770522 -0.00010195317301430108 -9.872288086956721e-05 -0.00010871855039865013 -0.0003083467737439944 0.000414916161969616
-0.0004040768191772794 9.585467150689007e-05 0.00020386813376117996 0.00010867098269159203 -0.0003958211991330318 -0.0004040610690505612 0.00010194805901515807 -0.0005077030394490692
0.0001103468830492356 -0.0004045926164561902 0.00039582309870605023 0.0004040939877101775 0.00010872028816107947 -0.00011034731815471475 0.0004040877591105255 -0.00040287788254970833
0.00010875011183177703 0.00040407711733589006 0.00010872557714592407 -0.0004040939819059618 -0.00040408036421758054 -0.00040459633579063435 -0.00040459813157529866 -0.00040406242528519926
-0.0003361091797863487 -0.0003360905913176043 0.00040409409363234485 -0.00010866450024242782 -0.00040408626492429925 0.00010869561435049283 0.00033611172911140883 -0.00040408146399189583
-0.00010874970662948688 0.0004040810219543941 0.00010690990808974527 -0.000403257705392269 -0.0004045954475252331 0.00010866701620291592 0.00040406048162164256 0.00010870937885464993
0.0001103407418540032 0.00011034068049143722 -0.00040407992434935005 0.0003360973533494171 0.0004045895350288089 -0.0004032585061301388 0.00010874997752601083 -0.0004040874705105978
-0.00040458913702002744 0.00040325866766925726 0.0003361116237897337 -0.0003360881280026243 -9.872347902096659e-05 -0.00010874997050194011 -0.00011034559541155448 -0.00010866396036962277
0.0004040957657326035 0.00033609201778044993 0.0004045955781868624 0.0001087504933294499 -0.0004045949813151546 -0.0004040851353324204 -0.00033609557985442447 0.00010875121638773938
-0.00010877048573291291 -0.00010691914005784436 -0.00040459744349750925 -0.00040289402542528893 -0.00010194800632807737 0.00033608498361921223 0.00040457543916144756 -0.0004028992598584823
-0.00010192834951010732 0.00010866524762707153 0.00010871343625374339 -0.000336085640067208 -9.872111595377336e-05 0.0003360902451715725 0.00033608838777714987 -0.0003360954563389602
0.0003360921602797682 -0.00040407742266344274 0.00010691973388643377 -0.00039582126821526676 -0.0003361163934377932 -0.0004045963867233889 0.00033609705564341885 0.0004045943171341506
-0.0004045947578300058 -0.0003361110829712559 0.00040407861762121853 -0.0003360870774168559 0.00040407561214385345 0.00040459273180295776 -0.00010874860492041872 -0.00011034166009182733
-9.872341472244892e-05 0.00010868360304438844 -0.00039582278833450883 -0.00040409401570280974 0.00040458930568813535 0.0003360971322103151 -0.00040459285382814117 -0.0001019213356367998
00000000: fbca d8e4 07f9 f2bf 3545 fe7e 9a90 f6bf
00000010: 0a79 3c5c 55e6 2240 9620 dfe6 a99e e4bf
00000020: 3da8 25cc f0ca 2d40 5c70 f0fd e0b0 e9bf
00000030: 9a74 e6ac 94ca 2440 ca39 2622 c118 e8bf
00000040: f419 0beb 8536 c8bf a4e9 e4a8 95d3 2440
00000050: 84dc fe66 170a 2540 aa4f 7ba4 45c1 2440
00000060: bede c2ff a886 2440 0e21 6f77 14f5 d8bf
00000070: a114 a6b5 c4b2 2440 2116 2447 2d28 debf
00000080: 3203 9859 e787 dcbf f806 0a9e 79f0 d7bf
00000090: d702 01ae 5f54 dcbf 8841 587f d279 c3bf
000000a0: faaa b189 618b 2440 fd03 ce5b 007b d8bf
000000b0: ad3c ea0c 6a75 f5bf b8bf b4ea 5bac d7bf
000000c0: 421d d8e3 556c f6bf 32ee a7de 4527 dbbf
000000d0: 0133 fe4e 666b 1540 5f7a 88d0 91b2 d2bf
000000e0: def1 37c4 c8b1 dbbf a546 029e 513d edbf
000000f0: 614d 064b f05e 2440 8322 e973 594d 2440
00000100: 1c2d 5b92 c91e dcbf 27b2 3a1f 2085 a6bf
00000110: cccc 88bc 9c5d 1940 75f3 bf32 4667 ddbf
00000120: 2168 5a9f ce55 c4bf 09cd b251 8783 c9bf
00000130: 2acf cc1e 6ad1 d6bf aecf 7157 1f58 2540
00000140: ac1d 5acb 727e 1c3f be35 2127 617b 3abf
00000150: dc46 890d 09e1 19bf cea2 c737 82eb 1c3f
00000160: c23a 9160 2ded 1c3f a612 6f34 ae06 36bf
00000170: bc52 50df d9ec 1c3f 8a96 58b9 a683 3abf
00000180: c8fb c28d c006 36bf fd2a 5589 497b 3a3f
00000190: 0875 e405 2c67 3a3f 72cc e274 4e7b 3a3f
000001a0: b6ce d452 6e7b 3abf 05c7 b431 58e0 193f
000001b0: 5f2a 3dbc bb06 363f b235 c99c 0584 3a3f
000001c0: 535d 3174 f183 3abf d2e8 20f1 6a7b 3a3f
000001d0: d66b c86e 9706 36bf 83e6 8993 78ed 1cbf
000001e0: 4d64 76f8 2aed 1c3f 6c1a 991e 1307 1cbf
000001f0: f6a8 d159 9306 1c3f 9ade 09be ad06 363f
00000200: b61a a32f 5fe0 19bf 7f9f 8f42 c606 36bf
00000210: 2000 19be 727b 3abf 323f 552a a7b9 1a3f
00000220: 7008 905c c506 363f 20ae 674e 4107 1cbf
00000230: 61e1 4901 797b 3abf 7878 ff53 a2b9 1a3f
00000240: 1f08 7f99 8d67 3a3f 12c2 eb39 157f 1c3f
00000250: ce63 c8f6 bb06 1cbf d586 5c14 cf06 36bf
00000260: 524d d989 8467 3abf 4992 f784 cc06 36bf
00000270: 6276 9c7d 017f 1c3f 22d0 7470 ef7d 1c3f
00000280: 6fee eacc 667b 3abf e257 4660 3de1 193f
00000290: b0e4 afd0 3807 1cbf 6c71 5ecb 41e1 19bf
000002a0: 8ee8 96b7 b5b9 1abf 1310 d6cd af06 363f
000002b0: 0f33 cf9e ad06 363f dd7e 3e0e 9106 36bf
000002c0: 135f 92ad 717b 3abf 2643 d53a d1f0 393f
000002d0: 0cd2 269c 0180 1c3f f28d 3a27 bc7f 1c3f
000002e0: 560b 806e f983 3abf 073a 528f a683 3abf
000002f0: 4697 69b5 9e06 1cbf f623 52f5 987b 3a3f
00000300: d8f9 a2e8 3b07 1cbf adc9 6f47 057b 3abf
00000310: c666 bdb4 6c7c 1cbf ec6c 2ef1 a47d 1cbf
00000320: 7cfe 3b5d 617b 3a3f e280 af64 017b 3a3f
00000330: 74c8 2c36 5883 1c3f 9ac2 2900 617b 3abf
00000340: e711 d23b 0782 1c3f 26d3 af18 9406 36bf
00000350: 5c50 fb57 c806 363f 5999 a601 9706 36bf
00000360: 116e e810 c006 36bf 539c cb73 fd66 3a3f
00000370: 2b47 80db 9006 36bf 4721 5f20 ff7a 3a3f
00000380: 7731 c878 f47d 1c3f 16fa 39cd 597b 3abf
00000390: 21f3 5884 bd7f 1cbf 32d2 498f 997b 3a3f
000003a0: b10b c514 a206 363f f488 178d 707b 3a3f
000003b0: 2457 3814 b4b9 1a3f 8e3d 154a ae06 1cbf
000003c0: b020 fd14 fe81 1c3f af48 777f 50ed 1c3f
000003d0: 1e01 c7de caa9 3b3f 24b6 1355 60e1 19bf
000003e0: 7eca 6de1 80a3 2b3f a4d9 f13a 4407 1c3f
000003f0: f314 9e7c 627c 423f c032 a29d c506 36bf
00000400: ecdd 2957 f406 36bf a780 f6e9 a9d4 22bf
00000410: a71f db0d 7107 363f 7778 c138 5295 1d3f
00000420: 1b8f a327 a846 3abf b990 26cd 504f 1abf
00000430: 2a0e e5ba 8f60 35bf ccac 17e1 4d7b 3a3f
00000440: 71ca 2650 d3b7 1a3f 4db2 6fa8 5b7b 3a3f
00000450: a720 2050 8c67 3a3f 60f0 ca21 584c 1a3f
00000460: 4e7a 530d d99a fcbe 6699 086b e0ec 1c3f
00000470: 0d07 12b0 9406 36bf 3404 c64c fe83 3a3f
00000480: d734 213d 777b 3a3f 9815 dba9 277f 1c3f
00000490: d14d e05c 8f18 34bf 8c1c df2c f6b9 1abf
000004a0: fc47 c62d 2ee1 19bf c2e7 4579 fa7f 1cbf
000004b0: 9165 1e4f 3335 34bf be45 a358 2331 3b3f
000004c0: 9d3d 33b9 487b 3abf b109 98b7 b220 193f
000004d0: 31f2 34ef adb8 2a3f baf5 4844 c97c 1c3f
000004e0: d78d f71a c7f0 39bf 82b0 c013 057b 3abf
000004f0: ebf3 4351 9eb9 1a3f 926d aaf9 eba2 40bf
00000500: 1f82 0104 41ed 1c3f 3c4f 4e0e f083 3abf
00000510: 3fd3 9143 cff0 393f 69a3 3376 927b 3a3f
00000520: 6e76 0854 1880 1c3f 0bba 9e7d 48ed 1cbf
00000530: 43b2 c8b5 777b 3a3f e5ea 6f54 2b67 3abf
00000540: d085 ecb1 1882 1c3f bd6d 0701 4a7b 3a3f
00000550: a601 3c31 7380 1c3f 98e5 d16f 927b 3abf
00000560: 7b60 03f3 577b 3abf b4e2 c107 0084 3abf
00000570: 0655 3ebe 0784 3abf 7acd f2e6 0a7b 3abf
00000580: a699 60ef f906 36bf 14cb 2319 aa06 36bf
00000590: f213 aaea 927b 3a3f be0c 2ce6 597c 1cbf
000005a0: c1a9 e84a 717b 3abf f26b 776f 707e 1c3f
000005b0: e7cf 63e2 0407 363f a053 3aac 5c7b 3abf
000005c0: 4e4d d3bb 1182 1cbf c7d4 33c6 5a7b 3a3f
000005d0: 36cc 463c 9a06 1c3f 76ae 11a8 8a6d 3abf
000005e0: 0667 1937 fc83 3abf 9cba 7b1f 857c 1c3f
000005f0: f625 de8d 027b 3a3f b05e 65e8 5c7f 1c3f
00000600: 445e be82 d7ec 1c3f cb42 de74 d6ec 1c3f
00000610: 197a 5f0f 567b 3abf 518a 1224 c706 363f
00000620: f09b 3dd2 e283 3a3f d15a 7d18 8e6d 3abf
00000630: 4dac 3d63 1682 1c3f d509 7778 767b 3abf
00000640: bd18 a01c e183 3abf 0993 1aca 8e6d 3a3f
00000650: 6465 966e 0407 363f 4344 b284 9f06 36bf
00000660: d3e2 7874 38e1 19bf c145 5944 1682 1cbf
00000670: f25c eae4 2aed 1cbf 124f c99f 507c 1cbf
00000680: 9375 2819 9a7b 3a3f b863 8d39 b006 363f
00000690: aa61 c3c6 fc83 3a3f 90b7 c43f 1f82 1c3f
000006a0: 73ee 7e36 fa83 3abf b8d0 e870 6c7b 3abf
000006b0: 1c14 1886 bf06 36bf 52fa cfab 2b82 1c3f
000006c0: e2e9 49b7 7683 1cbf 08d2 e6d6 3807 1cbf
000006d0: 02a7 b1c9 0484 3abf 1672 b7a9 7067 3abf
000006e0: d492 8b69 9db9 1abf db04 6903 9206 363f
000006f0: 00ac ab47 a683 3a3f 2768 0925 8767 3abf
00000700: 600d f2b5 4bb8 1abf bb59 34bd 667c 1c3f
00000710: 98a1 069d a27f 1c3f 0bb4 2ed5 9406 36bf
00000720: d9c0 97db 0fe1 19bf d758 8c9c a806 363f
00000730: 914b 52a2 a006 363f ed90 49fe be06 36bf
00000740: bf61 3bd6 b006 363f 947e bd50 4b7b 3abf
00000750: ba5f 960a 4307 1c3f 7b79 ec66 c7f0 39bf
00000760: f8f8 deea 1807 36bf 742e c23f 0084 3abf
00000770: 5ac0 bddc c506 363f 4b99 385c f783 3a3f
00000780: 5374 c540 f983 3abf 1287 f31b 0207 36bf
00000790: e134 9c72 507b 3a3f 76a9 9001 9b06 36bf
000007a0: 0489 0d8a 437b 3a3f c989 218d f083 3a3f
000007b0: 2e2a 75ce fe81 1cbf b63f 3249 e7ec 1cbf
000007c0: e430 af59 37e1 19bf 67ff 2e15 a27d 1c3f
000007d0: b700 50ee cdf0 39bf 24dd fa94 927b 3abf
000007e0: c9f2 13d6 e183 3a3f ae6a ed30 c606 363f
000007f0: ea92 4c13 f183 3abf abbf 9a36 d3b7 1abf
