Code/Models/run_20251101_014640/model_hidden_5_width_22_act_LRELU.npz (npz, 18166 bytes, 6 tensors)

w0 f8 [2, 22]
00000000: 3de1 f3ff c260 f6bf 20f5 e733 e36d 06c0
00000010: c2f8 e911 b79d 13c0 c5e9 e163 60d5 16c0
00000020: 10ed 26d2 b135 12c0 fea6 2f97 55ac 1cc0
00000030: 3b60 5751 6cc3 1fc0 b171 9f33 55c2 0f40
00000040: 9cbd 20f4 dddc f23f 6d1f b5ca 339b 02c0
00000050: a113 878f b45c 1fc0 b165 9299 17c5 efbf
00000060: 7fb5 91f1 7818 04c0 449a f0c0 18f3 00c0
00000070: ec66 b33d e2a9 923f 0ab2 8718 070f 18c0
00000080: a14e 6668 6f6d 0340 39bc d33f c634 f13f
00000090: dcbe d34c f101 d5bf c22c c107 6cf1 f03f
000000a0: e352 30ad 0ecb 04c0 cccb 4e7c 6dcc 10c0
000000b0: f533 77b5 bc45 edbf 303b 946b e8d4 d63f
000000c0: 267c 64a2 19a4 b93f 51cc adbb a4a9 aa3f
000000d0: 6e7b 69a6 47bd a03f 3923 caf0 da93 b13f
000000e0: 1bb1 d499 b7c7 c73f 3628 a607 373e 04c0
000000f0: fa84 e72b 583f bfbf edcb c805 21fb 00c0
00000100: dc2d 3345 b015 b43f f515 a6fa bc9d e6bf
00000110: fd97 e923 2f29 943f 900c b912 6898 8c3f
00000120: dcd0 874d 0563 e6bf 2c5b 9967 6f24 843f
00000130: 7fb3 7742 bb2d f8bf 3c83 2db7 3728 06c0
00000140: c548 9670 b9b9 613f 5a47 b3ab c3e3 d2bf
00000150: 3d86 0de7 4ec2 be3f eba5 6e46 300d 91bf
-1.3986234663153276 -2.803656011120111 -4.904018669038296 -5.708375511802335 -4.552436145425659 -7.168295252116648 -7.940842886884691 3.9698890717538338
1.178922608971198 -2.32578237881892 -7.8405325342363605 -0.9928091048670266 -2.5119494316665505 -2.1186995576311194 0.01822618009177905 -6.014675505907244
2.428435149786154 1.0753843777890906 -0.32824356558465495 1.0589409163392678 -2.5991490869877096 -4.199636404332477 -0.9147628349543299 0.356744866426129
0.10016021933232419 0.052075527105352244 0.03269409090420693 0.06866234186794608 0.18578238497992391 -2.530378398664676 -0.12206030914196112 -2.1226215793517356
0.07845594109965454 -0.7067551513179625 0.019688355032847927 0.013962567397476172 -0.6995874895351579 0.00983511958035662 -1.5111649128332088 -2.769637518955646
0.002163755595298774 -0.29515163200004724 0.1201524080365965 -0.016651872919885163

w1 f8 [23, 22]
00000000: beb5 6b84 fb2b 0dc0 f428 05b1 78ef febf
00000010: e1d6 f134 7301 12c0 dd49 aed3 fb19 fabf
00000020: e067 55eb c4b7 11c0 731e 29b7 649c 11c0
00000030: 89c8 67ef 8e39 20c0 a9d1 1842 b586 0ec0
00000040: 87e8 15f2 5df3 f93f b32c fba0 de23 0fc0
00000050: b1e6 eea2 6fa8 03c0 fe98 7e5c 5ef2 00c0
00000060: 2929 8775 4335 1fc0 6ad4 ffce 227f 07c0
00000070: f50f 9638 8162 02c0 40ec 7887 3d10 20c0
00000080: 793f a51e 0e90 12c0 5be3 181e 2f20 04c0
00000090: 6723 3b40 6151 f6bf fab7 4ae2 4ed5 e4bf
000000a0: 7b95 5bdc d79c 1bc0 8406 3003 b5da f7bf
000000b0: 3cbe d291 872b aa3f a2d8 ac55 6dd6 f9bf
000000c0: 8dd1 1111 201f ec3f 7f4e a611 f3da f7bf
000000d0: f7e3 ed5a c256 e03f 2140 e86d fadc ddbf
000000e0: 5c62 5689 e428 a03f 5bd0 210e b20e da3f
000000f0: 6b48 3e10 565f da3f d94c e2c5 adc5 ca3f
00000100: 3e75 6440 611b f8bf 426a 7497 3359 d4bf
00000110: f7a5 cdfe 0713 de3f 9526 9751 1615 02c0
00000120: 09f0 c868 740e e6bf 13ed 4a1f 533f d4bf
00000130: 6790 fad0 3e25 b23f 9e3a ccd4 4ad7 e03f
00000140: 42d9 1a2a 6244 f1bf d900 b120 0cc2 f83f
00000150: aeb8 7f31 25a1 b5bf 1c77 115c 6471 9abf
00000160: 746a 4cc5 d273 04c0 a315 74aa cb75 f0bf
00000170: 65a4 256c 1c5b 0140 616b f485 0e5c b0bf
00000180: 5f7e 28e9 96de 0540 1ba9 f127 376d fa3f
00000190: 4098 3358 3a34 0540 7c7b 66a1 29db 0d40
000001a0: 5c36 9766 044b fcbf 3aee 9d3e 9ce7 0040
000001b0: 3918 a510 61bb e8bf 25fd 9973 db64 ffbf
000001c0: c47a 0cfc 65d4 0640 9116 ca19 e4e4 f2bf
000001d0: 4403 296c 6db5 9a3f 6e9c 3550 a3f3 0340
000001e0: 3783 63fe 1de9 ff3f 7665 d9bf 0239 fc3f
000001f0: f3d0 d4a8 e869 cdbf bdc8 e0a2 cb47 e9bf
00000200: 1a7c f162 b027 0840 379f 29b7 9b41 f8bf
00000210: 1682 5f06 7359 da3f eb8a b774 08f9 d53f
00000220: 5dad 0548 d1f7 e63f ab8d 6eb0 dad6 fe3f
00000230: 4e00 c83c 34b9 e5bf ff17 d86e 4b73 e7bf
00000240: e5cb 61d6 a909 f33f 82fb 3cd0 ee79 fcbf
00000250: 2d94 414f 0cc5 a5bf 9a20 5330 facf c8bf
00000260: 9017 8594 2df0 e8bf 2b89 af50 94c7 f3bf
00000270: b69c 25bf 512f ecbf 0076 655c 833d 03c0
00000280: 84d7 8073 e3e4 f13f 3add 16b8 b9ba e43f
00000290: d00e 913e dc26 98bf c813 fed0 63e4 9d3f
000002a0: 37dc 5de7 e003 fe3f 58f3 df92 9231 00c0
000002b0: 4bc6 fbcf cd51 e2bf e5ec 6aca 2be7 edbf
000002c0: 5672 ba24 22b1 ddbf 6013 031e 8a5e f9bf
000002d0: 362b e6b2 44a1 edbf 50c0 a726 6ddc f13f
000002e0: 8ab8 7b00 cc15 923f 5736 9bf2 c4a3 dcbf
000002f0: d2d3 325f 6fc5 f73f 2db1 50fb 8a21 eebf
00000300: cda2 5513 82b9 f63f 3e2e 5737 325a a13f
00000310: 47d7 7007 3c7b f83f 1a6b 1e49 5623 aa3f
00000320: ba4f 770e a2d8 ddbf 8388 5d67 783b f2bf
00000330: 316e bf33 9407 edbf eb53 20b2 0d40 e33f
00000340: b845 281b df00 fe3f 7720 ff8d 24ad ccbf
00000350: e393 9c24 f912 f0bf 3165 3860 78bc bcbf
00000360: 37be b59e c762 0440 818d f3c9 09b6 d73f
00000370: 8788 6356 cd35 a9bf fbe3 f789 b3ee f33f
00000380: 939c c271 ba0d 01c0 212e ac23 c443 0340
00000390: d97a 671c bcb3 cbbf 0412 c177 5de3 f43f
000003a0: 4175 af3e d2e3 0240 2a43 ed28 0898 f1bf
000003b0: 568f 8a2f ef2a f3bf 1f03 47ec 944e f83f
000003c0: 2a75 82fd 6f27 fa3f 4f56 bd0f c4e2 d93f
000003d0: 3229 e19f 0064 d0bf a72b 1e6d 0f58 0ac0
000003e0: 0629 9bc0 8506 f63f c85f 1ee2 16e5 f5bf
000003f0: 856c dfc2 b5fc c03f 18bd 3bac 027a dcbf
00000400: 18f3 a809 1ac5 b43f 426a cacd 1166 d7bf
00000410: 3ff5 af02 04cc fa3f e7a4 7186 85da fdbf
00000420: 2f04 4168 8fac e03f 8408 1dc6 d97c d7bf
00000430: 084e ff0f cb36 d83f 0c95 ded0 d32e fa3f
00000440: f20f 74f3 3fc8 e5bf 1e7b 7c4a 4a1d d9bf
00000450: b2fe 6def 95ae e13f 8b4a 4c36 0e99 09c0
00000460: 76b9 ff1c f9ef dc3f 471a 7ce6 03e1 d9bf
00000470: 3b3b 934e da74 d23f b232 a16e 43ba e1bf
00000480: 7ff9 c7d1 4183 debf be06 c912 1d28 edbf
00000490: 1f31 fec7 0b23 e5bf dff1 ea27 4c8d eb3f
000004a0: fd7f ebd8 76e6 b03f 3d3e f3f7 778b f63f
000004b0: 0f66 c012 f419 df3f 5e34 97a2 e65f d03f
000004c0: 9896 10ac 17da c1bf c52a 9fb2 de58 f23f
000004d0: 3fb3 13a2 5ab3 f0bf 0906 12c1 53f1 eebf
000004e0: e90d 03d3 ea73 ccbf 5c6a ec18 e3b0 e93f
000004f0: a24a 24a0 5ad5 ef3f 4f2b b28e f67d e2bf
00000500: c65f 040a 2f96 f33f 479d fdb3 69c6 0ec0
00000510: 52a7 8e0b e348 f63f 594e aff8 3d3e e93f
00000520: acfe c9d0 50bf e1bf ded3 3f6f f985 cebf
00000530: 72a6 0be9 b0a7 f8bf 5666 98da f01e c8bf
00000540: 3e4c 78af fd62 d63f c327 cbcc 6783 de3f
00000550: 0c21 c9af baae ef3f 6c36 1a15 df3d d0bf
00000560: 7496 d935 3889 f1bf aeca 3aa2 657c f13f
00000570: b7a5 6209 86d4 fc3f 25a0 c467 b49e d03f
00000580: 6d86 5a89 3ca6 e3bf 1755 3f2c 41a6 13c0
00000590: d3ea 823c e7c3 f6bf e92c 6de7 0e9b e5bf
000005a0: 60b2 1657 3dc3 f3bf e21c 2075 8c30 fa3f
000005b0: 083c b462 b2b0 e33f ffc7 fd72 20ff c1bf
000005c0: 3c1e e9a9 85b3 06c0 80b1 e514 d7db debf
000005d0: 8b82 a733 5c78 ea3f dd7e 0d53 1168 ffbf
000005e0: 9885 a9ef aa5b e3bf 074d cc11 2359 09c0
000005f0: f835 5679 32c1 ca3f 3ef3 6c69 858c e63f
00000600: ee8a 78ec 4c9d debf e0d5 e83c 9b0d bdbf
00000610: 82e7 8133 83f2 cc3f 5f45 c0b8 b09a 04c0
00000620: 92b8 0298 1349 f4bf 2555 504c deef d43f
00000630: 8be1 2c21 68ad e43f 7ce5 2df4 98e3 e4bf
00000640: 4515 0974 8260 06c0 f124 b11b d061 dbbf
00000650: 6203 e64f 6a7e e1bf 1077 890c 0807 e4bf
00000660: f96b 78da a154 ff3f 0888 b747 f81a eebf
00000670: 81aa 476c d6f6 c43f d730 6c64 6594 f9bf
00000680: c16a 3764 5751 99bf 9d4c 4609 9836 d03f
00000690: 16ba 752a 88d3 c23f 0d5e 610a 0f4c d4bf
000006a0: 65a2 6105 4525 02c0 2807 d718 03f3 fabf
000006b0: 3c15 9891 5afc f2bf c0c2 3904 72e7 e3bf
000006c0: bd26 f329 08c1 03c0 72ee 2b23 0936 f5bf
000006d0: 695f a709 15bf ebbf 35b9 d12e 7a3a f53f
000006e0: bf1f f603 4c26 e2bf 8c58 4dec 8e95 eabf
000006f0: 7c3e e9fb dd37 f73f 9666 503f 7ac7 0040
00000700: 8140 bb75 4fbb d83f d63e 1cee 4c8c fabf
00000710: 76a2 2f94 c785 f0bf 7819 5af7 a195 dc3f
00000720: 2fe9 94df 6f96 fbbf cf09 c51e 6463 cc3f
00000730: 172d 91ce e69a 01c0 f296 4392 1627 ffbf
00000740: e357 f462 cf82 ebbf e215 dd97 ca14 10c0
00000750: 1edd 4435 75b8 e3bf 6f31 06fe 6e7d f2bf
00000760: f629 e29e b8b6 f23f aaac 6fdc 6947 f8bf
00000770: e189 5281 0a95 fbbf c6f5 cbb4 230f 0bc0
00000780: 71a7 2ef7 2ed1 fa3f e261 6d6d 9893 fdbf
00000790: cdfd 23e1 c969 f6bf 8875 0a1d b787 d53f
000007a0: d206 a48a 68b8 0940 142e 06d6 c9a9 f43f
000007b0: 41af ea04 185c eb3f bd2a 506f 27c2 d43f
000007c0: 4c42 94a5 9c1e da3f dc83 cee7 64eb f0bf
000007d0: 4c74 2c5d 9e17 e63f 0380 a066 342b f03f
000007e0: 8c6e 1d8f 438a f4bf 0cf9 626e cad4 e2bf
000007f0: 9c13 918f d48f f93f 2ed9 247e fb81 da3f
-3.6464758248682463 -1.933464709744439 -4.501416041622833 -1.6313436764509028 -4.429462124908213 -4.402727949032498 -8.11241863386046 -3.815775410063186
1.6219157654254859 -3.892514474549523 -2.457244179645237 -2.118344042409375 -7.8020151485200495 -2.937078110868744 -2.298098032073535 -8.031719430457201
-4.640678862415251 -2.5157148696274994 -1.394868136312846 -0.6510385913622934 -6.903167193498457 -1.4908952831760027 0.05111335425442262 -1.6148503634154072
0.8787994702711771 -1.4909544648589017 0.5105907226526359 -0.46661244137885843 0.03156198669893648 0.40714694385611033 0.41206885896929774 0.20915767824462853
-1.5066845431641265 -0.3179444293070085 0.4699115742028818 -2.260296475816015 -0.6892644926624608 -0.3163650327293947 0.07088081933994915 0.52628079950394
-1.0791951794358998 1.5473748471268236 -0.08449013193578267 -0.025823181266210957 -2.5565543569512617 -1.0287586839998333 2.1694878052699544 -0.06390467424755066
2.733686276958721 1.651663929015348 2.6505019083734 3.7320129975700507 -1.7683147437523052 2.1130909816691004 -0.7728734326453895 -1.96212334782451
2.8537101451214273 -1.1808815963171677 0.026082715727400854 2.493963839183883 1.99441336985201 1.7639186376676128 -0.22979458087650748 -0.7900140935146492
3.0193793992944054 -1.5160176424778464 0.41170955297823875 0.34332476995602573 0.7177511603053223 1.9274546520108327 -0.6788579165586357 -0.7328240551876205
1.1898592352197224 -1.7797687658600982 -0.04251898257715712 -0.19384696349721225 -0.7793186093119733 -1.2362254287514343 -0.8807762845362024 -2.4050357073272153
1.1183809768531043 0.6477936358923337 -0.023585740393413712 0.029191550856484644 1.8759469068297798 -2.024205348452977 -0.5724858343293787 -0.9344691232176073
-0.463936363093841 -1.58558093760913 -0.9259360784647928 1.1163150320026212 0.017661273507592536 -0.4474956864549759 1.4857019156163358 -0.9415945919513767
1.4202900653128154 0.03389126706641975 1.530086545053068 0.051050850320470256 -0.46634723103238296 -1.1395191228589574 -0.9071751604746564 0.6015690306691089
1.8752127705414363 -0.2240338986723633 -1.004632132543741 -0.11225082730415605 2.5482323073590822 0.37048573228658915 -0.049238602443225914 1.2457766904246899
-2.131703270675254 2.4080889498634552 -0.21642257105755539 1.305509059705515 2.361240854005388 -1.099617156858765 -1.1979820115165771 1.519184992750702
1.6346282866209756 0.40446569001264704 -0.25610366452442 -3.292998173220855 1.376592399947698 -1.3684300263175704 0.13271209731360414 -0.44494692630446897
0.0811325334152112 -0.36560483071085426 1.674808512208372 -1.865849995776722 0.5210644756517747 -0.3669952807141572 0.3783443123076897 1.6364324721301413
-0.6806945567082023 -0.392412731876833 0.5525617290840812 -3.1997341386825773 0.45214679557729853 -0.40435884006766226 0.28838212655402956 -0.553987232278436
-0.47676129805031303 -0.9111466757678597 -0.6605280786621143 0.8609982280391327 0.06601660533806349 1.4090499578050093 0.4859590705032994 0.25585332754127943
-0.13946815396882495 1.146696756116101 -1.0437876063471803 -0.9669588824182834 -0.2222875147182173 0.8028426634585446 0.9947941901940178 -0.5778763567953805
1.2241659537594258 -3.8468813001415216 1.3927946521239005 0.7888479096531668 -0.554603965560053 -0.23846357280822778 -1.5409401992168594 -0.18844423936461635
0.3497919286321042 0.47677035331127743 0.9900792535127336 -0.25377633152752455 -1.0960008719934224 1.0928703629585175 1.8018856398215186 0.2596865666732831
-0.6140425379455344 -4.912357989659788 -1.422827946064605 -0.6751780052231001 -1.2351659204388383 1.6368527007305649 0.6153194358647633 -0.14059835066615275
-2.8376572870509147 -0.4821679786753279 0.8271924027322525 -1.96290714685886 -0.604939907160019 -3.168523921057957 0.20902090954443486 0.7046534594624985
-0.4783508595739211 -0.11348886715935391 0.2261508943082014 -2.575532382362027 -1.2678409517207325 0.3271404023410745 0.6461678169207955 -0.6527828950049037
-2.7971238198539674 -0.42784502701085986 -0.5466815529363027 -0.6258583302366976 1.9581621679305938 -0.9407922173234065 0.16378288542849265 -1.59872950770937
-0.02472435521290595 0.25333214669917387 0.14708044121967195 -0.31714225782113276 -2.2681980534001007 -1.684329125433985 -1.186609810568668 -0.6220026094943805
-2.469253852589502 -1.3256923078432945 -0.8670754612494253 1.3267766789318334 -0.5671749188777467 -0.8307566275859855 1.4511394348409388 2.09740113700975
0.38643251893245895 -1.6592530537781633 -1.0326610363501039 0.4466328540369413 -1.724227784505796 0.2217831754915793 -2.2006355417303314 -1.947043010085903
-0.8597180302338042 -4.020304081791865 -0.6162668266687523 -1.155623428613662 1.169609661711204 -1.5174349413671657 -1.7238869716317071 -3.3823923229926747
1.6760701804691645 -1.848534038019459 -1.4008272928766587 0.33640840374013026 3.2150431472117385 1.2914522514646523 0.8549919219999326 0.3243502223055364
0.40811840219342765 -1.0574692778538894 0.6903831310079425 1.0105480202546466 -1.2837558355740013 -0.5884754329670456 1.5976148231577332 0.41418349570030244

w2 f8 [23, 22]
00000000: ff3c 0887 0179 f03f 1692 413e 7a34 f6bf
00000010: 4fbb 3de6 5c39 1040 28d1 c694 0c50 f8bf
00000020: 0bc1 a6b1 b01c 10c0 268b 3ffe 126a e6bf
00000030: 5a01 82fa 4e04 f5bf cbc3 2aec b112 14c0
00000040: bf14 c4cf e3d0 f33f c4ff 6f05 6e1e fe3f
00000050: 2360 7291 01c3 dabf c4b8 7e42 4610 02c0
00000060: 0d63 0c55 aa2d f8bf f572 19f5 8173 f7bf
00000070: 5f36 7fb1 af1b 0dc0 a21a eae3 2090 00c0
00000080: d132 d281 5cc3 f93f 8642 769a 69c0 00c0
00000090: 9717 8ede ccdc 0bc0 d6cd a4e0 14b5 07c0
000000a0: 7297 35ab d15f febf 11e1 1849 fb0d 09c0
000000b0: 18b4 327c 1c10 0040 73ba c685 0283 f23f
000000c0: 6163 302b 2334 8bbf 52d4 1b3c bc0a d03f
000000d0: 86c3 f6a4 29f3 e3bf 1a23 f4c8 76ce f13f
000000e0: fd83 dbcb 4029 e1bf d44c a0e1 8749 f2bf
000000f0: cbb3 7af6 5c3e c53f 89f3 b45b aff0 da3f
00000100: ed65 3d1c 2d5e 0240 16f2 f2b0 d172 e13f
00000110: 0121 7e00 6033 f33f 5c0b 1a61 c423 e1bf
00000120: 67d4 2bb6 449b 943f fe3d 7457 7025 0440
00000130: 59e9 6e03 cd48 f03f 3092 65f2 96da c1bf
00000140: b9c8 51c8 5194 fb3f 9060 b709 a9fd be3f
00000150: 5d41 12a4 7ae9 c23f b7fe a27d 663a e3bf
00000160: 7974 2b60 95c0 fa3f ab52 fd43 52c3 d23f
00000170: 18d5 1173 a032 fc3f fc9d 8b9a 210c f6bf
00000180: 5c17 b9e3 e4fc e03f e0cb db74 6f96 e8bf
00000190: 22d2 39c0 bf50 f33f 46f9 05f5 7b54 f1bf
000001a0: bb5b acc0 18b6 ef3f 00de ca90 21e1 f73f
000001b0: 2028 d953 686b a4bf b058 d864 4787 d9bf
000001c0: 7210 0491 b696 f1bf c419 065d 2cb9 fabf
000001d0: 4bf7 107e cfcc e2bf 53b8 50ad c1f2 f33f
000001e0: 5b10 8aab ec79 0f40 c4f2 3f5e 6cd9 d53f
000001f0: 7377 1ac6 114e e13f da9a e119 49dd f13f
00000200: a1be 50aa 7eb7 f63f 222c 1bf7 36f1 fdbf
00000210: bd97 0499 9ac5 e7bf 5531 e5e7 c8b4 e53f
00000220: 8b9f c8f2 9df3 d43f 3233 1ab7 777b f2bf
00000230: f7b5 297a 9133 e7bf e157 f8d6 9334 0ec0
00000240: f9f0 9053 44eb f33f 3ec5 8ed5 62bb f2bf
00000250: b408 9097 98b8 fabf 383d e008 4bea 09c0
00000260: 5c48 cc18 9598 fa3f dc88 2e91 5d3a 0bc0
00000270: bd26 74c2 6739 f0bf e9cd 5a26 b120 ed3f
00000280: 2a6e 166f 3c5d d5bf 7ebd 0393 4d88 e8bf
00000290: e2b5 afef 2789 cd3f 3ae8 69c8 ba3a 04c0
000002a0: de90 caa0 0448 e3bf 5563 3838 8333 fbbf
000002b0: d1a6 b655 f63c fabf 1fcf 68e0 e640 db3f
000002c0: 9d82 eb8e 81be c5bf 2a86 5a7b 1be6 f0bf
000002d0: e54a 21fe 881b dc3f 0ed1 0313 4592 04c0
000002e0: 6629 622e b9b5 da3f 31e9 7637 e3b0 e7bf
000002f0: e864 4626 dac0 e73f 2d73 8aaf 951e c03f
00000300: 9617 8cd2 bd50 edbf 4a8e cdf4 070b debf
00000310: 3d7d ed1c 44af de3f e680 7055 3d97 e2bf
00000320: 0a33 23fc f347 01c0 8dca fe65 3a91 e53f
00000330: 68aa 4b28 8950 e3bf cdc7 86bd c97e ee3f
00000340: 3352 72a5 48e8 c5bf c308 c4b2 08aa bdbf
00000350: 619a 0fb1 fe96 09c0 f5e2 7ea7 cf13 b03f
00000360: 0ddc 2875 785d 69bf 53d3 9554 a742 d8bf
00000370: 175b 6260 65d8 f7bf 0045 87ab c600 fdbf
00000380: a9cf 3dfa 927a e9bf 0a39 e489 bf16 f3bf
00000390: 09ef 31b4 0a5c ed3f b5f1 6c19 8f2a f0bf
000003a0: 7cbf eaee 0269 ee3f de75 9503 4f6c dabf
000003b0: 9bca fe27 3e00 fdbf 94ca 7974 f38c 06c0
000003c0: f4c6 b939 33c2 993f f0ff 49bb 1ade e3bf
000003d0: ea5d 7071 47ed f63f 02e6 d71a 6d32 f8bf
000003e0: ec5d 3893 6f33 cebf 0a1d e02e 7c90 d03f
000003f0: 0d95 6eea 3ceb ffbf 8247 2956 5481 cabf
00000400: 0557 75de 797a e7bf 4429 30eb 66c4 00c0
00000410: d3b5 dc78 f43d f63f 9a3f c898 65d9 c7bf
00000420: 0719 d707 be37 fc3f 70ab fded 1d0c 08c0
00000430: 0456 d949 9b98 f03f a4ff 1f18 6763 f6bf
00000440: c6f9 78eb 2c47 02c0 e995 8106 e1b6 ffbf
00000450: 5cbe d3a9 5cb5 f7bf eb0c fc2f 2b77 03c0
00000460: 2fb4 4a87 7277 fdbf 80dc a70e 761c e4bf
00000470: 8353 de2f 575c f5bf 6a39 6ffe eda6 eebf
00000480: 9896 afab 2256 e53f 57c9 2209 b318 e9bf
00000490: cd46 09a9 2d11 01c0 be29 4de7 d9a9 d43f
000004a0: 1c4e e942 9e24 f6bf fef2 fbba 38a0 02c0
000004b0: 7c87 0eb1 1133 00c0 d316 1d56 d208 03c0
000004c0: 2716 2ce5 1b73 11c0 2327 7ae9 bb61 df3f
000004d0: 7d5c e829 889a cbbf 8611 8128 1233 f9bf
000004e0: 277e 5dbd 373b 0ac0 7129 6baf f081 15c0
000004f0: 9921 a195 29ee fcbf b8f9 afb1 f421 e23f
00000500: c6fa ebaf 5f23 f6bf 4df5 1da1 3dc6 b53f
00000510: df47 3fb4 dd43 0ec0 b08c fbf1 489e 00c0
00000520: f0c3 a3e4 7edc ddbf a9ad 7893 7686 0fc0
00000530: aa26 2ded ad51 babf f745 7278 61a8 c83f
00000540: 57d8 6170 7f50 f0bf 4bfc 18ee b2b4 f5bf
00000550: 4855 08a1 c66c 0ec0 9731 1220 2fb2 07c0
00000560: b9bd a5fd cb8a 0ec0 5424 51b4 6717 0ec0
00000570: a883 1710 722a 00c0 2bd2 ec8e f0bc c6bf
00000580: 1ccc 0ee6 eb2d ec3f 02d8 8f35 b4eb e5bf
00000590: a40a 0a72 0858 f13f d970 373c 995c ef3f
000005a0: f8e6 dd73 994e f4bf 0d4d c07c 8e84 00c0
000005b0: f7b7 27da 1c6e d33f 5658 584a 866f c6bf
000005c0: 3843 e8b4 a2ff 10c0 c262 ade7 4bd4 0ec0
000005d0: 1513 4721 b165 e3bf 8f7e 95c8 e621 01c0
000005e0: 8e07 43a7 c397 e0bf c09c cf05 46d3 d53f
000005f0: 2673 f7de 837f eabf f000 2689 7171 e8bf
00000600: 6ac2 ea15 2ae4 e53f 3dc5 dc8c 898e f0bf
00000610: 2e61 4da8 b155 f1bf bc16 1079 a793 04c0
00000620: c62d b279 f3e9 ffbf 49ec acf5 147f e23f
00000630: 5c20 113b b620 f1bf 4996 5520 a120 df3f
00000640: 0685 c505 1c1c cfbf 4948 ff41 497f e43f
00000650: 75cc 752a af33 f13f 6976 70a2 6dd7 fb3f
00000660: 42bb 3458 20a3 d5bf 3d03 93f3 d7b1 f9bf
00000670: 09e6 9f64 2001 e93f 9422 4004 3ead dd3f
00000680: 7a5b fcb6 60dd e53f 4816 ec31 7321 f13f
00000690: 42c4 f430 02a5 eb3f 2944 bfd4 f373 0bc0
000006a0: 2043 3f3f 9f05 c33f 526b 33c9 8e2f f13f
000006b0: 0827 c082 6334 0d40 a7fd a946 b784 f03f
000006c0: 74ee 6bf6 1617 e93f 292c 2a8e f1d5 cd3f
000006d0: eb92 3af4 f227 ee3f f337 f706 a142 dfbf
000006e0: a2f9 f2d5 fe89 af3f 7f8e 91b8 7e42 d23f
000006f0: edad 4d8e da26 01c0 4e93 b711 6b4f 01c0
00000700: 7267 a924 e612 f8bf 49f4 dace 5cfb 04c0
00000710: 1cfd 2bd7 6120 f2bf a83b 023d 08bc d2bf
00000720: c290 f43e e6be f8bf 2ef4 beed 3625 fbbf
00000730: 0c29 dc7b 2bed fdbf 7151 6ad9 ce05 04c0
00000740: 5e68 f0a2 e2f2 e8bf 12fd 47d3 eb5f da3f
00000750: 0fef 19ab a4bb f6bf f2f1 b39e 4061 e73f
00000760: e4cc 0966 ee44 f1bf d013 6d31 27a9 e7bf
00000770: 7e02 94be 29b7 0ec0 bec9 38ff 94e0 d0bf
00000780: 6aa3 b72e 114e f1bf 10ff 6cd9 97c5 c93f
00000790: 640b 23c1 0c23 b8bf 6a45 5e33 aff4 b43f
000007a0: 3563 3475 5486 fd3f 1c47 44de 721c e6bf
000007b0: ad15 da37 6acf c13f 6322 a2d8 592c e4bf
000007c0: 98eb 6174 df38 f4bf 6a4c 78ca 7dbe d53f
000007d0: da49 097d 21f1 f23f 4544 707d 6ca3 fa3f
000007e0: 0b79 6c5b 4eda e53f 5890 3375 743b 9bbf
000007f0: 2140 19cc 5b41 ebbf 864c 2402 a7bc c1bf
1.0295424723333892 -1.3878118926887786 4.056018445508768 -1.5195432483279294 -4.028017783930646 -0.7004485097680557 -1.31355188231108 -5.018256845579297
1.2384985080582707 1.8824291431810574 -0.4181522293451982 -2.2579465098307043 -1.5111487695887178 -1.465700108928272 -3.6385187022158756 -2.0703752332513696
1.6101956435333487 -2.093951422437672 -3.482812632285412 -2.963418726949139 -1.8983933151116301 -3.1318269453732985 2.0078668311093786 1.1569848275791201
-0.013283037906192953 0.25065523023596825 -0.6234329435302335 1.1129062509300582 -0.5362857801047763 -1.1429518521807056 0.16596567187425956 0.4209402461599941
2.2959844785916546 0.545266004184273 1.2000427264447924 -0.535616101886585 0.020123551958893062 2.518280680880479 1.0177736410247091 -0.1394833262994708
1.7237108063678035 0.12105804908003592 0.14775021563810756 -0.6008789495317249 1.6720174557333662 0.29317146911243225 1.7623600478085049 -1.377961734478844
0.5308708617892353 -0.768363693465627 1.2072141178915747 -1.0831260272239702 0.9909785998487374 1.4924636512713505 -0.03988195441759523 -0.3988817677321874
-1.0992952027018217 -1.6702083238356957 -0.5875012838584807 1.2467667360429189 3.934533443594814 0.34139546588975755 0.5407799596029988 1.1165247927653383
1.4197985318132071 -1.8713903095802 -0.7428715695029876 0.6783184556202665 0.327369200795595 -1.1551434662280369 -0.7250449548716337 -3.775672606901012
1.244938208036784 -1.1707485525224253 -1.6700673981108993 -3.2394009297783235 1.6622515648528156 -3.4034987776113734 -1.014014968476132 0.9102407216182061
-0.33381567810440294 -0.7666385527972321 0.23074816897808065 -2.528676572544126 -0.6025412693457175 -1.7000763126472596 -1.6398833606894423 0.42583629527074324
-0.16987628439439542 -1.0561785524845484 0.4391806108225594 -2.5714208112277737 0.41734151391633245 -0.740342720345586 0.7422915217931889 0.12593337127045726
-0.9161061393976861 -0.4694232836393196 0.4794473917481417 -0.5809618633975588 -2.1601333330385204 0.6739780418486859 -0.6035810267470199 0.952977056664389
-0.17115123823590891 -0.11587576259992986 -3.1987279732596083 0.06280229415177614 -0.003096328038079138 -0.37906821499136817 -1.4903310551650912 -1.8126894665077202
-0.7962126624611204 -1.1930537592302835 0.9174855727610246 -1.0103903763948499 0.9503187815043783 -0.4128606352804506 -1.812559276801642 -2.8188237285297166
0.025154877088829644 -0.6208623559941753 1.4329294615944215 -1.5123110817497722 -0.23594469727025513 0.25881867005996695 -1.9949311406610974 -0.20707182128040463
-0.733700689782126 -2.0958994268486624 1.3901257249047958 -0.1863219257361351 1.7636089617022337 -3.0059164612807123 1.0372574696278898 -1.3992682402021979
-2.2847536464971396 -1.9821481947086517 -1.4817778238174446 -2.433187842254133 -1.8416619572483446 -0.628474262833052 -1.3350440854894436 -0.9578771562026251
0.6667645791282721 -0.7842650583682297 -2.133387871356581 0.32286689365414734 -1.3839399923061881 -2.328233204664115 -2.02493608785238 -2.379307434809428
-4.362411099258259 0.49034021187309146 -0.2156534390094044 -1.5749684889025004 -3.2789149088055356 -5.376894703784601 -1.8081451268099953 0.566644999547683
-1.3836361762948157 0.08505616363068676 -3.783137710744071 -2.077287569512542 -0.4665829880532888 -3.940655853386222 -0.10280882873953581 0.19263857251330282
-1.0196527852945303 -1.3566159535109985 -3.803113229815299 -2.962003946833828 -3.817771894093053 -3.7614282691252274 -2.020725370137786 -0.17764098147166982
0.8806056493107266 -0.6850224538927707 1.0839924292237493 0.980053536997299 -1.2691893125578968 -2.0647248979745485 0.3035957460805316 -0.1752784598363088
-4.249644114185507 -3.853660402277769 -0.6061635637239272 -2.141553465902525 -0.5185259119827934 0.34102011268118915 -0.828065810662882 -0.7638480833702754
0.6841020992342923 -1.0347991468846225 -1.0834213804537955 -2.572096772960178 -1.9946169618368557 0.578012924036906 -1.0704862887669355 0.4863665405049216
-0.24304533273519996 0.6405378617294072 1.0751182230567597 1.740094790009062 -0.3380814420115038 -1.6059188379878855 0.7813875165294927 0.4636988679417666
0.6832736562672459 1.0706664991461299 0.8638926464246952 -3.4316174145574405 0.14860907161939796 1.0741107806595278 3.650580426682499 1.0324013481439154
0.7840685666009919 0.23309153978002087 0.9423765916913828 -0.48844171219104665 0.06159969674762357 0.28530853294635244 -2.143971549745166 -2.1637784370563287
-1.504614012918378 -2.6227356110162288 -1.1329058079862255 -0.2927265735424336 -1.5466062983696678 -1.6965855872106306 -1.8704027975350668 -2.5028359399386138
-0.7796490843204642 0.41210456498079495 -1.4208113368649185 0.7306216334978315 -1.079328917109529 -0.7393985715249247 -3.839435089961909 -0.2637073986435573
-1.0815593552490221 0.2013425647401097 -0.09428481784111181 0.08185858730418763 1.845295389013882 -0.6909727421900445 0.1391423008646319 -0.6304139357681148
-1.263884977931161 0.33975167057469113 1.183869827673894 1.6648983859961544 0.6828986917132921 -0.02659398999539095 -0.8517283426572285 -0.1385697136362049

w3 f8 [23, 22]
00000000: 87f7 7810 04b1 e43f ce7c 3c7f cad3 9e3f
00000010: 8f92 e0ad fe5c f7bf 55fb 7c98 e9a8 0cc0
00000020: b6a4 5fb0 3462 edbf 5b87 92d1 9428 edbf
00000030: 4659 4693 46c6 15c0 e7bd a554 4812 df3f
00000040: 0e2d 8a84 9f60 11c0 bf55 e501 ad44 18c0
00000050: d309 2ba3 36d0 fa3f 5bb1 6dc1 c825 f83f
00000060: b7a8 fdd7 754a 1a40 ece6 ec53 4dff eebf
00000070: 7826 8ef7 e97c 12c0 e1d2 e24d 4680 dfbf
00000080: 66e6 c6ca 2533 01c0 fea7 fe13 efaa 04c0
00000090: 0691 9d6d 76a0 fdbf c179 8551 bd94 febf
000000a0: 465e 1e06 09c8 e4bf afa6 6d07 3c8b f6bf
000000b0: b5e7 69f3 e50b d7bf 7b57 7019 175b f03f
000000c0: 2c7e a074 27cc d03f 1b21 65f8 1fc5 d8bf
000000d0: 4d40 ebbe 60c1 d1bf cd83 3de9 095e f93f
000000e0: 569d 847e 2f75 d8bf c531 6343 e315 f0bf
000000f0: 5e0f cecd aa3e d1bf f9da 4fc5 8869 d13f
00000100: e9fe 2b09 be40 0840 e30c 308e 25da d9bf
00000110: 4cae 0cdf c756 f33f 46d2 e06f ff32 00c0
00000120: 14f4 9196 b732 b2bf cc6c b217 6499 ed3f
00000130: f31b 49da 5269 00c0 b736 cac2 e090 05c0
00000140: ff6f 57c2 c197 f4bf 8dcd 8b90 0d21 cb3f
00000150: d957 0aa4 4b91 da3f 05ba 3c22 2376 e8bf
00000160: b307 94aa e0a3 ec3f 6845 aa9e 1d67 f43f
00000170: e60c 5bad bb9b f23f 93e2 cad1 f295 00c0
00000180: fe06 7cec 631d fabf 663e f7b6 05b1 b5bf
00000190: 810b 5b82 7040 0ac0 4bd1 ba26 7466 bfbf
000001a0: f069 dbbd 4abd ff3f b256 d29c c2a7 da3f
000001b0: 8f3f 8886 c99b e93f dca2 b906 bcb7 c6bf
000001c0: 3284 0d6b ea0b e0bf 4b1b 5c12 618e d83f
000001d0: 81d8 4d53 0c57 f23f d1a2 fbd6 2d6a ee3f
000001e0: b3ae 5aca 939d f33f c593 7b2e 844f d2bf
000001f0: 8a5a b16d 7b16 e8bf 077a 7514 2296 e9bf
00000200: 9a8a 3492 006c 0140 271f 6077 d9b1 bcbf
00000210: cc37 9bdd f04a db3f 0cd3 7192 8889 aa3f
00000220: 9dfd 6ed1 e948 01c0 3bb7 bb2d fcd4 01c0
00000230: e5fc 5399 eb4b f7bf c75c bc50 9dfc f0bf
00000240: 8e5e ee9d 646c c73f 592f 6378 47cd b8bf
00000250: ac36 2ac0 75db e3bf 876c aec6 1e43 e2bf
00000260: e506 a19e 9dfa f3bf e214 dd5a 85ab fabf
00000270: c000 bd2e 0c07 f6bf 0e31 fe5d 329b f63f
00000280: 7fdb 9f04 1274 d63f 4aef 5b61 8a39 eebf
00000290: 822a fa40 118f a2bf 166a 0a12 ae64 d7bf
000002a0: fc82 1c50 151b 01c0 3f71 a590 343a 05c0
000002b0: b1c7 b1a9 7c9c e23f 7de8 92be 4f7a ebbf
000002c0: 880d 082e 0817 d53f 65f8 fc76 55c9 acbf
000002d0: 3399 bce1 3ff1 86bf 7a28 2bbc b7d2 15c0
000002e0: 887a b6ba 4748 c8bf 57a9 193b b1f4 f13f
000002f0: 8e55 daee 129f ffbf b6e7 1f40 4726 f1bf
00000300: 8f24 9386 8963 ff3f e5fd e287 fd59 00c0
00000310: 54c5 4181 e010 f33f 15fa 4f00 4961 f1bf
00000320: 684d 0827 924d e63f 0551 0b0d 2c36 e1bf
00000330: 19dd 17e7 201c e53f f377 aa54 3446 f2bf
00000340: 7cfb 7fb8 7c35 fb3f e16f 12ec 38cd ba3f
00000350: 5abb 8168 cde7 edbf 0fb8 3ab2 6bcc f9bf
00000360: 8cb7 5a7f 75ab b8bf 204c eb54 5bc5 ed3f
00000370: c10f 5182 6dcc d03f b913 1387 f878 fc3f
00000380: 9d02 e458 f456 f43f 02d7 3022 0273 00c0
00000390: 4fd3 e894 ed4b dfbf 04ef 7d3a 615e e4bf
000003a0: bc30 335f 5332 efbf f82d dda3 1280 cbbf
000003b0: b213 2c76 182f e13f 0925 e8e8 7170 e53f
000003c0: 2b12 a971 6d4d fd3f 210b be54 7acc e93f
000003d0: df1e 111b 1f5d f03f fca6 a749 6295 f73f
000003e0: b2cf 0d35 6d3d ddbf d5f3 c0c3 96a0 d3bf
000003f0: fe41 17d3 fddd d23f 6fdf 588c a079 e93f
00000400: 0023 4aee 16de 05c0 1b14 f353 1aad d93f
00000410: f2e4 03f4 21bf e1bf eb91 6ce3 8e73 0040
00000420: 7605 01bc 92cd e8bf 6a58 584f eb95 ecbf
00000430: 0aa7 3439 b14d d7bf b316 27f9 b936 e63f
00000440: 4fa2 c257 aa14 efbf d57d c96c 190b e1bf
00000450: 7781 cbda 6d1e e1bf 9dc2 08e1 dd85 f9bf
00000460: 3063 0729 3b4c d23f cbcf 75b4 2202 eebf
00000470: 5bee 946b a3c9 fd3f 455d 0401 7397 efbf
00000480: bb87 227e 6fae af3f 0b8a 383f 43f1 63bf
00000490: 974d e334 63e0 d5bf a8fc 9d56 1986 f63f
000004a0: 5337 490c 5318 c1bf 2d9c d46e 1278 e9bf
000004b0: d17a 1542 571f f6bf 8739 1635 d93a f53f
000004c0: b688 6d4c 805a f13f 1312 5649 b92f dfbf
000004d0: ab28 257f 7be8 d5bf c4af 2cb1 831a e8bf
000004e0: 4a35 3578 0357 f73f 9ba1 c693 1d42 e0bf
000004f0: a457 3e65 9cd8 f33f a3b6 c329 887a f13f
00000500: 67d5 6c5c 4d3c efbf e7a6 9cd2 59cd f03f
00000510: a903 13b9 42d6 d7bf a7c1 0f5a 0cb4 dd3f
00000520: 96f9 1cea 1f3b d53f 1b42 d0cb 7c15 ec3f
00000530: e374 172b d95b f83f 0e4d efec 0767 e1bf
00000540: 3914 df00 243a f13f 1f0f f155 7a3b d8bf
00000550: b41e 25d6 108d e33f f051 0300 4aa1 e23f
00000560: 99d1 dd2f dae8 eabf c988 fdfa 7c84 08c0
00000570: de39 4bc7 7ea0 f6bf eb4d d3f6 1dee e53f
00000580: cafe 3919 8769 0140 dedd cac2 b7fa f5bf
00000590: 6552 984b e629 e6bf 0944 2340 c093 f83f
000005a0: b699 ce9f cf4a c53f 5d33 0841 8318 fc3f
000005b0: baf0 3874 1d0b a4bf 745c 0228 ac12 eabf
000005c0: 9d3e 0067 e7d0 e63f cff0 d47a cf0d d33f
000005d0: 1177 4fa5 4394 d4bf cd21 4c6b ee6a fcbf
000005e0: 8a47 4e29 7e5e cfbf 7c8e 60e3 ef9d dfbf
000005f0: 8cd3 839d 896a f13f 90f0 1474 6952 eabf
00000600: 3d26 cc12 3fb4 ce3f 2955 a49b e78c f4bf
00000610: d235 aaef a913 e0bf c68c 74c0 9d3e 02c0
00000620: 34df 7224 cf77 d53f e651 d96a a5ba cf3f
00000630: 1327 b81d 5e48 dbbf dc17 f008 8419 e9bf
00000640: 47f1 ac4b 9efb eb3f 38fa 1f93 5b9c 11c0
00000650: 9ff9 4cdb 0122 f1bf e898 85e6 abbc e2bf
00000660: 7a6f 2a44 f281 f8bf 4535 6b3a 315d eebf
00000670: e79d ea3d 4a9c e1bf e0d5 d008 31a0 d73f
00000680: a77c b388 ea6b d23f 157e f0ae c52f cc3f
00000690: cec9 10c3 bec7 bcbf 57f0 ab8b 88ec d7bf
000006a0: a8f5 e79f 2a19 cd3f 57f5 de44 46df e23f
000006b0: fd4e 58c4 3f64 d2bf 2af3 6245 cdb5 fa3f
000006c0: 8e3e 551d a173 06c0 ea30 0970 aab7 e3bf
000006d0: 289f c87b bc61 ec3f 8657 e115 59e5 fcbf
000006e0: 33f2 d733 5ffb c63f 7135 64c6 9008 f2bf
000006f0: 06cb 31a8 b091 6d3f 8d50 f6d8 a9bb 18c0
00000700: 2a6e f3b0 e5f7 ccbf d491 d469 7499 a83f
00000710: b7d4 90b4 f856 f1bf 3d4b 74c9 cad4 05c0
00000720: 541e 4777 a464 dabf 3438 62d5 ce02 f6bf
00000730: dee5 23b4 356d a2bf c13e 4218 8051 abbf
00000740: ad89 1c34 fb96 f93f bc79 ca09 9500 f53f
00000750: d39e b11c 689d d43f d030 bc0e 1696 0840
00000760: a973 d3b0 d4bf c03f 1c7a 5da8 583b eebf
00000770: 6efa 533b 6927 05c0 812c 5f42 0f35 eabf
00000780: 8b3e 65ac 2af5 fd3f 791b 10c4 06de 0640
00000790: 831a 8fa3 e01b 893f 3b00 9068 a495 923f
000007a0: 1c71 3031 e5d4 e23f 8f98 bc0e 33ec e1bf
000007b0: b21a 8871 6009 d8bf 6019 9210 912d de3f
000007c0: 718c 175b 7e76 b63f ab0e a08f 92cd c1bf
000007d0: 8bd7 3c0c 1c20 e1bf 7ad3 18f7 8927 e8bf
000007e0: f19e 3c58 5769 0040 a484 11bd f3d3 cb3f
000007f0: ba70 f9a3 2439 e2bf 17f3 31ff 73fe d7bf
0.6466083833436053 0.030104793563734238 -1.4602038185195487 -3.582476798357144 -0.9182380146786702 -0.9112037747583871 -5.443628598374124 0.48549087778425676
-4.344358511861413 -6.067066220877165 1.6758333562616954 1.509224658565549 6.572715163094634 -0.9686648024719182 -4.62198626332394 -0.49220426183755533
-2.1499744264554463 -2.583463817795745 -1.8516754419188728 -1.9113133606366406 -0.6494183654312529 -1.40899279500665 -0.3601012112700304 1.022238826151322
0.26246057881687324 -0.38703154809310697 -0.2774278511469717 1.585458670706646 -0.38215243678356126 -1.005343688232743 -0.2694499025167171 0.2720663000940671
3.0316124645759044 -0.40393961797253847 1.208686705863232 -2.024901269958977 -0.07108638216045932 0.9249744856673714 -2.051427560192218 -2.69574119739158
-1.2870500174967672 0.21194619710841459 0.41511813182421303 -0.7644210499473166 0.8950045901876734 1.2751747320038138 1.163020779772347 -2.0732170476952176
-1.6321753728556696 -0.0847323962873304 -3.281464594272109 -0.12265706964064298 1.9837138572971718 0.4164892703496249 0.8002669932920855 -0.1774821312749485
-0.5014545527338952 0.3836901358885611 1.146251988798696 0.950461311234074 1.2259710220777549 -0.28610329188660116 -0.752744402164198 -0.7995767974460372
2.1777354643139235 -0.11208876766624752 0.426449028408453 0.05183054721502431 -2.160602222633044 -2.228996617594843 -1.4560352315309555 -1.0616734651319335
0.18299539290886851 -0.09688231171747698 -0.6205395463200225 -0.5706933861250868 -1.2486854740567932 -1.6668752240523692 -1.3767206025805052 1.412889830741793
0.350834373966272 -0.9445239926858247 -0.036247767621792285 -0.3655200172594574 -2.1382242449475353 -2.653420572327519 0.5816024126381675 -0.8586806032319739
0.32953075881251737 -0.05622355535022975 -0.011202334476888431 -5.4557790185300465 -0.18970581642948425 1.1222393330195553 -1.976336415308967 -1.0718452935093246
1.9618010765864573 -2.0439406028888123 1.1916203545664148 -1.0862512600139145 0.6969691049911662 -0.5378628020066861 0.659683657983723 -1.142139750219482
1.7005583960560378 0.1046939445827202 -0.9345461884639505 -1.6124073946080022 -0.09636625632512458 0.9303414019181027 0.26247728086695693 1.7795338894222665
1.2712291214267346 -2.0561564131884333 -0.4890092806047521 -0.6365209715290523 -0.974893270432879 -0.21484597207232503 0.5369989688921264 0.6699761914216263
1.8314032020435984 0.8062106757282416 1.022734742860784 1.4739706875938614 -0.4568741815667138 -0.3066765700967243 0.29479928602543726 0.796097063174768
-2.7334421745657664 0.4011903590983949 -0.554581619827472 2.0564248816974575 -0.7750943824723169 -0.8933006810864417 -0.3641169603966864 0.6941804758323172
-0.9712726320331714 -0.532604896998175 -0.5349644921625857 -1.5951823034667207 0.28590277678226794 -0.9377606892216986 1.8617281153118685 -0.9872374553550932
0.0618777123902556 -0.002434378949844223 -0.34182052769502874 1.4077390082818884 -0.1335548219671475 -0.7959072270067559 -1.3826515752222586 1.3268673013404582
1.0845950112784926 -0.48728782808055476 -0.3423146001483796 -0.7532366238060537 1.4587435432070657 -0.5080707441566575 1.24038352535488 1.0924150115419387
-0.976111107366404 1.050134489729709 -0.3724524314275706 0.4641142730243026 0.33173368322959484 0.8776229840023605 1.5224239047304813 -0.5438270213730065
1.0766944917716172 -0.378630241324787 0.6109699423331763 0.5821886062863637 -0.840924352158754 -3.0646915062544378 -1.4141834053913196 0.6853170224007362
2.176527211267829 -1.3737104043083188 -0.6926146961655603 1.5360720162755135 0.1663455515201357 1.7559845485986536 -0.03914730113726379 -0.8147793561391965
0.7130009662377749 0.29771792407315173 -0.321549331127117 -1.7761062804512335 -0.24507119194873567 -0.4940147133331505 1.0885101464202505 -0.822560049745805
0.2398756830009904 -1.284400566078441 -0.5024003678278695 -2.2805743251388746 0.3354375701851382 0.24788348881942496 -0.4262919702747336 -0.784364716965452
0.8744651296652045 -4.402693079783198 -1.0708025518830266 -0.5855311872844853 -1.5317251837468278 -0.9488760128967121 -0.5503283700281231 0.3691523157206955
0.28783667897909954 0.22020789186443382 -0.1124228693231892 -0.3738118518811055 0.22733052070536286 0.5897551865706799 -0.28736871885597265 1.6693852148448038
-2.8064596454276574 -0.6161701381875251 0.8869306962633106 -1.8059931616494125 0.17954626113341163 -1.127091193167271 0.003609509499761801 -6.183265104326108
-0.22631522312336588 0.048045766752952496 -1.0837332776402897 -2.728902410375126 -0.4123927273580865 -1.3756855330752957 -0.03598945449807521 -0.0533561734783894
1.599360660133793 1.312642133947164 0.32210734178668793 3.0732842589551197 0.1308542121322749 -0.9447444237119416 -2.644243682384789 -0.8189770027469337
1.872355149669519 2.8584113423743784 0.012260203353333004 0.018148964769352665 0.5884881935813016 -0.5600829398943165 -0.37557231032443916 0.4715311681578864
0.0877455685036226 -0.13908607495260603 -0.535169624234855 -0.7548265291321592 2.0514361279964466 0.21740576488358443 -0.569475479376272 -0.3749055854930687

w4 f8 [23, 22]
00000000: de62 820f 5d03 03c0 57cd 4666 6d70 e73f
00000010: cd37 8716 9fea 00c0 ee26 7f39 8a8c d63f
00000020: aa03 8440 a93c 1740 f43d dea7 b52f 14c0
00000030: 010f 02e6 1419 f13f 44cb 3203 8593 1040
00000040: 46ab d42d 9db9 0e40 9327 59a1 febc f13f
00000050: 162b 4f74 0779 1ac0 2a41 e073 1648 10c0
00000060: af79 2db4 1630 13c0 f2ff 089b a34e 1dc0
00000070: 799e 30c3 c6cf 09c0 e6da 3e0b 65cc f6bf
00000080: fd39 f2d2 22d2 08c0 5424 f71b de0d 2140
00000090: 292c 2880 6b16 1b40 7f15 a0ca 688d 2140
000000a0: e15f 3568 60fd 1340 0179 39fa d1c3 08c0
000000b0: 5200 71a2 3da2 fbbf 9c9d db0d c58a f03f
000000c0: 6767 2e67 54d4 fcbf 8eed 388a f0b1 eebf
000000d0: 37c8 babc 89c3 dfbf fc40 661e 320d e03f
000000e0: 5eb4 d8b0 9353 c93f d8d0 1323 6e42 f53f
000000f0: f720 e20a 3f2f f9bf bba6 46fa e45a f2bf
00000100: 2001 9620 7399 0140 6c34 70c2 e132 d0bf
00000110: 16bd 609e 2bfe f8bf 58e9 c10f fc1c d73f
00000120: 6090 5b07 4e2c f6bf de1f 4270 d270 f4bf
00000130: 9e51 09c4 0622 03c0 d4fb c115 4966 d03f
00000140: eaf6 1704 209d d5bf e7b8 6cd7 5f56 0940
00000150: 26a6 f80e 233a 0ec0 cd92 1dcf 2afd e9bf
00000160: 2696 2ee5 602c e03f 47b5 be90 9511 f4bf
00000170: f61d a038 73c0 c3bf eedf f0a9 ae6f e0bf
00000180: cfbc b632 36b0 0ec0 8823 af53 4eed 0340
00000190: 4914 03d7 f15f f5bf af6f 47be 69b9 ecbf
000001a0: a363 2f85 91f1 f6bf 0363 151c d7cb de3f
000001b0: dc55 2fd0 d64e f43f bf21 6e2b 7191 e83f
000001c0: e616 c95b a654 dfbf dea2 e144 b46c ee3f
000001d0: 2e94 564f 0d1c f7bf 5583 d432 804e e7bf
000001e0: 3bf0 7e65 ed45 ebbf 09a6 d6e8 318b d13f
000001f0: 7384 8350 9f6c e83f 37f7 130d 26a9 e3bf
00000200: f384 59d0 15f2 e1bf 2151 f15e 0bbd bb3f
00000210: 6070 7ad4 5bad e33f 923b a6b4 d48c e13f
00000220: 8e67 55ae 9d30 fe3f 9844 3083 602f c0bf
00000230: 725e a60e 49da e73f e2e4 2d7f 7ad7 e4bf
00000240: 5ff5 76f4 e793 ea3f dc72 7424 9fde a73f
00000250: 2ff3 0546 b9d1 e63f 0c76 69b1 9fc8 d8bf
00000260: f69e f24d b45d d03f d935 6217 0804 f43f
00000270: 6e9d 6903 a703 f03f a171 9e9e b88d f1bf
00000280: f371 20d5 5e81 e93f e2e0 de07 2175 02c0
00000290: e5dd 13a4 d37f e3bf d05f c7fb a54d de3f
000002a0: fb4f eafc d130 e13f ce1e d6ba 4bc0 ed3f
000002b0: 5533 05d8 ba72 e23f b45a 9c2b 7e31 e2bf
000002c0: 6592 a545 b96b d3bf adb2 dbc0 884d eebf
000002d0: bc2b 3d3b 61cc e43f 2b3d 720f 2fac e9bf
000002e0: 8c3e 2674 2e17 f0bf c428 21e2 365b d43f
000002f0: f842 5c9e dd3a e8bf 74ba 2b98 3bd7 edbf
00000300: 33f1 8323 fcdb febf 2c54 94cc 9bef e2bf
00000310: 6f71 fdbd c984 f9bf 09d8 dd0f aae8 f2bf
00000320: 91e4 5863 ced8 d83f 72f0 e151 f8d8 02c0
00000330: f1ab 980e a8fa d23f f4bd 8480 e496 df3f
00000340: deed 26bf a250 cabf 3121 9fe7 62c6 e33f
00000350: 90f7 ffe3 fca2 b7bf 2d4b 44a0 a713 fdbf
00000360: acf6 6972 be42 d8bf 666d c196 f9f6 d5bf
00000370: db10 9be6 57cc f5bf a59b d20a 9d73 e9bf
00000380: 3dc8 1e8c 3cc4 e1bf a20e 7eea b9c7 0dc0
00000390: 5f99 d57d 2ef7 02c0 87c2 9e23 7d1d b43f
000003a0: eee2 9f19 5ae2 bdbf 24b0 604a afa5 f0bf
000003b0: bb04 c741 4930 dcbf fa73 21fc ef4c 00c0
000003c0: 1cd5 f970 5e38 a33f 7090 3872 cc1e d23f
000003d0: b145 498b fc65 d6bf 50a6 c25c 47f0 febf
000003e0: 51fc 92a9 2025 ecbf 9d83 d87d 801b ecbf
000003f0: 7688 eea9 d532 f3bf c785 6082 9ed8 03c0
00000400: 879f 0504 1a5e 903f bc7f 6c2d 3794 dabf
00000410: b1c5 32b8 f154 e8bf c684 031f 5d99 de3f
00000420: b3bb 010c a2e1 ee3f 753e 7217 73a1 d9bf
00000430: 313b 75ec b2d8 8b3f 7f86 b0dc 8cb5 02c0
00000440: 4efd d43b d786 e2bf c403 84d9 69f5 88bf
00000450: 48cd de08 ebd8 edbf bcc7 2084 f9e5 e33f
00000460: e31a 67bb ba74 cb3f e95f b1d2 9d5f e2bf
00000470: 7349 f49d 0e35 e6bf 6804 fe2b dca6 d13f
00000480: b227 ed3a fe70 ecbf 1b88 3ed3 a6f2 dc3f
00000490: 1d76 abae b577 dfbf c362 dddb c6b1 02c0
000004a0: fa6e 2705 bd8a fb3f 3a6a aa18 4fa7 e2bf
000004b0: 9822 e166 a9de b9bf c010 7bab 4680 fcbf
000004c0: ddc8 70e1 98a8 ee3f 71e7 538b 6b01 e1bf
000004d0: 792d d6ab ad59 d2bf acd9 cf5e 8459 dc3f
000004e0: 9e05 0daf 2f74 edbf 1f65 254a 55e4 f6bf
000004f0: 0284 8b5d 4a39 e3bf e42d 2ba7 3535 e3bf
00000500: d2ae dcf2 f2ec f5bf f674 0c54 fbb1 07c0
00000510: 2fa5 b4de 3038 fbbf c8bf e1d4 df0e dfbf
00000520: 62b9 a921 9c0f e43f 125b de20 8026 adbf
00000530: 944e 9434 9e54 b4bf 18b0 37f4 dd79 fcbf
00000540: f3db b925 6568 f5bf 3ec2 d770 8851 f8bf
00000550: a5e4 fea2 5fbb f9bf 31ed 23fc 5fb0 f7bf
00000560: 5116 612a 066e 94bf 166f 5f46 c590 08c0
00000570: 0b62 c394 26b5 d0bf 94b7 0002 d52b e4bf
00000580: cc0c 23bb a47f d7bf 6438 06c5 eeca c3bf
00000590: 34b5 d3ff 0e7d bfbf b892 0b13 9721 f13f
000005a0: 1283 3bd3 a3a7 f6bf fab6 60d3 2ab2 c73f
000005b0: 0bb9 2f52 67e5 fe3f f5a6 809e 5352 e53f
000005c0: 7976 afbb 8212 ecbf 7299 2fcf f98f fe3f
000005d0: e060 1445 78df dbbf 99e0 9aac 2f65 f0bf
000005e0: 6762 e027 2090 efbf 739d d705 121a 0340
000005f0: 25d1 6e76 3e19 d83f 7176 f825 632a f3bf
00000600: 7cf2 def1 1af3 e7bf c4c9 6580 20f9 debf
00000610: eff3 59ca 0ceb efbf 04a5 57ce 25dc dd3f
00000620: fff0 03b8 31ae e43f f4c0 9fb2 0b19 f0bf
00000630: 658e b389 0227 e7bf ae8a ee57 c144 eabf
00000640: 9620 ba64 f843 e93f 054f c01f 51e7 d0bf
00000650: 9af0 e10e 372b e03f 9a6a 6625 ce5e fcbf
00000660: df08 d91f b4c4 e53f caf1 d283 73f9 fa3f
00000670: 617b e1ac 52fb c6bf 35a0 774b 05a2 d9bf
00000680: 3394 8fc5 65ab c4bf 4181 9174 e9e4 0040
00000690: 0dbe 6fb1 cea6 e33f 7dcd 3288 deb5 d83f
000006a0: e3e7 3963 96e8 c6bf 1bf8 83ec 3e07 e6bf
000006b0: 167f 4df4 784d dfbf 2835 16b9 7f53 e83f
000006c0: 28ea 4dc1 7559 eb3f ec29 d150 ec61 cfbf
000006d0: e626 4e56 4b16 f73f c548 b4b8 2439 eb3f
000006e0: ca42 52ee d6ad f63f a4d9 f7bd 2e45 f2bf
000006f0: 10e9 ed2f 286e 5b3f 327b 0c43 e8dc f7bf
00000700: 2a2a c09d 42d2 04c0 12b4 db09 fa81 cc3f
00000710: 9885 b58c d710 f8bf 8f99 c89f 78b6 f33f
00000720: be88 b6ef 1096 c3bf c895 7693 2528 f03f
00000730: 697f 01c2 f0fc cebf c3fa df42 dff6 e43f
00000740: a919 03b7 d65c 0140 0e92 96d6 3f96 b4bf
00000750: 3ba1 08f7 622e e7bf 93a0 d33a 06d8 edbf
00000760: 68dd 2cdd f2db f7bf 5c7c 28ab c5a2 e9bf
00000770: 67de 9376 a44d f6bf 2755 4e65 0586 d23f
00000780: b401 e0e4 33e7 ad3f ff67 544e 6c2a b4bf
00000790: 49e7 773f 0f3b f03f ebf6 398d 49f3 d5bf
000007a0: 59de c6fd 3dca 973f 18c5 f5b6 2c91 f53f
000007b0: aade 007e 5747 ebbf 1675 e2bf d668 0440
000007c0: c672 27d6 8ca3 e0bf 35c0 c272 76ec b63f
000007d0: f88c f1f6 e7e4 e2bf c101 5ff5 c812 f6bf
000007e0: 66df 02b7 9197 01c0 5e37 d0bf 1fd0 e83f
000007f0: 8401 86cc 5c51 e03f e663 6e46 4ba9 e3bf
-2.3766423427262984 0.7324740407552025 -2.1145612487807512 0.3523278771868793 5.809239395196451 -5.046591399135185 1.0686234459580535 4.144062089896412
3.840631826450962 1.1086412718454752 -6.61819249852376 -4.070398150026714 -4.796961608195871 -7.326795980858138 -3.2264533280575134 -1.424901050498812
-3.1026054840251605 8.527085184019747 6.771894457294402 8.776190120736599 4.9974380762650705 -3.095615343932082 -1.7271095605247138 1.0338793317149344
-1.8018383055227447 -0.9592211436897047 -0.4963096945822402 0.5016108125437593 0.19786306510050883 1.328718316098323 -1.5740347314004433 -1.1471910263448268
2.199926619127055 -0.2531055830775759 -1.5620533167492048 0.36114408053221814 -1.3858166015061428 -1.2775444398011966 -2.391614467176807 0.2562430107572571
-0.3377151527382539 3.16717499065918 -3.7783871812469156 -0.8121542020058655 0.5054172970018882 -1.2542930273151158 -0.15431061043658162 -0.5136330908926519
-3.836040874673564 2.4908720529387587 -1.335923995867477 -0.8976334301364569 -1.4339766695540923 0.4811914228680935 1.2692478306029136 0.7677541588064328
-0.4895416160910443 0.9507695527400661 -1.4443486308239346 -0.7283326142097432 -0.8522860510197526 0.27412078607685025 0.7632595608266811 -0.6143980269841681
-0.5608014172868522 0.10835333888946198 0.6149119520155288 0.548441269713168 1.886869126310987 -0.1264458313530994 0.7453961645250742 -0.6513035282106581
0.8305549406719982 0.04662034339910345 0.7131010406152195 -0.3872451050318382 0.25571925746997637 1.2509842790053567 1.0008916981986107 -1.0970998951007476
0.7970422899848572 -2.3071919073955636 -0.6093538479462351 0.47348928058408735 0.5372095050574893 0.9297236107967934 0.5765051097056167 -0.5685416080258023
-0.30344993401948833 -0.9469646231423973 0.6499487072954859 -0.8022685338673105 -1.0056595360837575 0.31806728442155596 -0.7571857541061879 -0.9325235340200622
-1.9287072551079063 -0.591749095505866 -1.5949189588055466 -1.181802808741397 0.38823280050162007 -2.355942382533663 0.2965488569777213 0.4935847525657373
-0.20558580716702485 0.617967083345354 -0.09233074728396518 -1.817298532526091 -0.379073726398796 -0.34319915506576704 -1.362388516238801 -0.7953629695301642
-0.5552046524737829 -3.722522575351676 -2.370694144326236 0.07857496375687321 -0.11673510671233675 -1.0404503732088495 -0.44044715331626677 -2.037567109843164
0.03753943566418114 0.2831297984541896 -0.3499747619835843 -1.9336618064356976 -0.8795321762080538 -0.8783571679997412 -1.1999107969245677 -2.4807710824686384
0.01598396920726899 -0.41529635845108337 -0.760369167101251 0.478110580717907 0.9650430902964814 -0.40047910012888305 0.013596914139865387 -2.3386475793238897
-0.5789600533097798 -0.012186839056541283 -0.932729260754436 0.6218230801225597 0.21449979925656412 -0.5741719355673897 -0.6939766964954245 0.2758093289958823
-0.8887931013971324 0.45231028203318296 -0.49168150003046823 -2.336805074399622 1.7213716698960853 -0.5829234582664136 -0.1010537983103269 -1.7813173960176272
0.9580807116638216 -0.5314233514065859 -0.2867235353557685 0.44296368845916834 -0.9204328936540838 -1.4307454010325455 -0.6007434680033159 -0.6002453103077952
-1.3703488814161813 -2.961905151968149 -1.701218481010368 -0.4852828577922961 0.6269055039863753 -0.05693436051585911 -0.07941616805720236 -1.7797526874301237
-1.337987086646305 -1.5199055107042478 -1.6082455031412703 -1.4805602883560136 -0.01995095857298274 -3.0706887719987987 -0.26105656173379604 -0.6303505934827052
-0.3671657397755552 -0.1546305143387513 -0.12300199266220063 1.070700716395704 -1.4159277201908407 0.18512473412686586 1.9310067377478528 0.6662996383431322
-0.8772596040468691 1.9101503461075393 -0.4355145144086361 -1.0247036688215643 -0.9863434580648346 2.387729688303517 0.3765407711573679 -1.1978484614586729
-0.7484259342232487 -0.4839555028803739 -0.9974426223922118 0.4665617480337263 0.6462639421511368 -1.0061146714688762 -0.7235119523506454 -0.8208929746072806
0.7895471541715036 -0.2641184625692719 0.505275277202162 -1.7731458149852757 0.6802616712596111 1.6859011792540621 -0.17954476777500886 -0.40051395768978476
-0.16148063799406173 2.1117734057335444 0.6141122308308141 0.3861004190504998 -0.1789730057242301 -0.6883844966357658 -0.48910354478538076 0.7601927390075263
0.8546704078174274 -0.24517587610382863 1.4429429408359566 0.8507255179886434 1.4174413022448555 -1.1418902798301156 0.0016742126897200706 -1.491432439717482
-2.6026661228436483 0.22271657449110244 -1.5041118141601597 1.232048629908238 -0.15301715569245816 1.009801460293021 -0.24209413025800622 0.6551357561255248
2.1703314111539 -0.08041762341469669 -0.7244124245526459 -0.9326201580961587 -1.491198410001596 -0.8011196463520593 -1.3939556724489195 0.289429997378948
0.05840456169972033 -0.07877232467981797 1.0144188384278598 -0.34297407905238114 0.023232430090244758 1.347943033874179 -0.852458711719881 2.5511908522590927
-0.5199646170327348 0.0895456342866517 -0.590442640601764 -1.379586180191936 -2.199008397841612 0.7754057642321006 0.5099319452856865 -0.6144157767877203

w5 f8 [23, 1]
00000000: de59 48ad 6a01 2340 57ce 65de 6958 c5bf
00000010: c1a2 a533 fb65 edbf 0215 c946 821f bdbf
00000020: 03bd c1c2 a135 f63f e226 9690 63c7 ec3f
00000030: a9e9 a0b9 6903 d4bf a6d3 ebf6 5f91 babf
00000040: 327f 26e5 c848 cb3f a10c 856a fb31 eb3f
00000050: bb81 8db6 7b3b f7bf fb42 b91c 3b04 bbbf
00000060: a214 91e4 aeda eabf 6bbd 292f 0649 d2bf
00000070: 7cba 9a73 7279 dabf 3659 34b3 b3dd c7bf
00000080: 11c3 f02d 8e75 d5bf e215 8833 8af2 a4bf
00000090: 403e 10d0 6c20 f43f 43e0 9af2 0b45 0240
000000a0: dbf2 8d64 8ee0 f33f f1d0 c8fb e56c f2bf
000000b0: 18c3 a466 7405 babf
9.502767005044856 -0.16676066741239268 -0.9186988838892703 -0.11376203754578643 1.388093720215523 0.8993394683795624 -0.3127083122996291 -0.10378074434613768
0.21315871418937032 0.8498513298476561 -1.4520222788779467 -0.10553330851804425 -0.8391947235292216 -0.28570704084173454 -0.4136625412892625 -0.18645330667704635
-0.33530001150488525 -0.04091293219611793 1.257916271922923 2.283714194632951 1.2423232963475843 -1.151586516888582 -0.10164573198268234
