Code/Models/run_20251101_014640/model_hidden_5_width_12_act_tanh.npz (npz, 6726 bytes, 6 tensors)

w0 f8 [2, 12]
0	0xc0138b97393aaa3b	-4.886319059568048
1	0x400c5e37cffa2842	3.5460048912255226
2	0xc01bc9729514934b	-6.946726159458943
3	0x400c1852116c663a	3.5118752824025963
4	0xbfe7b65d2a4894e0	-0.7410112214899094
5	0xc0063a667c9b9ae6	-2.7785157904612445
6	0x4016e61efaca89d1	5.7247275529975505
7	0x3fd947e6387c450f	0.3950133849730983
8	0x4004dfa3c116b53a	2.609199055200091
9	0xc01cfdf697a771bd	-7.2480109878492245
10	0x4017f829c659bbcc	5.992346858240989
11	0x3fee614a4c261c7c	0.9493762481005343
12	0xbfec612dbe3c0673	-0.8868626323239382
13	0x3fe384d1df2887f6	0.6099633558808353
14	0x3fd54b0e1a597616	0.3327059991187026
15	0xbff3fd4c2c7ecc64	-1.2493402231309796
16	0x3ff2820cf54802bf	1.156750639085814
17	0x3fc4ce8653f68735	0.16255263423686875
18	0x3ffc691a2d50e11e	1.7756597299722396
19	0x3ff91c49830a29af	1.5694060438860153
20	0xbff095b8aa5c4b58	-1.0365530638416285
21	0xbfe4d5014ec869d3	-0.6510016001441791
22	0xbfe33b4880c6d8c0	-0.6009867205782697
23	0x4011880c398fd4b9	4.382859134105439

w1 f8 [13, 12]
0	0xbfff03e46ed8618e	-1.9384502725498325
1	0xc016431c840c439e	-5.565538466690581
2	0x400aa06325b57547	3.3283141084672567
3	0x3fe1655b1e7f309f	0.5436225505486795
4	0xbffb7b52a22714c9	-1.7176081022346799
5	0x4011e81ef6848293	4.476680614316723
6	0x40138e58e1d46f47	4.889010933485969
7	0x3ffec02890309c26	1.9219136841218272
8	0xc0181daeb25ba759	-6.028986727565859
9	0xc0104204a64d8a09	-4.064470861895196
10	0xbff232eec48e7fda	-1.1374347379678427
11	0x400dc1e4237ec49c	3.7196734211980367
12	0xbff6994d4eb762d1	-1.412427241788624
13	0xbffe21450217afdc	-1.8831224519481031
14	0x3fd2e7301e7c0377	0.2953605935763827
15	0xbfc66388b017be9c	-0.1749125346973316
16	0xbfeea1d0daa7ec88	-0.9572529097198563
17	0x3ff9fb4905968a17	1.623848935917186
18	0x3fcd59e8755f3917	0.22930627566388104
19	0xc0053735b176d3a4	-2.6519578804386175
20	0x3ff68a7620641197	1.4088040604848169
21	0xbfc0bbd319049026	-0.1307319519193026
22	0x3fe0ea9830a77480	0.5286370229984101
23	0xbffadd2f109d15af	-1.6789999627083991
24	0x4002f68eaba5c9b7	2.370389309880206
25	0x4000c0ed3609c6ff	2.0942024442418865
26	0xbfdb0de2fd5a98a7	-0.42272257558432574
27	0xbfd0f9ddba4e666c	-0.2652506179234482
28	0xbfe53d3abdf5a26c	-0.6637242994448349
29	0x3fbb99a81b8c56bc	0.10781336472094954
30	0xbff89fb81c6eb01c	-1.5389939413680684
31	0x3ff8bc3b629d6356	1.5459550716534145
32	0xc00338b600e8187c	-2.402690894206044
33	0x3fca661f64604294	0.20624153519795085
34	0x3fe1e26a36ee189c	0.5588885376789849
35	0x3ff68da1ded92d01	1.4095781998647114
36	0xc0019f2a474e768e	-2.2027173586673774
37	0x3ff4d9730178f84a	1.3030881936570204
38	0xbff15aff29d9045e	-1.0847159990955997
39	0x3fe285fb528ba71a	0.5788551914422186
40	0x40075dcd882c6f5d	2.920802177291917
41	0xbff190410e4b7121	-1.0977182920824549
42	0xbffc1e80e09614ff	-1.7574471257115076
43	0x3fc0a6afbba40556	0.1300868669714343
44	0x400c3a04bac7b12c	3.5283293335143266
45	0x4003d07fc6fa119b	2.4768062157692845
46	0x3ff214a6e01e6dae	1.1300419573443423
47	0x3fb2ffdd0d3594a7	0.07421666691296257
48	0xbff7437534ac8a94	-1.4539691979959217
49	0xbff54e4165ee77f4	-1.331605337305061
50	0x3ffdfb1004d9900a	1.873794573731177
51	0xc00bfd5fb5b70781	-3.4987177082520593
52	0xbfff5cab4db0bb37	-1.9601243052272375
53	0xbffc3cd92748e55e	-1.7648555311737577
54	0x3ffb70043b8a072d	1.7148477864979654
55	0xbff3650e743e3543	-1.2121719876043506
56	0xbfdf91a1fe2936de	-0.49326371975335614
57	0xbfe190f3c569bc48	-0.5489443641398646
58	0xbff85fc32249d3d7	-1.5233794536009009
59	0xbfecf765ffc0f795	-0.9052000041190121
60	0x400695b2d88e78df	2.823095027778535
61	0x3fe7bda82846a033	0.7419014727247543
62	0xbfe7d46de11c2fe9	-0.7446813008004912
63	0x3fee29daead332ee	0.9426092707086278
64	0x3fe910d3b810469e	0.7833040804855107
65	0xbff23909ca281cda	-1.1389253517862046
66	0xbfb03493b750f23f	-0.06330226159565998
67	0x3fd0b68abc09921d	0.26114147532487825
68	0x3fe75f3c5595b7f9	0.7303754493311764
69	0x3fe1ab05dc08b402	0.5521268174685476
70	0x3ffcc27798cd95a3	1.7974773377294262
71	0x4006accc036f3367	2.8343734997092045
72	0x3ff24c3a6d4349f0	1.1436104076461753
73	0x3fb4ffe9d970c82d	0.08202992971999441
74	0xc00608b82f488a28	-2.754257554436908
75	0xbfb051c60baea348	-0.06374776635369728
76	0x401120edd3965798	4.282157236148031
77	0xbfe101632c1cdb76	-0.5314193593575129
78	0xbffbb5fdf935aa14	-1.7319316611052544
79	0x3ff223daaefc4b9a	1.1337534747478686
80	0x3fecdc4e29432f8d	0.9018927389056316
81	0x3ff1778f01e5d78d	1.0916891168721776
82	0x3ff1c8d043ef290d	1.1115267423325037
83	0x3ff87afa5221a3f0	1.530023880792438
84	0x40073a34f325b932	2.9034213062178873
85	0x3fe95b3932209354	0.792385671524793
86	0x40059657f4e2dfc3	2.698409951375625
87	0xbfe9cc197ec58652	-0.8061645008094251
88	0x3fe108f5a660615b	0.5323436975041135
89	0x3ff9a49dc852deec	1.6026895356316642
90	0x3ff255d26cd855a4	1.1459526302108793
91	0x3ff2031b69287957	1.1257585628259983
92	0x3fce9b8930d71501	0.2391215790250172
93	0xbfe4adf6c021686e	-0.6462358238743613
94	0x400574b41f08da03	2.6819841789795205
95	0xbfe7472da6f32406	-0.7274387608277955
96	0x3ff87b16873daff7	1.5300507815218205
97	0x3fefa5a6113a26b1	0.9889707886188345
98	0xbfd15b19dacc1467	-0.2711853634539864
99	0x3ff574cb0894a59f	1.3410139403516508
100	0x3f81b7f14d3dd939	0.008651623887754855
101	0x3fd39304314cd29c	0.3058481675573519
102	0xbfda5f6b20208880	-0.41207388055239136
103	0xbfd8e18010aa8ca5	-0.38876344325599127
104	0xbfe87e9f3fb608b9	-0.7654567951542709
105	0xbff329a28f48a4d6	-1.1976647946378782
106	0x3fe9c671a9bdb00c	0.8054741206410667
107	0x3fd9cec26b65291b	0.4032445954113812
108	0xc0066d5999d178f1	-2.8033935563136017
109	0xc008f51da1dfe0a7	-3.119685425419522
110	0x3fd29632f9cc223d	0.2904174270084104
111	0x3fb67313298346f7	0.08769340289589055
112	0xbfc902bdbd9a343d	-0.19539615400245394
113	0xbfdcf9234404d3e9	-0.45270616190401697
114	0x4000301aedf9c5d9	2.023488864121401
115	0xc005fbb6d207e780	-2.7479072960531425
116	0xbfa9c8adab418253	-0.050359179644833184
117	0xbff8e6b6122078c7	-1.556325980003338
118	0xc006c15ad6884c6b	-2.8444115410180095
119	0xc0011fb9b5e1e39a	-2.1404909333763955
120	0xc0033356acaa3c31	-2.4000676621867787
121	0xbff05c1bf3793b47	-1.0224875937162368
122	0xbfe14097c1531f22	-0.5391348625061918
123	0x3fe8875141c96617	0.7665182385346182
124	0x3fb0257f7da01fdd	0.06307217423466178
125	0xbfe1b499f57aef19	-0.553296069577729
126	0x3ff9743e07903557	1.590879468483157
127	0xc0001fd528271b4d	-2.015543283170166
128	0x400d15b3b53b93bf	3.6355966719442843
129	0x3ff6dd5dbce5e615	1.4290444735364691
130	0xbfe4b44e9059bf79	-0.6470101184222435
131	0xbfdfa2fb43b28b92	-0.49432260142401063
132	0xbffe9cf38182fba8	-1.9133181628273892
133	0xbfe6c1dfc7081e93	-0.7111662757242406
134	0x40030c8e372a06ed	2.3811306295109405
135	0xbffeb4d4ebe03745	-1.919148370161069
136	0xc011a6c33522375a	-4.412854032719986
137	0xbf555180110e7247	-0.0013011694574977127
138	0x400f55cbedb8cf50	3.916892869188736
139	0x3fa762dfc7f2479c	0.04567622485878006
140	0xbfecd04d73af35f5	-0.9004275569401999
141	0x3fcfb08cb7ae9ce7	0.2475753685841717
142	0xc00ab35739d9917c	-3.3375687140962196
143	0xbf931988b858898a	-0.01865209221990364
144	0x3fff6b50ef83c1de	1.9637002330820148
145	0x400aa3c716dc477f	3.3299695764516737
146	0x3ffcae91f648ffc3	1.7926196690095686
147	0x3fdace58fd1ea037	0.41884445875848847
148	0xbffc45e0500a39dc	-1.767059624343907
149	0x3fd486444341613d	0.32069498603734187
150	0x400d31ed21d22797	3.6493780748614415
151	0x3ff80a05232c645e	1.502446305652732
152	0x3ff3e59f7b659c2e	1.2435602970306365
153	0xc0039d59e2ae36e4	-2.451831599179842
154	0x4011396b155ea306	4.306072553540394
155	0xbfff03f06a4f024c	-1.938461699741441

w2 f8 [13, 12]
0	0xc00c044a15540212	-3.502094427705978
1	0xbff8fdd962085812	-1.561974890651531
2	0xc00f0f1f706a204d	-3.8823841841113222
3	0xc013528d477985c9	-4.830617062370444
4	0x3fe1fbfaefd418af	0.562009304442446
5	0xc009cdee4d7b84e7	-3.2255521825141957
6	0x402468096c051266	10.203196883792042
7	0xc01072bf9a18bca7	-4.112059028396437
8	0xbff4f9fa035faae5	-1.3110294467721186
9	0x3ffb2d661a3a49a1	1.6985837006110176
10	0xbfe91ebd0062e71a	-0.7850022323175125
11	0xbff3ef852f20ca1f	-1.2459766236248766
12	0x3fde22bd78fc6790	0.4708703691009015
13	0x3ff0f24f3881e42a	1.0591575820274195
14	0x3fec8323741da7e2	0.8910081165206487
15	0x3ff0c2da573ce608	1.0475715072374232
16	0x3fe5948babc80505	0.6743830065826449
17	0x3fa2e9421fff81d3	0.036935869604125
18	0xbffb543c8a8a0f44	-1.7080655490580776
19	0x3fe1ca8ee333a2dc	0.5559763371976163
20	0x3ff820a977cd8ded	1.5079741172602283
21	0x3ff2b5ff3c93bc1d	1.169432865742926
22	0x3fb492032e29db4b	0.0803529727653373
23	0xbffa1b4f5663d328	-1.6316674589736042
24	0x3ff0de98fe586ce1	1.0543451247565871
25	0x3fef9559b284e776	0.9869812475874216
26	0x3fe73c595747dee2	0.7261168198301358
27	0x3fdbc57e2b691dbc	0.43392900695149783
28	0x3fdf41b2b7ae980f	0.48838489473053043
29	0x3fe371f8c18aca4a	0.6076625614280797
30	0xbff225b690dd5cf5	-1.1342073115136462
31	0x3fb565cdcab505ee	0.08358465384392108
32	0x3ffab1773d6c66bb	1.668326606688807
33	0xbff279a6550aba10	-1.1546996423672944
34	0x3fc801b6c5470f68	0.18755230553335456
35	0x3ff655cbf9a8dc8a	1.3959464790657727
36	0xbfe21c934e89fcfa	-0.5659882101025737
37	0xbfdf28f145de349e	-0.48687393019720016
38	0xbfd699940290ec4a	-0.353123667245829
39	0xbff95f7883893888	-1.5858082903028237
40	0xc0001732aff0c816	-2.0113271470409115
41	0xbffa15c68f51f8b5	-1.6303163145490036
42	0xbfe0c2ee91fd55a5	-0.5237953997954504
43	0xbfee4aa3867e6338	-0.9466111780958277
44	0xbffe3c28796e6f49	-1.8896870368398189
45	0x3fea3fde45af5597	0.8202964173348616
46	0xbfed40cfedc0983f	-0.9141616481399594
47	0xbff4d0f4cf3f63ed	-1.3010147185907457
48	0x3ffe3124bef63889	1.8869979342885321
49	0xbf914efc336ae836	-0.01690286697223816
50	0xbfe88e455359f122	-0.767367041392877
51	0x3fbb91ff60f64a06	0.1076964961742207
52	0x3ff693a3e93374d5	1.4110449895300026
53	0x3ff5014f9001525f	1.3128200173570332
54	0x3fe374a9b5d61b8a	0.607991080426346
55	0xbf9665059e61cd3d	-0.021869743148682053
56	0xbfafa75352e8a115	-0.06182346713132084
57	0xbff70a488842d5bd	-1.4400105784128379
58	0xbffce4509560b6cd	-1.8057409129209419
59	0x3fb4a00bad3b7c2a	0.08056710223489519
60	0xbfeda4d0bb3a3309	-0.9263690621170052
61	0x3fe6f050d49bae3c	0.7168354179861534
62	0xbffb74ba1ca58b88	-1.7159978026399774
63	0x3ff216343e9e396d	1.1304209180849185
64	0x4006bbd214d9397e	2.84170929229657
65	0x3ffcc7c2bd7e055b	1.798769703106095
66	0x40047439c37eec9f	2.55675080042927
67	0xbff2f096a082b21d	-1.1837373990957822
68	0x3feeb2946407d41e	0.9592992738458894
69	0xbfcd8728c6f4f114	-0.2306872340649383
70	0x3ff38023c4447d78	1.218784109754635
71	0x400875588c356a3d	3.057297797565552
72	0xbff330805c52eca6	-1.1993411642459164
73	0x400b99246a570f42	3.4497764880960924
74	0xbff7d530003789b2	-1.48954773030037
75	0xbff068a4ab81dd76	-1.0255476665023173
76	0x3ffa25d104c1c4d0	1.6342325387779972
77	0x3fab4a4fecacb1a7	0.0533013321313292
78	0xbfdb23c7d3793d00	-0.42405887271611675
79	0xc004853053fac774	-2.5650335846811974
80	0x3fe127d5e5b7901e	0.5361127363835327
81	0x4000ed70bd1246a5	2.115937687988508
82	0x3fc3d27438f62be9	0.15486004620865337
83	0x3ff1b0d1bacebfda	1.1056687638447245
84	0x3fff219668847e86	1.9457000811306968
85	0x400455983d7a4e3f	2.541794281287167
86	0xbfe16507e2548b16	-0.5435828609955446
87	0xbff9fc5f1a7d9130	-1.6241141352448487
88	0xc00296603ac02355	-2.323425730694377
89	0xc0006bef8635e1a1	-2.0527029500191962
90	0x3ff37922ebdcf92f	1.2170743192105637
91	0xbfd7d3fba3035989	-0.37231341284987046
92	0xbff37e711bf0bd92	-1.2183695880338274
93	0x3fd3e7e5ffa8308b	0.31102895704749106
94	0xbff44eced47cd70d	-1.2692402172373847
95	0xc001405a58a6380a	-2.1564223218656524
96	0xbfe1b7e715ca18d8	-0.5536990571570426
97	0x3fb2cc017d7e19b5	0.0734253817919129
98	0x3ff80092d2c6ab71	1.5001400216521825
99	0xbfeef73fc7c533fb	-0.9676817800296925
100	0x3fe8b2c756bb7325	0.7718235677708419
101	0xbfe551646fa2f3d5	-0.6661855869675671
102	0x3fce540af7be8e47	0.2369397840203524
103	0x3fc09f71e1708263	0.12986587055003715
104	0xbfdf32262b5c51e3	-0.4874358581012343
105	0x3fe2097e835b1eff	0.5636589589639412
106	0x401002f80690277a	4.002899267719721
107	0x4000065456b96824	2.0030905509311356
108	0x3fc4bc7791d5bc07	0.16200155850262396
109	0xbfe85e5fb2ba8b97	-0.7615202418131614
110	0x3ff7988268455025	1.4747337410999617
111	0xbfec87b828711454	-0.8915673055531763
112	0x3ff811e81fe27707	1.5043717618459043
113	0x4005fccb44f6b8ea	2.748434580592506
114	0xc0063242506b2bb1	-2.7745405466752904
115	0x3fdb71d269b83ec2	0.4288221390170116
116	0x3ff0995a37af292f	1.0374395537533692
117	0xbfbfa7b0ba0ca79f	-0.12365250150892713
118	0x3ff73cfbb8877457	1.4523884971779546
119	0x3ffe3e02d9154411	1.890139434796087
120	0x3ffc90b2c1a13fb4	1.7853267253558274
121	0xc003efb547251c92	-2.4920449789238512
122	0x4004d1b6fa7c8ffa	2.6023997849715643
123	0xbfc4edcb7cc94b6e	-0.16350692360955627
124	0x3fe9ad540cc9ab93	0.8024082422028748
125	0xbfd1aabc3102eaea	-0.27604584490079154
126	0xbfee251eca10d043	-0.9420312830539007
127	0x3fa0cdacfcc3aacd	0.03281918130399717
128	0xc0048b50290b8143	-2.568023987449267
129	0xbfe5aef11148415c	-0.6776051843208211
130	0xbff8b1dd3e5d42a4	-1.5434238849740405
131	0xbffddf8cd9594893	-1.8670776834665375
132	0x3fe0838e4f4bf26c	0.5160590695155185
133	0x4003d50d319521a4	2.479029071200971
134	0x3ff4f4d584bc83d1	1.3097739396109669
135	0xbfeb7ae013825b8c	-0.8587494259871717
136	0xbfbba4e79c4a5675	-0.10798499646838329
137	0xbffe9b4c2f54c83a	-1.9129144524454333
138	0xc001af370812ae07	-2.210554183073103
139	0x3fe16a8d6ce297d2	0.5442568899786642
140	0xbfd611e793c32bef	-0.34484280996247113
141	0x3fc7fe492eafbfb4	0.1874476888619917
142	0x4003e6d74a06739c	2.487715318986785
143	0x3fe31f81124a3c3c	0.5975957257486537
144	0xbff8b525a0830919	-1.5442253370279728
145	0x3fd8ba69b04b70a9	0.3863777372005282
146	0xbfefd676188d15d7	-0.9949293593896823
147	0x3fb8adff151a7596	0.09640497460573835
148	0x3fe838ce428379e8	0.7569342898457849
149	0x3fe288dc14a81b28	0.5792065051508404
150	0x4004173e5fcd5cb9	2.5113494381472177
151	0xbff3752865aabf29	-1.2161029788366682
152	0xbfdbbb462a6e3196	-0.43330530303571757
153	0x3fef602f46a5ed08	0.9804912929388658
154	0x3fccd799779c800f	0.22532957401654172
155	0x3fdae2e88f6079ee	0.4200993919529584

w3 f8 [13, 12]
0	0xc00451ea6614792b	-2.539997861385151
1	0xc013dda0a1046deb	-4.966433063407275
2	0x401699c19e668833	5.650152659423884
3	0xc01a94dc2706a790	-6.645371064931069
4	0xbfda70c00b2fde21	-0.41313172428587747
5	0xbfe132b8c61de62a	-0.5374416226833933
6	0x401138fb40c68178	4.305645954242543
7	0xbfde558963d6d62a	-0.4739707446090927
8	0x402083653e4f818e	8.25663180084737
9	0x4002b46a550b2af8	2.338093437579456
10	0x3fca64202e079d0a	0.2061805939440336
11	0xc00435b6ab6bc223	-2.5262273208866346
12	0xbff5eb02fab4b70a	-1.3698758881759567
13	0xbfc4ffa1631dd75c	-0.16405122127224103
14	0xc006783288f8b2a0	-2.808690137948659
15	0x3fe55530cb30c560	0.6666492432179147
16	0x4000bcc9b55cf0f2	2.092181603335228
17	0xbffba15662b8626a	-1.7268890243778068
18	0x3fe9ad3c2644778e	0.8023968455706709
19	0x3fb4ce7174d5212c	0.0812750730739295
20	0x3ff4df9bbf6aaa5c	1.3045918919766768
21	0xc000157e64b72e2b	-2.0104949825670437
22	0xbfcaaa845344bc5b	-0.20832876268238718
23	0xc001b351142c6f73	-2.2125569892941086
24	0x3fde77733dfa88ad	0.4760406594524607
25	0x3fdcf67d4ecbbb4f	0.45254452414422003
26	0xc000749520331433	-2.05692505985146
27	0x3fee88c0e38ab66a	0.9541935390640905
28	0x3fefb654be9ec6aa	0.9910072062541151
29	0x3fe694c8611e216f	0.7056619545774491
30	0x3fef7136bdc0e6cf	0.98257004796252
31	0x3fe31b300e326471	0.5970688130647784
32	0xbff6b8a4d33cc010	-1.420079064508176
33	0xc0085db18692aa7c	-3.045748759604349
34	0xbfe52137a6b19e67	-0.6603048568476425
35	0xbff3b84279c56d04	-1.232485271137933
36	0xbfbaef0ff9ac4079	-0.10521030278710154
37	0xbfe17388a98f142b	-0.545353251619081
38	0x3feb3765e4b49a16	0.8505124537376243
39	0xbfe15206b0c3e6d7	-0.5412629558988681
40	0x3fedfe5411657768	0.937295946099522
41	0xc0048deab4d1e746	-2.569295323043579
42	0xbff26d533bcb8a13	-1.1516907058472767
43	0xbff8204e82d7991e	-1.507887374021784
44	0xbff0e6654b143879	-1.0562489445469778
45	0x3ff16e59a2078092	1.0894409493703603
46	0x3ffa44a5307e40d5	1.641759099413368
47	0xbfe1ea50dfd81a81	-0.5598530170398847
48	0x40029cbeadad3db0	2.3265355652326534
49	0xc00ff09dc6dc6d36	-3.9924884353655683
50	0xbffbe1681ccfa5d4	-1.7425309300837073
51	0x3fcfd0b4dcb0c0d5	0.24855671668911464
52	0xbff5b752980f4eb5	-1.3572565021358234
53	0xbfd01bbf9185e051	-0.2516936226961706
54	0x3fe9a333dd51212c	0.8011721918674417
55	0xbff172c2e3001bc4	-1.0905178897098589
56	0xc00b041704d642a8	-3.3769970300566747
57	0x3ff3e8ca49ab2859	1.2443335416487769
58	0xbffcafcb10831ed7	-1.7929182667739292
59	0x3ffb64ae64ca4604	1.7120803773035513
60	0x3fef41f3cddc84c7	0.9768008251886834
61	0x3fd4a20315d87904	0.32238843091353453
62	0x3febf489f9b25d01	0.8736009480370798
63	0x3ff49b51423c9035	1.2879192912451007
64	0xbfdbc2e3cde7e146	-0.4337701330946583
65	0x3fe28f0abde67752	0.5799611767758768
66	0xbfe089502ba85391	-0.5167618611036336
67	0x3fcb5da1fe48509b	0.21379494587074963
68	0xbff000913968729e	-1.0001384966373403
69	0xbfe4a8236e165833	-0.6455247068540814
70	0xbfea4d9d57562252	-0.8219744401731737
71	0x3fcfef7de068bc20	0.2494962068317088
72	0x3ffe4b5622817db9	1.8933926914104247
73	0xbfcc5ea5ff0e20ca	-0.22163844064585297
74	0x3fd2ca6458cc6d33	0.2936030261204962
75	0xc00c043b4d0ccdb6	-3.5020662326366745
76	0xbffd50f3c6927317	-1.8322637325974875
77	0x3fea2ba40f7c6bf0	0.8178272535764091
78	0xc00041826ff67a96	-2.0319870707601906
79	0xbff0c74ffe505d3e	-1.0486602720391853
80	0xc004ab41d113a7e3	-2.583621629154537
81	0x3feb505f98f8f19a	0.8535612094633962
82	0x3ff6c445aff07d8c	1.4229180214532304
83	0xbfe14ea2043d060f	-0.5408487398892151
84	0x3ff185ba07943c27	1.0951481147819864
85	0xc00af76c802b4878	-3.3708124173363636
86	0x3fcac49d1dea0863	0.20912517510083992
87	0xbff2d0464dd8fd12	-1.1758482972071005
88	0xbfc1f683b4d451cf	-0.1403355248409199
89	0xbfd338cd6de6a4c3	-0.300341946911953
90	0x3fff006e869de198	1.937605405661179
91	0xbfc683c4cdb11eb1	-0.17589626353787005
92	0xbfe95abf58af55ec	-0.7923275692107246
93	0x3fdf0be92de21026	0.4851019809796092
94	0x3fbfe45f72822eaf	0.1245784430085972
95	0xbfefc5bb0a4c7d17	-0.9928870392940635
96	0xbff9d84df2f2a6cc	-1.6153087129736603
97	0x3fe452951c5460ba	0.635080867129566
98	0xbff9f16dc5c1385b	-1.6214425778194002
99	0x3fe9f6000e814eb9	0.811279323892868
100	0x3fdc2b0d167fc15d	0.44012763211414613
101	0xbfe64afb3d3c00de	-0.6966530033096452
102	0xbfeb6ef910d062c5	-0.8572964981459213
103	0xbffb2bbe626f1933	-1.6981796116902614
104	0x3fe0db9e21bb9aeb	0.5268088015407931
105	0x400010ec1c87a0d7	2.008262846840903
106	0xbfbb075a346f6f65	-0.10558093815001042
107	0x3ff2a4bd3065e674	1.1652194872425783
108	0x4000321cb78bfede	2.0244688357923755
109	0x3ff7a1a64dac1947	1.4769652399132427
110	0xbff378956ed060fe	-1.216939385287389
111	0x3ffc9829d1d2a04a	1.7871492572976586
112	0x3fc8634d903fbac2	0.1905304865208191
113	0xbfe4670a65caa462	-0.6375782001606576
114	0x3ff61efc837ba66f	1.3825650344901097
115	0x3fb426270e299184	0.07870716186295651
116	0xbff28e8a8bfca5b1	-1.1598000972975167
117	0xbfe10c0b47beaaa5	-0.5327202225938278
118	0x3fb5686810e469c8	0.08362436687858754
119	0xbfe1052e5a0bbb39	-0.5318824537951975
120	0xbfd627c6c215a335	-0.34617775872770845
121	0x3ff4647e884c5f76	1.2745347332147197
122	0x3ff46ef236426d37	1.277086460066881
123	0x40063b57e7ae0801	2.778976259230149
124	0x3fdc29c0e2e3d0a0	0.4400484290811253
125	0x3fdf4dd0ad692a67	0.4891244595970989
126	0xbfec56376d7db5ac	-0.8855244768616806
127	0x3fe12d2dc581aac8	0.536764989619166
128	0x3fd9537aac1cd935	0.39572016532783333
129	0xbfdd2637509f54f2	-0.45545752404480233
130	0x3fdff1bc3b676062	0.4991293506732345
131	0xbfe4cd399efc6b71	-0.6500518899150461
132	0x3ff202d79f2a0fc0	1.1256939141612605
133	0x3fe3d064d519bdc2	0.6191887056465293
134	0xc00095aa5dd8c855	-2.073078854730776
135	0x3ffa0c21f9289c4f	1.6279620869406874
136	0xbfed8d285d17da10	-0.9234811609483717
137	0xbff25b9d2bfaa025	-1.1473666875772406
138	0x3ff411ed5b752bfd	1.25437675214448
139	0x3fc95ed918cbe712	0.19820703230635012
140	0xbfd3dea9ee5e0979	-0.31046531942424554
141	0x3fa07aeb85a689ac	0.032187805237544026
142	0xc004a67a92f0f383	-2.5812884788305737
143	0xc0027428892a8660	-2.306717940912492
144	0x3ffdd253cfcdaa15	1.8638494603461642
145	0x3ff7baead87d481f	1.4831341225258325
146	0xbfec028e3752ef1c	-0.8753119545503725
147	0xbfe9ae2f2e244d42	-0.8025127316672427
148	0x3ffa533f3e742dd2	1.6453239860155588
149	0x3fbaa250f9f7abdb	0.10403925039979305
150	0xbfe0703ac591e6e9	-0.5136998995578469
151	0x3ff0a4bf07064e34	1.0402212404632225
152	0x3fe86c8aac0b7f60	0.7632497177364534
153	0xbfebee82b2f072d1	-0.8728650565058961
154	0xc009fc65d75386ad	-3.248241121517671
155	0xbffcd9f4fd812db2	-1.8032121565364432

w4 f8 [13, 12]
0	0xbffda7b725e6a034	-1.8534461479666904
1	0x40037af33e9a3488	2.4350342646417324
2	0x3ff19e7d3ebd1d50	1.1011936617595275
3	0xc016204e768a85a4	-5.531549312786783
4	0x3fd1d1632aee63f8	0.2784049910783888
5	0x3fc13ca03f9ca054	0.13466265779539077
6	0xbfcdaef96a60a4aa	-0.2319022912427376
7	0x40006a7077e5e065	2.051972328856254
8	0x4004e756a3d861ce	2.6129582214746057
9	0x3feb16f2ba7fdb72	0.8465512888495665
10	0x400977bd9d33ffd6	3.183467128896136
11	0x3fd9ddbc4b17fc36	0.40415866216057184
12	0x3fe836c540137d67	0.7566858531462629
13	0x3fe081c82dade3b6	0.5158425228283849
14	0x3ff951728bab85c9	1.582384629808404
15	0x3fd56f3a784e7c36	0.33491384266557434
16	0xbfd5ccc65ae65fcc	-0.3406234634107903
17	0x3ff1866ea6256274	1.0953203668670115
18	0xbff546ac580fd525	-1.3297542037883627
19	0x3ff4903569cf5fc9	1.285207188911942
20	0x3fbf2b047124066c	0.12175014269089396
21	0xc001584b58ae0aef	-2.168112461863863
22	0x3fe532677bc63517	0.6624028603997968
23	0x3fdaca8939db4fe3	0.4186118187910763
24	0xbfb8b9e3c361baca	-0.09658645172178662
25	0xbfe9efe030cede55	-0.810531707123071
26	0x40037440747b96b5	2.431763563176754
27	0x3facb575d8a79dd9	0.056071932503808326
28	0xbfe5bafb3fb56849	-0.6790748829182657
29	0x4008f0667fd9d168	3.1173830021236206
30	0xbfc34d0a5d17f92d	-0.15078858895862748
31	0x4004d3a32f92bdeb	2.603338596025187
32	0xbff7e47a1d20177f	-1.493280519267017
33	0xbfea64d614b37c7e	-0.8248091129606931
34	0x3fd06d8ff24e9ec8	0.25668715155414334
35	0x4003853eaeb0cbd5	2.4400609634117054
36	0x3fccd0ee81c2a27c	0.2251260884852576
37	0x3fe02be20519d810	0.5053567981365195
38	0xbff22668af522a10	-1.1343771790003565
39	0xbfbb68722bc061a9	-0.10706246917869201
40	0x3ff620cf3f6a2c53	1.3830101468218075
41	0x3fc64f04bcb96faf	0.17428645339066182
42	0xbf9ecc16d72d1de0	-0.03007541359263921
43	0xbfe43a6f59cd5908	-0.6321331743190806
44	0x3fb7d484fad4fed8	0.09308653949573953
45	0xbfda5507b494900b	-0.411439825389835
46	0xbfdc7d48a6e326da	-0.445146716094866
47	0x3fb0512032313516	0.06373788094898133
48	0x3ff6f0c44ccf5b8f	1.4337809563055293
49	0xbff8066b23bc57e2	-1.5015670200277715
50	0x3fe963261ade12df	0.7933531307940845
51	0xbff60a7c1c5db93a	-1.3775597675372198
52	0xbff2884a390dc3bc	-1.1582739094412622
53	0x3ff78e5646d25f59	1.472250248572854
54	0xbfec01474c81700c	-0.8751560682535469
55	0x3ff4d65c3e618264	1.3023340641740555
56	0xbff44bae5ec938db	-1.2684768393115096
57	0xbfdfc0dbddb0cc4f	-0.4961461701342999
58	0x3ff9f8c5f8f19a0a	1.6232356762280937
59	0x3ff715bf3861b307	1.4428093149574026
60	0xbfb325b0a78d0681	-0.07479385462377232
61	0xbfe7af7571759f2a	-0.7401683059697224
62	0x3fdcda2cd6bb7dfd	0.4508163544651039
63	0x3ff15957f7dd1118	1.084312408654176
64	0xbff901400c36803f	-1.562805221277827
65	0xbfc9d558b6864c6c	-0.20182331955274735
66	0x3ff4158dc25d7060	1.255262145269647
67	0xc002c1842e293a9c	-2.344490395196159
68	0xbfd3a49446e25643	-0.3069201175906963
69	0x3ff7306eb44f6ddc	1.4493243258829045
70	0x3fc9b901cf8f1b92	0.2009584678146124
71	0x3ff3d5680d805f96	1.2396011855507587
72	0xbff111712028c8d1	-1.0667582756255352
73	0xbff547ad8ccc4047	-1.3299994945446245
74	0x3ff3f04803b1dc16	1.2461624283148516
75	0xbfef1b4fba2de1de	-0.9720839153588334
76	0x3fc00c180ab25d83	0.12536907694150665
77	0x3fc8b52cbf942e85	0.19302901606021208
78	0xbff89515f64675b7	-1.5363978977323833
79	0x3fba4739c7b336c1	0.10264931798448186
80	0xbff6da2c229d33e9	-1.4282647468673935
81	0x3fed299559754947	0.9113260981778603
82	0xbfa2d82321bb5432	-0.036805246226926505
83	0x40043edaf922bfce	2.5306910957078577
84	0xbfe4ee74c658d547	-0.6541084169354371
85	0xbfe4a595c9c8384a	-0.6452130261475386
86	0x3ff71578af94fd1a	1.4427420481368416
87	0xbff381679d950982	-1.2190929561189425
88	0x3f9c0598497af148	0.027365092739942726
89	0x3fe74a8dff984cbc	0.7278509132469462
90	0x3fdf5c65c1b9aced	0.49001449507222966
91	0x400413d45868d31b	2.509682360362047
92	0x3fb8c1fd5b23727c	0.09671004748401829
93	0xc00036d04dea75f6	-2.026764496534038
94	0x3fdd4425d4c12a08	0.4572844102555398
95	0x3feb7824402646ca	0.8584157231254832
96	0xbfd9accfd15b29d1	-0.40117259449894244
97	0x3fb71c05aa300295	0.09027133374184822
98	0x3ff34e2b1420e36f	1.2065840517300008
99	0xbf867bea68f67768	-0.010978537872513974
100	0xbf9ea0c63a025724	-0.02991018036899286
101	0xbff3e23cbf712f18	-1.2427337148864748
102	0x3fd4f707dd9fd9c0	0.32757755892762574
103	0xbfd00295e131f0ab	-0.2501578044100465
104	0x3fcb76c512dc7ba8	0.21456206723175097
105	0x3fe6d10b29978748	0.7130180179922059
106	0x4001eb25fede41c3	2.2398185645654123
107	0x3ff24b401bf8032c	1.1433716862231433
108	0x3fe428519f3a505c	0.6299217328946827
109	0xbfa150df9df593d0	-0.03382014086927365
110	0xbfeb8a42e39efb6d	-0.8606275983546375
111	0xbffa00070d489335	-1.6250067252050944
112	0xbfd57521354f8b25	-0.3352740307438345
113	0x3f7ec4f2bd293f6c	0.007512043188924494
114	0x3fd86e73b40e6e8f	0.38174145301466295
115	0x3fe34940ef4fd6dc	0.602692096143723
116	0xbfe979ea7d227e2a	-0.7961323207891315
117	0x3ff39afd50ac878d	1.2253392363859092
118	0x3fef6b7f816c792d	0.9818723228270635
119	0x3fb955e4959df52b	0.09896687176474887
120	0xbff9314aa6ae09bf	-1.5745340834551909
121	0x400724a00bbc2221	2.8928833882130367
122	0x3ff91fe5fe3df265	1.5702876979186382
123	0x3ff3ed0c5ee367f3	1.2453731257032785
124	0xbf8fa1fe8af29336	-0.015445698371260624
125	0xc0030268a5c26805	-2.3761761617615798
126	0x400705e118da2e6e	2.8778707448562306
127	0xbfe13f9701850250	-0.5390124349288019
128	0x3ff3b027ee326966	1.2305068306510178
129	0xbff51c21077b36d3	-1.3193674366224755
130	0x4002796236793b61	2.309269357275682
131	0xc001d3430451491b	-2.228155168276442
132	0xc000d21b44747544	-2.1025910709419424
133	0x3ff5f41cbb599c19	1.3720977133141388
134	0xbfcdf5b1f3baf5cd	-0.23406052018064685
135	0xbfea295cf9611f6f	-0.8175492163363581
136	0x4000e13697d82864	2.1099674094048613
137	0xc000b154316ee06c	-2.0865863668405407
138	0x3fc3d2ae11a60f73	0.15486694204093573
139	0xbfe281d8bacf8453	-0.5783504151005537
140	0xbfe3869fcb41bb36	-0.6101836175783777
141	0xbfd171b72f1ec392	-0.2725656471403052
142	0xbfde704b0be2ac79	-0.47560382996261513
143	0xbfe1bac5c3fb182f	-0.5540493800879228
144	0xbfefd6a12514df54	-0.9949498867272077
145	0xbfea3a427f65ea7a	-0.8196117866749113
146	0xbfe46dd4ae67c198	-0.6384070783952209
147	0xbf52c5ae9edcc3d8	-0.001145763900648902
148	0x3ff0c5a8f4addda0	1.0482568319110683
149	0xbff3620675120fc3	-1.2114319394176938
150	0x3fa5e09e8d22058d	0.042729334571968904
151	0xbfd69aad07a0f78d	-0.3531906675815371
152	0x3ff330464b5df3b0	1.199285787966101
153	0x3fdd2822c77760a6	0.45557469824917474
154	0xbfffd8e6b1cc1219	-1.9904543824387757
155	0x3fc70dbcd289b331	0.18010673790140566

w5 f8 [13, 1]
0	0x4022010cd13dfc64	9.002050913635863
1	0xbff63c4f93096c8a	-1.389724325525807
2	0x3fccd5f15a0cebf5	0.22527901551242704
3	0xbfecabb67b5efa86	-0.8959610375967066
4	0xbfd8060778249503	-0.3753679917593475
5	0xbff96376e7d7928e	-1.5867833191233873
6	0xbfdf23816dde5fad	-0.48654208878860566
7	0x3fcb2b170fd14c9e	0.21225250503866716
8	0x3fe94b4aab0f3033	0.7904408780100368
9	0xbfed0811df2dc242	-0.907235084434497
10	0x3fc258b0e7a22de9	0.1433316355727208
11	0x3fc5e9a12b5e4048	0.17119230859361978
12	0xbfdc274b0b554fc7	-0.43989826304209284
