Code/Models/run_20251101_014640/model_hidden_1_width_10_act_RELU.npz (npz, 742 bytes, 2 tensors)

w0 f8 [2, 10]
0	0xbfd8162e45e4d768	-0.3763538057859166
1	0x40355ed66e624e86	21.37045946025912
2	0x4003e3632d39df11	2.4860290082250533
3	0x400f3dbe0f8ff94e	3.9051476684391337
4	0x40284eae3536dcc7	12.15367285055835
5	0x4003e89c85044c5c	2.4885797874390345
6	0xc0232e9c69188fd3	-9.591037067650097
7	0x40110cd74e18bafe	4.2625400736421835
8	0x40101f390fd5ab6b	4.030491111198766
9	0x40105c243c098679	4.089981973725679
10	0x3f1dda7d310617a4	0.00011388196094771916
11	0xbfe60ea9d2f3995d	-0.6892899627826342
12	0xbfdc1f85f0f51c25	-0.4394240239238932
13	0x3fe7627edeff9080	0.7307733874736329
14	0x3fdad504c6402b6f	0.41925162659088405
15	0xbfdc204bab0c4fbf	-0.4394711656943819
16	0x3fed6dcb92f1018c	0.9196527357053568
17	0x3ff3dd0ff0985b8a	1.2414702795265122
18	0x3fea4035fb3ee871	0.820338240351033
19	0x3fe98a1af70def8a	0.7981085610658607

w1 f8 [11, 1]
0	0xc007ae333988c062	-2.96005864094336
1	0xbfe6cdb1199a7dba	-0.7126088619297015
2	0x4006fa1564192fbb	2.872111112612371
3	0xc0084404bd2ef1ee	-3.0332121639205445
4	0xbfec801988a02d46	-0.8906371754141353
5	0x40143369381eb5f0	5.050206066965515
6	0xc0051a7aaed47986	-2.6379293116180547
7	0x3fe683f139c2027c	0.7036062362750068
8	0xbfea0cf1324d9558	-0.8140798552018778
9	0xbfec671e8abc373a	-0.8875878057167264
10	0xbfef058395b8388b	-0.9694230961047351
