Code/Models/run_20251101_014640/model_hidden_3_width_18_act_LRELU.npz (npz, 6878 bytes, 4 tensors)

w0 f8 [2, 18]
6.119573034428074 -1.2288751558562097 -0.6833620403023601 -1.7634481622963547 -4.711675446380733 -8.06215318766241 1.4031472239211853 -6.251964424153438
-4.7224998689567945 -7.688212464766987 -7.977388308428393 -4.199201737008011 -3.752684638144158 -0.6800844878484701 -2.974997419354043 -1.212162838214104
4.91068005169011 -2.1696296313221533 0.20087082744528237 -0.009742191802931224 -0.23049161931577716 -0.015575028989457262 -0.1475193261724902 0.24522190553982529
-0.02470555099571562 -0.14238282182530115 -0.050716390871763085 0.19761372120133625 0.4471512271084597 -0.1257693799597787 -0.03147312525206085 -0.006943132425247104
-0.02819733336004743 -0.0009144175759308387 -0.41965534171422525 0.19321595561853427
00000000: 8268 815a 717a 1840 264f d4fe 78a9 f3bf
00000010: a6a5 cd11 1ade e5bf f910 946b 1537 fcbf
00000020: 2a49 be72 c1d8 12c0 54b4 e88a d21f 20c0
00000030: 546f e380 4a73 f63f 5bfa 45f6 0202 19c0
00000040: 8722 7201 d7e3 12c0 bb7e b3c4 bac0 1ec0
00000050: 56c5 107b d8e8 1fc0 f005 478a fbcb 10c0
00000060: fb3e 0886 7f05 0ec0 516f 3a8b 40c3 e5bf
00000070: e87a 6e72 cbcc 07c0 dae5 38dc 0465 f3bf
00000080: b383 bc4f 89a4 1340 82b0 b7c7 665b 01c0
00000090: 8789 4ca1 22b6 c93f 7bc6 7ad9 b6f3 83bf
000000a0: e24e 7bd7 bf80 cdbf 33da 2601 cde5 8fbf
000000b0: ac2a b8cc e9e1 c2bf 8136 4770 6e63 cf3f
000000c0: ea9b 3976 694c 99bf 103d a0ad 9939 c2bf
000000d0: 15ac 54b0 7ff7 a9bf 187a e60a 684b c93f
000000e0: bd03 332e 209e dc3f 2dfa e106 3619 c0bf
000000f0: c62e 52d7 3e1d a0bf def6 2beb 6670 7cbf
00000100: d197 7602 c3df 9cbf 4279 b0ca b0f6 4dbf
00000110: 7c46 1014 a2db dabf 0a37 39e9 4cbb c83f

w1 f8 [19, 18]
-0.0054293332392854245 -6.770497948490924 3.394039938476598 2.5867822972898993 -1.0104931153646366 2.1512207967656853 3.260803981713181 1.2159620151356123
1.2575405411423675 -3.538874727187602 5.194231050551969 4.5185864286765085 0.25784574310168784 -9.44762937099259 0.2981125443587626 -2.7444871216570035
3.336560757974381 -1.1513796859550787 -2.7303074078860203 -1.0523945305540452 -1.1012548747957027 -1.3208873378971762 -0.9438561146854321 1.2463685343209678
-0.20505655666167485 1.0712884823432676 -0.519543639204182 -2.2392413672483644 0.18812448460962966 -0.047836175360708735 0.6816454135695454 -1.5723069655478175
0.1805450935626671 -2.0176447151147747 -0.9206194512695608 -2.308718150846981 0.8674121073205354 -1.180069554992792 0.15158254251798267 -0.8127352815648475
0.47866012357929927 1.2630763183560352 1.4262742974241358 -0.20735065642091016 -1.510580633820502 0.2615025249507771 0.1291352412409498 -2.5290279882000517
0.8137604594061543 0.1802696583934399 0.027920134453031063 0.6612195976014928 -1.036234600948066 2.697730854115124 -0.43475304492239714 0.5359642144354186
-1.7642808760660265 -0.7674383889515897 1.0523111142282777 -3.4602876349680174 0.17294838756847078 1.607903670112777 1.0489303270731625 1.7540740575549771
1.0061958838621916 0.9266685814631863 1.1747877008879324 -1.0857113393581448 1.5620716979105882 -1.304017172302108 1.6162933783276168 2.3381739637155134
0.5208919908242171 0.1742183771834719 0.346523415890392 -0.4741097137485571 0.5936821249226872 -0.48770782166953586 0.3804363471383958 0.3277463445266334
1.0427855353093864 1.620890420986985 -0.9874763020461383 0.08881486232443285 0.2524934848659832 -0.280090782001251 -0.373224963361146 -0.2704197520907572
-0.3178394344055215 -0.6817038725470508 -0.43899631846651405 -2.839784415318619 0.7636130010483329 0.843725851149705 -1.498651464431948 -0.39219267359058063
0.9984178852281302 -1.630177006798976 -0.22366443897567262 1.2487328311953985 -0.29206493637125225 -2.5693090159614984 -1.8794400222332888 0.020741452099920326
0.3482902799382401 1.366416264017179 -0.3220325827506177 1.9070693749931784 0.8082164179422671 0.8024149075654052 2.1011343658674373 0.39762992039895445
0.48457354223026 -1.146632901422865 -1.1166599735073426 -1.0849260954275308 0.9724835473056622 0.8615223538168185 -1.2304889325282713 -0.32805125047687317
0.6106798595026688 1.7618725446514474 0.05382901437418993 1.2045974263141899 -2.0260834268531327 3.5057692622767944 -1.8330850981573754 1.0554415309195557
0.7538070732841832 0.36884610661585976 -0.3161656156943461 1.9085940430751966 3.778204527805795 0.5939750673797746 1.5222893597905276 -2.750271262612196
1.4977630488055547 -1.2546105300587675 0.1258875688795807 -2.636573293722835 1.6423206901417782 -0.514488416025528 3.084360063988622 -1.0641165048710206
0.9306929146682499 1.3348438117368708 -0.14347206513046049 0.22406528406874454 -0.9043246060892618 -0.7984689866986817 -1.0052250141878167 -2.8806331486752366
0.8130201126799858 0.24009859684535942 -0.12387115182275651 0.19130164360692573 0.4260023370145297 1.0828707497078234 -1.6563048401507394 0.9617010992564266
-0.48542270416239414 2.925706021576962 -0.3012558612053271 0.446059945947275 0.23300662824963123 0.4698907009310036 -1.1361312653586995 -0.797364642942635
0.789162208200022 0.14812248132187597 0.5397482618877626 0.27686330719135677 -0.9686711708666711 -4.070633434442184 0.7929671568511784 1.7602566261781152
0.33800811620071736 0.3113938465419687 -2.6352737035554474 0.6213612653778462 0.814614647919549 0.9258222531904149 -0.20671290031888068 -1.2225947422595949
-0.347773166895185 -0.48584691335424696 0.4402350539829365 -1.5883898495905393 0.4533229524088234 -1.6041582637693803 -1.0954688196889022 -0.6034270479535351
-1.64232636059166 4.000536416660685 -0.7521988083281336 0.08930880762797867 -1.001479608034072 1.7994707096114628 2.0194079740046513 1.4873961804523805
-1.217112940354052 -0.9700832542675741 1.7084351829488804 -3.688166990522398 -1.0879024171666314 -1.4914440162466136 1.5488988965469854 0.8564773634591584
-1.6339186780427148 1.412045164488634 0.14369654645229696 2.6617207020737315 -0.9703487674057494 0.22108511465226785 -0.5859459002104612 3.7137381615666
1.6901757032125424 0.5157342963657876 0.47103337734338885 -0.45261410460460166 -0.7883979555034173 0.6921210799912674 -2.1665386399410327 1.586043109371269
-1.288917244825461 -0.10544562827292328 0.7186954254282448 -1.2434616532911307 -1.6922697974545915 -1.7399196799253456 0.08025552367924328 3.234406586746294
0.2903345722772258 1.7897183643528503 1.2609760124012057 1.7985434759302774 -0.37163378436737443 -1.2557358664558544 -1.6428505952322614 0.4388391855142762
-1.2894524264386948 0.19014919076566283 -1.7699088710791857 -0.049239805345065855 -0.5788587393129743 -2.195533942045921 -0.5857189239634589 -0.8861854163313853
0.21871054034470858 -0.5686573805180853 -1.082577806886718 -1.4254207113736563 0.5177155343853195 -0.4898526677966694 -2.090554792578327 0.6333749513893866
00000000: 16a4 3a8b 113d 76bf 4c9d 096a fd14 1bc0
00000010: 4699 4869 fe26 0b40 ddda c5ea bab1 0440
00000020: 3530 35d4 fa2a f0bf 61ab c43f b335 0140
00000030: 60ff e065 2016 0a40 adf8 0296 9474 f33f
00000040: 1a9c 99d4 e21e f43f 1b4b 8f8d 9d4f 0cc0
00000050: 27f4 2781 e4c6 1440 9a42 1d52 0813 1240
00000060: 5836 826e 8b80 d03f d248 4aad 2fe5 22c0
00000070: 4716 23a3 4614 d33f e37a fea9 b5f4 05c0
00000080: 7def 44c4 46b1 0a40 034b 071b 0d6c f2bf
00000090: 092d 0769 abd7 05c0 9a80 b3a5 9bd6 f0bf
000000a0: 0dee 7c6e bd9e f1bf 8180 dfc2 5a22 f5bf
000000b0: 8883 16bd 1134 eebf 8ec0 da21 20f1 f33f
000000c0: 1f9c 5812 4b3f cabf d4ee 4364 ff23 f13f
000000d0: d341 67fb 19a0 e0bf d774 c160 f7e9 01c0
000000e0: d6d3 7c8e 7614 c83f b2dc 7ab1 fb7d a8bf
000000f0: a9fc d70a 0ad0 e53f 62d0 4459 2b28 f9bf
00000100: 7707 2704 1a1c c73f ebeb 92e9 2224 00c0
00000110: 9174 68ec b675 edbf 168e cc38 4178 02c0
00000120: 9813 2309 d7c1 eb3f 6530 1b9d 90e1 f2bf
00000130: 992f 6187 0e67 c33f 3d0b d46b ed01 eabf
00000140: bf08 2b12 5ea2 de3f 620f 7b83 8f35 f43f
00000150: 1efe 68ff 04d2 f63f 76e3 1060 778a cabf
00000160: 1cae 4399 562b f8bf 6e0a 1f16 75bc d03f
00000170: a50a f2ea 8087 c03f 36e7 9f06 733b 04c0
00000180: 00ad fd5f 530a ea3f b465 a17f 1313 c73f
00000190: 36b5 8081 1897 9c3f b186 6500 b628 e53f
000001a0: 8de3 a0bb 6a94 f0bf 45ad fee9 f394 0540
000001b0: a1cc 716f fed2 dbbf 5072 9a6c 9e26 e13f
000001c0: c996 7a95 7e3a fcbf 82be c7f3 da8e e8bf
000001d0: 8f3e cd2d 44d6 f03f cd86 9748 abae 0bc0
000001e0: 6952 403a 2c23 c63f 430b e432 f9b9 f93f
000001f0: 33fd a82a 6bc8 f03f d15e 7ff5 af10 fc3f
00000200: 45ed e8da 6019 f03f e0ae 73de 44a7 ed3f
00000210: 3ee8 3030 eecb f23f 8f08 77da 125f f1bf
00000220: db87 88e4 3efe f83f f55b 471c 41dd f4bf
00000230: 1789 0a72 56dc f93f 7322 148d 94b4 0240
00000240: b8d3 2aae 25ab e03f 05bf 2eac c94c c63f
00000250: 4309 a38c 702d d63f b905 d144 d057 debf
00000260: 4568 d8a7 71ff e23f 58bd 04de 9a36 dfbf
00000270: c0d2 4ab1 1159 d83f 3207 c8cd cbf9 d43f
00000280: a854 aee2 3faf f03f d09e 48cb 2aef f93f
00000290: 309f dbe6 6799 efbf db09 1521 92bc b63f
000002a0: 40f5 fc6e da28 d03f e3cf 26e3 01ed d1bf
000002b0: 81f6 ebf4 eae2 d7bf d005 dba5 8e4e d1bf
000002c0: 8fa7 0936 7b57 d4bf 24ad c4a3 84d0 e5bf
000002d0: 7132 b803 8418 dcbf 21df 3be4 e0b7 06c0
000002e0: 34b2 4988 846f e83f b449 2f5b cdff ea3f
000002f0: 5167 3df5 79fa f7bf a659 b34c af19 d9bf
00000300: 4c7b 9910 0af3 ef3f cb48 2e7c 3415 fabf
00000310: b2df 564d 09a1 ccbf c5cf f646 cffa f33f
00000320: 5d76 8121 31b1 d2bf 0afb a6e2 f18d 04c0
00000330: 5c91 64b3 2f12 febf 0b49 c349 3f3d 953f
00000340: ff5c 7650 634a d63f 11d2 ea4c d7dc f53f
00000350: a142 ca8c 2e9c d4bf 23c8 4c2d 5b83 fe3f
00000360: aedf 64ad e8dc e93f f41e 3a07 62ad e93f
00000370: ff37 cf88 1fcf 0040 ed92 01c4 c472 d93f
00000380: a1b1 18bf 4003 df3f 8d0f c2bd 9b58 f2bf
00000390: d075 2fd9 d6dd f1bf f302 2777 db5b f1bf
000003a0: ad6d f2d0 951e ef3f 5151 cd53 9791 eb3f
000003b0: 32c8 b429 15b0 f3bf dd71 0dac cafe d4bf
000003c0: 8c79 1c7d b08a e33f e6f8 ef43 a130 fc3f
000003d0: 5b49 a000 7a8f ab3f ecd7 6df3 0746 f33f
000003e0: 1d6a 4a3a 6b35 00c0 3368 46c1 d00b 0c40
000003f0: 1def 350a 5154 fdbf 113c a2a8 16e3 f03f
00000400: 27f8 e702 301f e83f d102 4bb3 2c9b d73f
00000410: 12b9 e1b4 0e3c d4bf fc92 45e8 9989 fe3f
00000420: 3a33 a44b c339 0e40 0c23 2100 d801 e33f
00000430: e395 7516 4c5b f83f 5362 4038 8e00 06c0
00000440: 0a6f fc62 d6f6 f73f 361d bd7d e212 f4bf
00000450: 8ac6 a777 151d c03f 655f 30bd b317 05c0
00000460: d83f 5b0f f246 fa3f f903 2069 b076 e0bf
00000470: 575b 1ff8 c4ac 0840 b3e0 3807 9f06 f1bf
00000480: 46cf e381 3cc8 ed3f 70d8 4a2f 855b f53f
00000490: 0bfd cfe9 4a5d c2bf 3242 9fd5 2bae cc3f
000004a0: 04e3 0328 3af0 ecbf 11b7 17d5 0e8d e9bf
000004b0: c9ec 10d3 6615 f0bf 4fab 6a64 890b 07c0
000004c0: bd6c 5ec1 4204 ea3f 5d16 a202 8dbb ce3f
000004d0: 8620 ff11 05b6 bfbf d13c 7b7f 927c c83f
000004e0: 72ce 5f4e 9f43 db3f 43a4 7c47 7053 f13f
000004f0: 8376 0a81 3980 fabf deac 3a62 41c6 ee3f
00000500: 6341 c763 2a11 dfbf 0b11 038f d867 0740
00000510: 84bb e6a9 c647 d3bf 6d8a f903 3f8c dc3f
00000520: b7ac 0a44 29d3 cd3f 045d 4c72 b012 de3f
00000530: 01dc 4afa 972d f2bf 579c 0ddb 0284 e9bf
00000540: e2a9 6e1a d140 e93f cf37 8a6e adf5 c23f
00000550: 612f 9c25 9e45 e13f 965a 76e0 20b8 d13f
00000560: 8469 eeae 5aff eebf bebb 8b21 5448 10c0
00000570: 114b afa8 fc5f e93f 6e09 20da 022a fc3f
00000580: 6856 37cb eca1 d53f 8fb2 c474 e0ed d33f
00000590: 4e3c 2661 0a15 05c0 a091 3905 31e2 e33f
000005a0: 4906 f5bc 5211 ea3f 6394 6bfd 55a0 ed3f
000005b0: 8cf4 437d 9175 cabf 9f43 2481 bf8f f3bf
000005c0: 526f 8f62 ea41 d6bf b104 eea6 1d18 dfbf
000005d0: 5c35 daa5 cf2c dc3f b7a2 9479 0b6a f9bf
000005e0: d9cf c745 3e03 dd3f 4bf6 07db a1aa f9bf
000005f0: f99f 2550 0a87 f1bf a66e 8f3d 464f e3bf
00000600: 1f99 8101 f846 fabf 060f 509e 8c00 1040
00000610: 1381 3b3c 0312 e8bf c1c5 0128 f1dc b63f
00000620: 35e0 417b 0f06 f0bf 2242 7ecc a1ca fc3f
00000630: 820d 2d5e bf27 0040 08d0 f3ef 5fcc f73f
00000640: adbe 256b 4b79 f3bf 5a3f 6f09 ec0a efbf
00000650: 979e 6121 c055 fb3f f2d7 f3b1 5d81 0dc0
00000660: 3f85 6f5d 0c68 f1bf 6d81 9966 f4dc f7bf
00000670: 38ad 9735 4ac8 f83f d548 3a37 4368 eb3f
00000680: b045 68e9 8724 fabf 0b42 9fab bc97 f63f
00000690: fec6 c7ff a564 c23f 54f1 3339 344b 0540
000006a0: 6217 b7db 180d efbf e72d 885c 844c cc3f
000006b0: 7e22 d49d 11c0 e2bf 89af 6e5a bcb5 0d40
000006c0: b0aa 9cad f50a fb3f d421 0a36 e580 e03f
000006d0: 01ea c02d 6925 de3f ab0b 3f26 a1f7 dcbf
000006e0: a6da 6359 8e3a e9bf 02e9 6d1b db25 e63f
000006f0: 5489 e035 1255 01c0 66bb 4cbd 6e60 f93f
00000700: 9969 5cb0 679f f4bf 9239 f014 7cfe babf
00000710: c7f8 7f8c 8dff e63f ad72 eb0b 38e5 f3bf
00000720: 5b37 c17e 8913 fbbf 6b23 af04 b6d6 fbbf
00000730: 8194 8641 a08b b43f ac56 808f 10e0 0940
00000740: 9a0b 3575 d794 d23f 3e23 3fb9 afa2 fc3f
00000750: d4db e42e f52c f43f 12e0 1886 d5c6 fc3f
00000760: eb94 7c11 d9c8 d7bf 5179 ed7d 7e17 f4bf
00000770: 82c9 abb4 1d49 fabf 892c 7ff3 f015 dc3f
00000780: 28d5 14de 98a1 f4bf 8485 d905 cf56 c83f
00000790: 54f7 e2f6 8b51 fcbf 4ba7 3cb3 f535 a9bf
000007a0: e44b 4bc3 0286 e2bf f3c2 7219 7490 01c0
000007b0: a348 e29c 35be e2bf f5bb aa84 a15b ecbf
000007c0: eb16 09fd b4fe cb3f d788 7ef6 7032 e2bf
000007d0: 0043 3f1b 3d52 f1bf 2a41 a6f2 85ce f6bf
000007e0: 941d 1a2b 2091 e03f 0fe2 0201 bf59 dfbf
000007f0: b7f5 84ca 74b9 00c0 0f56 ca8b 9b44 e43f

w2 f8 [19, 18]
-1.0546842773586003 -3.2080016381339793 -0.23140484125621724 -4.2527512454412335 -3.067461492782207 3.5985293919201515 1.5858437370928022 -4.219730737122089
2.496449819760553 5.304350550211037 -3.0950793300396175 9.181078462694996 1.242517999773017 -2.730234565900039 -3.866231487845419 -3.114320768544041
1.0345065522924854 -7.508312471507726 -2.1243476773904852 1.0107636034556846 1.0002403018680421 0.35714570648850147 -0.9612827667894395 -0.4353984220956434
-0.2843773864619919 -0.36991334810489046 -2.5697672513400973 0.9689268833765573 -0.7844046123023262 -1.8859688429959727 -0.3519201957565376 -0.42466513453446225
-0.1454188168654264 -3.1990150415882908 -0.7835900942012676 -1.43488544908554 -0.47283737373925344 -0.5606373583134674 -3.614755833003566 -0.32939725583615503
0.46281803605832916 -2.0624796334485636 0.45748916301384207 -1.1988856398519312 0.0602785963134312 -2.462752102610439 -1.8835375673908898 0.4207109561802074
-0.19560986321156573 -1.9682581070901362 -0.06954702948072027 -0.6565177467099442 1.0608602920926085 -2.0000651504464657 -1.7022532012332294 0.45468192028239074
-1.7057083123585663 1.7501234829289358 0.585556361519903 -0.4299745145449447 -0.9887414369347195 -1.0771876666678877 0.62429220820104 1.3309530752718597
-1.0518026125321434 1.2256738424956672 1.582257558565126 1.6856042322135607 0.6342761605191641 1.9310831848104868 -0.7157303270258852 1.3263668257625287
0.92010858029614 0.287687214907121 -1.5288264823487436 0.727481491101103 -0.2506381506515213 -0.8240735394529997 -0.9552919303466133 0.7396453588543449
1.8824102835731136 1.3404208871818202 0.1494327252598437 1.1435611555892562 -1.037111600589228 1.3923760029598535 -0.2262313634444526 0.5711618461997723
0.6143940964814354 0.8931924946556841 -0.26395690633109536 -0.3441856936326703 -0.4336847876417168 1.4615650201713246 -2.9935032226563503 -0.464580821990487
-0.39091795216229164 -0.9468613727453322 -0.6561096836602416 0.6712069863843211 -3.1442150695458904 -0.34469694022889663 -0.5796539741688712 0.9907762891977178
-1.1453235586894952 -1.5219979715922998 1.3149684859031325 -0.8923073500146835 -1.5795861932659871 0.03934011743047605 0.26031156914918246 0.41282038432494045
-3.2235710752400024 0.21392067339460666 0.16502458316771498 -1.6909703611738356 5.950493505943399 0.6417243649132053 -0.986385543299563 0.17174379273616328
-0.8332235493289959 -1.6941868289930468 -0.16288649438828637 0.2952829385282228 -0.6243165282715657 1.2859694031475735 1.005974904308616 0.20185103154462414
-0.37718366154933497 -0.4771831358192411 -0.06094519241222456 -1.1852253490109 1.1794806821706958 0.28919417831939054 -1.395766101961552 -0.20261070761731975
0.36461457686953425 0.4812471769822798 0.0828415350879828 0.07219493290675301 0.34109006204831915 -0.36395734092735027 -0.5198558402540293 -0.2654831616671498
-1.2901752063351513 -0.38292047185166384 0.338255970912433 -2.1008576753782013 -0.3070014338341147 -0.3480555862123689 -1.7416976158726305 -0.7933689870369569
0.9161698554045619 -1.2204536047524726 -0.42764423848196564 0.3724370617233751 1.091224075138519 1.5653070802667841 -1.4200503994420368 -1.71107850582828
-0.7911023365143529 -1.3395001780918367 -1.2957144532401303 -0.6549032627415661 -0.05507140864776574 -1.0887435342846183 -1.1110490777534912 -0.12931139041687062
-0.7270833319428954 -0.6568749801085364 -0.4629704122471648 -1.3845262373669125 -0.31671784409842274 0.28939460223611285 0.21775662215541985 -1.6205580085718618
-0.3178602825775454 -1.4303449020282744 -1.3216510498584646 -0.6879640477146669 0.42263265502582836 0.49110330696110893 -0.882827839493397 -0.6303302225077505
0.9847199620362052 -2.1105599889127107 -1.0431663618062417 0.06575047657439621 -0.40410857146914664 -0.675880810978569 -0.9321221628366121 -0.7371268296709661
1.1088103181726627 -1.565025025731004 0.041805525331864025 1.1636319329025449 -0.3186282488521007 -0.24880577271191132 -0.49084223550019557 -0.4447284796498272
0.6683774948402567 0.28297743545772525 -0.5787729233078204 0.8455192273732547 -2.1871586372500267 -1.086632297221781 -1.4321923959537963 1.6286490934033135
-0.8113921001696051 0.18833858742176737 -0.4422993670010098 -1.5141069653545878 0.4430742573721061 -0.13129075992966519 -0.2667947583770147 -0.6449971575987871
0.310395966361701 1.3156169415061638 -1.1178628002484694 -0.4227632559681002 -0.49262239127972435 1.5842946711399397 -0.902826508671629 0.21818052127603615
2.469082680089086 2.585425893223185 0.4918433719263971 -0.7605795353242913 -0.4065078150505704 -1.2240820900554545 0.35353203326890076 0.3290154211011916
0.9661271557743579 -0.09180910961451959 -2.1481633018030575 0.05117846529724403 -2.7636360432506435 -0.9771914144895276 -1.2685757118763292 -0.931817945369243
1.211711376763301 0.4011863224364884 -1.3621668633107213 2.102064017312172 0.8908189877710534 1.2869032111055034 -2.3129439139808894 0.12181576492254007
1.1453110993622715 0.9074511022865518 -1.0201671525187705 -1.006116849723635 1.3728931363693708 -0.8090867655182166 0.8861765557438727 -0.11899275899317355
00000000: f1c4 ed9e fcdf f0bf 2166 4ac3 fca9 09c0
00000010: 666f aa80 ac9e cdbf 02c6 f438 d102 11c0
00000020: 4ee9 4940 298a 08c0 3eef 1fc7 c9c9 0c40
00000030: 8314 b6ae 9d5f f93f 1d76 2718 01e1 10c0
00000040: 38d0 dfae baf8 0340 3cb4 aeab a737 1540
00000050: b15d a8f3 b8c2 08c0 e791 f650 b65c 2240
00000060: 8d76 db8d 5ae1 f33f 6c98 5738 85d7 05c0
00000070: f27d 38c6 0aee 0ec0 b233 d101 21ea 08c0
00000080: c680 19be 568d f03f 3519 8510 8308 1ec0
00000090: 38ce bdfe a9fe 00c0 b944 cd74 162c f03f
000000a0: 6ba1 8af9 fb00 f03f 6f98 51aa 79db d63f
000000b0: 8e35 b213 d4c2 eebf e65e e857 91dd dbbf
000000c0: 99e0 a435 3d33 d2bf 35b8 1d09 a9ac d7bf
000000d0: 43b3 f621 e28e 04c0 1f29 8af3 7201 ef3f
000000e0: 0d71 95b3 d719 e9bf 2415 5faa ed2c febf
000000f0: 3be1 e448 dc85 d6bf d7ec 24ac b62d dbbf
00000100: 867b 5473 159d c2bf 3345 b832 9597 09c0
00000110: 510c 8288 2b13 e9bf 3942 d571 4af5 f6bf
00000120: 0758 22b0 f742 debf dee8 dbc1 bdf0 e1bf
00000130: 5534 2e1b 05eb 0cc0 ef56 4d3a d814 d5bf
00000140: 70a5 378a cf9e dd3f 069f 7252 f57f 00c0
00000150: adce 5aa0 8047 dd3f e4ed 6cb5 a22e f3bf
00000160: 2a44 a10f d6dc ae3f c3ef d65f b7b3 03c0
00000170: 46b3 cb49 f822 febf 6c39 77a5 edec da3f
00000180: 0965 a276 be09 c9bf bf9f 8036 fc7d ffbf
00000190: 0b55 2789 d5cd b1bf 3d9c 6b81 3102 e5bf
000001a0: ab9a 42a4 48f9 f03f 8d4b 5828 2200 00c0
000001b0: aeed 4cda 6d3c fbbf 9280 6c32 8219 dd3f
000001c0: bd86 a1cc 944a fbbf 2643 327b 8100 fc3f
000001d0: e52a d6b1 e0bc e23f 7b60 85d3 b384 dbbf
000001e0: 97b5 fa14 c5a3 efbf d9e3 7f22 293c f1bf
000001f0: f8df 2ba7 33fa e33f 2bda ac73 954b f53f
00000200: 43c4 eaf9 2ed4 f0bf 034e d12c 5c9c f33f
00000210: 242d 3e4d ed50 f93f f3b3 b524 3cf8 fa3f
00000220: 01fe c184 fd4b e43f 73dd 497b b7e5 fe3f
00000230: 289c 6a49 43e7 e6bf e863 b26b cc38 f53f
00000240: 5882 a48c 8771 ed3f d837 e0a2 7769 d23f
00000250: 2c25 efc1 1276 f8bf 892f 9743 8747 e73f
00000260: b667 0b99 740a d0bf 1e63 ae78 cf5e eabf
00000270: d315 df61 c091 eebf f15c 5dbe 2cab e73f
00000280: 189c d93e 5a1e fe3f bb23 152c 5d72 f53f
00000290: 2eba f88d 9c20 c33f 8cb5 43c8 064c f23f
000002a0: c253 6d55 0298 f0bf 112a 470f 2c47 f63f
000002b0: a065 a939 26f5 ccbf 06d5 4435 f546 e23f
000002c0: 92c8 e7ce 1da9 e33f ad85 326d 0895 ec3f
000002d0: 78b4 0f82 abe4 d0bf 37d1 796e 2307 d6bf
000002e0: 8268 ecd6 7dc1 dbbf 91d0 a900 9262 f73f
000002f0: af3c 4ed1 b1f2 07c0 7011 3333 b1bb ddbf
00000300: 9834 fdba cc04 d9bf 052e b938 b04c eebf
00000310: cc1b 3dbc d9fe e4bf 8cc1 eb12 877a e53f
00000320: d951 fa3a 5a27 09c0 c41e 54c1 830f d6bf
00000330: c7a7 c17d 868c e2bf b934 f879 70b4 ef3f
00000340: 358e becb 3e53 f2bf 8413 898b 1a5a f8bf
00000350: ed97 2365 1c0a f53f 4764 c924 c88d ecbf
00000360: 18a6 142c fc45 f9bf 70c3 914b 6324 a43f
00000370: 1d09 11db f1a8 d03f ab0e 7330 a66b da3f
00000380: 20e6 c3a1 dfc9 09c0 6185 15ac c061 cb3f
00000390: 25e5 de89 861f c53f 6ff3 fbef 360e fbbf
000003a0: 6059 6c2b 4ecd 1740 9f27 0b89 0189 e43f
000003b0: 8800 376a 7890 efbf a5e1 8b5a b3fb c53f
000003c0: a800 d46e c4a9 eabf e06c fda5 631b fbbf
000003d0: a7cb 2df3 76d9 c4bf 65e9 0269 eae5 d23f
000003e0: 92ea e8a7 66fa e3bf b7ce 22a7 5493 f43f
000003f0: c1a2 2924 7918 f03f 7cf2 922d 41d6 c93f
00000400: c127 bcf0 c623 d8bf acf7 a222 2b8a debf
00000410: b792 8450 3534 afbf a345 06db aef6 f2bf
00000420: 94fd c222 27df f23f f0d2 844c 2882 d23f
00000430: efa4 0cd6 0e55 f6bf 4e95 84cd 25ef c9bf
00000440: 762b d360 d855 d73f 0a99 9bf5 c0cc de3f
00000450: f30c f453 1a35 b53f ad7b c5fb 5d7b b23f
00000460: b63d 5f69 6bd4 d53f 8d03 1bbb 134b d7bf
00000470: 2dd2 10b7 a8a2 e0bf 14f1 3f16 adfd d0bf
00000480: c81c d5c1 8ea4 f4bf 1f98 e4dd c481 d8bf
00000490: 5ab8 2f5f fca5 d53f 5166 0a78 8ece 00c0
000004a0: dc20 8957 e9a5 d3bf 1039 feef 8a46 d6bf
000004b0: 1c1b bb51 fedd fbbf 0680 9f5b 4763 e9bf
000004c0: 8465 d171 4351 ed3f a627 eb5b fa86 f3bf
000004d0: 6095 a6f0 855e dbbf 0ae5 fa41 02d6 d73f
000004e0: 9c3e 3560 a775 f13f e016 df6f 7f0b f93f
000004f0: 9167 84c4 86b8 f6bf 73bc f6da 9360 fbbf
00000500: 61c9 e3d8 b550 e9bf f53f 1ebd 976e f5bf
00000510: 21ef 1914 3fbb f4bf 5e99 f0af f7f4 e4bf
00000520: c371 2cd6 5132 acbf 04be 1757 7e6b f1bf
00000530: 3c3c d365 dbc6 f1bf 9a9d 6b90 468d c0bf
00000540: 952a 8543 4444 e7bf dd0e a4ad 1e05 e5bf
00000550: 6180 e7a6 4ea1 ddbf fe1d dffb 0427 f6bf
00000560: 2e97 9deb 1a45 d4bf db8d 0ff0 7085 d23f
00000570: f68d 52f1 72df cb3f 7e64 013c ceed f9bf
00000580: 488b 97a7 d257 d4bf 6163 0356 b1e2 f6bf
00000590: d6db 3d92 7b25 f5bf d043 b82d cd03 e6bf
000005a0: 70af e3d5 690c db3f 12bf 9690 3c6e df3f
000005b0: 56eb 532b 2040 ecbf f63c 6b49 aa2b e4bf
000005c0: 5d3e 1570 d382 ef3f 7d02 8546 6de2 00c0
000005d0: faeb 0336 cfb0 f0bf b55c 95f2 05d5 b03f
000005e0: a191 9f32 eadc d9bf 80b3 64cb d0a0 e5bf
000005f0: 3652 a8db f1d3 edbf 5c1c 4e01 8b96 e7bf
00000600: 954d 60e3 afbd f13f c3fa 6eae 570a f9bf
00000610: 5556 2fa8 8867 a53f f75c 8684 3c9e f23f
00000620: 8ab2 19bd 6764 d4bf 0145 6d18 ded8 cfbf
00000630: f801 3e8d f569 dfbf 2488 ec70 6e76 dcbf
00000640: fb14 3733 5963 e53f 1800 b363 4d1c d23f
00000650: 615b 2dcb 4e85 e2bf 57a2 b656 7e0e eb3f
00000660: eb38 1107 4d7f 01c0 b784 358c d862 f1bf
00000670: 1739 e392 42ea f6bf 8b3c 0d5a f20e fa3f
00000680: 3bc2 ce90 ecf6 e9bf e991 c694 7a1b c83f
00000690: c8e4 1301 a24e dcbf 0a80 ad39 c839 f8bf
000006a0: 3136 4721 545b dc3f 6b1b 15b8 22ce c0bf
000006b0: d44d 7e52 2a13 d1bf bdca 3c14 d1a3 e4bf
000006c0: 575d 150b 87dd d33f ff51 9d59 c40c f53f
000006d0: eab6 871a c4e2 f1bf 8757 959d 8d0e dbbf
000006e0: 05b8 f410 2087 dfbf af5e 7c5e 4559 f93f
000006f0: b49b 166b f4e3 ecbf 889d c0dd 56ed cb3f
00000700: 3dd2 906b aec0 0340 5800 4dc5 f3ae 0440
00000710: 4968 4b9f 5c7a df3f cf30 c7e4 aa56 e8bf
00000720: bd7a cd5a 3904 dabf 2385 061a d795 f3bf
00000730: ad9c 3ed2 44a0 d63f 2598 60b2 960e d53f
00000740: f781 3a7f 83ea ee3f f7ec 4443 cd80 b7bf
00000750: 2cb1 bd3d 702f 01c0 c219 6c55 1034 aa3f
00000760: 8377 be36 ed1b 06c0 9943 e5ed 2645 efbf
00000770: da23 b00b 164c f4bf 60fa 25de 73d1 edbf
00000780: 713b f677 2b63 f33f 13e7 9d65 09ad d93f
00000790: cad4 197b 6fcb f5bf 1da2 83f0 06d1 0040
000007a0: 6d3d 64d2 9681 ec3f 600c 4dd2 2797 f43f
000007b0: c33d 20bd e880 02c0 b6c2 7a66 512f bf3f
000007c0: b31b 38bb 3153 f23f c946 e1e4 d609 ed3f
000007d0: 5358 c8ca 9a52 f0bf ec47 58fb 0d19 f0bf
000007e0: c2bf 19cb 5ef7 f53f 80de b0ed 09e4 e9bf
000007f0: fddb acef 8e5b ec3f 3a24 5638 4f76 bebf

w3 f8 [19, 1]
11.77178283291833 -0.03558730293379116 -0.2627403668608402 3.0646841962618976 -0.16460144606793345 0.06520486446371367 0.7531512838329537 0.20615809030248697
-0.5454021037362294 0.5131954378014776 0.4437700594586138 0.5413256813442868 0.20559690221369695 2.5163146280997153 1.4852790367563204 -0.4540738374255368
0.07146931838841403 -0.1878909019247231 -1.951413691360423
00000000: 36ff 951e 278b 2740 dac7 81bc 7f38 a2bf
00000010: 0d68 c0f8 bcd0 d0bf 691a dc25 7984 0840
00000020: ef37 de01 a911 c5bf 4969 6918 44b1 b03f
00000030: 2a18 a0b8 d019 e83f ebd6 d367 6363 ca3f
00000040: 3fef d61c ef73 e1bf 3a0a bad6 186c e03f
00000050: f065 1489 ba66 dc3f e479 3b3c 8a52 e13f
00000060: af57 95d1 ff50 ca3f d313 5190 6921 0440
00000070: 2ed8 84f3 b3c3 f73f cb8f 6db6 8b0f ddbf
00000080: 4c49 2531 d04b b23f cbc6 7d1f cf0c c8bf
00000090: 25c1 1590 fd38 ffbf
