Code/Models/run_20251101_014640/model_hidden_3_width_30_act_RELU.npz (npz, 16574 bytes, 4 tensors)

w0 f8 [2, 30]
-0.9561468857112222 -0.5935493689528049 -0.5654369764205207 2.189239082681921 3.7219084234578204 0.7620548097542301 -3.594537542952427 4.9048011929028466
-0.39518305869835196 -0.28102904709340787 -4.1162217831553 1.4458079473931271 -0.27498214585039005 3.6153988904843715 -1.40160874264987 -0.8344242123171322
-0.9313064281825926 -2.9542419053017692 -3.713102128827064 1.7699231828858502 -0.9247924854326047 -4.217189343400236 -0.07411966881428322 2.167455495550772
-0.18882540372258377 2.913615160948296 -3.766517979020322 -4.047305767642405 -3.439578737778036 -4.000109115701318 0.005655327190982587 0.004836897713907218
0.004674173699234303 -0.46605874590224844 -0.501964279859289 -0.8785839415976722 -0.23856794871310133 -0.11271708476354649 -0.4125246771852961 -0.0026192781031623867
-0.35095362361646454 0.09121872965492019 0.0021271361116001987 -0.8307043401828121 0.012422359097284098 -0.004225337469790788 0.003203122366011415 -0.019912102673889365
-0.31242143254566884 -0.4699101959503836 -0.009767415740264773 -0.3385826617844432 -0.0006989292135509695 -0.6141231560391386 -0.00033505883892920947 -0.5298696205237793
-0.34978416898756004 -0.3185648205816581 0.39655426833750884 -0.77692687778332
00000000: 91a9 895a c198 eebf ead6 063f 5bfe e2bf
00000010: ba9b 3549 0f18 e2bf 7df3 b9c7 8f83 0140
00000020: 83aa 6bec 77c6 0d40 eaec b4c4 c062 e83f
00000030: 88cc 39e6 9cc1 0cc0 1a99 3334 849e 1340
00000040: 1bbb 42e2 ad4a d9bf b580 9f41 61fc d1bf
00000050: 74f0 d6d7 0277 10c0 1d9b a583 0722 f73f
00000060: 3053 dab6 4e99 d1bf 2000 e540 56ec 0c40
00000070: 8080 f749 fd6c f6bf 8890 dc67 9ab3 eabf
00000080: 6f29 7323 43cd edbf 5cf3 7d94 49a2 07c0
00000090: 6829 90e3 6eb4 0dc0 cdd4 aef8 9a51 fc3f
000000a0: 83a0 1069 e697 edbf 60c6 1be2 66de 10c0
000000b0: e835 8cb1 81f9 b2bf 8768 27e8 f256 0140
000000c0: 3e3d d24a 6e2b c8bf bf38 2b77 154f 0740
000000d0: a281 9d2d d421 0ec0 c7be 53ec 7030 10c0
000000e0: 6230 76db 4184 0bc0 7d79 a19a 1c00 10c0
000000f0: 6acf 5555 0a2a 773f c0dd ecd7 dacf 733f
00000100: 94d8 c8f2 3925 733f 3b8e ea0f e8d3 ddbf
00000110: d32f b864 1710 e0bf 247d fe11 5c1d ecbf
00000120: 965c cc00 6589 cebf 4988 c2e0 06db bcbf
00000130: 8771 53e7 cd66 dabf a6cb 5939 0675 65bf
00000140: 2c1b f62f 0676 d6bf 498a a654 1c5a b73f
00000150: f621 1281 ed6c 613f bd5f b744 2195 eabf
00000160: 94fb 7ed0 e470 893f 6300 f563 964e 71bf
00000170: 38ce d339 6f3d 6a3f cda4 1d97 d663 94bf
00000180: 7b99 d676 b6fe d3bf 817c ea36 0213 debf
00000190: 93f2 5d59 f000 84bf 04d6 d69c 56ab d5bf
000001a0: 0054 a50e 0be7 46bf e3f0 dc9a e5a6 e3bf
000001b0: 764c 64c1 5af5 35bf dd64 6922 b1f4 e0bf
000001c0: 6872 9d23 dd62 d6bf 217a 83b3 5d63 d4bf
000001d0: e252 6627 2561 d93f d6ce 6ec1 95dc e8bf

w1 f8 [31, 30]
0.21400965721513587 -2.5422713199136706 -0.11518465109993782 -0.9728451231334139 0.28621569801020397 0.1224045215666118 -1.02762699903193 2.0491665603160576
-2.5901928163275985 -0.7259516724802427 -2.3822713642113222 -0.19440828691379206 -0.08209331719987718 0.13807605788904698 -1.3904216473671478 0.7622823947013241
5.085185603802548 -0.41846107648839703 0.4891021976143629 -1.7038615477664876 -1.328141772732469 -3.9199906724980447 -2.3989528681823367 3.5490811322126112
-0.005802047352441147 -0.1494127504143534 -2.21701562441209 0.03693411668129109 -2.861338620891553 2.3981684635435023 0.10091162884740934 -0.5250911154423423
1.8431520835287385 -0.4590269912225596 0.6656176031986187 2.131861185319279 0.26291751590901136 0.694170327911176 0.4935195328684395 -0.7887495625423872
0.8611261001099619 -0.6185680169401739 0.5590597466520685 0.4406964910361151 0.7150787691801973 1.610790714786339 -1.1459593793546012 -0.2342224351286619
0.025501303842561114 -0.06457858348213988 -0.4515670551706277 -0.32346997375709124 -0.42059083687898713 -0.7042474162869344 -0.41302898586456227 -2.20304015187545
0.6742320741595426 0.6957600109751935 0.36166701633494375 -0.3654785786273679 2.552228834553914 -2.0592548102343886 -0.12114414866169276 -1.1749662325981152
-0.27193858411656024 -1.6225342761765897 -1.1972839900426293 0.5288248044192355 -0.6884429051577696 -0.48062677131240766 0.15717697357000557 -0.3419077507405177
1.527481616573966 -0.24533263332874114 2.1282416380546905 0.6621131810579862 0.03688196356402312 -1.0945081407029496 -0.9094106695805743 0.3208809048049597
0.9107955326904326 0.062446405665813116 -0.7114353991071481 0.0381596859331655 2.3052588211407787 0.06260206544082124 0.1278341432192832 1.1579402450281975
-1.1982494667975294 1.6581058046692687 -1.1282806170199104 1.5132561848345536 0.5006192239113514 0.4602887566432508 -1.4184465042804042 0.5919198798724531
1.7716178637428508 1.2040810534483344 1.0789347326724283 -3.3889422487801637 1.2814624144773465 -1.8486635416345616 -0.8646858236884954 -1.0436219842814891
0.4436562576309939 -0.42633211484993716 1.6908077805568946 -2.285129291046442 0.6973601377569413 0.11389041070975453 0.6495548230717965 0.5616008130794609
-1.0709162903631064 0.17402157450425773 -0.2586323725067892 -1.6108802362415529 0.19716111201033662 -0.6998780880486825 0.7227832351883724 0.1987989365444068
0.6960752985359032 -0.8441744105189289 -1.2274067721904687 0.6295720359173539 -0.38692200693202483 1.1110202310045543 0.5036265516369378 0.38124400757729726
0.28143382870250966 0.5901594005908629 -1.006416630401802 -1.0825958403697729 -0.5455841063496546 0.14788429271559764 0.18219201183382605 0.3315692220840699
-0.8696820487497898 -2.337887501017818 0.8002610063492497 0.8396813928867999 -0.5987198969414582 0.3057811525580195 -1.1682106980865046 -0.6340177404836761
0.12967642888384623 -0.3683904833924325 0.3673707337936347 -1.0552111044094565 -0.6363160708275911 0.45809781845630426 1.3592781550289952 -0.20472088550350676
-0.13957039898534765 -3.156496311445289 -1.193735426837064 -0.7703968797543419 -1.839995978110189 2.550842041251773 -0.4611750997194676 0.014346099889362028
-0.7677217302737596 -0.7047388678546764 2.0249955916737266 -0.08028085237499015 -0.02068627441899368 -0.6404700649315924 1.581851551811571 0.7360392005263968
-1.137310608751515 -0.22838014580534494 0.14637742865966163 -0.5036639410140137 -1.681767526557006 0.8908097993001869 -0.11948461625013505 0.5042356923162514
-1.076854474266855 -0.3108768672828482 -0.6065902694613426 0.09726719411963976 1.5399484422430696 0.747149614847463 0.4756954273147291 -1.2440882283394437
0.7419852690188781 0.7791366758067648 -0.8540491842843547 0.5887855060952731 -0.5502100411688657 -1.5295137089851865 0.2121545524645019 -0.6899623429543513
-0.669020251216243 -1.4622870359518592 -1.1279203379451814 2.066005011253546 -0.3991475332732736 0.3993249971929529 0.371665322229084 1.5089233806237985
-0.28494449051922804 -2.0874846407476224 -0.6345366702600712 -0.37922337064821 -0.05230483328851027 0.5273871355074988 -2.780870434186895 -0.04204444575746676
-0.6057765575213179 -2.3845883282066493 -0.3396545495045571 -0.724953492301771 0.7159342634543295 -1.2511977268730927 -0.7134591103640332 -2.655042356607301
1.1563484030064595 -1.541820761427215 -1.3500910256064167 0.40170451215380754 3.0416786857965463 1.2337404502048976 0.8405587623022709 0.05311513369719137
0.23765935315701564 -0.15233839251163558 0.4690685563144761 0.7634156750248217 -1.1925968538908096 -0.6934945186875209 1.1895701560753955 0.3572380891722341
0.812981120323022 -0.9915386437578774 0.655949330659482 0.07667738287839217 2.229644256917749 0.19111975916598292 1.9395857266072585 -0.68267593998652
-2.1491405126537475 -1.5239303911713997 -0.9704087760767713 0.18298825856956233 -2.384598842318775 -0.9183694534998467 -0.02693035287814331 3.296988025257678
0.852966656304642 -1.323940267958536 -2.9136157318589593 -1.9916568682071716 -0.9394387383013268 0.1998906040428493 -2.3704950079834712 0.0480519616484577
00000000: ec32 621f ab64 cb3f 29b4 8458 9256 04c0
00000010: 09b4 79c5 bd7c bdbf 9ecb 7d18 8c21 efbf
00000020: 948f a3a5 5b51 d23f 0cd9 0219 e755 bf3f
00000030: 9d42 1502 2971 f0bf 0bea 0470 b164 0040
00000040: 7ab0 e302 b7b8 04c0 c3ee 7800 ff3a e7bf
00000050: 25e1 fb49 e40e 03c0 13dd 2ee9 5ee2 c8bf
00000060: edf7 9750 1104 b5bf 583d 7fec 79ac c13f
00000070: 3e7a f1c4 2a3f f6bf 49e1 710c 9e64 e83f
00000080: 15b0 19e5 3a57 1440 e6a9 8af7 10c8 dabf
00000090: 5ef2 c94d 734d df3f a61a 8953 0443 fbbf
000000a0: 1166 6596 1140 f5bf 7f08 d811 245c 0fc0
000000b0: 85e8 8b33 0e31 03c0 6ba1 0da6 8464 0c40
000000c0: eca7 0e3a e3c3 77bf 9749 51fe f41f c3bf
000000d0: 4c91 0cb0 72bc 01c0 1f6e 814e 07e9 a23f
000000e0: 7416 bc80 05e4 06c0 48be 89f2 722f 0340
000000f0: e88a af31 58d5 b93f 36d7 07e2 8bcd e0bf
00000100: 8cf6 040a 8d7d fd3f 1d0f d2be b260 ddbf
00000110: bc28 ac49 bd4c e53f fc76 b43c 0d0e 0140
00000120: 20fc 17fd a3d3 d03f 576d 07b1 a436 e63f
00000130: 76db 66f3 d295 df3f d152 fbb8 6f3d e9bf
00000140: b289 b652 588e eb3f 0482 6327 4fcb e3bf
00000150: 872e 0c44 d1e3 e13f 9492 1d0e 5f34 dc3f
00000160: 132c f6de ece1 e63f 1b53 0b7c ccc5 f93f
00000170: a3f5 8d80 d955 f2bf 9ffc 6e31 00fb cdbf
00000180: 0261 0988 031d 9a3f 7aea 13d8 3888 b0bf
00000190: fc2a 7a81 79e6 dcbf 7194 a167 bbb3 d4bf
000001a0: 0e1f 59d4 f5ea dabf 11d6 a7e0 3189 e6bf
000001b0: 62a7 a520 116f dabf b3a3 e083 d39f 01c0
000001c0: 51be 8d24 4f93 e53f 0b19 a07f aa43 e63f
000001d0: afd4 cc69 8d25 d73f 82f5 a543 0064 d7bf
000001e0: bd89 82f3 f66a 0440 f7b2 0096 5a79 00c0
000001f0: 388e 9a8c 4d03 bfbf 9b9c 6e64 a9cc f2bf
00000200: 6446 5317 7167 d1bf 6b14 4d80 e6f5 f9bf
00000210: a61e d441 1328 f3bf 316a 09ff 21ec e03f
00000220: 721b 5a6a b907 e6bf 6f9b 17ca 96c2 debf
00000230: 5b6e 9504 601e c43f 007c eb0b d1e1 d5bf
00000240: 84d2 4690 9070 f83f a9ed 644a 0f67 cfbf
00000250: 6371 4b8d a306 0140 61a0 5cfb 0730 e53f
00000260: 57b5 a356 31e2 a23f 2266 d8f7 1a83 f1bf
00000270: c76c 8f67 e419 edbf 9015 0310 5089 d43f
00000280: 21f2 47ac 3c25 ed3f d9c1 2cac f9f8 af3f
00000290: 9938 8c2b 14c4 e6bf 6a97 3796 aa89 a33f
000002a0: d8eb 6c89 2b71 0240 1ffa ba5f b006 b03f
000002b0: 3331 3884 de5c c03f b3e4 b159 ec86 f23f
000002c0: 6984 05a2 072c f3bf dfcb c5f3 9987 fa3f
000002d0: befa ecf9 6f0d f2bf a258 051e 4c36 f83f
000002e0: 4a57 4e9b 1205 e03f f5f3 1ff9 5e75 dd3f
000002f0: 6328 30f6 f4b1 f6bf 21f1 bcf5 01f1 e23f
00000300: 118f 1cf9 8b58 fc3f 81b3 a47e ea43 f33f
00000310: 9a8b f510 5143 f13f 1659 f4c0 8d1c 0bc0
00000320: 02bc 93bb de80 f43f 310c ca38 2094 fdbf
00000330: 35d2 c19a 81ab ebbf 8c02 3ef7 acb2 f0bf
00000340: 3437 4c37 dd64 dc3f b2f5 a07e 0649 dbbf
00000350: fe06 9575 8c0d fb3f b968 a1dd f147 02c0
00000360: 5d67 2635 c650 e63f 348f 5305 ec27 bd3f
00000370: 86ad 4132 27c9 e43f 57aa b244 a2f8 e13f
00000380: 98cf bd1e 7922 f1bf d1a8 a5c5 5646 c63f
00000390: 8da0 66cb 6e8d d0bf 32e2 c65a 2ac6 f9bf
000003a0: 454e 1048 933c c93f 2b65 6bbb 6665 e6bf
000003b0: 7765 a74e 0a21 e73f 0b0a 7859 3e72 c93f
000003c0: 097c 58b4 3f46 e63f 6990 a90d 7a03 ebbf
000003d0: da26 9748 75a3 f3bf afb7 1741 7425 e43f
000003e0: fe0b 7885 54c3 d8bf 29be 5526 bdc6 f13f
000003f0: 62b1 156e b51d e03f 3aca 1544 4d66 d83f
00000400: 6afb 9008 0303 d23f fbde 9ef7 95e2 e23f
00000410: c29e 1b53 481a f0bf eec7 1204 5052 f1bf
00000420: 23a7 bfcc 6c75 e1bf 571d 675c dfed c23f
00000430: e098 355e 1152 c73f fa84 4d1d 6e38 d53f
00000440: 568e a972 6fd4 ebbf 21ca b45c feb3 02c0
00000450: 2617 51f8 bc9b e93f e645 3083 abde ea3f
00000460: 6a7f 1aa1 b628 e3bf 8612 7e1c eb91 d33f
00000470: e1e6 71b3 fdb0 f2bf 2fc2 8e92 df49 e4bf
00000480: d420 8fba 3c99 c03f 1000 95ad b593 d7bf
00000490: fcac c989 0083 d73f d608 fd09 25e2 f0bf
000004a0: 8bf5 4385 b35c e4bf a4e1 2883 7951 dd3f
000004b0: 9e44 6073 9abf f53f 38da 0542 4b34 cabf
000004c0: d9dc 905d 71dd c1bf 32d1 5c23 8140 09c0
000004d0: f977 a551 8a19 f3bf ee87 6f5b 17a7 e8bf
000004e0: a213 6c9f 9f70 fdbf 8881 43df 1f68 0440
000004f0: e693 c190 e483 ddbf 5fb7 ccee 7c61 8d3f
00000500: e089 7e29 2d91 e8bf 24fd b486 388d e6bf
00000510: 3a43 86e3 3033 0040 f711 7233 498d b4bf
00000520: f131 6c60 c82e 95bf 8a57 de13 bb7e e4bf
00000530: 5085 a292 434f f93f 2db7 da14 a28d e73f
00000540: abb4 df9b 6c32 f2bf d813 a584 8f3b cdbf
00000550: fc9f 7bde 7ebc c23f 978c 5ad7 031e e0bf
00000560: 2d98 e010 85e8 fabf 886b 5e8d 8381 ec3f
00000570: 6f60 2b37 8b96 bebf cc2c ffe3 b222 e03f
00000580: 4c70 d8c1 cb3a f1bf 5904 8416 68e5 d3bf
00000590: bf10 2dff 2f69 e3bf 75b0 b7b9 80e6 b83f
000005a0: b05c 4ffa a0a3 f83f a8a4 1f4f a6e8 e73f
000005b0: bb1a cb3b cb71 de3f 63e7 e00e c9e7 f3bf
000005c0: 5198 11e4 57be e73f e288 b609 b0ee e83f
000005d0: 30a8 75f4 5e54 ebbf 5a37 a1b3 54d7 e23f
000005e0: f208 9816 529b e1bf 2700 ee5d e378 f8bf
000005f0: a92a 4460 e127 cb3f 36bc 4ee8 2b14 e6bf
00000600: 27bc 6a28 9d68 e5bf bc72 4c17 8765 f7bf
00000610: 337c 3f32 f60b f2bf 14a6 a5a2 2d87 0040
00000620: 9f04 6c18 a28b d9bf 4cd1 da6e 8a8e d93f
00000630: 78ff 0159 5dc9 d73f 002f bfd7 8c24 f83f
00000640: 5d26 fdd0 873c d2bf 894e b725 2bb3 00c0
00000650: d826 dcd8 1f4e e4bf 5807 b419 3245 d8bf
00000660: 5934 cbf8 b2c7 aabf 1abf 6afc 5ae0 e03f
00000670: e1f7 89ff 383f 06c0 cb76 037f d986 a5bf
00000680: ca99 e784 8562 e3bf 2691 a00b a313 03c0
00000690: e4d1 836f e6bc d5bf b7d3 91aa d132 e7bf
000006a0: 02e9 f3f8 eee8 e63f d8fd 5be8 e704 f4bf
000006b0: 337f 4133 a8d4 e6bf 2afc d8d8 863d 05c0
000006c0: f71c db2e 6780 f23f b4fa 293f 4cab f8bf
000006d0: 7da4 190c f999 f5bf 9acc 96d7 86b5 d93f
000006e0: cd7d 83a2 5b55 0840 1d1e 56a0 66bd f33f
000006f0: 318b 4e7d dbe5 ea3f a4e0 4d24 e831 ab3f
00000700: 46ee b226 9f6b ce3f b39f e10e d37f c3bf
00000710: 8cf7 3c1f 3805 de3f 2d88 afb5 e66d e83f
00000720: 5460 4c70 e014 f3bf 31fb b66a 1b31 e6bf
00000730: 5643 4ab7 7a08 f33f 7656 7825 fddc d63f
00000740: b5b0 81fb f003 ea3f ff20 f53f afba efbf
00000750: 837f 6073 89fd e43f 7d39 ce03 21a1 b33f
00000760: 5a68 69ba 4fd6 0140 9d5f 9ebd 9c76 c83f
00000770: ae10 f90a 8b08 ff3f dd42 8036 7bd8 e5bf
00000780: 27da c294 7031 01c0 ea62 77d5 0462 f8bf
00000790: 2d09 a0b4 960d efbf 87db 0dc5 286c c73f
000007a0: 74b5 ce8e a813 03c0 e7ab 0d56 4863 edbf
000007b0: 8b84 8663 a193 9bbf 6548 fe41 3b60 0a40
000007c0: 6705 adba 804b eb3f 89d4 8bfd db2e f5bf
000007d0: 0c90 cbc3 154f 07c0 7bdb 9c97 d3dd ffbf
000007e0: c130 33d4 e10f eebf fc23 92eb 0396 c93f
000007f0: 4ff6 3416 c6f6 02c0 efd9 9347 449a a83f

w2 f8 [31, 30]
1.2737941523918612 2.2550361402740093 -0.6707346222703587 1.1919356354188246 -2.0393514064551828 -2.3460026562506435 -1.1728787117008184 -1.534630637973934
-3.3852997956699626 1.1966436748496567 -3.611524535610991 -3.969050712090744 -1.6080106777420586 -0.005774385574803066 -2.275793399227425 -0.11244795890242315
0.016295106186562044 1.7327199008095846 -6.2697977685055575 -2.862142765329982 -3.400352787743915 -2.762262486589288 -2.1151753624167804 -3.100581013742952
-2.450285698784961 -1.2442831792437994 -5.854290091798901 -0.04125793768825493 2.309830004387945 -5.174564351614987 0.14412539013612619 -0.48172657723651124
-0.34508984703939743 -0.08715449132439507 0.6428256609708296 0.3027315453905309 0.9731388143490896 0.7168872668673041 -0.3537554407912492 -0.26240398309730445
-0.5401258078404261 0.39313466321435026 0.13627223388538073 1.7386986436906295 1.565511005498942 -0.3479167951056149 -0.1939782352341447 -0.7948811053931789
-0.6732480436527508 0.5712285069106147 -0.1546603817534753 0.03718142784415091 1.1209485796008662 -0.11722141658839719 0.8045619449676219 -1.451053105784459
0.5242310555721948 -0.24268809658233656 -0.4095119961740017 0.8061230666800392 0.2587531734218037 -0.22774924614961276 0.5785871410390665 1.893768436246258
-2.27690510683311 0.7235537704198182 -0.1157776868087147 1.0908623461620977 0.047165910568579245 1.1733301467519124 1.0411177458222896 -0.9712233923103543
-0.7495302992217467 -1.9668183735262859 0.6456241162254654 -0.608656344265207 -0.18536050555313127 -0.28517622948171073 -2.3662050102441867 0.31234149434613445
1.0227304967917636 0.8601145649874657 -0.3694432755925145 0.44084160244343557 -0.071008292574869 -4.30594096672135 -0.2606825172729138 -0.5578089882343293
0.026891257873541716 0.3434432287341187 -0.8727497366134513 -0.7134701103019493 2.13055450129597 0.2686177265688021 -0.6728207256696822 1.698541876770857
1.2698687174491905 0.6065876541434742 -0.7038501290032864 1.572448944004024 -0.039377723406235146 -0.2998818110636124 0.5324006396224839 0.65598330406475
-0.33993359060280604 0.31224926484506255 -0.5100470462036961 -0.5579464752267428 0.19040299292440702 0.1192130797867251 -0.928834205536901 -1.6720647974127465
-0.2674133979573384 0.3286852131802982 0.41025656869650334 -0.5904451881305381 0.9897771062476634 0.9169202977497399 0.6388771922700387 0.5182980798779093
-0.8626091594591891 -0.8161878852265868 -2.3727794548418237 -0.041810576081023045 1.6074405414056385 0.5437940583788047 -0.21178421956469903 0.06250515001503076
-0.05559695750711747 -0.7186350219105145 0.5701041345249906 1.257552769218799 -0.3217594194709809 -0.6643976288752053 1.5197320950636044 -0.4963151291904322
1.3074279348392286 0.0776216031734976 0.6571241818500453 0.6355094866225823 -1.2902244811028738 -0.4640105644820659 -0.999185920052261 0.375246610938222
0.909231836899874 0.20575461093623454 -0.29924165743548387 0.2388784099385511 0.5760593921583119 -1.0657536176441202 -1.5350320962786617 0.9551208996835456
0.4699392525410379 -1.436203160608159 0.5309468284933568 0.8558428581139308 -0.26661238981932806 -2.5529023935277353 1.504714587274585 0.12269657024635588
0.07389210651679796 0.39563421018595246 -0.33867870565130315 -1.3755674477536473 0.49654939765854544 0.6983879680871498 -1.0201983824370293 -0.2585911186119879
1.73226373460511 -1.6526883716080898 0.9033664363369237 -1.0780885291800666 1.4881911738945102 0.3993264802897654 -0.38766616022385597 1.0014352269762892
1.3296499152848051 -0.1619620359510588 0.4009970207913977 -1.5088990729002507 -0.11763888873973545 0.917794900145946 -0.15936434483058157 1.3344196843347809
1.3054198625972748 0.10806317281749436 0.21357661804755462 -1.0363983695800278 -0.5801516241271382 0.46596902715168537 0.15304183666986165 1.4183116532844298
0.9758662245048644 0.846840801674883 -0.9763117530331878 1.5530177940808192 -0.6351087259572381 -0.3749487090201824 0.08879335809850235 0.7161329878698223
-1.3199123167430238 0.7504635150198716 -1.1821462316322655 1.5879970055306247 -0.6169636478802449 -0.2504235490247794 -0.46666143392814674 1.1928596913723193
-0.34039591395399077 -0.9982431845228831 0.24055283809004796 -0.3877885500050536 -0.3734327693045743 -0.3626973362054743 1.0095591516441458 0.5208689522243175
0.34312332235994053 0.6697378059268446 -0.4536842820575374 1.175678882461405 0.024572767115748986 -0.6203710087437082 -0.9252758096030964 1.0328289487717146
0.4358761302779323 -0.5370957863155225 -0.4299604853764738 -0.504239477168469 1.0329033016856528 -0.03958971459313336 0.9938216467963348 0.288529789691472
-0.6359759488328735 0.6859221514235002 -0.6989887670189309 0.8196608736115315 -0.07327779159715087 -0.06859394633222955 0.3350034482860821 -1.0490904540326162
0.325336132358462 -0.05670246313190344 -0.3100357963769754 -0.3475984289936941 -0.20271791361850136 -2.2411016641706554 -1.9969422856906118 -0.03309958967760477
-0.23626298703364437 0.0192143569808694 -0.7763353308754533 0.9843147060601704 0.24850669950127935 1.210287953832881 0.23527956551207202 -0.7717055796753721
00000000: cfbe 25fa 7561 f43f 1333 4e63 500a 0240
00000010: 7c46 5e74 a876 e5bf 2af9 d019 2b12 f33f
00000020: 8136 5e78 9750 00c0 b867 670a 9dc4 02c0
00000030: c1df ce77 1cc4 f2bf 449a 18db d88d f8bf
00000040: ba76 2c0f 1815 0bc0 cf1c 87d6 7325 f33f
00000050: d334 c9f9 66e4 0cc0 16c3 e4a8 9dc0 0fc0
00000060: c255 8867 69ba f9bf a820 2cd3 e1a6 77bf
00000070: 6113 712b d334 02c0 5ce4 fcb1 63c9 bcbf
00000080: dfe0 9f10 aaaf 903f 40b0 b180 38b9 fb3f
00000090: 830f c1dd 4514 19c0 2a9a 2c1b abe5 06c0
000000a0: c5c7 9129 ec33 0bc0 f5f2 1613 1d19 06c0
000000b0: 8514 770f e1eb 00c0 fdfe 246b fdcd 08c0
000000c0: 731a 7163 2f9a 03c0 570a 9d7a 95e8 f3bf
000000d0: df4a 9605 cb6a 17c0 8196 24aa c21f a5bf
000000e0: 7a53 4127 887a 0240 6def 54ff c0b2 14c0
000000f0: 2a36 9466 b372 c23f c211 b6b5 9bd4 debf
00000100: 8fd0 cdb9 f315 d6bf 2c13 f0b9 c14f b6bf
00000110: 0ac7 dc1e 0792 e43f 25df ba21 f45f d33f
00000120: 2c1f c302 f423 ef3f 08a5 c390 bdf0 e63f
00000130: 2ec0 3edc eda3 d6bf 498e 6f13 3acb d0bf
00000140: 86ce 0ceb b548 e1bf b57e 5b4a 1e29 d93f
00000150: 4efe f159 5e71 c13f 5203 44ab b5d1 fb3f
00000160: 2656 a244 550c f93f c24b 2dce 4444 d6bf
00000170: 84b4 3b60 47d4 c8bf b1e7 fb7f aa6f e9bf
00000180: 98b4 327b 3f8b e5bf 022b 7701 8147 e23f
00000190: 501c cf50 e9cb c3bf a1ea 37b1 7109 a33f
000001a0: 4c22 1ec7 67ef f13f 3451 a306 3902 bebf
000001b0: 2fbf 27b1 f8be e93f daa7 2176 8337 f7bf
000001c0: 455d e734 80c6 e03f 4f8d f94e 6710 cfbf
000001d0: d8c4 b8cd 7135 dabf d424 fe99 c2cb e93f
000001e0: a24d 6578 698f d03f db5b f325 e326 cdbf
000001f0: 09c4 142e c983 e23f eefe bd21 e04c fe3f
00000200: 7b8c 4f06 1a37 02c0 3538 9b3c 5a27 e73f
00000210: 9830 7342 9ba3 bdbf c043 5313 2c74 f13f
00000220: 7497 c156 2126 a83f 925d fbd4 f5c5 f23f
00000230: ba78 d914 6ba8 f03f 29a9 6214 4314 efbf
00000240: 8697 50f7 26fc e7bf 1a7a f78a 1678 ffbf
00000250: 1850 16e8 f3a8 e43f 45e7 a3de 1c7a e3bf
00000260: 860d a99e e4b9 c7bf 4e1d cecc 5340 d2bf
00000270: 800a 75e4 fced 02c0 6ca0 d92d 67fd d33f
00000280: b57a 45a7 1a5d f03f dee6 edfa 0e86 eb3f
00000290: df67 9968 f5a4 d7bf 937d 4db2 bf36 dc3f
000002a0: b396 5a76 992d b2bf 9e4c ba96 4839 11c0
000002b0: 26df 94b9 05af d0bf 8e33 3c3c 92d9 e1bf
000002c0: 99ed 75c4 6189 9b3f 2486 dc4e f9fa d53f
000002d0: cc1d 0bdb 90ed ebbf cb73 cd44 bfd4 e6bf
000002e0: 544b 8b28 600b 0140 bc49 af67 0831 d13f
000002f0: 0f50 9a54 bf87 e5bf 6fe0 393f 3a2d fb3f
00000300: 1886 3adc 6151 f43f bb83 1683 2a69 e33f
00000310: 0858 abb4 f085 e6bf 4408 5239 c028 f93f
00000320: 6201 7124 5129 a4bf e9bd cb7a 4331 d3bf
00000330: a089 f110 6d09 e13f 96c3 b5b2 d0fd e43f
00000340: a0db 9cd1 78c1 d5bf dc69 2d57 e4fb d33f
00000350: 88b8 db2e 4e52 e0bf 018e 0091 b2da e1bf
00000360: 55de d511 205f c83f 067e f096 bf84 be3f
00000370: fcfc 0583 02b9 edbf c9e3 5a04 c7c0 fabf
00000380: cd4b af15 4d1d d1bf 5c71 52b4 2d09 d53f
00000390: 7b52 61c4 a441 da3f 443d a34e ede4 e2bf
000003a0: 3139 b509 41ac ef3f 7af5 7b3c 6957 ed3f
000003b0: 4eb9 de94 ae71 e43f 88f7 d4da e595 e03f
000003c0: ba6e 2386 7e9a ebbf 2311 4e0e 361e eabf
000003d0: ab54 79cb 73fb 02c0 2532 ca21 3268 a5bf
000003e0: c6a0 b992 13b8 f93f e5df 0fcc c266 e13f
000003f0: 0f6d 6bcc be1b cbbf d868 2567 5600 b03f
00000400: 7116 8054 3477 acbf 7bb5 9bdf 0eff e6bf
00000410: ce2c a306 4b3e e23f a79f 0ca7 ef1e f43f
00000420: 23b3 f3d1 b497 d4bf efe2 f1d0 be42 e5bf
00000430: 08ad ef99 d250 f83f c881 1888 a0c3 dfbf
00000440: 4f2e e08d 39eb f43f 05e0 1767 02df b33f
00000450: 4c9d ce4a 2907 e53f 8aef aafd 1756 e43f
00000460: da5d ed6c c2a4 f4bf f6bb dc5d 59b2 ddbf
00000470: b2f0 27c0 54f9 efbf 2887 7a5c 0a04 d83f
00000480: 60f1 7e5d 6d18 ed3f 5a75 7cc6 2a56 ca3f
00000490: bb51 127b c626 d3bf 1b0a 3457 9193 ce3f
000004a0: 70f4 3b1b 146f e23f c200 56aa 530d f1bf
000004b0: 1c3c bdd0 7d8f f8bf dabd 7bb4 5990 ee3f
000004c0: ef4e 3116 7c13 de3f 0195 532a b0fa f6bf
000004d0: 8967 0934 84fd e03f fea9 c38f 1063 eb3f
000004e0: eddf be69 2d10 d1bf 6aa7 1017 586c 04c0
000004f0: 2389 629a 4f13 f83f 641a 8adc 0a69 bf3f
00000500: 0515 ecd4 97ea b23f 705b 7b26 1252 d93f
00000510: ebee 2773 e9ac d5bf a6b4 1803 5302 f6bf
00000520: 56af f21f 77c7 df3f 9b55 5bb9 3159 e63f
00000530: 7cfc ff89 bb52 f0bf f25e 5ec3 c18c d0bf
00000540: f5cf 822d 5ab7 fb3f 7194 a85c 6971 fabf
00000550: 7de0 8bba 60e8 ec3f 8a56 f0c1 d93f f1bf
00000560: 112a 618c a1cf f73f 7d5d 51a7 908e d93f
00000570: d359 fbb9 85cf d8bf d8ce cef1 e005 f03f
00000580: 4470 54fd 3e46 f53f 5a3b cd07 2cbb c4bf
00000590: 47eb 8568 efa9 d93f 0824 b15a 7324 f8bf
000005a0: 7dfc df0b 951d bebf 60ff 1169 935e ed3f
000005b0: 7310 9904 0d66 c4bf 56b4 7574 c859 f53f
000005c0: 3b77 16f0 ffe2 f43f d233 2731 07aa bb3f
000005d0: 0e2e da86 7a56 cb3f 4395 ef74 1695 f0bf
000005e0: 6f1d 8b23 9a90 e2bf eb2f 24c1 6fd2 dd3f
000005f0: aa5a b5f9 df96 c33f ee46 668f 67b1 f63f
00000600: d09e f0cd 4b3a ef3f de95 83e1 5119 eb3f
00000610: 894b 3f25 f23d efbf 4fee ba2f 29d9 f83f
00000620: 807f ec88 cf52 e4bf 98d2 bade 28ff d7bf
00000630: e394 2259 29bb b63f d79a 4fba 8fea e63f
00000640: 6afb 9f60 5c1e f5bf ed3f bb0f cc03 e83f
00000650: 1b34 bf2a 12ea f2bf 4166 4e8c 6f68 f93f
00000660: aaed 4e8c 2abe e3bf 676b 4d7e f006 d0bf
00000670: 9ca7 41eb c7dd ddbf 7e92 320b f415 f33f
00000680: 81f6 87f1 0bc9 d5bf b361 dfb0 9bf1 efbf
00000690: 3a43 4776 6fca ce3f e13c 0211 87d1 d8bf
000006a0: 35be da8e 52e6 d7bf 3653 56e3 6e36 d7bf
000006b0: 9906 3b7f 2727 f03f 72c4 695d f5aa e03f
000006c0: cbf8 0186 bbf5 d53f 0e38 abfa 7d6e e53f
000006d0: 025e 89cc 2909 ddbf 2150 eca8 94cf f23f
000006e0: 4797 897c 9a29 993f ae1a 3e4d 14da e3bf
000006f0: 9ece c003 dc9b edbf 9b62 d5a5 7786 f03f
00000700: f7a5 29ff 64e5 db3f 256d a180 e32f e1bf
00000710: 54e9 d0fb 7884 dbbf 854d f9d3 ba22 e0bf
00000720: 8db9 ca9c c586 f03f 76f7 de62 1a45 a4bf
00000730: 0482 e10d 63cd ef3f 6462 a9a6 4577 d23f
00000740: cdf3 a83b ea59 e4bf 99e8 fe02 13f3 e53f
00000750: f7c3 d3b0 1d5e e6bf 391d bf70 a93a ea3f
00000760: 58d0 6e56 55c2 b2bf 4d54 3374 5f8f b1bf
00000770: 9ae6 9b4d b270 d53f a3da 6912 13c9 f0bf
00000780: 3ff3 2ba4 4ed2 d43f b422 82f1 1a08 adbf
00000790: b6d1 8161 a0d7 d3bf 2acf 2a7b 0d3f d6bf
000007a0: 3904 a71c a9f2 c9bf 3dfe 94b5 c6ed 01c0
000007b0: 92a6 10c1 79f3 ffbf 2548 5aee 6df2 a0bf
000007c0: 894a 4895 dd3d cebf c8d1 62ab edac 933f
000007d0: 74dc 1a31 bdd7 e8bf 5502 f08d 817f ef3f
000007e0: 4cf2 9849 11cf cf3f 9b47 c7e6 565d f33f
000007f0: de4d a50b a41d ce3f 1516 5be6 cfb1 e8bf

w3 f8 [31, 1]
2.9333580184318206 0.17766243473265658 0.595805805367901 -0.30833846029917067 0.22242983850163847 -0.1691153186250978 0.12570798968999505 -0.1109682915260231
-0.8386728298280478 -0.17415296040327494 1.933712110902494 -0.928394741689442 -0.14043580149430926 -0.5849038916210381 0.6104298297647766 -0.06693147092468901
0.4133343997547659 0.28974346654836586 0.3278633552482627 0.062097793145042046 -1.4798321752435881 -0.21636954433862982 -0.06565257152014192 -0.2498649827772886
0.18339500054858662 0.533858843088892 0.21860911602159577 -0.03798821979066018 0.2950000570320919 0.0942564042616381 0.7122243045260774
00000000: 06fe a468 8477 0740 7ac6 7385 a4bd c63f
00000010: 724e 1a56 d710 e33f 265f c53c d1bb d3bf
00000020: d571 02b9 9478 cc3f 49ab 5f1d 92a5 c5bf
00000030: 5f3f 480c 3317 c03f a34c fffe 6a68 bcbf
00000040: b7f7 0467 68d6 eabf ce81 b7ea a44a c6bf
00000050: 0f49 431c 7cf0 fe3f 66b4 aae3 68b5 edbf
00000060: 8184 4de3 ccf9 c1bf 7818 ba5d 88b7 e2bf
00000070: 46f6 6a23 a488 e33f cad8 b1be 6b22 b1bf
00000080: 6d8b 5020 1274 da3f 8183 432e 288b d23f
00000090: 9247 1695 b6fb d43f b067 6c2d 48cb af3f
000000a0: 06d6 c380 64ad f7bf 8a75 644a ffb1 cbbf
000000b0: a0ca 935f 9bce b0bf e3d6 b864 93fb cfbf
000000c0: 1594 cdc4 7c79 c73f f4e8 f723 5f15 e13f
000000d0: e2c9 f52d 62fb cb3f b6ae 4423 3173 a3bf
000000e0: 9157 51eb 47e1 d23f c306 be0d 3021 b83f
000000f0: 1a63 eb9f 8aca e63f
