Code/Models/run_20251101_014640/model_hidden_3_width_26_act_tanh.npz (npz, 12830 bytes, 4 tensors)

w0 f8 [2, 26]
00000000: 9c07 d10d f5ca 1640 20ac 7680 cac5 1140
00000010: 7d21 b97a c023 1640 f1b5 8bca d61e 1240
00000020: e241 3565 7f40 1c40 d7dd 08f9 dd8c efbf
00000030: 7756 8f73 b9e5 0140 3e03 90aa 75b3 aa3f
00000040: 2343 445a b8c2 f13f eae1 9526 f3fd 0640
00000050: ddc4 a977 d4b4 18c0 bf46 a2a8 a3d8 cdbf
00000060: 5667 7791 ca66 1bc0 522d 91b5 4614 1d40
00000070: 3e2d ec32 75e3 0dc0 f123 35ec 8b5a 19c0
00000080: 31fc 144e fe56 20c0 9340 8774 fccb 1140
00000090: 479d fd34 8dab 15c0 72a1 4a30 2eca febf
000000a0: 9db1 4114 a7d0 fc3f 8f7f c621 ed20 1a40
000000b0: f35c 1601 a114 13c0 3c12 a752 d9fb 0940
000000c0: 1696 a3f5 0eba 1140 668b fba4 a841 1440
000000d0: 099b a258 0c02 763f 783c 29b3 dec1 bcbf
000000e0: 6237 9f45 a156 f0bf 3264 4a8d 0146 ccbf
000000f0: 86d3 7112 71cd a83f 6b89 7da1 f7fe f13f
00000100: 8882 5405 9e7a b83f 2cd4 10ee 6ab0 0ac0
00000110: 6d05 3e97 2c56 eabf 03ab 0978 2a7f e63f
00000120: d02d a428 2422 d73f 87f7 712e d31e 0140
00000130: bb50 76a5 ce47 eebf 56ae f530 ba66 edbf
00000140: a5e5 168d 47f5 b63f 77df a679 1929 a73f
00000150: 1169 a66e b77d ee3f 44e3 20c2 eedd b23f
00000160: 539b dce8 3b09 d7bf 539a fcc8 5be0 d9bf
00000170: 71b4 58a8 2de5 0240 d6a2 79c5 9ce0 f8bf
00000180: 35cd c63e 6400 df3f 863f e52f 6fc5 e5bf
00000190: 213d 2e67 3073 e0bf 4767 0125 5228 c3bf
5.698200431712305 4.44315529560393 5.534913938092697 4.5301162383816385 7.062985974670001 -0.9859456886251178 2.2371701267355166 0.0521504183489072
1.1100390935936921 2.8739989294519903 -6.176591748940351 -0.233173806515472 -6.850382111466237 7.269800984369185 -3.7360633829427163 -6.338424387687142
-8.169908943235074 4.449205227618353 -5.417530849437134 -1.9243604551685078 1.8009405890726164 6.532154586544393 -4.77014543246263 3.247973104213342
4.431697691068186 5.064119890072879 0.005373047091927993 -0.11233322023439196 -1.0211498946768747 -0.2208864154715982 0.048442395688574044 1.124747877904691
0.09562099104051403 -3.3361414526830426 -0.823019309420642 0.7030231804359065 0.3614588162315302 2.1400512341051043 -0.946265528839397 -0.9187899547809575
0.08968016810003705 0.0452354393959799 0.9528462563642127 0.07369892348732515 -0.35993859997181693 -0.4043187582741769 2.3619034912176677 -1.554837008845586
0.48439890032314575 -0.6803508696993823 -0.5140611663099756 -0.1496679955187636

w1 f8 [27, 26]
00000000: 0602 9362 1b11 1540 defe 1bce 6905 e0bf
00000010: 8ad3 112e 2541 2640 c0a0 1f8e 42b3 02c0
00000020: 30da 04c8 0365 d3bf 991c c968 6b93 17c0
00000030: 7d84 32be db58 f83f 349b b947 d893 2240
00000040: e2b8 c531 b0b0 0440 70f1 86b7 a5b0 dabf
00000050: ee98 b613 5cae f3bf 0d66 5c48 30a1 f53f
00000060: ff59 65bf 25af fe3f 88e1 e42a d0cd 18c0
00000070: 8fbc 517e f159 2140 3c92 dc44 bfe0 0140
00000080: aa2f 3436 25b1 ff3f e568 4a94 5cd8 0ec0
00000090: e9d2 0344 507c e33f 850a 6dfd d601 0640
000000a0: 3119 9b35 adcf 1a40 4cd0 97c1 d6de 0ac0
000000b0: 089e b8fe 3837 f1bf d0bc ef06 ca25 1140
000000c0: 6278 0696 fde5 1bc0 9f82 323b b5ab 03c0
000000d0: c2f9 f82a 30ea f53f 70e8 0fda db52 fa3f
000000e0: 28f5 f2c1 0919 f5bf d394 f968 6c58 fe3f
000000f0: c5e1 f124 0d31 d4bf ce76 b9f3 7370 bcbf
00000100: 336d b05f 489c dfbf 2811 65c7 cf51 fdbf
00000110: 6113 87ef 6c65 e43f 91e6 b38b 24e1 dabf
00000120: 097e aaa2 8e84 813f 0999 b414 05b7 f43f
00000130: b75d 2b07 ef2e f83f bb5a d0c6 619c f0bf
00000140: 80ec ac7e e74b f03f d007 08b6 6827 e43f
00000150: 9c39 88eb c2dc cdbf dc55 fd87 f688 dc3f
00000160: bebb 53ef 705e e23f 37b4 c25b 6bd1 d23f
00000170: 5676 f8c0 ba1c e13f e9d2 b5da 3e69 0540
00000180: b305 92eb e564 cf3f 887a b377 db20 f13f
00000190: 48d5 81d9 499d e9bf 95b5 8483 28c5 fabf
000001a0: 9b92 d514 6719 f43f caf4 8edd ddef f23f
000001b0: 6b7f d1c1 8ef8 f6bf 61ed fd05 fdab e4bf
000001c0: ce8b 7512 fc1c f03f 4598 4b7c 5e9c 0340
000001d0: 8f10 7d88 9d4d efbf 9827 0fac 1718 f8bf
000001e0: d3cf 8810 d524 dfbf 1085 508c 2b50 fcbf
000001f0: 6185 4d0f c646 ddbf 194f daf2 2d48 01c0
00000200: 90d8 138f 943f f1bf e29d 2a2a e65b f6bf
00000210: 4ec3 3d3e 6eff e53f e03b 91ed 3e3c 07c0
00000220: d0ba fa6b 087c d63f 1cf8 1b7c 66b5 0040
00000230: c4a1 2e70 b681 f0bf 1258 be63 6335 f43f
00000240: 8317 6851 5129 f03f cc7d e283 3c18 f7bf
00000250: 28cd 525d a8bb cf3f ab17 638d 8c48 f5bf
00000260: 7b9c bd5a 3831 f7bf af0a 75e0 6f17 04c0
00000270: fede 5612 2fba e3bf 89ea f4e9 b9a2 fc3f
00000280: 15c7 a47f c51b 06c0 d2c6 667b 76c0 ffbf
00000290: 2301 ef23 c400 ea3f de7f a67c 6a00 d73f
000002a0: c536 9e5a 36f8 f83f 6558 6362 4769 fcbf
000002b0: 27ad 2199 35da fa3f 9db8 ee99 a5b7 f7bf
000002c0: c818 aeb6 7c4d f7bf 9efd e712 0818 f8bf
000002d0: 2e76 c482 0bbe f3bf b5e2 4041 23e0 e9bf
000002e0: e0cf e346 cbf9 f03f 8115 f16a 8b69 d53f
000002f0: cb17 b697 3435 fcbf 51c3 f816 e84c f33f
00000300: 224e a98f 4094 b0bf 09a6 cf0d aff5 f83f
00000310: 46ab c601 8208 ebbf e6b2 2c70 1de7 eb3f
00000320: b25b 903b 2880 01c0 9b02 0610 86a0 e93f
00000330: c8b1 2e55 5abe 0cc0 0e21 a3a5 120d f53f
00000340: b895 b5e5 1809 debf ecd3 5986 de1a ed3f
00000350: 3110 80e0 50b8 fbbf 5a7d 05ed 00c9 ec3f
00000360: 4358 35c3 5358 0b40 75ba 5e10 2d30 df3f
00000370: 1371 5d50 eef8 bdbf 13f7 f347 c410 0ac0
00000380: ec3a 4d12 a337 0440 e544 2ae8 9780 07c0
00000390: d6f3 13fb ae1a eebf 7bde 391a a1c1 f8bf
000003a0: 75b1 3863 6e39 e1bf db20 c67d 6547 e83f
000003b0: 4bcd 91e9 4132 f53f 8131 cfa2 f2e1 04c0
000003c0: ffc9 310b a5ed 0040 8122 3a73 4698 d13f
000003d0: 2306 c71c 4d1d fe3f 9aad c626 2b72 f73f
000003e0: c2f1 c900 35d2 d0bf 01f7 011f a285 fbbf
000003f0: 6728 6d1c 04f4 d1bf 8db7 cd45 d3fc 06c0
00000400: daef 7d39 8f85 e33f b237 dccf 34fd edbf
00000410: fb01 9710 0c5d f93f 1887 0dc2 7ab3 f93f
00000420: 1a0e 99d8 4be7 f1bf 8d9b 57dd 0ad5 f2bf
00000430: cbec 6e3d c539 ebbf d1d5 c382 cdf1 a7bf
00000440: bab0 203a dff1 c1bf 2a97 94db 08b0 b13f
00000450: 74fe 788c e02a a3bf 7c2d 5689 3248 a7bf
00000460: b282 a1aa 6dd9 f7bf 05c3 4750 58e2 e0bf
00000470: 0f34 e69f 8f24 ecbf 67f2 1e09 b993 05c0
00000480: 21a6 8f8c 190b 0140 8690 076e fa28 bebf
00000490: 1f9b 9c2e edef cabf b198 8bca b84a f13f
000004a0: 5cce 0275 7714 01c0 5d05 2b20 8541 e5bf
000004b0: a3fa 0548 741f 0040 e707 1516 65a4 f83f
000004c0: 2b66 b599 b985 da3f c0b1 9c74 fa02 e03f
000004d0: 67db 5884 8f49 07c0 2567 0bde 2aa8 03c0
000004e0: 04d1 4363 46bf ebbf a1fb 757a e1e7 e0bf
000004f0: 0e8d 1b1c eabb f53f a0d6 d547 82b4 dbbf
00000500: 4f05 1bf6 24b1 bcbf 86d0 2059 5ca0 ea3f
00000510: 3b9a 8ee5 2306 f53f 3461 cc58 b87e bc3f
00000520: 0b28 7c96 8942 d13f 0b09 9fbf 6541 09c0
00000530: b2f8 cc54 0ee2 ffbf ae9e beb0 97c9 e4bf
00000540: c3d6 be68 9f4a fdbf 0f08 f2c9 535c 0640
00000550: e02f aca9 659c cabf 7811 3fa2 db4f ebbf
00000560: 77a1 d1f7 6edf a03f 79f5 271f c8eb eb3f
00000570: f097 7dbc 9bd2 e83f d0d9 9ec7 278a ca3f
00000580: 9a8c a6a8 18d2 d43f 2cda 33a6 f32b f0bf
00000590: 9dfc 8858 d9fd cf3f 9059 cb37 0a08 f73f
000005a0: 929d c004 d78e e9bf a0c7 b55a 2f0d ee3f
000005b0: 6fce c848 6573 fb3f cbab 90ca 8a4c cd3f
000005c0: d602 28cc dff9 09c0 956f da58 6a0a f23f
000005d0: d748 dab5 b7f3 e5bf ecdf 42d2 0d46 ddbf
000005e0: f711 5899 0658 e8bf 8ac9 8903 4b7f f8bf
000005f0: 1501 08f6 53e9 f5bf 6ae2 08fd 7677 ed3f
00000600: 0cc8 9709 6496 d83f 8628 46a5 87db e53f
00000610: b3a1 90ef 7f07 d83f 38b9 2d2d 53dc 02c0
00000620: fec5 544e aaef d43f cca2 af89 4cf1 e23f
00000630: 1fda 3721 bf54 c3bf d130 2836 42de f23f
00000640: 41c2 f2d9 5a56 ebbf e72f e86e 8553 f3bf
00000650: 03b3 6b63 73fb f23f 54a3 62d4 f281 bebf
00000660: 97a9 78a9 0a39 b3bf 6fc1 33b8 3e40 fabf
00000670: 77da a5fc 3d29 f3bf 689d 1f15 159f ca3f
00000680: a340 b157 5689 e7bf 963d 79f2 8d8e 0440
00000690: cfbd 9144 e149 fdbf b66b d466 ab61 0c40
000006a0: b7bd 1664 7344 f13f 5671 2a8e ea08 fdbf
000006b0: e224 07d0 8fde 00c0 0417 4566 9b8c f6bf
000006c0: b518 26eb 3c86 f83f fa1a e488 f58e d8bf
000006d0: ae20 84a5 3ace 03c0 dc7a 6516 e0f5 e2bf
000006e0: 32c1 d075 436d f8bf 314f ed3c 7b38 b0bf
000006f0: 645b e65e d9de fabf 9967 682a 8ae4 edbf
00000700: 961e a82d 8f15 f73f 09ad 4edf f2bf e4bf
00000710: 1101 e033 8fcf e53f 98e4 7f76 fa09 e5bf
00000720: e910 cd50 cd9d fe3f 4ef7 aa6e b954 e6bf
00000730: 6012 1176 c3e1 fabf c372 6a03 1928 f7bf
00000740: 34bc 482e 3a6a 0c40 3a7d fae4 d7b9 f83f
00000750: 7bb5 696e c8a8 e5bf bcee 54e8 6a1b eebf
00000760: 3155 0d19 1a58 f73f 28a5 0af4 a9ee abbf
00000770: 41b8 95ea 3d35 fc3f 4531 fd3d 6d7b f03f
00000780: 8991 a281 dc0d febf 7ef7 bb62 6cea d73f
00000790: cf20 943a 19f1 0740 e53f 5d96 1fc7 debf
000007a0: 8b07 9792 c341 e23f efb5 5f19 f0d3 d8bf
000007b0: ea55 13bb 00a3 babf a2cf 9f21 f7ae fa3f
000007c0: 90f6 7eac e216 fe3f c204 133a abc4 d7bf
000007d0: 6093 d5d7 46f8 0840 f8d7 8346 e2e4 c03f
000007e0: 32ae eb37 da17 f8bf c441 28bf 4f0f ed3f
000007f0: 4881 b3c3 3961 e8bf 831f 222e b936 e7bf
5.266706028196955 -0.5006608033727067 11.127236785579743 -2.3375292876627043 -0.3030404523191548 -5.893964421534428 1.5216939382155765 9.288759461791052
2.5862735641922976 -0.4170316974885031 -1.2300682802247667 1.351852686557666 1.9177606083300132 -6.200989408702647 8.67567057369004 2.2347398166478154
1.9807483784997921 -3.8556453309257557 0.6089249924103487 2.7508983420278263 6.702809178916412 -3.358808052487836 -1.07598208904699 4.286903484709185
-6.974600166459 -2.4588417649068357 1.369674842702452 1.6452291982700693 -1.3186128212103743 1.8965877628882495 -0.3154938565053523 -0.11109089565567418
-0.493913739630176 -1.8324735440119841 0.6373810461305817 -0.4199916233334103 0.00855361398617928 1.2946825798804318 1.5114584236197126 -1.0381791845481263
1.0185313175450403 0.6298106723118 -0.23329960346786727 0.44585955887063533 0.5740284609181499 0.29403194390289705 0.5347570198970952 2.6763894163835755
0.2452666664358226 1.0705218005965964 -0.8004502533137066 -1.67313434004186 1.2562018216932873 1.1835611967683684 -1.4356830187825504 -0.6459946743993151
1.0070763321934808 2.4513520918435767 -0.9782245317260435 -1.505881950479738 -0.4866230641812283 -1.7695727807079642 -0.4574446820680205 -2.1602438900826084
-1.0780225361791373 -1.397436299050121 0.6874304977082859 -2.9044169006296983 0.35132036728729776 2.088574380496551 -1.0316681272616828 1.2630342384559339
1.0100873165078788 -1.443417086767897 0.2479143577271341 -1.330212166112214 -1.4495166344220525 -2.5114438567846586 -0.6164775236311184 1.7897280825551738
-2.763560292450061 -1.9844879932756396 0.8125935270145742 0.3594003884591056 1.5605987109915287 -1.7757028430255783 1.678273771448241 -1.4823356640804726
-1.4564177642765106 -1.5058670748256655 -1.2338976963141124 -0.8086105608445765 1.0609848755966524 0.3345669311859965 -1.7629896093580892 1.2062760255177702
-0.06476214892727986 1.5599813975808294 -0.844788554638719 0.8719622794065713 -2.187576737730944 0.8008451760252514 -3.5929457335352915 1.3156916113094357
-0.4693052523856198 0.9095299362221545 -1.7324990052739049 0.8995365742993429 3.418128514352277 0.4873154315818405 -0.11707963430439276 -3.2581868764235735
2.5271665029352928 -2.9377897394084465 -0.9407572654596332 -1.5472727798895949 -0.5382606447142694 0.7587153870126956 1.3247698901949032 -2.610326072643318
2.1160374521798526 0.2749191403641263 1.8821536182516716 1.4653731836977841 -0.2628300197318617 -1.7201253138768495 -0.28051855827346234 -2.873449845638737
0.6100536463632082 -0.9371589717645661 1.5852165840188934 1.6063182430447736 -1.1189688168386795 -1.1770123144321787 -0.8508020591611055 -0.04676668378116811
-0.14019384706751287 0.06909232483721142 -0.03743650164369408 -0.045472697510457544 -1.4905831017751265 -0.5276300018286696 -0.8794630167991516 -2.6971302712029686
2.1304198247278383 -0.11781277834194456 -0.2104469754787823 1.0807426368642548 -2.1349934712869025 -0.6642480495722044 2.0153585078072225 1.540135465868383
0.41441192637066376 0.5003635671214894 -2.910918268167211 -2.457113013003339 -0.8670989931838737 -0.5283057586492427 1.3583775613740872 -0.4328923894421255
-0.11207800873218797 0.8320752850327302 1.3139990775176915 0.11130859535149257 0.2696861238079015 -3.156932351151345 -1.9926894485975422 -0.6496084644358768
-1.8307184306735713 2.7950816895472665 -0.20789786133570853 -0.8534982842325425 0.0329546620858449 0.8725319489018794 0.7757090264756226 0.20734116789908663
0.3253232619264935 -1.0107304088866256 0.2499343569088283 1.4394628695932603 -0.7986865132160565 0.939109494369621 1.715672764123976 0.22889838114619318
-3.2470088910780346 1.1275428267317456 -0.6860006858644522 -0.4574007562000577 -0.7607453341484519 -1.53107739812967 -1.369464837131152 0.9208331052860335
0.38417912422949096 0.6830480793007758 0.37545774836555806 -2.3575805215433796 0.32712800645376194 0.5919554413968284 -0.15102376100522094 1.1792623630054104
-0.8542913681795384 -1.2078909237197821 1.1863893397923568 -0.11917035756290534 -0.0750891364811309 -1.6406848140141752 -1.1975688809449403 0.2079798081533497
-0.735514804147915 2.569606680226296 -1.8305370977867488 3.547690204007689 1.0792116079063427 -1.8146768143988843 -2.1086727382831763 -1.4093278880040438
1.5327729402065817 -0.38372553222909256 -2.4756977969119225 -0.5925140798024944 -1.5266756632009444 -0.06336183774447758 -1.6794065196060837 -0.9341479137685723
1.44276349863677 -0.6484312402220961 0.6815868390258705 -0.657468062824722 1.913525882367191 -0.6978423272591756 -1.6801180469493815 -1.4472894795828075
3.5518687835642826 1.5453719086143125 -0.6768533855917406 -0.9408468759279098 1.4590092638585015 -0.054555235901100396 1.7629985011549396 1.0301334783026317
-1.8783841194027409 0.3736830677224744 2.9927239014105917 -0.48090352710732837 0.5705278266034254 -0.38793566205899216 -0.10404972617410349 1.6677161515662893
1.880587266742996 -0.3713787142879249 3.1212288724949957 0.13198498194805075 -1.505823343696545 0.908119080881129 -0.7618683645523925 -0.7254300976792226

w2 f8 [27, 26]
00000000: e99c 4ecc 2435 f03f 5a88 3ef2 af00 e13f
00000010: 09c4 7aff 9cb4 a03f d932 fb0c da0b b6bf
00000020: aa34 4f34 955e c83f 8c5f 23a4 6108 babf
00000030: fa42 001c 0073 d3bf e97c 7db6 ecfb d73f
00000040: 99d6 7adb 6aee d83f 88bb cd9f 0d04 b9bf
00000050: febc 29c8 cb17 c73f 8808 3738 9c01 f2bf
00000060: ff63 83ea 1f88 c53f 292b eb91 5096 f9bf
00000070: 2dea 2ff6 0a20 db3f d918 46fb 1a8f b1bf
00000080: 8a0e 8f57 6d81 e13f ad0d 256d 6237 b53f
00000090: a509 b0a4 278b a3bf c83b cf0e 9b9e a3bf
000000a0: 63f2 62f2 8ba7 d2bf 2aa7 1233 7e81 d83f
000000b0: 789a 01ea 4742 f63f 948c 3130 3097 ba3f
000000c0: e8a2 6ab5 9660 dfbf b6e6 de3a 7b62 c43f
000000d0: f34f 76b3 f52d 03c0 73b8 e083 2c63 0540
000000e0: d796 74c7 8f6c d73f c0a9 4ff7 8cc6 e7bf
000000f0: 9f83 222e 2b89 e0bf d4b1 012f a5c5 e3bf
00000100: 0349 512a 10a7 ce3f baae 2785 1195 c83f
00000110: 4f29 f990 8fe9 dc3f 66ee 2ba4 cbdc e6bf
00000120: dcb0 cdc9 6896 f8bf c89f 69f3 fdcd f63f
00000130: 5c83 5de5 55f6 0240 074c bc91 4d70 dc3f
00000140: 4c97 3dfc 192d db3f 2db3 eec3 b676 de3f
00000150: b2ee 1dda f6de f0bf 8f25 8c68 cec7 ecbf
00000160: fafd ef07 2e91 f53f faff a95a d318 ef3f
00000170: 3d67 6571 b1ff e93f a32a 2b7a 52c1 cc3f
00000180: 87cd a0fd 59e4 e83f 383a 8088 281f fb3f
00000190: 0cd5 04b3 a875 e23f 11e5 153a 0a36 cf3f
000001a0: 6fca b192 36a6 f33f 15f0 fae1 a608 ecbf
000001b0: eedf 701a c0df ebbf e13e f451 2098 e93f
000001c0: 61c0 1e88 c138 f03f 37a1 7ce4 6a83 a7bf
000001d0: 28ea fe92 cdf5 de3f 2398 5154 a03d dabf
000001e0: b17e a2e1 7461 f2bf 65d2 7c99 979c f2bf
000001f0: 0503 65a2 559e ed3f 8781 828d 1a0a f03f
00000200: 4374 0a92 5e22 c93f b45d 8682 1d3b ee3f
00000210: 1efc 1447 e961 ec3f 2cf3 2936 b224 e83f
00000220: 7946 5f0b 4016 ea3f 914d f00e cd39 db3f
00000230: 31ec 3339 f822 f3bf e29a 58bd 65a2 d93f
00000240: 101c 7a2e bf8d f8bf fa97 4600 0c13 fbbf
00000250: cafb 6e3a 549c c13f be9e 92e7 126c d43f
00000260: 72b3 cd0f 5cf7 e2bf bf72 6ab7 9728 d33f
00000270: a989 a664 c5e4 cabf 519f c405 c61d ebbf
00000280: 6660 c1b5 909f e23f 80c6 1bda 74fe 0140
00000290: 9adc c684 9083 c6bf 585e 4559 0ee1 94bf
000002a0: 44f6 2ccd f94f debf 5555 8518 6a37 eb3f
000002b0: 27c1 ad88 839e eb3f 59da 5d16 df91 b53f
000002c0: 9cb3 5bf7 5377 03c0 aa0d 9a88 a812 e1bf
000002d0: a36b 54a3 bea0 e63f f15b 5bc5 a176 f3bf
000002e0: a14b 183e 548e a03f cc63 e6c1 b0c7 0940
000002f0: 8839 bb10 3340 f6bf ab48 bd1b 1648 e1bf
00000300: 380e 672e eb06 f73f 4c33 6b24 1cc5 c33f
00000310: 3d74 e71f 7b78 c73f d782 56d3 4d3e d0bf
00000320: e728 57c8 51c9 da3f 1d60 67f8 c985 e3bf
00000330: 76b3 5af1 58ad ea3f 9cc7 5acf 0760 f4bf
00000340: d908 71b6 374e e5bf 9f64 b1ba 2a8d e2bf
00000350: 125e 8205 5a7d f23f 4511 0f4d 8f05 bcbf
00000360: 6caa 2ef1 3648 f6bf 1da6 82a6 a4b7 e93f
00000370: 9244 f9b4 0012 f5bf 95f5 21d3 a840 dbbf
00000380: d168 30a7 559b c8bf beb3 0e12 3301 c73f
00000390: a151 a0e1 98b6 fa3f 2b08 f324 c636 bfbf
000003a0: 8a75 36c4 b657 e2bf 57c2 45e0 185c f2bf
000003b0: a4b6 f925 25bc a0bf fbef 644b a233 cfbf
000003c0: 7285 9675 b4c4 f03f a2e1 91e6 5e1f e43f
000003d0: a569 7cd0 c826 ca3f c9fa c0a6 854a f2bf
000003e0: 3587 b29d b61f 00c0 632c 7511 c76e 01c0
000003f0: e0a8 2ab6 1c3a e4bf 6d97 666c f5e8 f3bf
00000400: 673f 09ac fac2 e43f b583 4b23 f8c7 edbf
00000410: 9aa0 fc14 527b fa3f 8ccc 309e 06cb fdbf
00000420: 8f90 2111 dbd4 c3bf 2ab7 571c 7927 e8bf
00000430: 40b9 f0d4 ed42 c83f fecf 6104 c5b9 d8bf
00000440: 28b8 35be 230c e03f 623a 17a7 6b40 cebf
00000450: ce60 bf55 7fce e03f 44a8 437a 928d da3f
00000460: 7623 ad9a 7fa6 c73f d49d 9f8d ce3d f0bf
00000470: 2c17 666d 0993 05c0 e89b 6708 8d15 e0bf
00000480: b355 cce9 c251 0440 0172 6b8c 72b2 ecbf
00000490: 575f c01b db77 d13f 6651 c87d 8743 f53f
000004a0: 4530 3748 1184 f0bf 000b 0cdd 75b8 f0bf
000004b0: 6618 fdbb bdd8 e43f 9f52 f4b9 b198 cf3f
000004c0: 02f1 bd23 77e3 f03f 6a5e 6dd6 ed0e efbf
000004d0: 8e3f 1916 8529 cd3f d54f 029b 86c1 eabf
000004e0: e031 a703 983d d33f a938 47ae 4d93 e83f
000004f0: 064f 4259 7110 f1bf b7da 4b7d 5403 c1bf
00000500: 2a77 6c91 704e ebbf c91a 7b53 5a22 febf
00000510: 9149 6f42 0727 e2bf b5bb c556 ad9b e23f
00000520: 92de e160 3b9a df3f 89fb ab7f 5eb6 ebbf
00000530: cac1 b5c6 9df7 e5bf 7e8c 5aa3 70ba b8bf
00000540: 44b0 4068 0fc8 e83f a274 d571 7cb2 e3bf
00000550: bae5 7aa9 6cad 00c0 5376 5432 8188 ac3f
00000560: 8ff6 7c05 89ed cc3f 11ed 68c4 7951 f63f
00000570: 2066 7313 90d9 a43f 8b47 2de7 a8dd fe3f
00000580: 990d 41e7 2761 fb3f 459c baef 66b8 523f
00000590: 1fb7 68ec 9790 f1bf 0d34 eff5 3f1e d13f
000005a0: 5043 a9d6 30a8 0340 0d3d 60aa 23cb f6bf
000005b0: c72e ab0c 66f4 dcbf cf6a b194 f453 d43f
000005c0: 3c3d 4413 6c97 fabf 4268 38f6 7b54 d23f
000005d0: 2448 7c7d c7fe d5bf 2d11 00e1 1bfc e5bf
000005e0: fd5e 29d5 dcd8 e03f f0d0 60f3 811b a73f
000005f0: 6e51 577e 900b d3bf acba 6d47 0e29 fabf
00000600: 284c f031 50b1 b33f de1b 9c2d ae4f f03f
00000610: a7a7 e255 9a11 d23f 8e97 3238 a366 b1bf
00000620: 1861 b0fd c131 f73f 0ed1 181c de3c d43f
00000630: 20dc 3ee8 da76 f83f 9812 c1c8 b922 d13f
00000640: bf8d 0931 9c11 cfbf 7c6f e6bd 6030 e53f
00000650: 6e4b 5e8e cfce f03f f337 fc22 23d2 9ebf
00000660: 2aba fb55 19c8 c93f ebd4 4f1c 2568 e73f
00000670: 23b6 37fc 339e e53f a442 3d40 3050 f5bf
00000680: b330 4e2a 47e9 c43f af5e 05ac e806 96bf
00000690: 16cd dfac a526 ec3f dbfc a27b 0a48 da3f
000006a0: de99 5536 18ec 05c0 7c55 6cbe 6152 f0bf
000006b0: e1e1 43d2 9617 e5bf 4a0e 0899 1bf9 d33f
000006c0: 7eaf 44a4 0e3b cf3f da5c 9f4f 2e87 cabf
000006d0: 636a be88 2509 f8bf 2728 1c6a c1f0 c23f
000006e0: 85f0 a22b dfc5 f63f 18bf 5f17 32f3 d4bf
000006f0: 4c90 954b 4b51 f3bf f030 27fb b8c4 b63f
00000700: 8dac 63f2 f4a0 f7bf b493 cce5 119d a6bf
00000710: d7e7 bf7c e8ed 933f 0155 86bd e9d0 e83f
00000720: 7fbc 5e8f 4ee2 eabf 902a b2ac 9469 b33f
00000730: 2d92 d86b aa05 d23f f32e d126 c313 ecbf
00000740: dc7a ecad 24fd e83f 11ae c51f bce7 f93f
00000750: 29fc 28c5 9c2e d0bf d8c2 1acf e343 e13f
00000760: 6325 9a48 7349 cbbf b5b1 52ec b8a0 cf3f
00000770: d2e2 adc6 17c9 b6bf e4ac 59b6 b16a db3f
00000780: 11a1 7627 ede7 eabf e5d9 4520 6395 dabf
00000790: 6e34 e7ff 962e c73f 4984 fb74 638e d13f
000007a0: 22f5 c255 e10f f63f 258a 026c 6eab dabf
000007b0: b969 21ea 4216 9fbf b661 0a48 cedc aebf
000007c0: 1fdc 355e ab70 da3f 1da6 e5f1 3611 f1bf
000007d0: 7849 c0de 404d e63f 30bb 49b4 b059 cebf
000007e0: 8a26 ce0b 5c84 f53f 5772 986d 7b5e d6bf
000007f0: a11b 5fb6 0d3b fabf 327a 355b 23ef d73f
1.0129745465035802 0.5313338977177964 0.03262796991965195 -0.08611834351468008 0.19038643888635437 -0.10169039017944054 -0.3038940690467339 0.374751260960649
0.38955184396341164 -0.09771809722381708 0.1804136969908327 -1.1253931232354564 0.16821669531671543 -1.5991979312845592 0.4238307384654572 -0.06858986506094612
0.5470492086537473 0.08287635006586554 -0.038171042302582316 -0.03831944041996099 -0.2914762370162746 0.38290362346252726 1.3911818638677271 0.10386944939232229
-0.49027030674419203 0.15925541281267436 -2.397441293762307 2.6734247496561294 0.366001076489153 -0.7429871397301255 -0.516744222743103 -0.6178766172502557
0.2394733626011388 0.19204920770368067 0.451755420279956 -0.7144525724865616 -1.5367210276554522 1.425291014509627 2.370281021038336 0.44435443145738457
0.4246277774130831 0.47599572309518373 -1.0544346351806948 -0.8993904153768869 1.3479442892129314 0.9717804690153564 0.8124625410812097 0.2246497246290647
0.7778749421762975 1.6951070148530913 0.5768626686537188 0.24383666835982656 1.2280793886426655 -0.8760561383892332 -0.8710632816719206 0.7998200989404404
1.01385644123004 -0.04592451132913527 0.4837526259904359 -0.4100113700318408 -1.1487931074006321 -1.16323051410759 0.925577943016919 1.0024667289472704
0.1963613713350317 0.9447162198365988 0.8869520557708517 0.7544795091522238 0.8152160856354406 0.42540289362769906 -1.1960375055775894 0.400536951931299
-1.5346061530597161 -1.6921501169940698 0.13758328297805483 0.31909630407833933 -0.5926952656424034 0.2993525782747319 -0.2101065389116006 -0.8473844635636657
0.5819781827840529 2.2492463149763466 -0.1758900307010876 -0.020389770697276738 -0.4736313346546448 0.8505144575998808 0.8630998296266953 0.0842570714574803
-2.4332656216487987 -0.5335276287082042 0.7071221532854576 -1.2164628705265808 0.0323358846473163 3.222505106776657 -1.39067369971926 -0.5400496045861208
1.4391891300773647 0.15445281770953512 0.18336428697412713 -0.2538027347418796 0.41853756489275756 -0.6100816585194512 0.8336605752898396 -1.2734449481763255
-0.665798050242553 -0.5797322889658466 1.1556034293370243 -0.10945983535117872 -1.3926305218871233 0.8036673786311358 -1.3168952054295784 -0.42582150095389554
-0.19224043525247805 0.17972410566053826 1.6695793927693574 -0.12192953493197993 -0.5732072670249846 -1.1474846611637497 -0.03268543327872678 -0.24376324349748288
1.0480236619262908 0.6288294318501821 0.20430860691051325 -1.1431938661404948 -2.0154850311381787 -2.179090629947994 -0.6320937688772368 -1.2443746790317747
0.6488011703568021 -0.9306603135447548 1.655107576350963 -1.8620668582268847 -0.1549333413742073 -0.7548184922759209 0.18954251191594018 -0.386338476447463
0.5014818873439753 -0.2363409582016685 0.5252072024113887 0.4148908800112887 0.18476862957529833 -1.0150895626228378 -2.6967953249722054 -0.5026307262568226
2.539922548816969 -0.8967831366131237 0.27294042310812955 1.3289866364840122 -1.0322430439873795 -1.0450342783594238 0.651457659879054 0.2468473585110091
1.0555335422678245 -0.9705723941833189 0.2278295858291099 -0.8361237552185182 0.3006343875574924 0.767981377017141 -1.0665143477135088 -0.13291412466033645
-0.8533251610094557 -1.8833869229289795 -0.5672642037919094 0.5815035528920506 0.4937885709873423 -0.8660118573751429 -0.6864766007475336 -0.09659484851958841
0.7744214092431396 -0.6155378554646129 -2.084679912627249 0.05572894801501307 0.22599900024390648 1.3948915169010585 0.04072237241207355 1.9291161566111181
1.7112196954120462 0.0011425976980861269 -1.0978011355140962 0.2674713041022308 2.4571244020848226 -1.4245945601758792 -0.4524169086186984 0.3176242305832319
-1.6619683029746986 0.28640650792079125 -0.3436754918521976 -0.6870250124489182 0.5264724887192355 0.04513174148488186 -0.29758083665844637 -1.6350233831578107
0.07692433566289536 1.019453218615801 0.2823243941044162 -0.0679723751260026 1.4496478948331681 0.316215064466875 1.5290173599330572 0.26774448971654286
-0.24272491831207607 0.6621555050837595 1.0504909096968862 -0.030098485002831365 0.2014190358963373 0.7314630082097698 0.6755618978620003 -1.3320772656772215
0.16336907926268437 -0.021510730265929364 0.8797176720094366 0.41064703058141355 -2.740280556189858 -1.0201127470403142 -0.6591295344106208 0.31207933372954655
0.24398978253281806 -0.2072503937513151 -1.502233060985099 0.14797227555419676 1.4233085350561236 -0.3273434856664479 -1.2073471977719406 0.08893924838702438
-1.4767960995039033 -0.04416709833302637 0.019462235082734338 0.7755020810751888 -0.8401253509708936 0.07582978454790124 0.28159580737909345 -0.8774123914858748
0.780901279158424 1.6190758935071055 -0.2528449941054896 0.5395373387346707 -0.21317902607942604 0.24709235705576096 -0.08900593376700819 0.4283870964779466
-0.8408113261002957 -0.41536787177702045 0.18110930915136997 0.2743157045752623 1.3788770055828725 -0.41671333835452834 -0.03035835794467243 -0.06027836446191108
0.41312679481728937 -1.066702790174879 0.6969303465469201 -0.23711212924123393 1.3448143445151879 -0.34951673224148777 -1.63941737402795 0.3739708319389222

w3 f8 [27, 1]
00000000: 4b68 4bf5 a787 1940 4ccf f1c8 dbeb ce3f
00000010: 31d4 8eb8 7965 f23f c30f daa2 f13f dc3f
00000020: 4132 7ef5 c0ab d3bf 7fcb b2d9 d6e1 e4bf
00000030: 64c1 d1e3 1c1e e23f 79d3 4b5b 103c b93f
00000040: f409 67a9 24ee fa3f 4215 4eea 274b cb3f
00000050: 5e61 4804 f780 f8bf c9e2 e3b9 77bb f03f
00000060: b26c 2c87 2880 eebf 44ca bff6 0105 0140
00000070: cd00 a941 d012 d63f f251 ac72 cff8 f13f
00000080: 952d 994d ffdc 01c0 7854 9bb9 057f e03f
00000090: 504a 0d53 0e14 eb3f 4bce 1c10 509b c43f
000000a0: d6c6 12e0 7681 c73f dd9a 14df cc15 d13f
000000b0: 82d2 6207 b658 e3bf bf3d bdcd adfb d33f
000000c0: aeff 8e59 7203 da3f 9d73 0a40 815a dabf
000000d0: 981d 2a9a 0448 cc3f
6.38247664711714 0.24157283126589346 1.1497742852491337 0.44140282538887393 -0.30735801671906776 -0.652568268959257 0.5661758851620502 0.09857275227461838
1.683140432098864 0.21323107662844093 -1.5314855735105861 1.0457684766135336 -0.9531443252666547 2.127445152023286 0.3448982850277503 1.1232447127741776
-2.2329088270541413 0.5155056595928178 0.8461982366664618 0.16098976885551716 0.18363843861657497 0.2669555834312812 -0.6045789856203359 0.3122362622425178
0.40646036859470314 -0.41177397970187163 0.22094781425060428
