Code/Models/run_20251101_014640/model_hidden_4_width_8_act_RELU.npz (npz, 3130 bytes, 5 tensors)

w0 f8 [2, 8]
00000000: 9385 cc9b 0e23 10c0 0af5 494f 3c0b fb3f
00000010: 2a3b 67b2 ace5 12c0 b10c 0d6e c878 e53f
00000020: 697e 54c5 4dc9 0dc0 aada 70b8 f918 13c0
00000030: 8f29 d3b3 f672 0c40 0e4c 3a7a 0084 0940
00000040: 979d 68f5 0000 e2bf fce3 1ae3 912b b5bf
00000050: c78a 1ae9 27bb d6bf ae96 dd27 5a98 e3bf
00000060: e16a 0d6b 6488 a1bf 548a 80bc bce9 d33f
00000070: a9fe da7a cc59 d7bf 6065 dab8 49f7 d5bf
-4.034235414846438 1.6902430627081366 -4.724291598845221 0.6709940099175552 -3.723292867318197 -4.774390108001777 3.5561346100632316 3.1894540356675014
-0.5625004571092401 -0.08269607348019287 -0.35517308963805444 -0.6123476770996683 -0.034243715351029776 0.31114118965539217 -0.36485588071443914 -0.34321826030789815

w1 f8 [9, 8]
00000000: 210e c775 aefe e4bf 79b7 1ebb 46c2 eebf
00000010: 7037 0e26 359a 0f40 e56b 9fa0 4638 713f
00000020: bc4c 7323 ae68 08c0 87ff 5709 7439 10c0
00000030: f071 818f a0b3 0740 5b2d 162f 3ac9 e43f
00000040: f0ef db61 19e1 f3bf 556f 7e9b 085b f2bf
00000050: 556a 8264 b25c d7bf 88c5 d99c eb49 f53f
00000060: 6594 ed96 8bcc eebf 9863 00c7 1efe e23f
00000070: 2fbf 44a7 91e3 fabf d89d b2a4 7741 f0bf
00000080: 7701 98ee ba03 d9bf 6306 3198 7f14 d43f
00000090: a2b7 f4bf 7231 a0bf c2b6 6292 9b2f ebbf
000000a0: f45e bb7f fd06 0440 bd35 cb87 5996 b7bf
000000b0: a308 ace8 a915 f03f f2db 7df9 131e f3bf
000000c0: 84c0 ec93 bc16 f3bf 7406 65f3 653a f2bf
000000d0: 5aab 2d3b 6104 febf 9932 7662 1dc9 ecbf
000000e0: 1f58 2f30 0c2d ddbf 364e b098 92e7 0640
000000f0: bae7 7f77 eddb dd3f 6174 64d1 77ba fbbf
00000100: aed1 d1d4 270b f0bf 13b7 a181 fd32 f0bf
00000110: f93a c295 cc6e e23f 7cf2 b54e 33f8 f3bf
00000120: 0664 5a4b d205 a4bf fdf4 fc1c 7153 f43f
00000130: 5992 b14c 1b0a 03c0 9511 3805 8ba8 dc3f
00000140: 11b9 7861 6e25 dfbf 8b8b 313c d430 cf3f
00000150: 237c 5c61 2b3b b7bf daa7 51df 4597 eb3f
00000160: 32e3 4c49 451b f7bf 7c1a 6c0c 8504 fc3f
00000170: ea14 fb23 8db5 e1bf d13c 817e 28d6 f03f
00000180: 62ed 2c64 e99e 04c0 ef05 3e9c 346a cfbf
00000190: 6e75 1dc8 ff85 f4bf 8404 439c 286d f0bf
000001a0: 28ce 1a00 07bf e13f c8d7 d5d3 bbed d83f
000001b0: 4458 86a2 50b9 f0bf 361d 0ad1 41d4 bd3f
000001c0: 9bd5 aee1 d367 f83f 8140 09b6 ec19 98bf
000001d0: 28c7 cccd 1cb8 c03f 4aca 5f4e 72ee c2bf
000001e0: 9793 fc22 19f0 eebf a92c 1d69 5ccd d43f
000001f0: 7c55 1ca1 e9f9 dc3f 0302 145f 04a4 08c0
00000200: 1a6a 7e37 9413 df3f 3443 e2c0 87ae f4bf
00000210: 0209 d5cc d3f2 e63f 7dc7 997a 0c5f f5bf
00000220: ac2c bd8d 6764 e8bf d7a8 bee7 9984 e1bf
00000230: f7e5 1bd9 7650 c23f b66d 5a8a 800d e03f
-0.6560890484183269 -0.9612153677642105 3.950296685513358 0.00420405949440814 -3.0511133927880945 -4.05610670661543 2.9627085887316227 0.6495638770733579
-1.2424558470365774 -1.1472250055293973 -0.36503276648878585 1.330546963403636 -0.9624689052403822 0.5935205351589614 -1.6805588277747565 -1.0159832414154746
-0.39085267353222924 0.31375112402392896 -0.03162726014339447 -0.8495614871114514 2.5034131983810486 -0.09213790478971524 1.0052889908552423 -1.1948432679907879
-1.1930509355843535 -1.1392573840716098 -1.8760692893653954 -0.8995501444893136 -0.4558744879299201 2.863072579269807 0.4665483157146998 -1.7330244235411316
-1.0027235329881523 -1.0124487937677642 0.5760252881026126 -1.2480958056104603 -0.03910691423261174 1.2703715450618909 -2.379934882325227 0.44778705129308466
-0.4866596176024283 0.243677644149184 -0.09074660422309981 0.8622159349154075 -1.444157873467884 1.751103447460678 -0.5534120276212466 1.052284711989888
-2.577593596097061 -0.24542863492028696 -1.282714635562424 -1.0266500572181778 0.5545687677426416 0.38951011359256116 -1.0452429150223148 0.11652003625396365
1.5253485503902542 -0.023536394701580313 0.13061866806816025 -0.14790180994858054 -0.9668088610966262 0.3250342394355337 0.4527534554811934 -3.0800864627819933
0.48557000560109176 -1.292609933331005 0.7171420097950263 -1.335705260189996 -0.7622564094866866 -0.5474366689934652 0.14308057404541305 0.501648206921735

w2 f8 [9, 8]
00000000: 60bd 196d c9df 0b40 f04e 0434 55b9 6d3f
00000010: 020f 6c35 aa2d 1240 9f21 8549 e9f1 13c0
00000020: 4f43 71a1 5af9 1640 23e3 0051 d0ad 12c0
00000030: 084c b131 8924 07c0 b040 56d7 a129 0c40
00000040: 533b c754 6252 fd3f 2384 3d87 ce68 ebbf
00000050: 24dc 23c4 f58e fdbf c3db 87a5 64cf ea3f
00000060: 4ce4 6580 243d f53f 1993 c0e1 261b d9bf
00000070: be40 3467 5f70 0ac0 6857 05e7 fd54 00c0
00000080: 16cb 7582 6c73 7f3f 36d7 07e2 8bcd e0bf
00000090: 03ed 67e9 c02f fc3f 1fc5 730e 0754 d3bf
000000a0: 7867 e18a 990b d13f 7b28 0a43 613a 0240
000000b0: 246c b0d7 1ecd d63f 111a ab38 c274 e43f
000000c0: 9afd 7054 c137 f13f bed8 3e6a 824d f9bf
000000d0: 63d3 30da 4638 f63f dea5 536a 8fcd 09c0
000000e0: 3732 67db 3523 f83f d365 4ce3 4237 d4bf
000000f0: 7909 50c2 cf97 e53f 08b7 a2a4 4f77 f73f
00000100: a3f5 8d80 d955 f2bf 0d24 7966 3baa a43f
00000110: 4422 8b4c 35f4 b83f 7aea 13d8 3888 b0bf
00000120: 5c19 0685 b34c c8bf 7194 a167 bbb3 d4bf
00000130: 5570 f546 c4ac d4bf 8766 9c6f a8f2 e6bf
00000140: 3167 52f0 9c09 ebbf 6d98 84bb ae2b fabf
00000150: 014a 79f9 36da c63f 58c0 5166 373b f93f
00000160: 32db 2a50 f2ee ddbf 28b2 59b3 4978 d2bf
00000170: f3e3 bc32 65dd f13f cca0 ab58 2c4d 07c0
00000180: 4725 5bef 4919 eabf b8a5 c0cc 29b4 f2bf
00000190: 486d cadb ff46 f0bf 5847 7906 6431 c13f
000001a0: e4eb d8c1 d4f0 febf 44b7 ce8d 21fc d13f
000001b0: 9130 6f57 3f70 e3bf 5c2d 5c81 d84b c0bf
000001c0: 25e2 59aa c1da e03f f292 283a ce20 e63f
000001d0: 5b57 1b19 bf73 dbbf 3a3e ae52 29e0 f33f
000001e0: 26b9 09bd f5be f63f 56ad be4d f61f d33f
000001f0: ddb3 8365 c611 eb3f 7123 84a3 679a ee3f
00000200: 9183 6f99 e2ff f2bf 78f6 d675 5f31 a1bf
00000210: 2ab2 1a43 dfbf debf 64c1 469e 120a ec3f
00000220: 8fb6 e050 65ee 00c0 923a 0063 d0bf d3bf
00000230: a224 e65a 160f 0440 f686 9e89 80b5 dfbf
3.4842709086876056 0.0036284126400775094 4.544594607086539 -4.986241482496921 5.743509790933628 -4.669739976576952 -2.8928398020011663 3.5203282187649947
1.8326133071565962 -0.856543792859274 -1.8474023496362486 0.8378165467282702 1.3274273887202694 -0.39228221937291746 -3.304869467050678 -2.0414999054436755
0.0076784361511837065 -0.5250911154423423 1.7616585843487094 -0.3020036355147386 0.26633299410388345 2.278505824801923 0.35626956046479763 0.6392527682117494
1.0761121080866816 -1.5814232015814436 1.3887394450259414 -3.2253711993005103 1.5085962839540465 -0.31587288090812854 0.6747816844147528 1.4666286879614194
-1.1459593793546012 0.04036126733678467 0.09747632139909351 -0.06457858348213988 -0.18984073634437493 -0.32346997375709124 -0.32304484300198527 -0.7171213321591531
-0.8449234670435769 -1.6356646847648577 0.17853438550316983 1.5769571301316514 -0.4677091391453586 -0.28859179033932714 1.1165515882441894 -2.9126822402359718
-0.8155870127604111 -1.1689851759095813 -1.0173338494849578 0.13431978527165245 -1.9337966510927282 0.28101385925662137 -0.6074520786001064 -0.12731462780389335
0.5267036750001962 0.6915045867832232 -0.4289396042998896 1.2422269086563476 1.4216210731788776 0.29882581321972645 0.8459197981552468 0.956348246924888
-1.1874719613626648 -0.033579810271004484 -0.48046094468262146 0.8762295810065948 -2.1164041822983743 -0.30858239810997035 2.5073668576702213 -0.4954530090272863

w3 f8 [9, 8]
00000000: 8f3c 6c1f d5a5 0940 117e 00ab 586a f7bf
00000010: 2f04 b24b 6507 1540 f1ac 2526 9b14 efbf
00000020: 2b66 5df7 59e2 0740 b760 6a4e 070c 1d40
00000030: 45b6 8c26 8d88 c0bf 3b0a 1e23 26cb 0440
00000040: dfc9 45c0 dbab e0bf a275 35a2 93d3 9d3f
00000050: 13e8 900f 9279 cdbf b2f5 a07e 0649 dbbf
00000060: f594 dea7 d08c bb3f f7ee 22fe a24e f2bf
00000070: a82b 4a67 ee3b e13f 1584 4a4f d783 f13f
00000080: 03e0 4314 a34c eb3f 57aa b244 a2f8 e13f
00000090: a691 9bc8 743d f6bf b3d2 4615 edda c03f
000000a0: 1bc1 b578 07a7 dbbf 5623 f388 d474 febf
000000b0: 36dd a816 ede6 dd3f 46df 1432 9374 e3bf
000000c0: f7f9 4114 052c f43f 20b8 04be c41e debf
000000d0: e6d1 fc22 a8d1 d03f 8d97 3670 6c26 efbf
000000e0: 4c33 c04a b289 fabf 0272 40b4 dbf6 c13f
000000f0: 77b2 0cd6 908f f13f ab4f 7fc5 5889 c6bf
00000100: 2145 5cb0 c85b f8bf 423c 2a66 d54e e33f
00000110: bc72 2324 f2cc e0bf 9b28 adac 0b80 ab3f
00000120: cf0a e94b e683 03c0 4268 9d7e fbc9 04c0
00000130: 7ccb 04ce 68c8 e3bf 4db4 4db7 8306 e8bf
00000140: 029e e7f2 b642 c43f b6fb 1535 a32d d1bf
00000150: 0caa 1e42 4311 f73f 07f7 f58d e5c6 00c0
00000160: 0379 e014 feae 0240 23e5 466a 8e09 f13f
00000170: a822 9f46 36e5 f5bf 4856 5bb8 b85d f5bf
00000180: 42e2 b687 cae2 f8bf 6c9c 1e96 4cd5 dabf
00000190: 70d4 f8ef 4d89 6cbf e5e3 ef67 5c97 e4bf
000001a0: 177f 66c3 6a48 c93f f4cd aa2c 7c17 09c0
000001b0: 0e64 8444 c68c eabf ec7b c1d7 c8ee edbf
000001c0: 2d49 1cb8 9d5e f23f b9ca 4350 3e58 d7bf
000001d0: d165 919c 3442 923f 7045 8bfd e516 07c0
000001e0: f8e5 0bc4 0209 03c0 fce1 987b d7fd f3bf
000001f0: 086a 2e47 55bc 01c0 5dbe d1a6 3520 e23f
00000200: e2eb d376 d64b e6bf 1e73 ffc7 0677 af3f
00000210: 22de ff0e 8860 e73f 95d8 7c0f ede9 d8bf
00000220: b728 485e 986d e63f b9ac ecbb 6fec c13f
00000230: f20c dcb2 1293 c1bf 6164 82a0 5c4f d53f
3.205972905626886 -1.4634634666216508 5.2572223498728325 -0.9712653870641629 2.985523159539999 7.261746621363435 -0.1291672170859092 2.5991938346426458
-0.5209788089107937 0.029127413535538722 -0.23027253875790218 -0.42633211484993716 0.1076174173200178 -1.1441984107213423 0.5385658280732644 1.0946877572353106
0.853105105953546 0.5616008130794609 -1.3900039516675888 0.13168109454058693 -0.432069652443731 -1.9035230016326827 0.46721961224416775 -0.6079803445963783
1.2607470313374713 -0.47062796169746157 0.2627964345622601 -0.9734403793015517 -1.658617298121686 0.14034601498941873 1.097550235873454 -0.1760664905874568
-1.5224081887320795 0.6033732409868053 -0.52501780565543 0.05371128542772504 -2.439404099511513 -2.5986242191111453 -0.6182140373042411 -0.7507952289721601
0.15828596935828904 -0.2684104936997146 1.4417145331195824 -2.0971175280273004 2.3354455595973618 1.0648330832903603 -1.3684599646241313 -1.3353812409817625
-1.5553689290374142 -0.41926874790301016 -0.003483440610376358 -0.6434766798039361 0.19752249280008335 -3.1364673127770804 -0.8296843851304645 -0.9353985036831296
1.1480996314827039 -0.3647609504543357 0.017830678993368047 -2.8861808593871316 -2.379399806607349 -1.249473078538471 -2.216959529975842 0.5664318330945651
-0.6967575379234143 0.06145497504596718 0.7305336277922303 -0.3892777110335229 0.700878318924217 0.14002796817780963 -0.1373008130395657 0.332968861339003

w4 f8 [9, 1]
00000000: 624e 8690 0841 1440 ef3c cbc7 6e2c cebf
00000010: ea19 c37a dcc5 e0bf 4a26 b4f6 dab5 f13f
00000020: 08bc 15e5 ee1c ddbf 4856 7f4c df9d d23f
00000030: 26d0 bbeb 1563 ed3f 5ef2 348f a4d0 f43f
00000040: 0365 5f7d a2c8 ed3f
5.063509233662986 -0.23573097949563457 -0.5241529843995612 1.1068982731689112 -0.4548909413487654 0.29088575811815476 0.9183454136059523 1.3009381860748799
0.9307415436443595
