Code/Models/run_20251101_014640/model_hidden_2_width_38_act_LRELU.npz (npz, 13506 bytes, 3 tensors)

w0 f8 [2, 38]
0	0xbff24e64f8f5a98e	-1.144139263628492
1	0xbffabfb99fd0c7ce	-1.6718078844828486
2	0xc00da0931f8bde31	-3.7034056152877146
3	0xbfe63e7b90659ded	-0.6951272793057207
4	0x401fdcb2437716f0	7.965523771423008
5	0xbff9206cc081fe2e	-1.5704162139735547
6	0xc00f621543c581b8	-3.922892121758391
7	0xc01433c183bf5398	-5.050542887261052
8	0xc000a3d2e1b85f5f	-2.079992068709472
9	0xc0116aaeafbb5a20	-4.354182000932752
10	0xbff4dadafb64d3fd	-1.3034314937660831
11	0xc01b541128d5ddb5	-6.8320967083486055
12	0xc017cd6144a83e22	-5.950566361206741
13	0xc009ee617373e113	-3.24139681050668
14	0xbff495ef7f7acc41	-1.2866053561854331
15	0xc000aaec65e64a25	-2.0834587059882943
16	0x3fe8fd8681cc5596	0.7809479270096513
17	0xc0009221bbb34a33	-2.0713534034814756
18	0xc01ec85cd01f4735	-7.695666553410594
19	0xc00fe0b602678b68	-3.9847221553658763
20	0xc00cf717c6bc9c37	-3.6206508184727926
21	0xc0042e08acd40d21	-2.52247748396043
22	0xc00ba3e0d686a340	-3.4550186881864704
23	0xc0080fcfc2b2f312	-3.0077204905377437
24	0xc0015891b3489987	-2.1682466513186145
25	0xc003131be0293198	-2.384330512292035
26	0xc0090413ed8b0b4e	-3.1269911344583425
27	0xc0150d51fa8ae002	-5.263008036352405
28	0xc003c1036ad01343	-2.4692447991132283
29	0xc00c1f2be6b0b7c9	-3.5152204535179163
30	0xc00802296896d865	-3.001055543044503
31	0xbff0c08b629b1a49	-1.0470079280654707
32	0xc01075f0c2f7bf51	-4.115176245089814
33	0x3feaab6229847668	0.8334208308112467
34	0xbff4a36b4af1237a	-1.2898972442073657
35	0xc008271fe20027bb	-3.019103780393349
36	0xc010f4a7fb096e36	-4.238922045183747
37	0xc00c2c93dad8791f	-3.521766385775791
38	0x3f5d53140843033f	0.00178982692982306
39	0xbfce63270fcdfe0d	-0.23740089675628476
40	0xbf85d2b6bdf70037	-0.010655810997263966
41	0x3f764e3aa373e1ea	0.005445698792066337
42	0x3fbae6e409a1ed53	0.10508561358613137
43	0x3f80b01ffa95d87e	0.0081484316203666
44	0x3fa2a9c2e2857cde	0.0364514256968904
45	0x3fcedb9d7d6b8317	0.2410771238710587
46	0x3fe6b199160ec790	0.7091794424834337
47	0x3fbfc721c0170dbf	0.12413226070116588
48	0xbf8052bb687de61e	-0.007970298887573665
49	0x3fd35b70d78efed2	0.3024561028541771
50	0x3fc7edc4d027eb1b	0.18694362796653582
51	0xbf91c8ccab750466	-0.017367551770125188
52	0x3f76918daf6623ad	0.005509904344202105
53	0x3f8af34c04759a34	0.013159364591683965
54	0xbfb4c82e931d69aa	-0.08117953387901503
55	0x3f8d49a18238ac77	0.01430059603361243
56	0x3fcde5968f4c45dc	0.23356897351236128
57	0x3fa416c64ecadece	0.03923625671217011
58	0x3f800aea19f2c3e8	0.007833317677382781
59	0xbfc639088bfff082	-0.17361552081991155
60	0xbf707e6c659551f2	-0.004026816773450724
61	0xbf842ed48e8b254a	-0.009854946708758878
62	0xbf9012c001038e21	-0.015696525632746487
63	0xbf875901f02b95cb	-0.011400237218775275
64	0x3f339ab0daa9217e	0.00029913728454691163
65	0x3fc368c83843bda4	0.151635196183162
66	0x3f775753d0ef2092	0.005698516280013293
67	0xbf8e8f6bc2ed60f5	-0.014921991239746005
68	0xbf839bb64ffb111f	-0.009574341121500183
69	0xbf81f0015245df63	-0.00875855476691329
70	0xbfabb07532cf08de	-0.054080641224133905
71	0xbf992c2fd0ffd252	-0.02458262169962417
72	0xbf7122ba524e6900	-0.0041835096534674765
73	0xbf8498c4f4f42c1c	-0.010057009435078305
74	0x3f90dd59e1d0844d	0.016469387443184314
75	0x3fc8ad2c27c20a66	0.19278480473811327

w1 f8 [39, 38]
0	0xc018ea201f0eedc4	-6.228638158117466
1	0xbfe97a402616618b	-0.7961731666464841
2	0xc00221c076d2b6d1	-2.2664803774885987
3	0xc00067f87e602998	-2.050766932782789
4	0xbffc8b7d6784acbc	-1.7840551418001231
5	0x400a9ef9938c1aa4	3.327624466622483
6	0xbfd89072d135c155	-0.38381643705999596
7	0xc00cba22e41905e4	-3.590886861814157
8	0x3ff5276b3964759a	1.3221237413302789
9	0xbffccf2985c84705	-1.8005767084000024
10	0xc019f25e5d863210	-6.486688100162169
11	0xbff54a685aae9b6c	-1.330665926195901
12	0x400f6812d6fa7fbd	3.925817183990118
13	0xc00ca86550901c4e	-3.5822244924525313
14	0xbffd3f736608123f	-1.8279909120184497
15	0xc01ae115aee73229	-6.719809277402001
16	0xc012dfd6a958c8bc	-4.718592306179001
17	0xc014a1f847a526c3	-5.158173675017397
18	0x4016102af5721b9b	5.515788874711599
19	0x40162532d0ff2bb6	5.536326661657702
20	0xc00100b6f42dd714	-2.1253489567269614
21	0x401349bf6d85f6e7	4.8220193017020625
22	0x3fe90c15957bc8ea	0.7827251357651026
23	0x3ffb7b0d8443ed3e	1.7175421873678967
24	0x40171804c6a623be	5.773455718889577
25	0x400235135d6a0b56	2.2759158418643137
26	0x3ff30fcec7417997	1.1913593085697352
27	0xc01a9e7db60fedf9	-6.654776425096764
28	0xbff14fdaee81f2ae	-1.0819958988860594
29	0xc00f1afe43740f82	-3.8881802816194417
30	0xbfebe4189f3bf5a4	-0.8715937719386386
31	0x40082686b166ae4b	3.018811593957968
32	0xc003ec3986af3b43	-2.490344097349778
33	0x40056b014b8723d0	2.677248563825266
34	0xc004283095754c18	-2.519623916284683
35	0x3fea84e288906a99	0.8287213008182618
36	0xc0074b27189f994a	-2.91169566380555
37	0xbff968c4ce7a2447	-1.588078314353213
38	0x3fc1d568173653ce	0.13932515271576879
39	0xbffde5f1829843ef	-1.8686385251387454
40	0xbff3b7b8ccc0db1e	-1.2323539732148627
41	0xc009389b061fe32c	-3.1526394346696147
42	0xc006b9fa3b461ff9	-2.8408093100333613
43	0x3f949bd87a31e94f	0.020125753839672907
44	0xbfe2a52fc75c9397	-0.5826643842489031
45	0xbff588cdd7e2754c	-1.3458994324676778
46	0x3fdd905b8c1a3e76	0.46193588907133376
47	0xbff7150b194308a3	-1.4426375376502072
48	0x3fed50b70a5505a6	0.9161029054450196
49	0xbfe15a78e0fa8770	-0.5422939676393366
50	0x3fc9dc09ae7dd062	0.20202752132502427
51	0x3faf0110b0b8c36f	0.06055500180480677
52	0xbff55591f0b5e701	-1.3333911326175782
53	0xbffc450997bc55fe	-1.7668548514533309
54	0xbff9c5fc10f0bbf0	-1.6108360921605218
55	0x3f997bc66416ce21	0.02488622651953965
56	0x3fe4641388026d27	0.6372163444934004
57	0xbfd704a705c20707	-0.3596589618901906
58	0xbff8e4c99a911a0b	-1.5558563268438117
59	0xbfb70ec292c66f71	-0.09006897052171127
60	0x3ff821542e44a934	1.5081369216300802
61	0x3fd2bd04d8ed9675	0.2927868002355816
62	0xbfe40cf0c68f650e	-0.6265796545150424
63	0x3ff0834898174510	1.0320516530085264
64	0xbfe2d2765226ac89	-0.5881911854279603
65	0x3ff84f59703b1e06	1.5193724044819432
66	0xbff945e89dbb355d	-1.5795675431612246
67	0x3ff565e91e2673f0	1.3373805215589947
68	0x3fab044c0048e4c6	0.05276715758777466
69	0x3f82ba6b2bd44b91	0.009144627833426873
70	0xbffcac8cf150c623	-1.7921266008746748
71	0x3fb1d8a43f267e2c	0.06971193830258277
72	0x3fd3f8d61d4a9a3e	0.31206276760568474
73	0x3fcaf07e2cdc8cf4	0.21046426001075924
74	0x3fe7636d0d99052d	0.7308869615154997
75	0xc01041092c1f436a	-4.063511552246249
76	0x3fdf60c9dcb6cf5c	0.4902825026904247
77	0xc00a684eaf0c09ce	-3.3009313273953245
78	0xc004aefb59b7ca0c	-2.58544035045748
79	0xc00f1da99fc2100a	-3.8894836884592268
80	0xc004b44d1c674ec6	-2.5880377024676333
81	0xbfe36a1258c4d9fc	-0.606698201538904
82	0x40000b2e4b0cf399	2.005459390957594
83	0xc00eb7cf104029e4	-3.8397504109936893
84	0x3fe8d5b19703772d	0.7760856580241345
85	0xc00205cf02f7943b	-2.2528362495236514
86	0x3fd992ab47a86ce4	0.39957696912615703
87	0x3fa19acf02c9ce09	0.034384221163147606
88	0xbff3f39851087015	-1.2469714322423944
89	0xbfe73d0bd931a5e8	-0.7262019388264749
90	0xc005dd8bc2cf84db	-2.7331767291621936
91	0xc005d241beb2807c	-2.727664460966535
92	0xbfedd97177e1bc26	-0.9327933637085877
93	0xbff1a96b74138a6f	-1.1038622411948855
94	0xbff2eef090be119c	-1.1833348897936053
95	0xbfe8fb4a34999e8a	-0.7806750323624823
96	0xbff9d1efd7e8f876	-1.613754123114203
97	0xc00af94ac7911843	-3.3717246619371806
98	0xc0042258d579f263	-2.5167709997024743
99	0xbfb58fb754554054	-0.08422418412124105
100	0xbffdb0293722dcb4	-1.8555080560452497
101	0x40024f03de75f587	2.2885815982578523
102	0x3ff37e3dd029eff6	1.2183206683539516
103	0x3fb5a5aaa9604aec	0.08455912242088076
104	0xbfe156f154050ab2	-0.5418631211290033
105	0xbf925ae91ad98b4c	-0.01792492128732741
106	0xbffccb385efac1a8	-1.7996143064629937
107	0xbff28472056eaca7	-1.1573353016090466
108	0xbfefee7a85ee2940	-0.9978611579729559
109	0xbfd1bc402d95015e	-0.27711491061565663
110	0xc0032254bcd796dd	-2.391763186768783
111	0xbfec3bd5ec330e60	-0.8823041547079349
112	0xbff15ac2e6b71492	-1.0846585285483212
113	0xc010211d6e50d488	-4.032338832553371
114	0x3ff5120a86e6c4bb	1.3169045705401874
115	0x3ff0a2dd36f9507a	1.0397617480676034
116	0xbfb2df60a367c9fd	-0.07372097005262641
117	0x3fcf9f812e942281	0.24705519461010186
118	0xbff11dae9c958bd1	-1.0697466007775243
119	0xbfc58c29e50b90d0	-0.1683399551758442
120	0x3f97e97321340843	0.023351477529111497
121	0xbfe2f59a78e14808	-0.5924808846414189
122	0x3fe4d883463032a8	0.6514297839035708
123	0xbff18e3178ff8be1	-1.0972151495450293
124	0xbfe2a44058086157	-0.5825502128018724
125	0x3fefded62064282a	0.9959517128602375
126	0x3feeef138c3c6cfd	0.9666841258034818
127	0xbfc38d0ddb10c327	-0.15274213024670155
128	0xbfc15a1cf3618c66	-0.1355625332244898
129	0xc005b6da0f6afa1e	-2.714283104374103
130	0xbff41945fe5dce49	-1.256170266741622
131	0xbfe3e33b7a12ded2	-0.6214883217098424
132	0xbff4ddb1cc7ea127	-1.3041246402809266
133	0x40040331695abaf7	2.5015590887845707
134	0xbfe4b4e16eb23124	-0.6470801507980792
135	0x3fd3bdfa2eaee4ee	0.3084702926531254
136	0xbfe7be0db17d9f0b	-0.741949888860263
137	0xbfc030a461493d93	-0.12648443937585493
138	0x400017cbd3a4b5d3	2.011619237388666
139	0xbfc509457181d351	-0.1643454364999806
140	0x3fca5bd0af6c116f	0.20592697682890157
141	0xbfdd19efc8855406	-0.4547080476962154
142	0x3fefb13379473c89	0.9903809899059449
143	0x3fed1aab5ceb7ff0	0.9095055403558927
144	0xbfe6a836ad9a2d7e	-0.7080338850659442
145	0xbfc2802689027857	-0.14453584375309234
146	0x3fe4dc9f30c277bc	0.6519313766800603
147	0xbfe1e0c7dfc18928	-0.5586890573725087
148	0xbffd228fc4baa15c	-1.820937889549973
149	0x3ff9f988aea4c27f	1.623421365930113
150	0xbfc325872b491016	-0.14958276380105023
151	0x3fe0a4cd28d6dbec	0.5201173589365431
152	0xbfe3a81c73611880	-0.6142713788510861
153	0xbfd7a48c7084f17b	-0.3694182490178474
154	0xbfe520a08516a9f0	-0.6602327918420183
155	0x3fd453ee6152944b	0.31762275222928754
156	0x3ffc97f9aa615109	1.787103333995278
157	0x3fcb9503ecd23c43	0.21548508704697342
158	0x3fdc47e58d37c365	0.44188822546771284
159	0xbfe7d58252aa3006	-0.7448131193682463
160	0x3fdc8335c33de4e2	0.44550842348651376
161	0x3fea6527539cd012	0.8248478539521804
162	0xbfde7f1b2208454c	-0.4765079338404419
163	0x3ffc0fcd742cf06c	1.7538580453974886
164	0xbfcc470b8510c8d4	-0.22091812131254207
165	0xc00008d3365e0d62	-2.004309105630157
166	0x3fe7a6dc1b601058	0.7391186270401802
167	0xbfab987f5fc4d73c	-0.053897839012661625
168	0xbfa57bda4407310d	-0.041960545353136515
169	0xbff28d9a16a9cabf	-1.1595707783969116
170	0xbff6e8a7047425a4	-1.4317999052021628
171	0x3fe0ea03e14503af	0.528566303233779
172	0x3fd47c721090ab7e	0.32009555452048477
173	0xbfe614f8a22b33c3	-0.6900599639280859
174	0x3fe6826fb1b7b2e1	0.7034224005743362
175	0x3feba061c5c1c997	0.8633278715554294
176	0xbfe94855b73bbb26	-0.7900799349571102
177	0xbff553943653460b	-1.3329050180512947
178	0xbfda896f615d8e4e	-0.4146383715471743
179	0x3fd60cb0c73f1240	0.34452456910756624
180	0x3fae9968d74181a2	0.059764171863892615
181	0x3fea38be7545ddb3	0.8194267549978832
182	0xc00067d0a3b4589e	-2.0506909169590264
183	0xbfb33e2819c9dd2b	-0.07516718511202629
184	0xbfd5865d5cbb657f	-0.3363259702287777
185	0xbfeffec6f60796b9	-0.9998507313982464
186	0xbfc45796f70e46b8	-0.15892302573461392
187	0xbfd1ff7f512cca84	-0.28121931960337343
188	0x3fd29446287175b6	0.29029993009120447
189	0xbff35a7186069fbf	-1.209580920733046
190	0xbfebba1661f6fe79	-0.8664657510161781
191	0xc002a3829b617608	-2.3298389567487483
192	0xbff08f941ebbd500	-1.0350533676658529
193	0xbfe092246e3e168e	-0.5178396371054121
194	0xbff2802090d2ea4f	-1.156281057089149
195	0xbff0157827d9b320	-1.005241542497238
196	0xc000483b59757ffe	-2.0352694500907083
197	0x3fe6c7d9c3e46982	0.7118958307285512
198	0xc003549c68e24173	-2.4163139528320072
199	0xbffeaae92dc2fce0	-1.916726282841232
200	0x3ff560be6c1ec176	1.3361191008990239
201	0xc00411bc0db551a0	-2.5086594649275895
202	0x400a15ff93285c32	3.2607413765613495
203	0x3fc859e995bd98ce	0.19024390994599688
204	0xbfe6a6f1a200fdea	-0.7078788913858578
205	0xbfe116c49ae31149	-0.5340292954574944
206	0x3fe1ad383dfe9be4	0.5523949824172374
207	0xc000f5030a7d087f	-2.119634706440649
208	0x40005786f4a48d20	2.0427378761975348
209	0x4009d0009a57ab6d	3.226563649940934
210	0x3fb911a42b25454b	0.09792543462142082
211	0x3fd032b31c162370	0.2530944608957304
212	0x3ffc6241a32f2504	1.7739883779889292
213	0xbff6823e1b811ac1	-1.406797511519173
214	0x3fb76bf1de70e5eb	0.0914908569401615
215	0xc0026d55a8b03e97	-2.303386037710719
216	0xbffdf915efa1e55a	-1.8733119354859213
217	0x3fa1c837520a08c6	0.03473065258460077
218	0xc00ca3408e61c092	-3.579712974889909
219	0xbfe138d70b8f3541	-0.5381884790200858
220	0xc0062c824fc39678	-2.771732924610486
221	0xbfd077d93f3e88de	-0.2573149793262369
222	0x3fe0f289f722b730	0.5296068026416147
223	0xbfb6525b64c1ed77	-0.08719416818524005
224	0x3fd49f145e63c292	0.32220944612257896
225	0x3fd3e152e1ebf42a	0.3106276708857104
226	0xc001ba296aaa4800	-2.215899308511325
227	0xc003ee356152b545	-2.491312752090979
228	0xbff4c0200c8bf971	-1.296905564318504
229	0x3fdc04c535ad5d76	0.43779115907587796
230	0xbffec73c8cbaddda	-1.9236417290938932
231	0xbfd511248a418976	-0.329171309486035
232	0x3ff2a933dbde4417	1.1663092220881077
233	0x3fd1cb178661a9db	0.27802074549859207
234	0xbfcfa9caaed90d42	-0.24736913239949315
235	0xbf726d8fb51410a7	-0.004499017102038184
236	0x3fe6f9d17f994f13	0.7179954044499673
237	0xbffa728f4e51436c	-1.652968698432427
238	0xbfdae9fd21759f90	-0.4205315424683187
239	0x3fdc3427cca01a1a	0.4406833170218377
240	0xbfc5bbd333ae527a	-0.16979446433528605
241	0xbff6f50eb67d7045	-1.4348284843936352
242	0xbfbc2d2541c8d1eb	-0.11006386619630575
243	0xbfa5bd2c8cdb713d	-0.042458908266527186
244	0xbfd0ec12780fa5bf	-0.26440870022505786
245	0x3ffecd92b56647e6	1.9251887403411216
246	0x3fe74ff5abf7a683	0.7285107001054744
247	0x3fa514996f1b0793	0.04117278558034267
248	0xbfcad21c7b7ac279	-0.20953708676599428
249	0xbff2dc78a881527f	-1.1788260061486253
250	0xbff7de47de717428	-1.4917677582918802
251	0xbfe3104f522b2040	-0.5957409481861831
252	0xbfcb14b77ab72dbb	-0.21156972400636484
253	0x3ff5496f45b01334	1.3304283830813803
254	0x3ff2c02c699d7d9f	1.1719173551171946
255	0xbfe0f56f320ec2a0	-0.529960248726713

w2 f8 [39, 1]
0	0x401f9d27770176ea	7.903470859016787
1	0xbfda2230cebb41df	-0.40833683193798537
2	0xc008910044cecfb6	-3.0708012939084837
3	0xbff698cd425e55b4	-1.4123051254767747
4	0xc00bda7e41d580ba	-3.4816861289292236
5	0xc00f1b5a5da333d3	-3.8883559527807647
6	0x3fd87a442f689ed4	0.3824625456786468
7	0x3fdfece7e00c0c18	0.4988345802268568
8	0xc00411310d00bf4a	-2.5083943382123026
9	0xbfe1fdca16df5daa	-0.562230152771851
10	0xc00a545500214d4d	-3.2911777506030035
11	0xbfb320af146cfeb3	-0.07471746681857887
12	0x3fd1821e88e662d8	0.273566850367883
13	0x3fd279b3f3404d8e	0.2886781573772276
14	0xbfee54076b6a4693	-0.9477574441863957
15	0xc0072fd85b960aa8	-2.898361888424308
16	0x3f96e171b9e1a382	0.0223443765357021
17	0xbfee04c774ca6a78	-0.9380833893840892
18	0xbfbe1fa50e315c92	-0.11767036053184857
19	0x3fea80e609ebde04	0.8282346910263532
20	0x3ff417e8ce17f071	1.2558372545745693
21	0xbffee8e77d09d0a7	-1.931861389571205
22	0x3ff1434e545d1fee	1.0789321227512079
23	0x3ff206b0d1167e30	1.126633469342675
24	0xbfc0c4f982c02e18	-0.13101118931113898
25	0x3fd51899d9fad9cd	0.32962652480219107
26	0x3fec1349aafe7190	0.8773544635510451
27	0xbffe5e39757da452	-1.89800401587333
28	0xbfdea2bd2f835d69	-0.47868280067401386
29	0xbfecd74840f7c813	-0.9012795704750282
30	0xbfc0a8797ac1f872	-0.13014143461254296
31	0xbff7ecdd011676d4	-1.4953279535761128
32	0x3fd006e1db6925ac	0.2504200594599648
33	0x3fedcbe8b3deeb69	0.9311412346936382
34	0x3fe270934809e084	0.5762421042445713
35	0xc009619c71be9b0d	-3.1726616750996812
36	0x3fdab51f5bee8183	0.41730483987523587
37	0xbfc3c887a90bdd7c	-0.15455718759742954
38	0xc0078a1a7a8f2b8f	-2.9424333167020857
